model/HARQ-IR-NumK=3-PDB=15_model_pd_satisfy.pt (torch, 32654 bytes, 14 tensors)

bias f4 [16]
0.021177731 -0.03841623 -0.15268925 0.04668335 -0.123731695 0.0032165293 -0.1146131 -0.1068537
0.08795055 -0.08265675 -0.07301051 -0.091623016 -0.046758927 -0.12137696 0.016631328 0.039914634
00000000: ec7c ad3c 565a 1dbd 925a 1cbe 0a37 3f3d
00000010: 0b67 fdbd 68cc 523b 46ba eabd 1dd6 dabd
00000020: 6b1f b43d f147 a9bd 8986 95bd d9a4 bbbd
00000030: 4a86 3fbd 7c94 f8bd 6c3e 883c 877d 233d

weight f4 [16, 1]
-0.26230106 0.14676706 -0.41607633 -0.06095671 -0.35125056 0.409217 -0.5751836 -0.3653018
-0.12115365 -0.42993376 0.0591293 -0.6760047 0.5067903 -0.6204497 0.5373015 0.16338907
00000000: 534c 86be 1b4a 163e f507 d5be bead 79bd
00000010: 1dd7 b3be e484 d13e 3b3f 13bf d608 bbbe
00000020: 681f f8bd 4720 dcbe 9131 723d a50e 2dbf
00000030: 02bd 013f cbd5 1ebf 978c 093f 774f 273e

bias f4 [32]
-0.07888191 0.10806083 -0.12198735 -0.08085285 0.22126831 0.28070328 -0.1146399 0.07512255
-0.09114936 -0.21824041 0.14236198 -0.078614675 0.04130611 0.14010662 0.147863 0.0952781
0.014360625 -0.07056661 -0.06991361 -0.12422058 -0.18576631 0.032234177 -0.1107532 -0.086460635
0.29704824 -0.008824584 0.047525905 0.010576737 0.26498622 0.06332682 -0.07097785 -0.016368056
00000000: d78c a1bd ff4e dd3d 81d4 f9bd 2e96 a5bd
00000010: 2994 623e 57b8 8f3e 53c8 eabd dad9 993d
00000020: 84ac babd 6a7a 5fbe 57c7 113e bb00 a1bd
00000030: 9830 293d 1c78 0f3e 6669 173e 2a21 c33d
00000040: d448 6b3c 3a85 90bd de2e 8fbd 5c67 febd
00000050: 8639 3ebe fc07 043d 93d2 e2bd 4612 b1bd
00000060: b516 983e fd94 10bc 86aa 423d 0d4a 2d3c
00000070: 46ac 873e 7eb1 813d d65c 91bd 4d16 86bc

weight f4 [32, 16]
0.21502268 0.29528412 0.3013995 -0.13193297 -0.064831115 0.19303773 -0.078488424 0.18048222
-0.075879306 -0.22360554 0.16601422 0.07248587 0.17900227 0.3694573 0.26544785 0.3603553
-0.0071448 -0.3212572 -0.2824722 -0.2174604 -0.3438013 -0.1959104 -0.36220723 -0.35911596
-0.22493424 -0.38293868 -0.23661707 0.09772695 0.2774074 -0.14219011 -0.12303386 0.16681176
-0.14921479 -0.14206697 0.2533251 -0.31578004 0.0762157 0.3395734 0.098538205 0.12982221
-0.19569297 0.030407729 0.04785911 0.12506409 0.16282178 0.34543252 -0.24038209 0.04333014
-0.16590075 -0.25813878 -0.011732677 -0.3212714 0.26150447 0.06445973 -0.17184892 0.2002603
-0.33298045 -0.11992247 -0.046064194 -0.28142363 -0.20273738 -0.03877315 0.29338184 0.36803767
0.089805156 -0.1607079 -0.3826187 0.22624373 -0.024080731 0.06359291 -0.10429183 -0.43300506
-0.22968642 0.19066253 -0.048480947 -0.1701123 -0.24032001 -0.35017493 0.046549045 -0.17245112
-0.23153217 0.14947334 -0.5567922 0.026395908 -0.44149163 -0.16552715 -0.07701785 0.07350616
-0.23966326 -0.3545197 -0.33542278 -0.39546174 -0.30140495 -0.29403022 0.07587377 -0.3352699
0.37475926 0.18405409 -0.27200276 -0.1223836 0.18867166 -0.11449587 0.03535295 -0.086853094
0.33975208 -0.12492181 0.25626805 0.096752755 0.032460865 0.34982204 -0.10384947 -0.25776953
-0.073938325 0.27575868 -0.28417692 0.081477605 -0.3678157 0.17331547 0.10708293 -0.005908402
0.14271203 -0.02155691 0.18346274 -0.3036741 -0.063176855 0.13310161 0.3390882 0.16633007
-0.17194217 0.1921543 0.010294678 0.0046383506 -0.23188764 -0.14086407 0.33776918 0.13780089
-0.12380861 0.19647565 -0.19192728 0.4103534 -0.38843477 -0.024005435 -0.43031353 -0.2338186
0.16739656 0.42988655 0.14523429 0.3013844 0.14844559 0.29886803 0.37512767 0.3764437
-0.1895617 0.41009063 0.31307518 -0.07268764 -0.078490645 -0.20407772 0.18899113 -0.17696427
0.0971717 0.11343874 -0.37150386 0.07841542 -0.0911275 0.16371582 0.13760088 -0.4137646
0.28856188 0.23342808 0.13604356 -0.38862085 -0.12366752 -0.16796494 -0.08987617 0.19581367
0.1977262 0.21775074 -0.05954706 0.18232386 0.19878998 -0.36128664 -0.27114782 -0.11119916
0.30813473 -0.26123035 -0.3687042 0.26977903 0.12685078 0.36256805 -0.33686957 -0.3327385
0.17675102 0.29646838 0.2043244 0.060625587 0.11018071 0.3237233 -0.23647448 -0.16725205
0.24698922 -0.2493532 -0.20607474 0.2495659 0.10028789 0.10574453 -0.16227612 -0.017232053
0.2672048 -0.21340324 -0.06477582 0.14924732 -0.30916557 0.3414982 -0.24638842 -0.15046914
-0.13585213 -0.29744142 -0.3523727 0.12924683 0.09271614 -0.4012062 -0.23046653 0.34518498
0.07685589 0.14896086 -0.28287786 -0.17838317 -0.12289816 -0.05645863 -0.3142111 -0.040065
-0.005720754 -0.114579394 0.049737383 -0.21226247 0.100066766 0.06117402 -0.17853703 -0.34472528
0.15278013 0.085223086 -0.2191051 0.32900378 -0.19780645 0.23992783 0.13902561 -0.33449298
0.20517327 -0.3638846 -0.19734828 -0.09947695 -0.23703477 0.30487114 -0.07048237 0.13890591
00000000: e82e 5c3e 7b2f 973e 0951 9a3e 7019 07be
00000010: 2dc6 84bd afab 453e 8abe a0bd 55d0 383e
00000020: 9c66 9bbd daf8 64be a2ff 293e 7973 943d
00000030: 5f4c 373e 8229 bd3e c8e8 873e 7d80 b83e
00000040: ed1e eabb d37b a4be 32a0 90be f0ad 5ebe
00000050: b906 b0be bc9c 48be 3a73 b9be 0cde b7be
00000060: 2955 66be 8a10 c4be bf4b 72be 1125 c83d
00000070: 5808 8e3e 499a 11be 2df9 fbbd b4d0 2a3e
00000080: c3cb 18be 017a 11be d4b3 813e ecad a1be
00000090: fa16 9c3d 91dc ad3e 66ce c93d 1df0 043e
000000a0: bd63 48be a119 f93c ea07 443d cd10 003e
000000b0: c1ba 263e 88dc b03e b926 76be f27a 313d
000000c0: e3e1 29be c42a 84be 6a3a 40bc af7d a4be
000000d0: eae3 853e 7703 843d 2af9 2fbe 0911 4d3e
000000e0: 6a7c aabe e999 f5bd cfad 3cbd c216 90be
000000f0: 639a 4fbe 98d0 1ebd 2536 963e 6f6f bc3e
00000100: c4eb b73d 9d90 24be 99e6 c3be 70ac 673e
00000110: f444 c5bc 003d 823d f496 d5bd d7b2 ddbe
00000120: eb32 6bbe 0a3d 433e f593 46bd eb31 2ebe
00000130: 7316 76be 214a b3be 36aa 3e3d 0797 30be
00000140: c516 6dbe 8a0f 193e ef89 0ebf 3b3c d83c
00000150: 310b e2be f37f 29be 89bb 9dbd 668a 963d
00000160: 496a 75be 9b83 b5be 89bc abbe f679 cabe
00000170: c051 9abe 218b 96be b563 9b3d 7fa8 abbe
00000180: 72e0 bf3e ad78 3c3e f243 8bbe 41a4 fabd
00000190: 2533 413e d07c eabd 41ce 103d 09e0 b1bd
000001a0: fcf3 ad3e 02d7 ffbd 9135 833e 4f26 c63d
000001b0: aff5 043d e01b b33e 08af d4bd 5efa 83be
000001c0: fa6c 97bd 3e30 8d3e a37f 91be bbdd a63d
000001d0: 5752 bcbe 9c79 313e 4c4e db3d 459b c1bb
000001e0: 1a23 123e 1e98 b0bc a8dd 3b3e 2c7b 9bbe
000001f0: de62 81bd ca4b 083e f89c ad3e 6e52 2a3e
00000200: 9c11 30be 19c4 443e 02ab 283c 4efd 973b
00000210: f473 6dbe ac3e 10be 15f0 ac3e ad1b 0d3e
00000220: 5e8f fdbd ea30 493e 9688 44be d719 d23e
00000230: ece0 c6be 0ca7 c4bc 0e52 dcbe 256e 6fbe
00000240: 016a 2b3e 171a dc3e 4cb8 143e 0e4f 9a3e
00000250: 1f02 183e 3b05 993e bc10 c03e 3bbd c03e
00000260: 761c 42be 66f7 d13e 644b a03e 42dd 94bd
00000270: b4bf a0bd c0f9 50be e486 413e 1f36 35be
00000280: f501 c73d 9252 e83d c135 bebe 4498 a03d
00000290: 0ea1 babd 1fa5 273e 3fe7 0c3e f4d8 d3be
000002a0: 62be 933e c507 6f3e 014f 0b3e 50f9 c6be
000002b0: 6645 fdbd 00ff 2bbe ff10 b8bd 6183 483e
000002c0: bd78 4a3e 0dfa 5e3e 9ee7 73bd 1bb3 3a3e
000002d0: 9a8f 4b3e 90fa b8be e3d3 8abe 63bc e3bd
000002e0: d6c3 9d3e fcbf 85be ccc6 bcbe 7a20 8a3e
000002f0: 2ce5 013e 85a2 b93e 2b7a acbe b35c aabe
00000300: 38fe 343e b4ca 973e 6a3a 513e 8952 783d
00000310: 6da6 e13d 0fbf a53e 5e26 72be 1f44 2bbe
00000320: beea 7c3e 7256 7fbe 4205 53be 348e 7f3e
00000330: bd63 cd3d 9790 d83d b62b 26be 3c2a 8dbc
00000340: 11cf 883e 6186 5abe 2fa9 84bd 4ad4 183e
00000350: f34a 9ebe dad8 ae3e 3f4d 7cbe 9514 1abe
00000360: d21c 0bbe 3e4a 98be 326a b4be 4859 043e
00000370: f6e1 bd3d e66a cdbe 6bff 6bbe 16bc b03e
00000380: 9f66 9d3d 3289 183e 5ed5 90be 14aa 36be
00000390: 08b2 fbbd 2a41 67bd 47e0 a0be 331b 24bd
000003a0: 2a75 bbbb 9aa8 eabd 6db9 4b3d 555b 59be
000003b0: ceef cc3d 9c91 7a3d 69d2 36be d57f b0be
000003c0: 6572 1c3e 7189 ae3d 165d 60be 2f73 a83e
000003d0: c68d 4abe a4af 753e bb5c 0e3e aa42 abbe
000003e0: f118 523e 154f babe ab15 4abe 92ba cbbd
000003f0: 3eb9 72be 1218 9c3e 1059 90bd 5a3d 0e3e

bias f4 [16]
0.08788665 0.07840228 0.09845182 0.08643649 0.06690913 0.089061216 0.18839176 -0.10993596
0.07481471 0.18722856 0.20954317 -0.1087667 0.14526318 -0.066488326 0.08978778 0.08881615
00000000: eafd b33d 6091 a03d 1ca1 c93d 9d05 b13d
00000010: a707 893d ba65 b63d c5e9 403e 1b26 e1bd
00000020: 7438 993d d8b8 3f3e 7c92 563e 13c1 debd
00000030: dfbf 143e 082b 88bd a8e2 b73d 3ee5 b53d

weight f4 [16, 32]
0.020183166 0.13384238 -0.19630548 -0.22215483 0.09870477 -0.0012285016 -0.22887479 0.1326189
-0.036007214 -0.28654578 -0.13428473 -0.0828715 -0.3214802 0.07173518 0.052194923 0.23535462
0.0059528104 0.002511474 0.08710567 0.24876082 -0.18563116 0.18970233 0.047733594 -0.27259952
0.14511031 -0.19103092 -0.121486716 -0.18508509 -0.22642592 0.31153223 -0.3519569 0.16202803
-0.33991915 -0.04159749 -0.05700519 0.24178106 -0.116065405 0.13596621 -0.00018467165 0.19382063
-0.013165351 -0.08833276 -0.18373649 -0.27679816 0.29633915 -0.26592115 -0.020087834 -0.025200222
0.33068943 -0.09699129 -0.2772913 -0.107476875 0.16604656 0.12053503 0.25959396 -0.103963464
0.18364148 -0.31390378 0.12745199 0.14758398 0.23843236 -0.17420706 -0.12544471 0.07232358
-0.2756602 -0.2745833 -0.44002295 0.0095080845 0.23604777 0.13768604 -0.07027884 0.109069206
-0.26927486 -0.21273237 -0.024863595 -0.22013983 0.2850728 -0.27787554 0.10483546 -0.28881094
-0.0275719 -0.19294368 0.10924544 -0.21854429 0.20799395 -0.30797175 0.16382332 -0.31081212
0.21421212 -0.1285897 -0.008682321 -0.07981066 0.2451551 0.15131657 -0.35556725 0.019251818
-0.26808336 0.26633948 -0.029232526 -0.10198876 -0.16563793 0.1619884 -0.2780557 0.1520501
0.15449259 -0.015702318 0.12787834 -0.34501457 0.2337776 -0.11834737 -0.058718234 -0.0177022
0.2418825 0.24697797 0.045539662 0.14878781 -0.34773436 -0.020273587 -0.35058308 0.08440522
-0.23069553 -0.10531097 0.23705907 0.32157427 -0.19879584 -0.16385156 0.008610397 0.12444964
-0.076152116 -0.10998989 -0.2963013 0.1434069 0.35400677 -0.1447078 0.13063549 0.16016947
0.2558036 -0.23512314 0.030234355 0.23484357 0.20698397 0.34107083 -0.069321334 0.1535176
0.23375914 -0.2540016 0.06325045 -0.09431406 0.21339856 -0.17659867 -0.0011290585 0.18599512
-0.3130673 -0.28195795 -0.18965751 0.2136617 0.24255373 -0.21826638 0.042064082 -0.19895276
-0.18877146 0.30743065 0.07986963 -0.108176954 0.06809673 0.110151015 0.009839317 -0.13676642
-0.24800706 -0.006453049 0.08802044 0.110812165 -0.15464061 0.16292582 0.3052533 0.23633021
0.07931492 0.32067165 -0.009928099 0.054930285 0.31730142 0.32236278 -0.1890012 0.28099862
0.1537166 -0.0187093 0.29869527 -0.19961692 0.24487501 0.3839699 -0.2804574 -0.22330159
-0.35215303 0.020772584 -0.5113863 -0.06997297 0.13014677 0.36528972 -0.054681093 0.22763985
-0.0009898125 -0.505721 -0.04591269 -0.13993654 0.340545 0.0955461 0.092839785 -0.20334949
-0.15550222 -0.43957153 0.3314809 -0.05541893 -0.3124381 -0.018294495 -0.1381465 -0.19591795
0.16577452 0.18013054 -0.29450756 -0.2592762 -0.0010575893 -0.25266853 -0.4689705 0.33465016
-0.13830979 -0.28330177 -0.1398489 -0.40446866 0.32637867 -0.07418509 0.009401676 -0.37910792
0.31767794 -0.20538802 -0.25148413 0.027235584 -0.26800513 -0.06286957 0.2812116 -0.14604591
-0.08604951 -0.12845708 -0.27787033 0.2081594 -0.08873948 0.36239713 0.06676521 -0.075389616
-0.15713401 0.42082673 -0.3660909 0.09692174 0.14642595 0.16058761 0.31391966 -0.18936451
00000000: 2b57 a53c fa0d 093e 4e04 49be 8e7c 63be
00000010: ba25 ca3d ac05 a1ba 275e 6abe 40cd 073e
00000020: 4d7c 13bd 21b6 92be f081 09be 88b8 a9bd
00000030: 0e99 a4be e5e9 923d 58ca 553d cd00 713e
00000040: cb0f c33b 8b97 243b 7564 b23d 28bb 7e3e
00000050: 1816 3ebe 5441 423e 4d84 433d 2a92 8bbe
00000060: cc97 143e 9c9d 43be 07ce f8bd f286 3dbe
00000070: 32dc 67be 2781 9f3e b233 b4be adea 253e
00000080: e209 aebe 2162 2abd 467e 69bd 7495 773e
00000090: b3b3 edbd ba3a 0b3e 6ba4 41b9 ea78 463e
000000a0: 7cb3 57bc cee7 b4bd 6b25 3cbe 7db8 8dbe
000000b0: c4b9 973e d126 88be 3e8f a4bc b270 cebc
000000c0: 2050 a93e 5fa3 c6bd 20f9 8dbe d61c dcbd
000000d0: 1c08 2a3e 12db f63d 80e9 843e ccea d4bd
000000e0: 830c 3c3e ffb7 a0be c682 023e 4120 173e
000000f0: 9d27 743e 5663 32be 9474 00be 631e 943d
00000100: 5523 8dbe 2f96 8cbe b04a e1be ccc7 1b3c
00000110: 82b6 713e 92fd 0c3e 5aee 8fbd ad5f df3d
00000120: 65de 89be 84d6 59be bdae cbbc 566c 61be
00000130: 10f5 913e b445 8ebe f9b3 d63d 07df 93be
00000140: 77de e1bc 0793 45be 13bc df3d 13ca 5fbe
00000150: 5efc 543e 79ae 9dbe 4dc1 273e c422 9fbe
00000160: 6c5a 5b3e 05ad 03be 4b40 0ebc c573 a3bd
00000170: f009 7b3e bbf2 1a3e e90c b6be fdb5 9d3c
00000180: 3942 89be a65d 883e 0d79 efbc 7cdf d0bd
00000190: fd9c 29be 4ae0 253e 515d 8ebe 05b3 1b3e
000001a0: 4e33 1e3e 26a2 80bc 8af2 023e c0a5 b0be
000001b0: 6563 6f3e 1b60 f2bd 8882 70bd 3404 91bc
000001c0: 0cb0 773e cbe7 7c3e cc87 3a3d d55b 183e
000001d0: 3d0a b2be cb14 a6bc a07f b3be a5dc ac3d
000001e0: 733b 6cbe 47ad d7bd 9dbf 723e 62a5 a43e
000001f0: 2391 4bbe b4c8 27be 9f12 0d3c 74df fe3d
00000200: a4f5 9bbd 6142 e1bd ceb4 97be 42d9 123e
00000210: 6040 b53e 482e 14be 4fc5 053e 7703 243e
00000220: b1f8 823e 1fc4 70be 0aae f73c d57a 703e
00000230: 9bf3 533e d6a0 ae3e 58f8 8dbd b833 1d3e
00000240: 8e5e 6f3e 7f0c 82be 7489 813d bb27 c1bd
00000250: 2785 5a3e 48d6 34be ebfc 93ba 8175 3e3e
00000260: 5b4a a0be cb5c 90be 9435 42be 22ca 5a3e
00000270: 0160 783e 3981 5fbe 634b 2c3d 46ba 4bbe
00000280: 4e4d 41be 8d67 9d3e b092 a33d e18b ddbd
00000290: 4c76 8b3d db96 e13d 1635 213c 7f0c 0cbe
000002a0: 90f5 7dbe 1974 d3bb 0f44 b43d 7df1 e23d
000002b0: 1c5a 1ebe 07d6 263e 294a 9c3e 8c00 723e
000002c0: dc6f a23d 132f a43e 77a9 22bc 94fe 603d
000002d0: 5575 a23e bc0c a53e 8889 41be 0ddf 8f3e
000002e0: e267 1d3e 3f44 99bc 96ee 983e 6168 4cbe
000002f0: 84c0 7a3e b497 c43e 1d98 8fbe 2ca9 64be
00000300: 674d b4be 442b aa3c 36ea 02bf fd4d 8fbd
00000310: 3245 053e 4107 bb3e 48f9 5fbd 6c1a 693e
00000320: 99bc 81ba ee76 01bf f20e 3cbd 864b 0fbe
00000330: ea5b ae3e acad c33d c922 be3d d93a 50be
00000340: f93b 1fbe 850f e1be ddb7 a93e f6fe 62bd
00000350: e3f7 9fbe 56de 95bc 4776 0dbe b79e 48be
00000360: ccc0 293e 2474 383e b2c9 96be dabf 84be
00000370: cf9e 8aba c55d 81be e71c f0be 4457 ab3e
00000380: 15a1 0dbe ee0c 91be 8d34 0fbe 8416 cfbe
00000390: 1b1b a73e 5aee 97bd 7d09 1a3c 6f1a c2be
000003a0: afa6 a23e 3d51 52be 87c2 80be 291d df3c
000003b0: f837 89be c3c1 80bd f8fa 8f3e 0f8d 15be
000003c0: ba3a b0bd 418a 03be 0545 8ebe bd27 553e
000003d0: 0bbd b5bd 1e8c b93e 33bc 883d df65 9abd
000003e0: bde7 20be 9a76 d73e 4470 bbbe e87e c63d
000003f0: aff0 153e 1471 243e 14ba a03e c5e8 41be

bias f4 [2]
0.12378352 0.15129451
00000000: 3782 fd3d f3ec 1a3e

weight f4 [2, 16]
0.48336577 0.13710861 0.5857618 0.37078816 0.13573633 0.24044713 0.2708866 -0.029788654
0.46552166 0.6011742 0.26627102 -0.050064478 0.6315185 -0.53508806 0.45315206 0.31702882
0.41224676 -0.04985948 -0.21159485 0.4087718 -0.2859976 0.21434048 0.44456822 -0.6538567
0.023175487 -0.10502537 0.49864215 -0.3981261 0.5009225 0.2508743 0.36149776 0.573116
00000000: b87b f73e 3366 0c3e 7cf4 153f f2d7 bd3e
00000010: 77fe 0a3e c637 763e a6b1 8a3e 5607 f4bc
00000020: db58 ee3e 8de6 193f ad54 883e 6910 4dbd
00000030: 32ab 213f 88fb 08bf 8c03 e83e 9a51 a23e
00000040: 0212 d33e 7439 4cbd 52ac 58be 8a4a d13e
00000050: 476e 92be 127c 5b3e 729e e33e 2763 27bf
00000060: 85da bd3c 8b17 d7bd 064e ff3e 2fd7 cbbe
00000070: 753c 003f 9972 803e 3c16 b93e bbb7 123f

weight f4 [1, 2]
1.083578 0.27430725
00000000: afb2 8a3f 0072 8c3e

pout f4 [3, 3]
0.5749812 0.30397898 0.076140694 0.5749812 0.09381625 0.009178894 0.5749812 0.1065649
0.011252816
00000000: f831 133f 22a3 9b3e a7ef 9b3d f831 133f
00000010: bc22 c03d 1263 163c f831 133f b33e da3d
00000020: bb5d 383c

throughput f4 [3, 1]
0.983373 1.1874672 1.1759977
00000000: 55be 7b3f edfe 973f 1887 963f

delay f4 [3, 1]
0.101690814 0.08421285 0.08503418
00000000: 4643 d03d c977 ac3d 6626 ae3d

ef1 f4 [3]
0.88161683 -0.03720975 0.051261187
00000000: a4b1 613f 4069 18bd 40f7 513d

ef2 f4 [3, 1]
-20.888811 -22.917856 -22.726643
00000000: 491c a7c1 c557 b7c1 2ad0 b5c1
