model/HARQ-CC-NumK=3-PDB=15_model_pd_satisfy.pt (torch, 25998 bytes, 14 tensors)

bias f4 [16]
0.171159 -0.01308674 -0.12109418 0.038655337 -0.092417374 0.012056558 -0.08324553 -0.07789277
0.059465088 -0.026840702 -0.04407107 -0.063712 -0.021632344 -0.10000749 0.030817654 0.02511641
00000000: 4e44 2f3e c469 56bc 3a00 f8bd 0f55 1e3d
00000010: 5245 bdbd df88 453c a27c aabd 3f86 9fbd
00000020: aa91 733d 08e1 dbbc de83 34bd 707b 82bd
00000030: 5036 b1bc bad0 ccbd 4e75 fc3c eec0 cd3c

weight f4 [16, 1]
-0.14650083 0.14523643 -0.38100973 -0.06175983 -0.3207374 0.4037543 -0.5444069 -0.33866012
-0.13390718 -0.37796003 0.05118423 -0.64684117 0.51476026 -0.5983282 0.5106375 0.10486184
00000000: 5004 16be dcb8 143e b513 c3be e0f7 7cbd
00000010: b137 a4be e2b8 ce3e 405e 0bbf dc64 adbe
00000020: f71e 09be fa83 c1be 8ea6 513d 6297 25bf
00000030: 54c7 033f 092c 19bf 24b9 023f cec1 d63d

bias f4 [32]
-0.05452915 0.07609483 -0.085923135 -0.056988843 0.19898674 0.27855852 -0.076173075 0.056478385
-0.07627193 -0.15435053 0.10466936 -0.069259055 0.035077907 0.1003467 0.03533883 0.072763406
0.01803739 -0.059383444 -0.05503897 -0.022486579 -0.1501059 0.03129525 -0.09153056 -0.078294806
0.27476674 -0.025610186 0.03866243 0.018705033 0.24956796 0.044694576 -0.06196281 -0.007246709
00000000: f559 5fbd 9bd7 9b3d 78f8 afbd 226d 69bd
00000010: 2ec3 4b3e 399f 8e3e a100 9cbd e155 673d
00000020: 7534 9cbd 110e 1ebe e45c d63d b1d7 8dbd
00000030: daad 0f3d 9282 cd3d 73bf 103d fb04 953d
00000040: 26c3 933c 0e3c 73bd 8b70 61bd c635 b8bc
00000050: 5cb5 19be 732f 003d 6074 bbbd 0759 a0bd
00000060: 3aae 8c3e 74cc d1bc 7f5c 1e3d 4c3b 993c
00000070: be8e 7f3e a911 373d b7cc 7dbd cd75 edbb

weight f4 [32, 16]
0.21274608 0.28287885 0.29874587 -0.12369865 -0.06691542 0.17980713 -0.08159475 0.17836644
-0.071570426 -0.22628765 0.1519938 0.069299415 0.16655262 0.36628324 0.25129068 0.34416234
0.0015479467 -0.30826065 -0.27313945 -0.22408928 -0.33523273 -0.18219997 -0.3524322 -0.35056886
-0.22584751 -0.37370777 -0.22172068 0.107590884 0.2903285 -0.13232993 -0.10834162 0.18382768
-0.16141687 -0.15479258 0.24111554 -0.30984697 0.06475405 0.32604083 0.08606352 0.118487485
-0.19579926 0.018371994 0.0321665 0.11251901 0.15038233 0.33288455 -0.25533974 0.023956124
-0.16521952 -0.27469265 -0.011488417 -0.30944407 0.26241398 0.04681032 -0.1722268 0.20106326
-0.32547787 -0.11979406 -0.06414499 -0.2819023 -0.21942237 -0.039230507 0.27461424 0.34699497
0.12061062 -0.15300336 -0.36083403 0.23041677 -0.0024070817 0.0700017 -0.083280675 -0.41165
-0.22127387 0.21250881 -0.037341505 -0.14918038 -0.23385859 -0.32922506 0.053379867 -0.1611414
-0.18594766 0.15560195 -0.53741896 0.03585476 -0.4207584 -0.16250597 -0.06050925 0.09311186
-0.23200542 -0.3351065 -0.32243633 -0.37931406 -0.29875436 -0.27779445 0.08006829 -0.32383963
0.34483424 0.19877732 -0.30166316 -0.14016351 0.15906768 -0.097209 0.0065067713 -0.115875274
0.31970125 -0.15378675 0.27123454 0.06796117 0.047409747 0.3209712 -0.083832406 -0.22617261
-0.0698772 0.28358558 -0.28021643 0.07696831 -0.36427146 0.18156296 0.11129963 -0.0023951568
0.14127198 -0.017616967 0.1925085 -0.2994059 -0.055399615 0.13736705 0.34792367 0.17649037
-0.19087258 0.20700103 -0.0062874607 -0.010206196 -0.24854152 -0.12426699 0.32177824 0.12137072
-0.1379204 0.18023886 -0.17553142 0.39442223 -0.37351093 -0.039972555 -0.41196397 -0.2072463
0.12899028 0.3759404 0.101968884 0.33304438 0.108097896 0.24274242 0.33021387 0.33594543
-0.18538219 0.3671717 0.2517186 -0.117901154 -0.13170111 -0.2492608 0.12920336 -0.24861248
0.12927793 0.103962265 -0.34332216 0.09314099 -0.06305912 0.15308695 0.1650385 -0.386243
0.30585355 0.2612321 0.12919717 -0.36124045 -0.13432015 -0.14054632 -0.10012833 0.19015053
0.18463896 0.2270977 -0.07060427 0.17279875 0.18765385 -0.35037616 -0.28167585 -0.12210082
0.29919666 -0.27198106 -0.3580493 0.2593034 0.13636751 0.35206074 -0.32450473 -0.31399477
0.17528379 0.3030848 0.2025107 0.055233013 0.10820828 0.330661 -0.23818317 -0.16926469
0.24278875 -0.25114283 -0.19862525 0.24788123 0.10693913 0.10405631 -0.15500255 -0.009347413
0.29555148 -0.2130953 -0.035725415 0.15771672 -0.28073773 0.34149387 -0.21751139 -0.12240711
-0.12003984 -0.26890925 -0.34949166 0.15814573 0.09250805 -0.37227038 -0.23005179 0.3471313
0.11888418 0.15500523 -0.23427534 -0.1694805 -0.076044515 -0.050223317 -0.264623 0.006884076
0.017543025 -0.066649415 0.05994741 -0.16246808 0.10571885 0.110956766 -0.17115566 -0.33644605
0.15944634 0.09383059 -0.21318947 0.32451984 -0.19228461 0.24868537 0.14491822 -0.3291053
0.2037642 -0.35814086 -0.18730497 -0.09356135 -0.22864574 0.3107955 -0.061128672 0.15005289
00000000: 1cda 593e 7fd5 903e 38f5 983e b855 fdbd
00000010: f40a 89bd 5c1f 383e 261b a7bd b1a5 363e
00000020: 8493 92bd f3b7 67be 43a4 1b3e daec 8d3d
00000030: c58c 2a3e 7a89 bb3e 2ca9 803e 0c36 b03e
00000040: 79e4 ca3a 57d4 9dbe efd8 8bbe a977 65be
00000050: a0a3 abbe a192 3abe fe71 b4be c37d b3be
00000060: 9244 67be a056 bfbe bf0a 63be 9c58 dc3d
00000070: f0a5 943e 7f81 07be 36e2 ddbd 533d 3c3e
00000080: 774a 25be f281 1ebe fee6 763e 43a4 9ebe
00000090: c59d 843d d3ee a63e 1242 b03d 91a9 f23d
000000a0: 9a7f 48be dd80 963c 05c1 033d 5e70 e63d
000000b0: d3fd 193e d86f aa3e e4bb 82be a23f c43c
000000c0: 4e2f 29be 84a4 8cbe ea39 3cbc 746f 9ebe
000000d0: 205b 863e 2ebc 3f3d 395c 30be 87e3 4d3e
000000e0: 09a5 a6be 9756 f5bd 735e 83bd 8055 90be
000000f0: 42b0 60be 2bb0 20bd 3d9a 8c3e 53a9 b13e
00000100: b302 f73d eaac 1cbe 3dbf b8be 60f2 6b3e
00000110: 21c0 1dbb 0d5d 8f3d 0f8f aabd cac3 d2be
00000120: 9e95 62be e99b 593e 68f3 18bd bec2 18be
00000130: a078 6fbe 3090 a8be d9a4 5a3d 4002 25be
00000140: 1069 3ebe 1e56 1f3e 4a94 09bf 71dc 123d
00000150: a56d d7be f767 26be 8cd8 77bd 6eb1 be3d
00000160: d492 6dbe 1493 abbe 6016 a5be 7435 c2be
00000170: 55f6 98be 133b 8ebe d8fa a33d 4fce a5be
00000180: 1d8e b03e 488c 4b3e 9873 9abe 0687 0fbe
00000190: a3e2 223e 8315 c7bd c136 d53b 0450 edbd
000001a0: e2af a33e 467a 1dbe 41df 8a3e 3a2f 8b3d
000001b0: b930 423d 5656 a43e 53b0 abbd cb99 67be
000001c0: c71b 8fbd 2132 913e 8778 8fbe 90a1 9d3d
000001d0: ca81 babe a4eb 393e 0ff1 e33d 10f8 1cbb
000001e0: 9aa9 103e 7551 90bc f320 453e bb4b 99be
000001f0: b5ea 62bd f3a9 0c3e 0d23 b23e e4b9 343e
00000200: 1a74 43be 14f8 533e 0b07 cebb e437 27bc
00000210: ab81 7ebe b17f febd 1ec0 a43e 3691 f83d
00000220: 013b 0dbe 8990 383e 82be 33be b6f1 c93e
00000230: d33c bfbe 43ba 23bd f1ec d2be 6038 54be
00000240: 0716 043e 437b c03e 10d5 d03d cb84 aa3e
00000250: 6e62 dd3d 7891 783e cb11 a93e 0a01 ac3e
00000260: d4d4 3dbe eefd bb3e 43e1 803e 2976 f1bd
00000270: a8dc 06be 393e 7fbe e34d 043e 4594 7ebe
00000280: 6f61 043e 2bea d43d ecc7 afbe b4c0 be3d
00000290: 2425 81bd d3c2 1c3e daff 283e a4c1 c5be
000002a0: d698 9c3e 37c0 853e 434c 043e 82f4 b8be
000002b0: 398b 09be 60eb 0fbe 1510 cdbd d2b6 423e
000002c0: ff11 3d3e 4d8c 683e f998 90bd 28f2 303e
000002d0: 5528 403e 8164 b3be d137 90be ff0f fabd
000002e0: 4e30 993e 1a41 8bbe 3d52 b7be 6ac3 843e
000002f0: eda3 0b3e 4e41 b43e 7c25 a6be ecc3 a0be
00000300: 987d 333e ee2d 9b3e f75e 4f3e 033c 623d
00000310: 4d9c dd3d 664c a93e 4ae6 73be b953 2dbe
00000320: 9d9d 783e cb95 80be 6b64 4bbe 94d4 7d3e
00000330: e702 db3d 7a1b d53d fdb8 1ebe e425 19bc
00000340: 8652 973e a835 5abe d054 12bd 7e80 213e
00000350: dbbc 8fbe 49d8 ae3e 4ebb 5ebe 94b0 fabd
00000360: 73d7 f5bd 79ae 89be 92f0 b2be f4f0 213e
00000370: dc74 bd3d 399a bebe b292 6bbe 32bb b13e
00000380: 8d79 f33d b1b9 1e3e e0e5 6fbe 4c8c 2dbe
00000390: 3abd 9bbd f7b6 4dbd aa7c 87be d193 e13b
000003a0: 64b6 8f3c 7d7f 88bd 6a8b 753d 085e 26be
000003b0: 2083 d83d 4d3d e33d 6e43 2fbe a842 acbe
000003c0: e745 233e 412a c03d 574e 5abe 7727 a63e
000003d0: 42e6 44be 61a7 7e3e 7165 143e 7d80 a8be
000003e0: 90a7 503e 3d5e b7be e0cc 3fbe 189d bfbd
000003f0: 1c22 6abe 9620 9f3e 0f62 7abd 77a7 193e

bias f4 [16]
0.06954585 0.06574571 0.07334408 0.06891294 0.061544612 0.0689759 0.17041877 -0.10513091
0.06595574 0.177764 0.20986295 -0.07637657 0.11477802 -0.065887034 0.069417626 0.06965938
00000000: 0e6e 8e3d b0a5 863d 6c35 963d 3a22 8d3d
00000010: 3416 7c3d 3d43 8d3d 4282 2e3e e04e d7bd
00000020: ce13 873d c407 363e 50e6 563e 526b 9cbd
00000030: bd10 eb3d c8ef 86bd d42a 8e3d 94a9 8e3d

weight f4 [16, 32]
0.03425481 0.13688405 -0.1723648 -0.20852377 0.08593922 -0.02050433 -0.17765051 0.14295137
-0.028285233 -0.16877812 -0.11491606 -0.07431899 -0.3103318 0.079766266 0.019384759 0.22345889
0.016422154 0.009597138 0.09635911 0.26060563 -0.17361161 0.19788776 0.058393545 -0.26496866
0.13104169 -0.21290404 -0.114751495 -0.17525263 -0.23873307 0.2975607 -0.34506533 0.1712883
-0.32794225 -0.038090754 -0.039978817 0.25381035 -0.12639675 0.12100757 0.03931021 0.2029388
-0.008638017 0.023518315 -0.16134779 -0.2716927 0.3060161 -0.25826937 -0.04737369 -0.03485555
0.33984137 -0.09349712 -0.26894212 -0.09740232 0.17640522 0.12773128 0.26634878 -0.09965046
0.17291349 -0.3334038 0.13363035 0.15622205 0.2287458 -0.18516794 -0.12167107 0.08049311
-0.2621273 -0.2753407 -0.40964198 0.022185769 0.22292551 0.11438713 0.0012010548 0.11766604
-0.25571695 -0.08786849 -0.02602404 -0.20496745 0.2949996 -0.27365655 0.06683257 -0.30088502
-0.018498814 -0.17788644 0.11660932 -0.20714194 0.21949355 -0.30043876 0.18199606 -0.29679945
0.19877121 -0.15041591 -0.00416 -0.07133955 0.23231064 0.13630965 -0.3426337 0.026954874
-0.25431246 0.26946527 -0.006296336 -0.08860083 -0.17802338 0.14336903 -0.2288563 0.16221596
0.16174082 0.10106678 0.14786883 -0.33698738 0.24472325 -0.110351175 -0.09065676 -0.029255377
0.25216872 0.25346807 0.054665018 0.16037337 -0.33595583 -0.012227157 -0.3405248 0.091534644
-0.24423327 -0.1268309 0.24372716 0.33124208 -0.21068296 -0.17737761 0.015032659 0.13355981
-0.066439115 -0.10574005 -0.28775376 0.15363523 0.34670085 -0.15437192 0.1534706 0.16807559
0.25646698 -0.1403398 0.05863514 0.23566782 0.21515827 0.34856617 -0.089889854 0.14649194
0.24156249 -0.25534832 0.07069129 -0.08618224 0.22196545 -0.1704285 0.00071194465 0.18620506
-0.319468 -0.29898795 -0.18393427 0.22109486 0.23626839 -0.22578871 0.04201015 -0.19187745
-0.17443758 0.31015047 0.10587791 -0.09434936 0.05457552 0.08964503 0.065382235 -0.12639117
-0.23942327 0.11785364 0.103657 0.12039094 -0.14339088 0.17070243 0.27118286 0.2238382
0.089876965 0.32924497 -0.0006527789 0.067029014 0.32952443 0.3306981 -0.17713867 0.2896142
0.13840584 -0.040573105 0.30536366 -0.18971385 0.23157775 0.36927506 -0.27265754 -0.21398053
-0.34913895 -0.0060503576 -0.49725014 -0.08014961 0.10655174 0.33254778 0.0661932 0.21790437
0.027243618 -0.439643 -0.08667909 -0.103658855 0.342739 0.06714562 -0.010476175 -0.21775588
-0.15984161 -0.38396657 0.318029 -0.0457546 -0.3061023 0.027371207 -0.09743538 -0.16303642
0.14508641 0.13927856 -0.30664548 -0.25646415 -0.020537 -0.2703377 -0.43831643 0.32990927
-0.12566939 -0.27619204 -0.11537714 -0.3806327 0.32656038 -0.07774911 -0.031080749 -0.36803293
0.30998245 -0.05245786 -0.21885973 0.017942559 -0.26262218 -0.047810655 0.33892384 -0.15593721
-0.07702414 -0.14203428 -0.2642676 0.2064417 -0.07639469 0.2890354 0.056239046 -0.084101915
-0.16491096 0.42363247 -0.3607833 0.09726645 0.14231771 0.15177014 0.3056107 -0.18365596
00000000: c64e 0c3d 552b 0c3e 6680 30be 4187 55be
00000010: e700 b03d b2f8 a7bc 04ea 35be d861 123e
00000020: 6fb6 e7bc 2cd4 2cbe 1c59 ebbd 8e34 98bd
00000030: cfe3 9ebe 7f5c a33d c9cc 9e3c 68d2 643e
00000040: c187 863c 503d 1d3c ed57 c53d 1a6e 853e
00000050: 3ec7 31be 17a3 4a3e 122e 6f3d f9a9 87be
00000060: cb2f 063e 8403 5abe d502 ebbd 6d75 33be
00000070: 7176 74be e059 983e 67ac b0be 3366 2f3e
00000080: 0ce8 a7be 0d05 1cbd d4c0 23bd 6ef3 813e
00000090: 266e 01be d1d2 f73d be03 213d 30cf 4f3e
000000a0: 7886 0dbc 7ba9 c03c 5b38 25be 4e1b 8bbe
000000b0: 24ae 9c3e e23b 84be ea0a 42bd b1c4 0ebd
000000c0: b0ff ad3e 6b7b bfbd c8b2 89be de7a c7bd
000000d0: 92a3 343e fdcb 023e de5e 883e 8a15 ccbd
000000e0: 3c10 313e e7b3 aabe 65d6 083e acf8 1f3e
000000f0: 573c 6a3e aa9c 3dbe af2e f9bd 92d9 a43d
00000100: 8d35 86be 75f9 8cbe 98bc d1be eebe b53c
00000110: 9646 643e cd43 ea3d b66c 9d3a e5fa f03d
00000120: 55ed 82be 65f4 b3bd 5e30 d5bc fde2 51be
00000130: 300a 973e b61c 8cbe 84df 883d 9a0d 9abe
00000140: d38a 97bc dd27 36be ded0 ee3d 041d 54be
00000150: ebc2 603e 1cd3 99be 2d5d 3a3e 19f6 97be
00000160: ae8a 4b3e a106 1abe 9c50 88bb 781a 92bd
00000170: d7e2 6d3e c294 0b3e af6d afbe 78d0 dc3c
00000180: 3e35 82be 5af7 893e 7f51 cebb 5a74 b5bd
00000190: c34b 36be 55cf 123e 4e59 6abe f11b 263e
000001a0: 639f 253e 1afc ce3d ed6a 173e 9c89 acbe
000001b0: bb98 7a3e ccff e1bd 40aa b9bd f9a8 efbc
000001c0: 421c 813e 91c6 813e 6de8 5f3d eb38 243e
000001d0: 6702 acbe 6a54 48bc 4459 aebe 8476 bb3d
000001e0: 4918 7abe f6df 01be 9d93 793e 9098 a93e
000001f0: 46bd 57be 7aa2 35be 8b4b 763c e7c3 083e
00000200: 3b11 88bd 3d8e d8bd 7654 93be 8e52 1d3e
00000210: c682 b13e ac13 1ebe 6627 1d3e 021c 2c3e
00000220: a44f 833e 3db5 0fbe 672b 703d e852 713e
00000230: 7352 5c3e 4477 b23e 2c18 b8bd fc01 163e
00000240: 285c 773e 04bd 82be 98c6 903d 5080 b0bd
00000250: e94a 633e cf84 2ebe cca1 3a3a 8aac 3e3e
00000260: 4f91 a3be f314 99be 4459 3cbe b166 623e
00000270: 57f0 713e 2835 67be d612 2c3d 867b 44be
00000280: c49f 32be 0bcc 9e3e 85d6 d83d 3d3a c1bd
00000290: 958a 5f3d d097 b73d 1fe7 853d b06c 01be
000002a0: 602b 75be 405d f13d 1f4a d43d 868f f63d
000002b0: 0fd5 12be 9ecc 2e3e 7bd8 8a3e d735 653e
000002c0: 6a11 b83d cc92 a83e 401f 2bba 8246 893d
000002d0: 6db7 a83e 4351 a93e d763 35be 5048 943e
000002e0: 43ba 0d3e fc2f 26bd a058 9c3e 5944 42be
000002f0: b822 6d3e 9f11 bd3e c599 8bbe b61d 5bbe
00000300: 57c2 b2be 1442 c6bb 9297 febe 7b25 a4bd
00000310: cc37 da3d b443 aa3e 4d90 873d 5322 5f3e
00000320: 022e df3c e318 e1be cf84 b1bd 184b d4bd
00000330: 7c7b af3e a583 893d 43a4 2bbc 66fb 5ebe
00000340: 85ad 23be 4497 c4be b2d4 a23e 2d69 3bbd
00000350: 71b9 9cbe 9539 e03c 338c c7bd 05f3 26be
00000360: 8891 143e 0a9f 0e3e a300 9dbe 454f 83be
00000370: 363d a8bc b469 8abe 036b e0be dee9 a83e
00000380: 7aaf 00be 0b69 8dbe da4a ecbd 4ae2 c2be
00000390: ec32 a73e ed3a 9fbd 0e9d febc d06e bcbe
000003a0: 05b6 9e3e 0ede 56bd c41c 60be 46fc 923c
000003b0: 6a76 86be 1bd5 43bd 6d87 ad3e 01ae 1fbe
000003c0: d5be 9dbd 6f71 11be 154e 87be 7465 533e
000003d0: d274 9cbd 73fc 933e ea5a 663d a03d acbd
000003e0: 6bde 28be 5be6 d83e 97b8 b8be a233 c73d
000003f0: bcbb 113e a269 1b3e 0179 9c3e 4f10 3cbe

bias f4 [2]
0.10988435 0.120322056
00000000: 0c0b e13d 696b f63d

weight f4 [2, 16]
0.47118014 0.14186807 0.49758855 0.3738356 0.14927086 0.21611491 0.2334784 -0.010505818
0.4738207 0.56725407 0.23524217 -0.03564233 0.5889672 -0.51774156 0.4379429 0.3127124
0.38878852 -0.04649792 -0.32272834 0.41116023 -0.26794502 0.17074727 0.38356328 -0.6176935
0.022295753 -0.16226579 0.44686598 -0.37640682 0.43477586 0.28431833 0.33406094 0.5621675
00000000: 863e f13e dd45 113e edc3 fe3e 6167 bf3e
00000010: 76da 183e 3a4d 5d3e f614 6f3e 9820 2cbc
00000020: a098 f23e 9037 113f 53e3 703e b1fd 11bd
00000030: 8ec6 163f b68a 04bf 0d3a e03e d71b a03e
00000040: 4a0f c73e 9a74 3ebd a63c a5be 9883 d23e
00000050: 1730 89be 5fd8 2e3e 6862 c43e 2921 1ebf
00000060: 95a5 b63c 0129 26be 9ecb e43e 65b8 c0be
00000070: f19a de3e 2c92 913e 090a ab3e 36ea 0f3f

weight f4 [1, 2]
1.0441195 0.19276239
00000000: b5a5 853f 8163 453e

pout f4 [3, 3]
0.50929135 0.40312 0.16157724 0.50929135 0.12978677 0.022036888 0.50929135 0.14227079
0.024750646
00000000: eb60 023f bf65 ce3e 8174 253e eb60 023f
00000010: d3e6 043e b486 b43c eb60 023f 6faf 113e
00000020: dec1 ca3c

throughput f4 [3, 1]
0.87682265 1.1933087 1.1810023
00000000: 7377 603f 57be 983f 152b 973f

delay f4 [3, 1]
0.114048146 0.083800614 0.084673844
00000000: 1392 e93d a89f ab3d 7b69 ad3d

ef1 f4 [3]
1.2083802 0.34315026 0.3935864
00000000: 34ac 9a3f 64b1 af3e 2884 c93e

ef2 f4 [3, 1]
-18.811481 -21.961494 -21.598072
00000000: ea7d 96c1 24b1 afc1 dac8 acc1
