model/HARQ-NumK=3-PDB=15_model_pd_satisfy.pt (torch, 38391 bytes, 14 tensors)

bias f4 [16]
0.0690594 0.0024906509 -0.054615933 0.026785063 -0.03701595 0.014437801 -0.042227436 -0.0368536
0.03172501 0.010910863 -0.026061505 0.0072728614 0.0035095671 -0.05390999 0.013457138 0.006980569
00000000: 046f 8d3d 303a 233b f5b4 5fbd 596c db3c
00000010: 099e 17bd 878c 6c3c adf6 2cbd cdf3 16bd
00000020: 16f2 013d 7ac3 323c f07e d5bc 2f51 ee3b
00000030: c400 663b b9d0 5cbd 547b 5c3c 42bd e43b

weight f4 [16, 1]
-0.21285792 0.15053432 -0.3207061 -0.053236313 -0.2722027 0.40369898 -0.5070705 -0.3053505
-0.14396438 -0.3455355 0.039436027 -0.5794725 0.53341144 -0.5543045 0.4742997 0.0980325
00000000: 6df7 59be ab25 1a3e 9733 a4be 520e 5abd
00000010: 275e 8bbe a2b1 ce3e 5fcf 01bf e756 9cbe
00000020: 666b 13be 07ea b0be ac87 213d 4f58 14bf
00000030: a78d 083f e6e6 0dbf 69d7 f23e 43c5 c83d

bias f4 [32]
-0.028621485 0.036936358 -0.031070856 -0.031986427 0.085094884 0.20337248 -0.037588548 0.03150398
-0.044472236 -0.042010706 0.011495702 -0.040316306 0.023791566 0.04375223 -0.013755481 0.03227592
0.016188798 -0.034488462 -0.030368978 0.02751464 -0.060730964 0.022214437 -0.047828972 -0.04798009
0.12714349 -0.021685991 0.024445856 0.017499177 0.10426969 0.0237138 -0.038731392 0.00857034
00000000: 9b77 eabc 944a 173d 4f88 febc 3304 03bd
00000010: 3a46 ae3d e040 503e 73f6 19bd 510a 013d
00000020: 8528 36bd 6b13 2cbd 7858 3c3c b622 25bd
00000030: 88e6 c23c 8a35 333d ab5e 61bc c133 043d
00000040: 5f9e 843c c643 0dbd 5dc8 f8bc 6266 e13c
00000050: 08c1 78bd 0dfb b53c 50e8 43bd c586 44bd
00000060: e731 023e d2a6 b1bc ad42 c83c 6f5a 8f3c
00000070: 598b d53d 7143 c23c cfa4 1ebd 9d6a 0c3c

weight f4 [32, 16]
0.21943608 0.26633632 0.30094615 -0.11130823 -0.06400971 0.16223162 -0.08022227 0.1809947
-0.06397073 -0.22406624 0.13509102 0.07054268 0.14947414 0.36755913 0.23317331 0.32724735
-0.00088937616 -0.29237008 -0.26900214 -0.23447973 -0.3320123 -0.16530646 -0.34730956 -0.3470551
-0.22936356 -0.3697376 -0.20474839 0.11287358 0.30674788 -0.12707967 -0.09086437 0.20026985
-0.15953402 -0.17452258 0.23371881 -0.2975883 0.058585726 0.30496985 0.07735807 0.111935936
-0.19261919 0.011249254 0.011200481 0.103600234 0.12999883 0.32400787 -0.2772631 0.003509125
-0.1585977 -0.29121807 -0.00931469 -0.29728037 0.26527277 0.02933911 -0.17085093 0.20366772
-0.31798828 -0.11758672 -0.08068454 -0.28065175 -0.2363966 -0.037949614 0.25660554 0.33013517
0.15685457 -0.1511167 -0.3020638 0.2473856 0.05460595 0.07082277 -0.023368657 -0.35464412
-0.18446398 0.2698844 -0.030605769 -0.088994406 -0.23277973 -0.26906267 0.054497823 -0.15950704
-0.17858857 0.21657062 -0.4879173 0.0102351 -0.3725762 -0.10015401 -0.011561726 0.13978463
-0.219139 -0.28861997 -0.24996789 -0.33017582 -0.23731206 -0.2286306 0.14451128 -0.2604212
0.33293962 0.20379868 -0.32069758 -0.14884886 0.14033043 -0.09098337 -0.0125156995 -0.1343347
0.30688736 -0.17214754 0.2755346 0.048893355 0.052869547 0.30188563 -0.076688915 -0.21915464
-0.07394728 0.29657266 -0.28004375 0.06766836 -0.36471236 0.19529556 0.11215522 -0.0026330873
0.13645785 -0.01752096 0.20606162 -0.2984399 -0.042016808 0.13830888 0.36205763 0.18969873
-0.21719329 0.23399675 -0.037824962 -0.03811529 -0.2803793 -0.0943162 0.29110163 0.090213686
-0.16647309 0.14961721 -0.14891553 0.36381269 -0.34516823 -0.070639424 -0.38018024 -0.17708433
0.1331883 0.3280702 0.082542434 0.36241648 0.0917045 0.1917802 0.3076009 0.31856778
-0.17819388 0.3484534 0.20147642 -0.14102861 -0.18107513 -0.27228704 0.07631077 -0.29855308
0.14368175 0.115109764 -0.3137517 0.09291094 -0.035191048 0.16510502 0.19615662 -0.35797092
0.31911594 0.2900606 0.14269921 -0.32984895 -0.12285205 -0.10919293 -0.087214924 0.20248276
0.16257337 0.24883187 -0.09728767 0.1501616 0.16078846 -0.32622185 -0.3076975 -0.14843133
0.27542296 -0.29789054 -0.3370116 0.23332867 0.15920177 0.32603908 -0.29889038 -0.28990343
0.16855139 0.31505394 0.19808015 0.045554582 0.103411265 0.34323385 -0.24216045 -0.17392072
0.23557988 -0.25555614 -0.18661511 0.24397595 0.119223945 0.10013057 -0.14213984 0.0026015618
0.30071214 -0.19920841 -0.021479394 0.15135017 -0.2677034 0.35653377 -0.20197004 -0.10902449
-0.116433494 -0.25494012 -0.3333566 0.1738966 0.10704683 -0.35655707 -0.21431394 0.36210257
0.14379334 0.13580169 -0.2027304 -0.14755878 -0.044750877 -0.07073726 -0.23314731 0.03791725
0.04326718 -0.03582101 0.04211029 -0.13096592 0.08589921 0.1424858 -0.19232872 -0.3565881
0.16466556 0.09913937 -0.20116471 0.32386962 -0.18089673 0.25397447 0.1574566 -0.3176811
0.20879985 -0.3465339 -0.18094395 -0.08091779 -0.22334225 0.3234303 -0.05577506 0.15505528
00000000: dab3 603e 3c5d 883e 9d15 9a3e 92f5 e3bd
00000010: 8617 83bd 0c20 263e 934b a4bd ad56 393e
00000020: 1603 83bd 9f71 65be 4d55 0a3e ae78 903d
00000030: c00f 193e b630 bc3e fcc4 6e3e f78c a73e
00000040: 0625 69ba 88b1 95be a6ba 89be 741b 70be
00000050: 84fd a9be 1946 29be 8fd2 b1be 35b1 b1be
00000060: 48de 6abe 3f4e bdbe 90a9 51be 432a e73d
00000070: 0f0e 9d3e 2c21 02be 1917 babd 8a13 4d3e
00000080: e35c 23be 0cb6 32be fc53 6f3e 7e5d 98be
00000090: 96f7 6f3d 0225 9c3e e86d 9e3d ab3e e53d
000000a0: f73d 45be cb4e 383c 3982 373c 5c2c d43d
000000b0: 6a1e 053e 5ce4 a53e 6ef5 8dbe 59f9 653b
000000c0: 6f67 22be 891a 95be a49c 18bc 2235 98be
000000d0: d5d1 873e 9358 f03c 8cf3 2ebe 458e 503e
000000e0: 5ccf a2be 4ed1 f0bd f03d a5bd 96b1 8fbe
000000f0: f311 72be 0e71 1bbd cd61 833e 7a07 a93e
00000100: 7c9e 203e 56be 1abe 1ba8 9abe a752 7d3e
00000110: 7daa 5f3d 870b 913d a06f bfbc ea93 b5be
00000120: 20e4 3cbe 4a2e 8a3e f3b8 fabc b342 b6bd
00000130: cf5d 6ebe 95c2 89be 1c39 5f3d d055 23be
00000140: ecdf 36be b0c4 5d3e 4cd0 f9be 1fb1 273c
00000150: 4fc2 bebe 8c1d cdbd 656d 3dbc b423 0f3e
00000160: f965 60be ffc5 93be 95f7 7fbe ce0c a9be
00000170: ef01 73be 241e 6abe c4fa 133e ed55 85be
00000180: 1077 aa3e 9ab0 503e 7932 a4be d66b 18be
00000190: c8b2 0f3e 7d55 babd a60e 4dbc 098f 09be
000001a0: 5720 9d3e 7247 30be df12 8d3e 6644 483d
000001b0: bd8d 583d c190 9a3e 140f 9dbd 136a 60be
000001c0: ac71 97bd 5fd8 973e e561 8fbe b695 8a3d
000001d0: 94bb babe 8ffb 473e a3b1 e53d e08f 2cbb
000001e0: 9bbb 0b3e 1e88 8fbc d101 533e 1dcd 98be
000001f0: d119 2cbd d8a0 0d3e 9e5f b93e 6240 423e
00000200: eb67 5ebe d89c 6f3e 59ee 1abd c71e 1cbd
00000210: e08d 8fbe da28 c1bd 460b 953e f4c1 b83d
00000220: ec77 2abe 4135 193e 507d 18be a845 ba3e
00000230: e4b9 b0be 67ab 90bd fca6 c2be 9855 35be
00000240: 8462 083e d1f8 a73e 020c a93d a78e b93e
00000250: 92cf bb3d 0762 443e dd7d 9d3e 511b a33e
00000260: 7578 36be 7c68 b23e d64f 4e3e ce69 10be
00000270: c26b 39be 3569 8bbe d248 9c3d f3db 98be
00000280: 4f21 133e abbe eb3d 10a4 a0be 1748 be3d
00000290: 7d24 10bd 4a11 293e 48dd 483e f747 b7be
000002a0: 2a63 a33e d382 943e be1f 123e f6e1 a8be
000002b0: db99 fbbd 8ba0 dfbd bd9d b2bd a457 4f3e
000002c0: a279 263e c8cd 7e3e c23e c7bd f6c3 193e
000002d0: bba5 243e 8d06 a7be 878a 9dbe 62fe 17be
000002e0: 3d04 8d3e 1c85 98be c98c acbe b6ed 6e3e
000002f0: ca05 233e 98ee a63e 2908 99be 396e 94be
00000300: bc98 2c3e c04e a13e 86d5 4a3e 7197 3a3d
00000310: 49c9 d33d 59bc af3e e9f8 77be 4618 32be
00000320: da3b 713e 41d8 82be 0818 3fbe d5d4 793e
00000330: af2b f43d 4211 cd3d 1b8d 11be f77e 2a3b
00000340: f1f6 993e 4afd 4bbe 8ef5 afbc 8afb 1a3e
00000350: 6c10 89be 988b b63e 3cd1 4ebe 3b48 dfbd
00000360: af74 eebd 8387 82be b7ad aabe f311 323e
00000370: 5e3b db3d a68e b6be 1d75 5bbe 8265 b93e
00000380: 903e 133e 990f 0b3e 8f98 4fbe a619 17be
00000390: b24c 37bd b2de 90bd 2bbe 6ebe 1e4f 1b3d
000003a0: ed38 313d 0db9 12bd d77b 2c3d ee1b 06be
000003b0: edeb af3d cce7 113e d2f1 44be b792 b6be
000003c0: 179e 283e 9509 cb3d 1ffe 4dbe 3dd2 a53e
000003d0: fe3c 39be f108 823e 4e3c 213e 19a7 a2be
000003e0: a1cf 553e e46c b1be 5f49 39be 3ab8 a5bd
000003f0: d5b3 64be a898 a53e 6474 64bd d0c6 1e3e

bias f4 [16]
0.034719355 0.03437086 0.03479705 0.0346777 0.034000114 0.034443107 0.09037811 -0.062841035
0.034125175 0.09684211 0.14018835 -0.034176737 0.04844844 -0.047636915 0.03469303 0.03471227
00000000: e235 0e3d 75c8 0c3d 5a87 0e3d 340a 0e3d
00000010: b443 0b3d 3714 0d3d 2918 b93d cdb2 80bd
00000020: d7c6 0b3d 2855 c63d 898d 0f3e e8fc 0bbd
00000030: df71 463d ed1e 43bd 471a 0e3d 742e 0e3d

weight f4 [16, 32]
0.050485753 0.14273949 -0.11875515 -0.19843559 0.06976013 -0.043026347 -0.1715666 0.15577461
-0.017719833 -0.07111503 -0.15174778 -0.06486856 -0.29559204 0.089090265 -0.0027589358 0.20715404
0.029692924 0.014482899 0.10638071 0.27540907 -0.16060758 0.21284533 0.06848412 -0.25515592
0.11024805 -0.22206661 -0.10395044 -0.16228119 -0.25663862 0.27704865 -0.33562195 0.18379858
-0.31261867 -0.03213891 0.009633345 0.26360717 -0.14147544 0.10049198 0.043714724 0.21518593
0.0003480374 0.11333523 -0.19442976 -0.2637866 0.319975 -0.24912627 -0.068097375 -0.050080378
0.35246998 -0.08993915 -0.25923708 -0.08337946 0.18872595 0.1418285 0.27478248 -0.091409996
0.15376543 -0.342544 0.14400628 0.16856846 0.21211886 -0.20410068 -0.11374255 0.09242215
-0.24550925 -0.2701257 -0.3516449 0.03216031 0.20587485 0.08969625 0.010067472 0.13052373
-0.24316269 0.017457997 -0.068361305 -0.19347699 0.3099758 -0.26481822 0.04370332 -0.31807843
-0.005092331 -0.17095856 0.12648034 -0.19211413 0.2327866 -0.2850992 0.19430666 -0.2849415
0.17649567 -0.1589526 0.0065589906 -0.058239993 0.21332264 0.114463806 -0.3312242 0.039561313
-0.23822267 0.27534974 0.04660509 -0.078555316 -0.19400941 0.12119652 -0.22309583 0.17495532
0.17203031 0.19740394 0.11173154 -0.3278115 0.25934598 -0.101040855 -0.112568 -0.04537412
0.26534307 0.25810385 0.06464305 0.17505883 -0.323058 0.0026000831 -0.3307309 0.101069584
-0.26473528 -0.13601246 0.25446886 0.3441202 -0.22835909 -0.19762026 0.024209484 0.1459837
-0.051963575 -0.09956179 -0.24330099 0.16312803 0.33291468 -0.17260219 0.15579951 0.17984463
0.26369622 -0.0590699 0.030151106 0.24180947 0.22845705 0.35769403 -0.10922354 0.13252102
0.25363284 -0.25343215 0.0801363 -0.072840385 0.23365405 -0.15699752 0.0072359485 0.192668
-0.33666688 -0.30832592 -0.1738721 0.23292214 0.22119343 -0.24297033 0.048232738 -0.18043968
-0.15845622 0.31587395 0.15939568 -0.08437927 0.038479358 0.06725874 0.07163057 -0.113787025
-0.22894914 0.21482411 0.06672523 0.1297968 -0.1289075 0.1798199 0.2493253 0.20764159
0.10293108 0.3342248 0.00921442 0.08158353 0.342336 0.34537756 -0.16708025 0.2993653
0.117690966 -0.04949464 0.3159721 -0.17696382 0.21372408 0.34893912 -0.26327866 -0.2016778
-0.32955787 -0.026501192 -0.39021078 -0.08360568 0.067581795 0.267684 0.14671189 0.22301264
0.08600942 -0.29348868 -0.24843998 -0.040845532 0.35761803 0.052241735 -0.06078301 -0.25703
-0.15026368 -0.31907007 0.31497195 -0.032531213 -0.2905643 0.053993877 -0.02981906 -0.10137247
0.090087906 0.15419532 -0.30492333 -0.24664034 -0.063988425 -0.3232411 -0.3791626 0.33780697
-0.07829991 -0.23132071 -0.09258503 -0.3251937 0.32514372 -0.08653012 -0.124408394 -0.32201824
0.26522186 0.021259319 -0.0683591 -0.03252744 -0.22352251 0.004897311 0.3264279 -0.16815601
-0.035212047 -0.20594402 -0.21799232 0.2542679 -0.041864514 0.291674 -9.871008e-05 -0.13296919
-0.16376942 0.37168103 -0.3249904 0.134022 0.14043967 0.1360237 0.25855586 -0.14411232
00000000: 26ca 4e3d 4d2a 123e e635 f3bd b332 4bbe
00000010: 66de 8e3d 653c 30bd 28af 2fbe 6183 1f3e
00000020: 2f29 91bc c2a4 91bd c563 1bbe cfd9 84bd
00000030: d757 97be f574 b63d 43cf 34bb 3020 543e
00000040: 933e f33c ae49 6d3c 21de d93d 6b02 8d3e
00000050: 5076 24be 20f4 593e 6741 8c3d cca3 82be
00000060: bbc9 e13d 6e65 63be f8e3 d4bd 0a2d 26be
00000070: 2366 83be 52d9 8d3e a4d6 abbe b235 3c3e
00000080: 8e0f a0be 17a4 03bd 2dd5 1d3c 85f7 863e
00000090: f0de 10be bdce cd3d 360e 333d b359 5c3e
000000a0: ca78 b639 4d1c e83d 9818 47be 0a0f 87be
000000b0: c3d3 a33e f51a 7fbe a376 8bbd 1521 4dbd
000000c0: f276 b43e 0432 b8bd b9ba 84be dac2 aabd
000000d0: 6041 413e 7e3b 113e 4ab0 8c3e 2a35 bbbd
000000e0: af74 1d3e ed61 afbe 6276 133e 369d 2c3e
000000f0: b035 593e c5ff 50be dbf1 e8bd d347 bd3d
00000100: c766 7bbe ea4d 8abe cd0a b4be 87ba 033d
00000110: dbd0 523e abb2 b73d 0af2 243c 03a8 053e
00000120: a4ff 78be 1304 8f3c 0301 8cbd d51e 46be
00000130: 26b5 9e3e 4196 87be 4102 333d 2ddb a2be
00000140: 92dd a6bb c30f 2fbe 1084 013e 91b9 44be
00000150: 9c5f 6e3e 86f8 91be 53f8 463e dae3 91be
00000160: 48bb 343e 78c4 22be cdec d63b 0f8d 6ebd
00000170: 4071 5a3e 006c ea3d 3896 a9be 0b0b 223d
00000180: a5f0 73be a4fa 8c3e fbe4 3e3d 9ce1 a0bd
00000190: 67aa 46be e235 f83d 3c73 64be 7d27 333e
000001a0: b728 303e 4224 4a3e 81d3 e43d e9d6 a7be
000001b0: ffc8 843e 82ee cebd 0d8a e6bd 37da 39bd
000001c0: 0cdb 873e 3026 843e 9363 843d 9f42 333e
000001d0: dc67 a5be 2866 2a3b 8f55 a9be 92fd ce3d
000001e0: 628b 87be da46 0bbe be49 823e 8630 b03e
000001f0: f7d6 69be f75c 4abe f852 c63c c07c 153e
00000200: c2d7 54bd 0de7 cbbd e523 79be 090b 273e
00000210: cb73 aa3e a1be 30be e889 1f3e 3129 383e
00000220: 3103 873e 48f3 71bd 74ff f63c e79c 773e
00000230: a5f0 693e ac23 b73e 97b0 dfbd 97b3 073e
00000240: 2adc 813e dcc1 81be 801e a43d 572d 95bd
00000250: 0243 6f3e f5c3 20be 891b ed3b c34a 453e
00000260: 9a5f acbe e5dc 9dbe 870b 32be 2483 6e3e
00000270: 8880 623e 37cd 78be b18f 453d 2ec5 38be
00000280: 5942 22be 3bba a13e 9f38 233e 0acf acbd
00000290: 889c 1d3d f3be 893d 0cb3 923d 2c09 e9bd
000002a0: a571 6abe dafa 5b3e 3da7 883d 74e9 043e
000002b0: 5400 04be b522 383e 224f 7f3e ff9f 543e
000002c0: 88cd d23d 831f ab3e 14f8 163c 4415 a73d
000002d0: aa46 af3e 54d5 b03e 1617 2bbe 6946 993e
000002e0: f607 f13d e4ba 4abd 18c7 a13e 0136 35be
000002f0: 7cda 5a3e 26a8 b23e 76cc 86be a084 4ebe
00000300: cfbb a8be 0719 d9bc b5c9 c7be 7439 abbd
00000310: 5368 8a3d e10d 893e a43b 163e 6d5d 643e
00000320: b525 b03d 2644 96be 0d67 7ebe a54d 27bd
00000330: b619 b73e 6efb 553d 9bf7 78bd 7099 83be
00000340: b9de 19be 275d a3be 0144 a13e 733f 05bd
00000350: d8c4 94be af28 5d3d 1a47 f4bc 5f9c cfbd
00000360: 0280 b83d 61e5 1d3e e91e 9cbe 498f 7cbe
00000370: 5d0c 83bd dc7f a5be 9a21 c2be 09f5 ac3e
00000380: b45b a0bd 56df 6cbe 389d bdbd ca7f a6be
00000390: 3d79 a63e b436 b1bd d4c9 febd 93df a4be
000003a0: 29cb 873e 0628 ae3c dbff 8bbd 7e3b 05bd
000003b0: 16e3 64be 9f79 a03b 8f21 a73e 1731 2cbe
000003c0: 823a 10bd fde2 52be 6139 5fbe 672f 823e
000003d0: 207a 2bbd 4b56 953e 9202 cfb8 1329 08be
000003e0: 2cb3 27be fa4c be3e 2465 a6be 103d 093e
000003f0: 6bcf 0f3e cc49 0b3e 6f61 843e 2e92 13be

bias f4 [2]
0.051962506 0.05283434
00000000: a3d6 543d d268 583d

weight f4 [2, 16]
0.46853945 0.15043813 0.42312306 0.3838809 0.16607223 0.20765963 0.18733418 0.026472358
0.4856261 0.5265453 0.1978406 -0.020071426 0.5224584 -0.48300326 0.43471983 0.31587029
0.38387984 -0.038156617 -0.4096352 0.4214582 -0.24988088 0.15868442 0.32853624 -0.57339907
0.032595456 -0.21134374 0.40232512 -0.35894898 0.35598224 0.32594395 0.32890347 0.5641284
00000000: 67e4 ef3e 740c 1a3e 96a3 d83e 0a8c c43e
00000010: d70e 2a3e baa4 543e 88d4 3f3e 8fdc d83c
00000020: fca3 f83e accb 063f ba96 4a3e d56c a4bc
00000030: d5bf 053f 344c f7be 9993 de3e c0b9 a13e
00000040: e68b c43e 1d4a 1cbd b4bb d1be 5fc9 d73e
00000050: c6e0 7fbe 2b7e 223e e735 a83e 48ca 12bf
00000060: d082 053d 7e6a 58be 8ffd cd3e 29c8 b7be
00000070: 4e43 b63e 20e2 a63e 0966 a83e b86a 103f

weight f4 [1, 2]
1.0224663 0.14760698
00000000: 2de0 823f 4926 173e

pout f4 [50, 3]
0.44682568 0.19965322 0.08921023 0.44682568 0.1991601 0.08872256 0.44682574 0.20127442
0.08880212 0.44682568 0.20039691 0.088622764 0.44682574 0.19921583 0.088931516 0.44682568
0.35707763 0.22346427 0.44682568 0.25675327 0.124683015 0.44682568 0.19938788 0.088595696
0.44682568 0.6779673 0.7556785 0.44682568 0.4175354 0.29893652 0.44682568 0.19965206
0.08920969 0.4468256 0.19955319 0.08916397 0.44682574 0.19965331 0.08921025 0.44682568
0.19965327 0.089210235 0.44682568 1.4048513 3.1511512 0.44682568 0.19964634 0.08856598
0.44682568 0.19992061 0.08857033 0.44682574 0.22981846 0.10453213 0.44682568 0.37260616
0.24173488 0.44682574 0.19964986 0.089208715 0.44682568 0.25654587 0.1245158 0.4468256
0.1996318 0.08920076 0.44682568 0.20893618 0.09189678 0.44682568 0.2059905 0.09051288
0.44682568 0.19965322 0.089210235 0.44682574 0.19922118 0.08865987 0.44682568 0.19946235
0.08911622 0.44682568 0.1993339 0.089034975 0.44682568 0.20157404 0.088879585 0.44682568
0.24234515 0.113488734 0.44682574 0.20194265 0.08898345 0.44682568 0.1993604 0.08905347
0.44682568 0.19920905 0.0889237 0.44682568 0.19965276 0.089209974 0.44682568 0.19921108
0.08892603 0.44682568 0.22055785 0.09848309 0.44682568 0.1996493 0.089208454 0.44682568
0.1993239 0.08861287 0.44682574 0.2073868 0.09114804 0.44682568 0.19957463 0.08917444
0.44682574 0.19965328 0.0892102 0.44682568 0.19959506 0.08918405 0.44682568 0.20812222
0.09149817 0.44682574 0.1996481 0.089207955 0.44682568 0.19964527 0.0892067 0.44682568
0.20432138 0.08981484 0.44682568 0.2552357 0.12346315 0.44682574 0.21078956 0.09284325
0.44682568 0.1992079 0.08892233 0.44682568 0.22528642 0.101502076
00000000: 56c6 e43e e571 4c3e dab3 b63d 56c6 e43e
00000010: a0f0 4b3e 2cb4 b53d 58c6 e43e e21a 4e3e
00000020: e3dd b53d 56c6 e43e d934 4d3e da7f b53d
00000030: 58c6 e43e 3cff 4b3e ba21 b63d 56c6 e43e
00000040: e1d2 b63e d1d3 643e 56c6 e43e 2a75 833e
00000050: cf59 ff3d 56c6 e43e 562c 4c3e a971 b53d
00000060: 56c6 e43e 448f 2d3f 2574 413f 56c6 e43e
00000070: 33c7 d53e 350e 993e 56c6 e43e 9771 4c3e
00000080: 92b3 b63d 53c6 e43e ac57 4c3e 999b b63d
00000090: 58c6 e43e eb71 4c3e ddb3 b63d 56c6 e43e
000000a0: e871 4c3e dbb3 b63d 56c6 e43e 2bd2 b33f
000000b0: 76ac 4940 56c6 e43e 1770 4c3e 1562 b53d
000000c0: 56c6 e43e fdb7 4c3e 5c64 b53d 58c6 e43e
000000d0: 8855 6b3e f114 d63d 56c6 e43e 3cc6 be3e
000000e0: 5989 773e 58c6 e43e 0371 4c3e 0fb3 b63d
000000f0: 56c6 e43e fb59 833e 2402 ff3d 53c6 e43e
00000100: 476c 4c3e e3ae b63d 56c6 e43e 5ef3 553e
00000110: 6134 bc3d 56c6 e43e 2cef 523e d15e b93d
00000120: 56c6 e43e e571 4c3e dbb3 b63d 58c6 e43e
00000130: a300 4c3e 4e93 b53d 56c6 e43e dc3f 4c3e
00000140: 9182 b63d 56c6 e43e 301e 4c3e f857 b63d
00000150: 56c6 e43e 6d69 4e3e 8006 b63d 56c6 e43e
00000160: 5429 783e c86c e83d 58c6 e43e 0eca 4e3e
00000170: f43c b63d 56c6 e43e 2225 4c3e aa61 b63d
00000180: 56c6 e43e 75fd 4b3e a11d b63d 56c6 e43e
00000190: c671 4c3e b8b3 b63d 56c6 e43e fdfd 4b3e
000001a0: da1e b63d 56c6 e43e ebd9 613e 81b1 c93d
000001b0: 56c6 e43e de70 4c3e ecb2 b63d 56c6 e43e
000001c0: 901b 4c3e aa7a b53d 58c6 e43e 355d 543e
000001d0: d3ab ba3d 56c6 e43e 4b5d 4c3e 17a1 b63d
000001e0: 58c6 e43e e971 4c3e d6b3 b63d 56c6 e43e
000001f0: a662 4c3e 21a6 b63d 56c6 e43e fe1d 553e
00000200: 6463 bb3d 58c6 e43e 8d70 4c3e a9b2 b63d
00000210: 56c6 e43e cf6f 4c3e 01b2 b63d 56c6 e43e
00000220: a039 513e d8f0 b73d 56c6 e43e 41ae 823e
00000230: 3fda fc3d 58c6 e43e 38d9 573e 9a24 be3d
00000240: 56c6 e43e 28fd 4b3e e91c b63d 56c6 e43e
00000250: 7cb1 663e 52e0 cf3d

throughput f4 [50, 1]
1.1063486 1.1072725 1.1057554 1.1065624 1.1069812 0.8609505 1.0276213 1.1072735
0.22997206 0.7520684 1.1063501 1.106472 1.1063484 1.1063486 -1.508692 1.1071358
1.106946 1.0681669 0.8335186 1.1063527 1.0279428 1.1063745 1.0969008 1.1005303
1.1063486 1.1073076 1.106591 1.106776 1.1054605 1.0496408 1.1050874 1.1067358
1.1069952 1.1063492 1.106991 1.0813552 1.1063533 1.1072956 1.0988334 1.1064448
1.1063485 1.1064194 1.097922 1.1063547 1.1063582 1.1024883 1.0299709 1.0945324
1.1069977 1.0746863
00000000: d59c 8d3f 1bbb 8d3f 6589 8d3f d6a3 8d3f
00000010: 8fb1 8d3f 4167 5c3f 1889 833f 23bb 8d3f
00000020: cc7d 6b3e 8e87 403f e19c 8d3f e0a0 8d3f
00000030: d39c 8d3f d59c 8d3f d21c c1bf a0b6 8d3f
00000040: 68b0 8d3f b1b9 883f 7a61 553f f79c 8d3f
00000050: a193 833f ae9d 8d3f 3f67 8c3f 2dde 8c3f
00000060: d59c 8d3f 41bc 8d3f c6a4 8d3f d6aa 8d3f
00000070: bb7f 8d3f a15a 863f 8173 8d3f 85a9 8d3f
00000080: 05b2 8d3f da9c 8d3f e2b1 8d3f d969 8a3f
00000090: fc9c 8d3f ddbb 8d3f 93a6 8c3f fc9f 8d3f
000000a0: d49c 8d3f 279f 8d3f b588 8c3f 089d 8d3f
000000b0: 259d 8d3f 561e 8d3f 16d6 833f a319 8c3f
000000c0: 1ab2 8d3f 528f 893f

delay f4 [50, 1]
0.09038742 0.090312004 0.09043591 0.09036996 0.09033577 0.11615069 0.097312115 0.09031193
0.43483543 0.13296664 0.09038731 0.09037734 0.09038744 0.09038742 -0.06628258 0.090323165
0.09033864 0.09361833 0.11997332 0.09038708 0.09728168 0.09038531 0.091165945 0.09086529
0.09038742 0.09030915 0.09036762 0.09035251 0.09046003 0.095270686 0.09049059 0.09035579
0.09033463 0.090387374 0.09033497 0.092476554 0.09038704 0.09031013 0.0910056 0.09037956
0.090387434 0.09038164 0.09108115 0.09038693 0.090386644 0.09070391 0.097090125 0.09136322
0.090334415 0.09305041
00000000: 0a1d b93d 80f5 b83d 7636 b93d e313 b93d
00000010: f601 b93d 6ae0 ed3d 934b c73d 76f5 b83d
00000020: c0a2 de3e 6828 083e fb1c b93d c117 b93d
00000030: 0d1d b93d 0a1d b93d 29bf 87bd 5afb b83d
00000040: 7703 b93d f8ba bf3d 92b4 f53d dd1c b93d
00000050: 9e3b c73d ef1b b93d 36b5 ba3d 9517 ba3d
00000060: 0a1d b93d 01f4 b83d a912 b93d bd0a b93d
00000070: 1c43 b93d 471d c33d 2153 b93d 750c b93d
00000080: 5d01 b93d 041d b93d 8a01 b93d 5964 bd3d
00000090: d71c b93d 84f4 b83d 2561 ba3d eb18 b93d
000000a0: 0c1d b93d 021a b93d c188 ba3d c81c b93d
000000b0: a21c b93d f9c2 b93d 30d7 c63d a41c bb3d
000000c0: 4001 b93d 3791 be3d

ef1 f4 [50]
0.95041466 0.9480339 0.94842327 0.9475453 0.9490557 1.3492081 1.0958073 0.9474126
1.878337 1.475579 0.9504119 0.95018935 0.9504148 0.95041466 2.4984694 0.94726694
0.9472883 1.0192498 1.3833394 0.95040727 1.0952244 0.9503685 0.9633002 0.95671034
0.95041466 0.9477271 0.9499568 0.94956064 0.948802 1.0549527 0.94930923 0.94965076
0.9490174 0.95041347 0.94902885 0.9933617 0.95040596 0.9474968 0.9597473 0.9502404
0.9504144 0.9502872 0.96141243 0.9504036 0.9503975 0.95334804 1.0915372 0.9677503
0.94901085 1.0064749
00000000: 604e 733f 5ab2 723f decb 723f 5492 723f
00000010: 50f5 723f dab2 ac3f 6a43 8c3f a289 723f
00000020: 596d f03f c6df bc3f 324e 733f 9c3f 733f
00000030: 624e 733f 604e 733f ece6 1f40 1680 723f
00000040: 7c81 723f c776 823f 4411 b13f e44d 733f
00000050: 5030 8c3f 5a4b 733f d89a 763f f8ea 743f
00000060: 604e 733f 3e9e 723f 5e30 733f 6816 733f
00000070: b0e4 723f b108 873f ee05 733f 501c 733f
00000080: cef2 723f 4c4e 733f 8ef3 723f f44c 7e3f
00000090: ce4d 733f 268f 723f 00b2 753f f442 733f
000000a0: 5c4e 733f 0646 733f 201f 763f a64d 733f
000000b0: 404d 733f 9e0e 743f 7eb7 8b3f 7cbe 773f
000000c0: 60f2 723f 2bd4 803f

ef2 f4 [50, 1]
-20.568272 -20.500462 -20.340763 -20.385733 -20.536655 -17.954544 -19.23285 -20.461214
-14.418739 -17.25885 -20.568233 -20.564148 -20.568272 -20.568272 -6.755064 -20.436428
-20.415636 -19.658081 -17.773018 -20.56816 -19.235865 -20.567507 -20.089584 -20.171467
-20.568272 -20.484768 -20.559309 -20.55012 -20.327194 -19.45046 -20.311356 -20.552317
-20.535553 -20.56826 -20.535881 -19.829872 -20.568138 -20.468962 -20.131306 -20.565136
-20.568272 -20.56603 -20.111172 -20.568096 -20.567997 -20.22376 -19.254984 -20.042738
-20.535358 -19.739603
00000000: d28b a4c1 f200 a4c1 e2b9 a2c1 fb15 a3c1
00000010: 124b a4c1 e8a2 8fc1 e0dc 99c1 91b0 a3c1
00000020: 28b3 66c1 2012 8ac1 be8b a4c1 6083 a4c1
00000030: d28b a4c1 d28b a4c1 7c29 d8c0 ce7d a3c1
00000040: 3953 a3c1 c043 9dc1 242f 8ec1 978b a4c1
00000050: 0de3 99c1 418a a4c1 78b7 a0c1 2a5f a1c1
00000060: d28b a4c1 cee0 a3c1 7779 a4c1 a566 a4c1
00000070: 189e a2c1 8b9a 9bc1 a87d a2c1 256b a4c1
00000080: d048 a4c1 cc8b a4c1 7c49 a4c1 94a3 9ec1
00000090: 8c8b a4c1 6fc0 a3c1 ea0c a1c1 6685 a4c1
000000a0: d28b a4c1 3b87 a4c1 aee3 a0c1 768b a4c1
000000b0: 428b a4c1 43ca a1c1 350a 9ac1 8757 a0c1
000000c0: 6a48 a4c1 b5ea 9dc1
