Data_model_drive_direct-main/train/models/HARQ-NumK=3_avg.pt (torch, 37555 bytes, 14 tensors)

bias f4 [16]
00000000: 1b18 c6bd 8b6f d7bc 2269 b6bd 755b bd3d
00000010: b671 c5bd 13a5 d83d e881 b5bd 3421 b9bd
00000020: ef42 2f3d dc01 c3bd 727b aebd 830d d0bd
00000030: 9940 cf3d 99f4 9fbd bd8d dc3d b7fd 273e
-0.096725665 -0.026298305 -0.08906771 0.0924596 -0.09640829 0.105783604 -0.08862668 -0.09039536
0.042788442 -0.09521839 -0.08519639 -0.10158827 0.10119743 -0.07810325 0.10769222 0.16405378

weight f4 [16, 1]
00000000: 07fb c0be 6274 f63d dc3d bbbe 5e55 193d
00000010: a4a8 afbe 2fff ee3e 2816 0fbf 862a bbbe
00000020: a1f5 f7bd 5d2c e6be 555f a3bb 177e 30bf
00000030: 85bd 073f 50a9 15bf 4058 023f 37e8 313e
-0.3769152 0.12033917 -0.36570632 0.037434928 -0.3430835 0.46679065 -0.5589318 -0.3655588
-0.12107397 -0.44955721 -0.0049857297 -0.689424 0.5302356 -0.58461475 0.5091591 0.17373739

bias f4 [32]
00000000: 00fd 9fbd adf0 c83d fba8 9bbd fa42 7abd
00000010: 9693 a53d 9721 ed3d dc13 b0bd 34b2 b03d
00000020: 2f5b a2bd 132e b7bd 77cc 093e 1e16 82bd
00000030: 4f54 9f3d abed c33d afc1 c9bd f4fb 003e
00000040: d789 8a3d 7af6 8cbd 8e36 4abd 9d07 70bd
00000050: 53a2 a6bd 3bc5 a63d 16a2 8ebd 9634 85bd
00000060: d12c c23b 4c47 87bd daa6 af3d bb0e 833d
00000070: 86f5 5b3d bf8c b63d 9d54 76bd 0ac1 d23d
-0.07811928 0.0981153 -0.0760059 -0.06109903 0.080847904 0.115786724 -0.08597538 0.086277395
-0.07927548 -0.08944335 0.13456903 -0.06351875 0.077797525 0.09566816 -0.09851395 0.12596112
0.06764572 -0.06882949 -0.049368434 -0.05860101 -0.0813643 0.081430875 -0.06964509 -0.065041706
0.0059257527 -0.06605396 0.08576746 0.06399294 0.053700946 0.08913564 -0.060139287 0.102907255

weight f4 [32, 16]
00000000: a33a 923e f898 743e a651 bb3e 4a57 c7bd
00000010: 7d74 0f3b 00d8 033e 41e9 90bc 0bde 7b3e
00000020: 425e 84bb 4f6f 24be af37 033e f4d6 073e
00000030: 9375 f13d 0715 dc3e b31c 4e3e d450 913e
00000040: 1b07 adbd 396c 7ebe ae73 b3be 8bed 73be
00000050: 359a d4be 1c27 e7bd 79b5 d9be a875 dbbe
00000060: 1766 9cbe c140 e6be 151f 45be eb9c 113d
00000070: f890 b63e cc7f 51be 0af9 26bd 2da7 883e
00000080: d8af c7bd f43a 4dbe ced7 963e 0b02 91be
00000090: 1cf1 f63d 9376 8c3e 86d2 0b3e c10e 313e
000000a0: 3db3 0bbe 3e3e 913d 1c47 263b 3e69 263e
000000b0: 4ad6 ce3d 281c c43e 47e5 9cbe a643 13bd
000000c0: cccf e6bd 09ac a4be 383a 113d 84a7 93be
000000d0: 4966 9f3e d7a5 0abc 2e97 03be b478 7e3e
000000e0: a477 8dbe 0652 98bd c1a5 b8bd 1e8c 74be
000000f0: cb26 8bbe 9910 883b 292e 613e 35e7 903e
00000100: fac1 0c3e cd49 05be 02b1 a2be 559b 923e
00000110: 8b85 183d 0f19 d53d f6e7 10bd a6bb bdbe
00000120: 89b4 49be 36d0 823e aef5 21bd 366e cdbd
00000130: acfd 4fbe 8daf 8fbe d052 b13d 9407 e4bd
00000140: 783a 2ebe 3c34 823e f8c3 f0be f1f4 b43d
00000150: 3451 b8be 194e 3fbd e981 833c 4680 203e
00000160: c0b6 59be 1251 89be baa6 83be 6f32 9abe
00000170: 88b6 40be bcd0 4cbe 2047 483e 3f20 3fbe
00000180: e332 ca3e 0aa2 5f3e 1e35 85be 9418 16be
00000190: 7365 4e3e 8584 a2bd da33 413d cff7 96bd
000001a0: a9d7 b73e 25ae e5bd 16b8 9a3e 6125 de3d
000001b0: 371c 863d 380d b93e bba4 82bd 9459 5cbe
000001c0: b794 18be d3ba af3e 4ee5 b4be 8588 7c3d
000001d0: 5e28 e1be cba2 803e 8d63 2e3d b192 9bbd
000001e0: fdc7 8b3d 0e42 b6bd f4fb 613e 3619 bcbe
000001f0: 72d8 353c 2a8d 8d3d 6ced d43e 08c9 843e
00000200: 092a 33be e9a9 513e ef13 1a3b 381f 4ebd
00000210: 35fc 74be 6f36 09be a2e9 a83e f497 053e
00000220: 0cf5 0abe 21ac 413e 52f1 1ebe d716 ce3e
00000230: 618c c3be 412f 03bd 79cb d6be 0f45 69be
00000240: 44dd 4d3e 21bb a03e 214d 183e 2bc1 be3e
00000250: e3b0 223e 57b4 303e bdaf be3e 160f c53e
00000260: 50f1 eebd 32e7 d33e 944d 533e 8f5d 9cbd
00000270: 5667 4bbe c696 54be 95a0 703d a2a4 a7be
00000280: 2c32 5d3c 2b68 493e 3742 e2be 7372 ff3d
00000290: f4f9 27be 33a2 833e cf7e 8c3d 22f2 f8be
000002a0: b8a5 4f3e 1417 253e 212a 323e 2558 eabe
000002b0: 5df5 0abd cd44 72be 2149 d73a dfab 9f3e
000002c0: 6da2 463e f16e 683e dcc7 89bd 5dfe 123e
000002d0: ab46 443e 3087 b6be 94ce 8ebe 8b5d f2bd
000002e0: 8265 983e 4bb1 89be bd7a afbe 6812 863e
000002f0: 5d8e 063e 3795 b53e 5893 a8be 7cba a7be
00000300: 52cf cd3d f60b a53e 4945 063e bac8 353d
00000310: 54f2 0f3d 5616 b73e ef0d 9dbe 4bb2 76be
00000320: bf59 343e 185d a4be 0bd9 4bbe 2b1a 383e
00000330: 5e9c 063e 049d 123d 6849 04be d0e4 db3c
00000340: d171 633e b29b 08be 77f5 c7bd 685f 143e
00000350: e909 b1be 2d83 dd3e 9b5a 8cbe 55bc 3dbe
00000360: c4c9 40be d9ae a8be d053 99be d4aa d13d
00000370: 8568 383e 4948 dbbe 935b 0fbe 7869 e73e
00000380: 076d 693e d7f2 a23d 92c7 f3bd 507b 11be
00000390: a5b2 203d a204 10be 24f8 16be 660b f93d
000003a0: c0b5 de3d 9aa9 443d 2b56 8b3c 1286 35bd
000003b0: da14 a73c e7e9 693e d202 86be 09fc e0be
000003c0: 220e 5d3d 2d03 2f3e 03a8 9ebe 77b6 ab3e
000003d0: da19 95be 6a3b ac3e e066 543d 1959 dabe
000003e0: f4ec e23d 5272 e8be e084 1bbe d88b 3ebe
000003f0: 2693 13be f572 5f3e ca82 c33c 1d0c 823e
0.2856036 0.23886478 0.3658573 -0.09733446 0.00218895 0.12875366 -0.01768935 0.24596421
-0.0040395567 -0.16058086 0.1281421 0.13265592 0.11790004 0.42984793 0.20128135 0.2838198
-0.08448621 -0.24845971 -0.35049194 -0.23821084 -0.415239 -0.112867564 -0.42521265 -0.42863202
-0.30546638 -0.44971278 -0.19250138 0.03555004 0.35657477 -0.20458907 -0.040764846 0.26690045
-0.097503364 -0.2004202 0.2946152 -0.2832187 0.12057707 0.27434215 0.13654527 0.17290784
-0.13642593 0.0709195 0.0025371974 0.16251084 0.10099466 0.38302732 -0.30643675 -0.035953186
-0.11270103 -0.32162502 0.035455912 -0.28838742 0.31132725 -0.008462391 -0.12850639 0.24850732
-0.2763034 -0.0743752 -0.0901599 -0.23881575 -0.27178034 0.004152369 0.21990265 0.28301397
0.13745871 -0.13016434 -0.3177567 0.28634134 0.03723673 0.1040517 -0.035377465 -0.37057227
-0.19697775 0.25549477 -0.03954094 -0.10030787 -0.20311612 -0.28063622 0.08658373 -0.11134258
-0.17014492 0.25430477 -0.47024512 0.08835781 -0.35999453 -0.04670534 0.016053157 0.15673932
-0.2126112 -0.26819664 -0.2571314 -0.30116603 -0.1881963 -0.20001501 0.19558382 -0.18664645
0.39491948 0.21839157 -0.26017088 -0.14657813 0.20155887 -0.07935432 0.04716859 -0.073714845
0.35906723 -0.11214856 0.3021857 0.10846973 0.0654835 0.36142898 -0.06379076 -0.21518546
-0.1490048 0.34322223 -0.35331196 0.061653633 -0.4397611 0.251242 0.042575408 -0.075963385
0.06825254 -0.08899318 0.22068769 -0.36737984 0.011098968 0.069116905 0.4158739 0.25934625
-0.17496504 0.20474972 0.0023510417 -0.05032274 -0.23924334 -0.13399671 0.32990748 0.13046247
-0.1357004 0.18913318 -0.15521744 0.402518 -0.38193038 -0.032027487 -0.41952112 -0.2278025
0.20103937 0.31392768 0.14873172 0.3725675 0.1588779 0.17256294 0.37243453 0.38488072
-0.116671205 0.41387326 0.20635062 -0.076350324 -0.19863638 -0.2076064 0.058746893 -0.32742792
0.013500731 0.19668643 -0.44191143 0.12473001 -0.16403943 0.25709686 0.06860124 -0.48622233
0.2027806 0.16122085 0.17398883 -0.45770374 -0.033925403 -0.23659058 0.0016424992 0.31185815
0.19397898 0.22698571 -0.06727573 0.14354844 0.19167583 -0.35650015 -0.27891982 -0.11834248
0.29764944 -0.26893076 -0.3427333 0.26185918 0.13140245 0.35465404 -0.32924914 -0.32759464
0.10049309 0.32235688 0.13112368 0.04438088 0.03514321 0.35759228 -0.30674693 -0.24091451
0.1761236 -0.32102275 -0.19907014 0.17978732 0.13145587 0.035794273 -0.12918627 0.026842505
0.22211386 -0.13340643 -0.097636156 0.1448952 -0.34577873 0.43264142 -0.27412876 -0.18528874
-0.18826967 -0.32945898 -0.29946756 0.10237661 0.18008621 -0.42828587 -0.13999777 0.45197654
0.22795497 0.07956474 -0.119032994 -0.14207196 0.03923287 -0.14064267 -0.14743096 0.12160377
0.1087451 0.048013307 0.017008862 -0.044317313 0.020395685 0.22843133 -0.26174027 -0.43942288
0.053968556 0.17091055 -0.30987558 0.33537647 -0.29121286 0.3363908 0.05185592 -0.426461
0.110803515 -0.4539972 -0.15187407 -0.18608034 -0.14411601 0.21821196 0.023866076 0.25399867

bias f4 [16]
00000000: 6f21 953d efe5 843d e852 983d 6585 943d
00000010: 99e3 743d ee17 983d fc78 ba3d d833 7ebd
00000020: e3c9 913d 9406 b33d 9d0f c73d 7082 85bd
00000030: 773b 9c3d 0468 2fbd d590 963d 68a2 963d
0.072817676 0.06489169 0.07437688 0.072520055 0.059787367 0.07426439 0.09105107 -0.06206116
0.07118585 0.08741489 0.09719775 -0.065190196 0.076285295 -0.042823806 0.07351843 0.07355195

weight f4 [16, 32]
00000000: 362f 113d 2e8c 603e 30da 37be dbbd 32be
00000010: 48b9 573d bcee 82bc cbfd 87be becf 2f3e
00000020: 6313 95bd f464 e6bd 5f3c 173b 5712 03be
00000030: 2fe2 95be 1fef 103e 645e a4bd aa36 b33e
00000040: 1bc1 183d 6817 71bd 80d8 153e 3307 843e
00000050: 0fd3 2fbe d96e 633e cf60 223b 1a18 a2be
00000060: f88d 733d 59b2 91be 0c7e 7dbd e178 22be
00000070: e56b 9abe 5513 cd3e 413a cabe d0c7 4e3e
00000080: 00da a9be cbd6 123d 28c6 39bd 51df 903e
00000090: eff2 1ebe e819 fd3d 0a82 30bd 8f74 653e
000000a0: 4553 40bd c81e 983d 5216 3fbd e477 a3be
000000b0: 152b a23e 190f 52be e7a4 0fbe 5c2f ac3d
000000c0: 1730 b53e 506a 21be a513 68be 8bc8 d4bd
000000d0: 468f 313e d7ea 133e 11a5 5d3e 3d9f 14be
000000e0: 73d3 e13d c79c ccbe 46bf 353e e099 2a3e
000000f0: c438 323e 06f6 b4bd 4356 29be 4ec4 d33d
00000100: 458a 7bbe 7f84 42be 1a4f d2be 8e0d 793d
00000110: af0b 3e3e 46b9 e63d 35e4 aebd a468 283e
00000120: 06a1 99be 11ad 97bc 0a18 b13d 09a8 84be
00000130: d27a a83e 6370 47be d8b0 27bd 4d53 34be
00000140: 7140 9e3c 5a84 7fbe 86bb 353e ec78 49be
00000150: d960 723e 3fab 86be 7cb6 003e aa89 b2be
00000160: 17f0 fb3d 2f73 6abe 3404 853d 647c 21bd
00000170: f6f5 293e 395b 743e c718 c9be c6a6 993d
00000180: 3f32 81be 2b2e b43e 1fe3 65bc dfc4 5fbd
00000190: 9c10 58be 40c2 173e 70cb a2be e1cc 443e
000001a0: cdee ef3d 9bcf 1f3e da36 883e a222 c8be
000001b0: 88ca 863e bebd 40bd 7c5d 43be 5fb9 c73d
000001c0: 5051 8c3e d6b8 3c3e 38b2 d73d c4fa 213e
000001d0: 8fa1 aabe eb04 4a3c 7f1b cbbe 20b1 223d
000001e0: ab7f a1be 32f2 4bbe e658 983e 3f7a b23e
000001f0: 36dd 8bbe 2dee 97bd 1377 0fbd 4a55 293e
00000200: 391a 9fbd b48a 20bd a731 97be b62d 373e
00000210: b173 a43e 671a 1cbe 29e1 9e3d a43d 363e
00000220: 562a 633e b719 c7bd 52a7 2e3e 2a40 453e
00000230: 4d69 5d3e 5379 c63e bffd 2fbe e147 843e
00000240: b4b8 7b3e d641 a0be 554b d43d 8340 c9bd
00000250: 5ece 583e f6aa 25be 73c2 36bd 4b90 143e
00000260: c5da bfbe c881 b6be efe8 1bbe 5b83 643e
00000270: 7f65 403e 2a8f 09be 77c9 253b b47b 38be
00000280: 5825 30be c1a2 ca3e 0ac1 c53d ea3c 7abd
00000290: fc07 bc3c f000 ca3d 7480 e2bc d310 c2bd
000002a0: 9a7e 92be f3d2 2f3e a3f0 663e a9b5 823d
000002b0: 9c36 fcbd af79 723e e314 2a3e fa9e b53e
000002c0: 50a9 e73d f824 833e 475b 523d 9f31 853d
000002d0: cc4e aa3e 6d4d b73e 84b2 71be a8de 703e
000002e0: 0d0d 853d 2102 efbd c874 b93e f638 2fbe
000002f0: 1987 2b3e 8672 f43e b676 a6be 2a98 38be
00000300: c53e 7ebe 8de1 523d 54dc e0be 9ca5 82bd
00000310: a3a4 843d f97e 953e 08ab 563d 3681 a23e
00000320: aa51 4c3d 5944 a7be 20e8 afbd 34b4 b9bd
00000330: 9907 f03e 2c4c 1f3e d49e 29be 04a0 b3bd
00000340: 77d3 7fbd a41b cbbe c7f7 c03e aef0 bb3c
00000350: 7b1d 60be af18 593e 09ae a3bd 442f 17be
00000360: aa32 173d eeb1 883d fbe5 4ebe 5da0 29be
00000370: 3ca8 ccbd 8fa4 3cbe ee74 d8be a4e2 de3e
00000380: 982d 97bd 053d 78be 6a23 3fbd 6943 a6be
00000390: 762e 9e3e 0969 cbbd 66b5 ecbd f017 abbe
000003a0: 24d4 8a3e 68ef e13c 4ac8 22be 8b3a c2bc
000003b0: 6450 73be f264 3ebc ce86 b93e f05d 91be
000003c0: 8610 30bd 6f74 3fbe 1e41 64be 4732 8c3e
000003d0: 5b6a 32bd 760f 823e 46a0 d43b 049b ffbd
000003e0: 88ce 22be ecd6 c93e 9e08 afbe 9149 053e
000003f0: 8a4a 0f3e 6227 e83c b649 883e 1142 21be
0.035445414 0.21928474 -0.17954326 -0.17455237 0.052666932 -0.015982978 -0.26560816 0.17169091
-0.07279088 -0.11249724 0.0023076755 -0.12799965 -0.29274127 0.14153717 -0.08025816 0.35002643
0.037293535 -0.058860213 0.1463337 0.25786743 -0.17170356 0.22210254 0.002477694 -0.31659013
0.059461564 -0.2845638 -0.061887786 -0.15866424 -0.30160442 0.40053812 -0.3949757 0.2019341
-0.33174133 0.035849374 -0.045354992 0.28295377 -0.1552236 0.12358457 -0.043092765 0.22407745
-0.046954412 0.07427746 -0.046652146 -0.31927407 0.31673494 -0.20513572 -0.14027749 0.084074706
0.35388252 -0.15763211 -0.22663744 -0.10389813 0.1733981 0.14445053 0.21644999 -0.1451387
0.11026659 -0.39963362 0.17748746 0.16660261 0.17404467 -0.08835988 -0.16536812 0.103401765
-0.24564464 -0.18995856 -0.41075975 0.060803942 0.18559144 0.11265807 -0.08539621 0.16446167
-0.30005664 -0.018515142 0.08647163 -0.2590945 0.32906204 -0.19476466 -0.040940136 -0.17609902
0.019317837 -0.24952832 0.17747316 -0.19675034 0.23669757 -0.26302525 0.12569612 -0.34870654
0.12301653 -0.22895502 0.06494942 -0.03942527 0.16597733 0.23862924 -0.39276716 0.07502513
-0.25233647 0.35191473 -0.014031201 -0.05463111 -0.21100086 0.14820194 -0.31795835 0.1921878
0.117154695 0.15606539 0.26604348 -0.39088923 0.26326394 -0.047055952 -0.1907863 0.097521536
0.27405787 0.18429884 0.105320394 0.15818316 -0.33326384 0.012330274 -0.39669415 0.0397197
-0.31542715 -0.19916609 0.29755324 0.3485889 -0.27317208 -0.07418475 -0.035025667 0.16536441
-0.077686734 -0.039194778 -0.2953007 0.17888531 0.32119516 -0.15244447 0.0775779 0.17796952
0.22184119 -0.097217016 0.17056015 0.19262758 0.216222 0.38764438 -0.1718664 0.2583609
0.24582177 -0.3130023 0.10365931 -0.09826758 0.21172473 -0.16178498 -0.044619035 0.14508168
-0.37471595 -0.3564589 -0.15225576 0.22315733 0.18788718 -0.13433519 0.0025297084 -0.18015939
-0.17201746 0.39577296 0.0965596 -0.06109325 0.022953026 0.0986346 -0.027649142 -0.09475865
-0.28612214 0.17170314 0.22552733 0.06382305 -0.123151034 0.23679231 0.1660953 0.35472852
0.11311591 0.25614142 0.05135658 0.06503605 0.33263242 0.3580126 -0.23603255 0.23522437
0.0649663 -0.11670328 0.3622191 -0.17111573 0.16750754 0.47743624 -0.32512444 -0.18026796
-0.24828632 0.051484633 -0.43918097 -0.06379244 0.064767145 0.29198435 0.0524092 0.31739205
0.04988257 -0.32669333 -0.08589196 -0.09067574 0.46880797 0.15556401 -0.16564494 -0.08770755
-0.062457528 -0.39669526 0.3768904 0.022941913 -0.21886246 0.21200822 -0.07992179 -0.14764124
0.03691355 0.066745624 -0.20204918 -0.1656508 -0.09993026 -0.18422149 -0.4227671 0.43532288
-0.07381743 -0.24242027 -0.046664633 -0.32473305 0.30894822 -0.09932143 -0.115580365 -0.334167
0.27114975 0.027579978 -0.15896717 -0.023709556 -0.23761135 -0.011620747 0.3623566 -0.2839198
-0.042984508 -0.1869676 -0.22290465 0.2738211 -0.04355846 0.2540242 0.0064888326 -0.12480739
-0.15899098 0.39421785 -0.34186262 0.13016345 0.13993278 0.028339092 0.26618737 -0.15747859

bias f4 [2]
00000000: 98a3 893d 3a83 a73d
0.06720656 0.08179326

weight f4 [2, 16]
00000000: 0835 113f 6c11 1f3e a0c6 093f 2263 eb3e
00000010: 895b 303e 2ee8 953e 2bf6 983e 8312 67bc
00000020: cc00 f23e d862 273f 4630 883e cdbc 23bd
00000030: 1230 263f eeb2 05bf cd7f 0c3f 57ff c33e
00000040: 10a4 003f 5da9 553a 961b 8dbe 90ee 053f
00000050: 932a 51be ae6b 8c3e 499b ea3e bd3d 21bf
00000060: 490a 143d 7336 8abd 10a3 f93e 07f4 b6be
00000070: 86c0 ff3e 6d7e 8a3e a3ce ec3e 554f 293f
0.56721544 0.1553399 0.538187 0.4597407 0.17222418 0.29278702 0.2987531 -0.014103535
0.47266233 0.653852 0.2659933 -0.039974976 0.649171 -0.5222615 0.5488251 0.38280746
0.5025034 0.0008150542 -0.2756011 0.5231714 -0.20426397 0.27425903 0.45821598 -0.6298483
0.03614262 -0.067486666 0.4875722 -0.35733053 0.4995157 0.2704958 0.462514 0.66136676

weight f4 [1, 2]
00000000: db7e 8f3f 8378 8e3e
1.1210588 0.27826318

pout f4 [50, 3]
00000000: bff6 903c 237f a339 98ff b836 913f 7b3d
00000010: 8c95 763b de01 7239 0fee 443d da7b 173b
00000020: 650f e938 0fee 443d 614e f63b 4260 5d3a
00000030: 5e52 9a3d 0e0d ba3b 6b4f e039 a17b d23c
00000040: 6630 923b 79ec 0c3a f33d 133d 3760 a93a
00000050: 7dd6 4238 a17b d23c 2c6d 313a 7c58 8b37
00000060: 933f 7b3d 6495 763b a901 7239 5c52 9a3d
00000070: de4c b93b 1722 df39 bff6 903c 1f97 d139
00000080: a8cf f836 bff6 903c 7c04 a339 d196 b236
00000090: f33d 133d 2660 a93a 60d6 4238 0fee 443d
000000a0: 457d 173b 8d11 e938 a37b d23c 1064 2b3a
000000b0: bc57 8937 f53d 133d f076 ad3a 9f27 3f38
000000c0: 5c52 9a3d f30d ba3b 7e50 e039 bff6 903c
000000d0: 9c6b a239 7615 b336 5c52 9a3d 5f0e ba3b
000000e0: 0251 e039 11ee 443d 7f7b 173b d90e e938
000000f0: a17b d23c 5909 2d3a 3845 8e37 5c52 9a3d
00000100: 3e88 b93b a98f df39 913f 7b3d 75b1 7a3b
00000110: 2375 6d39 a17b d23c a678 853a 1b4e 0438
00000120: 0dee 443d 1757 173b 3ed3 e838 5c52 9a3d
00000130: 4d2b b93b 15db de39 bff6 903c f4f9 a339
00000140: 58b1 b936 0388 ba3d e9df 073c 9801 463a
00000150: 943f 7b3d f072 763b c2de 7139 943f 7b3d
00000160: 83d3 743b fb38 6f39 913f 7b3d 04d8 743b
00000170: a004 6c39 f33d 133d 1458 b03a 214c 4238
00000180: 18b3 e23d 74b2 483c cbb9 b13a bdf6 903c
00000190: 3b47 ab39 11f0 b836 bff6 903c 2582 a339
000001a0: 7104 b936 0fee 443d ffa9 3c3b 98bb 1639
000001b0: 18b3 e23d d5f7 4c3c 48a7 af3a 5c52 9a3d
000001c0: fb62 d03b 5591 f739 0fee 443d 65bd 453b
000001d0: a1e4 2239 f53d 133d d8f0 b33a d2dd 4638
000001e0: 913f 7b3d 5a39 753b 27aa 6b39 913f 7b3d
000001f0: 4988 763b b7f4 7139 f33d 133d 6f5d a93a
00000200: 4fd3 4238 a17b d23c ef07 2b3a 33c3 8a37
00000210: 913f 7b3d 528a 763b baf6 7139 8f3f 7b3d
00000220: 69e5 7c3b 6a30 6f39 5c52 9a3d 4629 b93b
00000230: 8cd6 de39 a17b d23c d494 2c3a 13fc 8837
00000240: a37b d23c 720f 2b3a e5fa 8937 0588 ba3d
00000250: eee9 073c 5b10 463a
0.017695783 0.00031184507 5.5133823e-06 0.06133992 0.0037625758 0.00023079614 0.048078593 0.0023114593
0.00011113173 0.048078593 0.0075166677 0.00084448245 0.075352415 0.005677826 0.0004278378 0.025693716
0.004461336 0.00053758133 0.03594775 0.0012922351 4.6452962e-05 0.025693716 0.0006768282 1.6611295e-05
0.061339926 0.0037625665 0.00023079537 0.0753524 0.0056549152 0.00042559273 0.017695783 0.0003997618
7.4151503e-06 0.017695783 0.00031093124 5.3223707e-06 0.03594775 0.0012922331 4.6452857e-05 0.048078593
0.0023115438 0.00011113575 0.02569372 0.0006538043 1.6372527e-05 0.03594776 0.0013234299 4.557485e-05
0.0753524 0.0056779324 0.0004278458 0.017695783 0.00030979223 5.337114e-06 0.0753524 0.0056779827
0.00042784965 0.0480786 0.002311438 0.000111130714 0.025693716 0.0006600819 1.6959952e-05 0.0753524
0.0056619933 0.0004264091 0.06133992 0.0038252745 0.00022645718 0.025693716 0.0010183051 3.1543994e-05
0.048078585 0.002309268 0.00011101969 0.0753524 0.005650914 0.00042506368 0.017695783 0.00031276012
5.534075e-06 0.091079734 0.00829313 0.0007553338 0.06133993 0.003760513 0.00023066535 0.06133993
0.0037357516 0.00022814043 0.06133992 0.00373602 0.00022508437 0.03594775 0.0013453984 4.6324105e-05
0.11069316 0.012249578 0.0013559399 0.017695779 0.00032668732 5.5115747e-06 0.017695783 0.00031186748
5.5139467e-06 0.048078593 0.002878785 0.00014374999 0.11069316 0.01251026 0.0013401294 0.0753524
0.0063594556 0.00047219792 0.048078593 0.0030172702 0.00015534695 0.03594776 0.0013728393 4.7413465e-05
0.06133992 0.0037418217 0.00022474733 0.06133992 0.0037617853 0.00023074714 0.03594775 0.0012921522
4.645e-05 0.025693716 0.00065243145 1.6541779e-05 0.06133992 0.0037619066 0.00023075464 0.06133991
0.0038588888 0.00022810852 0.0753524 0.005650672 0.0004250299 0.025693716 0.00065834564 1.6329845e-05
0.02569372 0.0006525434 1.6448505e-05 0.09107975 0.008295519 0.0007555538

throughput f4 [50, 1]
00000000: 6078 fb3f 084c f03f 22b1 f33f f94f f23f
00000010: b7b5 ec3f 685f f83f 21cc f63f 1f6b f93f
00000020: 084c f03f 22b7 ec3f b272 fb3f 7278 fb3f
00000030: 21cc f63f 1fb1 f33f 926c f93f 49ca f63f
00000040: b5b5 ec3f 8378 fb3f b5b5 ec3f 22b1 f33f
00000050: 236c f93f b0b6 ec3f ad48 f03f ee54 f93f
00000060: 43b1 f33f 65b7 ec3f 4f78 fb3f 24af e83f
00000070: 284c f03f be4d f03f e94d f03f e5c8 f63f
00000080: d0a9 e33f 7177 fb3f 5f78 fb3f 6b8d f33f
00000090: 359d e33f d78c ec3f 7b84 f33f 29c7 f63f
000000a0: 994d f03f 134c f03f 22cc f63f a46c f93f
000000b0: 114c f03f a246 f03f 68b7 ec3f 4b6c f93f
000000c0: a66c f93f 00af e83f
1.964611 1.8773203 1.9038432 1.8930656 1.8492955 1.9404116 1.9281045 1.9485816
1.8773203 1.8493388 1.9644377 1.9646132 1.9281045 1.9038428 1.9486258 1.9280483
1.8492953 1.9646152 1.8492953 1.9038432 1.9486126 1.8493252 1.8772179 1.9479043
1.9038471 1.8493468 1.964609 1.8178449 1.8773241 1.8773725 1.8773776 1.9280058
1.7786198 1.9645826 1.9646109 1.9027532 1.7782351 1.8480481 1.9024805 1.9279529
1.8773681 1.8773216 1.9281046 1.948628 1.8773214 1.8771555 1.8493471 1.9486173
1.9486282 1.8178406

delay f4 [50, 1]
00000000: 367d 503d ee2e 5a3d ce24 573d 5e5e 583d
00000010: 617d 5d3d d916 533d c76f 543d 4534 523d
00000020: ee2e 5a3d 0d7c 5d3d eb81 503d 287d 503d
00000030: c76f 543d d124 573d 0d33 523d 5c71 543d
00000040: 637d 5d3d 1a7d 503d 637d 5d3d ce24 573d
00000050: 6a33 523d 787c 5d3d fb31 5a3d fb46 523d
00000060: b224 573d cf7b 5d3d 457d 503d 5f52 613d
00000070: d22e 5a3d 612d 5a3d 3a2d 5a3d 9072 543d
00000080: 794a 663d fc7d 503d 377d 503d 5b44 573d
00000090: 3c57 663d a5a3 5d3d 424c 573d 0d74 543d
000000a0: 832d 5a3d e52e 5a3d c66f 543d fd32 523d
000000b0: e62e 5a3d d533 5a3d cb7b 5d3d 4833 523d
000000c0: fc32 523d 8152 613d
0.05090066 0.053267412 0.052525334 0.05282437 0.05407465 0.05153546 0.05186441 0.05131938
0.053267412 0.054073382 0.05090515 0.05090061 0.05186441 0.052525345 0.051318217 0.05186592
0.054074656 0.050900556 0.054074656 0.052525334 0.051318564 0.05407378 0.05327032 0.051337224
0.05252523 0.05407315 0.050900716 0.055010196 0.053267308 0.053265933 0.053265788 0.051867068
0.056223366 0.050901398 0.050900664 0.052555423 0.056235537 0.05411114 0.05256296 0.051868487
0.05326606 0.05326738 0.051864408 0.051318157 0.053267382 0.053272087 0.054073136 0.051318437
0.051318154 0.055010322

ef1 f4 [50]
00000000: 8179 abc0 4327 6fc0 b2bb 81c0 2319 4bc0
00000010: 85ff 5dc0 cda6 57c0 06db 8dc0 a725 9cc0
00000020: 4927 6fc0 f524 5ec0 2d5b a7c0 f2f6 abc0
00000030: 09db 8dc0 91bb 81c0 2a59 9cc0 ec1e 8ec0
00000040: 63ff 5dc0 1bed abc0 53ff 5dc0 babb 81c0
00000050: c1db 9bc0 5217 5ec0 4eae 6fc0 133c 93c0
00000060: 49bf 81c0 cf2d 5ec0 2d6c abc0 f832 4ec0
00000070: 4c2b 6fc0 9d79 6fc0 93d9 6fc0 e8e4 8dc0
00000080: c5ef 3dc0 ab7a abc0 2379 abc0 2750 7cc0
00000090: 3a43 3ec0 8d41 5bc0 1828 7ac0 3692 8dc0
000000a0: 3ce4 6fc0 c628 6fc0 41db 8dc0 9334 9cc0
000000b0: 8b28 6fc0 9c7a 6fc0 602e 5ec0 7362 9cc0
000000c0: b148 9cc0 e630 4ec0
-5.358582 -3.7367713 -4.054162 -3.1734092 -3.4687207 -3.3695557 -4.4329863 -4.879596
-3.7367728 -3.4710057 -5.22988 -5.3738947 -4.4329877 -4.0541463 -4.8858843 -4.4412746
-3.4687126 -5.3726935 -3.4687088 -4.054166 -4.8705754 -3.4701734 -3.7450137 -4.6010833
-4.0546002 -3.471546 -5.356955 -3.221861 -3.7370176 -3.7417977 -3.7476547 -4.4341927
-2.9677594 -5.358724 -5.358537 -3.942392 -2.9728532 -3.425876 -3.9086971 -4.424098
-3.7483053 -3.7368636 -4.4330144 -4.8814178 -3.7368495 -3.7418585 -3.4715805 -4.8870177
-4.8838735 -3.2217345

ef2 f4 [50, 1]
00000000: e027 9dc2 687f 4441 8094 1c40 f07c 8140
00000010: c05c 8f41 700f 13c2 c000 57c1 3204 19c2
00000020: 787f 4441 c09d 8f41 c2b6 9bc2 60b3 9cc2
00000030: b000 57c1 2091 1c40 36c5 19c2 20d5 50c1
00000040: 865c 8f41 3cc8 9cc2 6c5c 8f41 4095 1c40
00000050: 249b 1ac2 0286 8f41 94e1 4941 acf3 16c2
00000060: c0f1 1c40 46ad 8f41 9e31 9dc2 e8e9 a241
00000070: f08c 4441 9496 4541 2045 4741 c805 50c1
00000080: 487c a341 ba4c 9cc2 2428 9dc2 6027 4c40
00000090: e248 a641 a21a 9441 c0b6 4f40 9835 4fc1
000000a0: 04a1 4741 7084 4441 50ff 56c1 1815 1ac2
000000b0: a483 4441 ec6e 4a41 46ae 8f41 ee82 19c2
000000c0: 34ef 19c2 5ae6 a241
-78.57788 12.281105 2.4465637 4.046501 17.920288 -36.765076 -13.437683 -38.254097
12.28112 17.952026 -77.85695 -78.35034 -13.437668 2.4463577 -38.44259 -13.052032
17.920177 -78.39108 17.920128 2.4466095 -38.651505 17.940434 12.617573 -37.73796
2.4522552 17.959606 -78.59691 20.364212 12.284409 12.349262 12.454376 -13.001411
20.435684 -78.14986 -78.5784 3.1899033 20.785587 18.513004 3.2455292 -12.950584
12.47681 12.282333 -13.437332 -38.5206 12.282139 12.652081 17.960094 -38.37786
-38.483597 20.362476
