Data_model_drive_direct-main/train/models/HARQ-NumN=4-NumK=3_model_pd_m - 副本.pt (torch, 158958 bytes, 63 tensors)

bias f4 [4]
0	0x00000000	0.0
1	0x00000000	0.0
2	0x00000000	0.0
3	0x00000000	0.0

weight f4 [4, 1]
0	0xbf0887db	-0.533323
1	0x3f24b1aa	0.64333594
2	0x3f7736f0	0.965682
3	0xbf4dbbf8	-0.8036494

bias f4 [8]
0	0x00000000	0.0
1	0x00000000	0.0
2	0x00000000	0.0
3	0x00000000	0.0
4	0x00000000	0.0
5	0x00000000	0.0
6	0x00000000	0.0
7	0x00000000	0.0

weight f4 [8, 4]
0	0x3e985de2	0.29759127
1	0x3f219e39	0.63132054
2	0x3ed147aa	0.40874988
3	0xbe9e45fb	-0.30912766
4	0x3ed0fdfe	0.4081878
5	0x3e018e70	0.12651992
6	0x3eb7db1e	0.3590936
7	0xbedcaa16	-0.43098515
8	0xbf33314c	-0.69997096
9	0xbe8be0a1	-0.27319816
10	0xbf0ad891	-0.54236704
11	0x3f14888d	0.5802086
12	0x3e508e94	0.20366889
13	0x3e95f618	0.29289317
14	0x3e64ff60	0.22363043
15	0xbc498940	-0.012300789
16	0x3f0daacf	0.5533876
17	0xbf009de0	-0.502409
18	0x3d365cc0	0.044522047
19	0xbef71b1e	-0.48262876
20	0x3e5f454c	0.21803778
21	0xbe795c02	-0.24351504
22	0x3e5dde7c	0.21666902
23	0xbe16daf8	-0.14731967
24	0x3f1622cf	0.58646864
25	0xbed694bd	-0.41910353
26	0xbed7eb4c	-0.42171705
27	0xbed7eea3	-0.42174253
28	0x3f22d109	0.6360021
29	0x3e714cb0	0.2356441
30	0x3f2e2f9d	0.680414
31	0xbf156416	-0.58355844

weight f4 [1, 8]
0	0x3eddce64	0.43321526
1	0xbea8f9e7	-0.3300316
2	0x3efdb8e4	0.49555123
3	0xbe4667c0	-0.19375515
4	0x3eef2444	0.46707356
5	0xbf22677f	-0.6343917
6	0xbed2f78a	-0.41204482
7	0x3e7ee7a8	0.24893057

bias f4 [16]
0	0xbdb5426c	-0.088505596
1	0xbdaae09e	-0.083436236
2	0xbdc87c25	-0.09789304
3	0xbd12c0c9	-0.035828386
4	0x3ca614a0	0.020273507
5	0xbdb79999	-0.08964843
6	0xbc4f9416	-0.012669584
7	0xbde5bd20	-0.11217713
8	0x3ccce857	0.025013132
9	0xbdea510c	-0.1144124
10	0x3d807df1	0.062740214
11	0xbde702f2	-0.11279859
12	0x3d72d12f	0.059281524
13	0x3d832230	0.06403005
14	0xbdea106e	-0.11428915
15	0x3d91a6ed	0.07111917

weight f4 [16, 1]
0	0xbeaf1f92	-0.34203774
1	0xbe10c7a9	-0.14138664
2	0xbea45f0d	-0.32103768
3	0x3ebc5929	0.36786774
4	0xbed86db1	-0.42271188
5	0xbeb074b5	-0.3446404
6	0xbe443e38	-0.1916436
7	0xbee80ee5	-0.45323864
8	0x3de30919	0.110857196
9	0xbf2e4ec9	-0.68088967
10	0x3f13ea21	0.5777913
11	0xbf19b369	-0.60039383
12	0x3f0ed7fa	0.55798304
13	0x3e2be0dd	0.16784997
14	0xbe9e865e	-0.3096189
15	0x3ed35b02	0.4128037

bias f4 [32]
0	0xbdbf94af	-0.09354531
1	0x3da99fe8	0.08282453
2	0xbe21f53b	-0.15816204
3	0xbd116e0b	-0.035505336
4	0x3dc06e10	0.09395993
5	0x3ddb842c	0.10718569
6	0x3d9d6361	0.07684971
7	0xbd933cf2	-0.07189359
8	0xbe11a92b	-0.14224689
9	0xbe0885c2	-0.13332275
10	0x3da24912	0.07924093
11	0xbdc3ab5a	-0.09554167
12	0xbdd8ef2e	-0.10592495
13	0x3c27b678	0.010236375
14	0x3db59f46	0.088682696
15	0xbd9eaf82	-0.07748319
16	0xbd960c70	-0.07326591
17	0xbdc3ee9b	-0.09566995
18	0x3db91d40	0.09038782
19	0x3c051f5c	0.008125152
20	0x3d99bf59	0.075072
21	0xbdf54f38	-0.119780004
22	0xbde3f86a	-0.111313656
23	0xbdf94767	-0.12171822
24	0x3de3600e	0.11102305
25	0x3db26949	0.08711488
26	0x3dbd2e79	0.092373796
27	0xbdbae84f	-0.091263406
28	0xbc9560c3	-0.018234616
29	0xbdf0975d	-0.1174762
30	0xbe13f514	-0.14448959
31	0x3dc2dabb	0.09514376

weight f4 [32, 16]
0	0x3ea27b59	0.31734732
1	0xbdc61c17	-0.096733265
2	0xbd43fcbe	-0.047848456
3	0x3e232b9f	0.15934609
4	0xbd81bf7f	-0.06335353
5	0x3e4a6973	0.19766788
6	0xbd69221c	-0.056917295
7	0xbe5184e7	-0.20460854
8	0x3e0e5b23	0.13901953
9	0x3dbff9ed	0.093738414
10	0x3e146b8a	0.14494148
11	0x3ec766e0	0.38945675
12	0x3e6c9506	0.23103723
13	0x3ea65270	0.3248477
14	0x3d48f84c	0.04906492
15	0xbea26589	-0.3171809
16	0xbe93faa5	-0.28902164
17	0xbe83cc77	-0.25741932
18	0xbeb452b9	-0.35219362
19	0xbe1add5f	-0.15123509
20	0xbebbc906	-0.36676806
21	0xbebc13ae	-0.36733764
22	0xbe7916e7	-0.24325143
23	0xbec88ba1	-0.39169028
24	0xbe499d14	-0.19688827
25	0x3db60929	0.08888466
26	0x3ea52c93	0.3226057
27	0xbe19d157	-0.15021263
28	0xbd9ea62d	-0.07746539
29	0x3e5bc78b	0.21462838
30	0xbe5b9184	-0.21442229
31	0xbe0e6340	-0.13905048
32	0x3eb6a176	0.3567006
33	0xbe2323bd	-0.15931602
34	0x3e3b8ea1	0.18316127
35	0x3e3f8405	0.18702705
36	0x3e47c3b5	0.1950825
37	0x3e70ef31	0.23528744
38	0xbd949cbc	-0.07256457
39	0x3e0a0e55	0.1348203
40	0xbe10b369	-0.1413094
41	0x3e67bf18	0.2263149
42	0x3bdf86bb	0.006821481
43	0x3ee4990d	0.44648018
44	0xbecfd251	-0.40590146
45	0xbe0dbdc9	-0.13841929
46	0xbd0778a9	-0.033074055
47	0xbed2bfd9	-0.41161993
48	0x3ad2501d	0.0016045604
49	0xbe8f36c1	-0.2797146
50	0x3e8da9b2	0.2766853
51	0x3c66738b	0.0140656335
52	0xbe24f4e7	-0.16109048
53	0x3e5bdf5e	0.21471927
54	0xbe9d8c3e	-0.3077106
55	0xbdda9352	-0.1067263
56	0xbdbd7b6a	-0.09252055
57	0xbe8a594d	-0.27021256
58	0xbe818154	-0.25293982
59	0xbce1e41c	-0.027574591
60	0x3e772b09	0.2413751
61	0x3ea12a4e	0.31477588
62	0x3e82609b	0.2546433
63	0xbe7543e0	-0.23951674
64	0xbe89f5da	-0.26945382
65	0x3e8d4b78	0.2759664
66	0x3db33b28	0.087515175
67	0x3ce8bf49	0.028411524
68	0x3c0e655c	0.008691158
69	0xbea51ad7	-0.3224704
70	0xbe14dba0	-0.14536905
71	0x3e99397c	0.2992667
72	0xbd99ef8c	-0.07516393
73	0xbd807030	-0.06271398
74	0xbe8baa5c	-0.2727841
75	0xbe775a02	-0.24155429
76	0x3c3496d2	0.0110222865
77	0xbe4dd036	-0.20098957
78	0xbda49601	-0.080364235
79	0x3e29069d	0.16506429
80	0xbec4cb0e	-0.38436168
81	0x3d98fcac	0.07470068
82	0xbe8b00b2	-0.27148968
83	0xbe208595	-0.15675958
84	0x3dc3c252	0.09558548
85	0x3e7833c6	0.242385
86	0xbdfda3ea	-0.1238478
87	0xbe3fecf4	-0.18742734
88	0xbe9c4a22	-0.3052531
89	0xbe6b0869	-0.22952427
90	0xbe95cf62	-0.29259783
91	0xbe01aed0	-0.12664342
92	0x3db5392f	0.088487975
93	0xbea16750	-0.31524134
94	0x3e8b36b8	0.27190185
95	0x3e74c7fb	0.23904411
96	0xbec66a53	-0.38752994
97	0xbe550a17	-0.2080463
98	0x3d97e3a8	0.07416469
99	0xbd3538bf	-0.04424357
100	0xbda3ddbc	-0.08001277
101	0xbe4e0417	-0.20118748
102	0x3e803b1f	0.25045106
103	0xbe76a36c	-0.24085778
104	0x3ea212cb	0.31654963
105	0xbcb9fc46	-0.022703301
106	0x3dcf1533	0.10111465
107	0x3e6c962d	0.23104163
108	0xbcf78dc0	-0.030218959
109	0xbe30fc6a	-0.17283788
110	0xbdc87475	-0.097878374
111	0x3ea2648d	0.3171734
112	0xbe70dd99	-0.23522033
113	0x3dd01161	0.10159565
114	0xbea44fe8	-0.32092214
115	0x3e31250c	0.17299289
116	0x3e228ede	0.15874812
117	0x3d2cf926	0.042229794
118	0x3e2eac9b	0.17058031
119	0x3cf54fe3	0.02994532
120	0x3e445679	0.19173612
121	0xbe7d1203	-0.24713902
122	0xbd84c6ce	-0.064832315
123	0x3e412899	0.18863143
124	0x3eaec46e	0.3413424
125	0x3e2f6d78	0.17131603
126	0xbe6d07e3	-0.2314754
127	0x3e849102	0.25891882
128	0x3d4887e3	0.048957717
129	0x3d819b4c	0.06328449
130	0xbe450681	-0.19240762
131	0xbe2f711b	-0.1713299
132	0x3ebf1d58	0.37327075
133	0x3e359e47	0.1773616
134	0xbdaa1dc4	-0.083064586
135	0x3e72d9f8	0.23715961
136	0xbe885823	-0.26629743
137	0x3ee6af06	0.45055407
138	0xbedb1399	-0.4278839
139	0x3c82af2d	0.015952671
140	0xbeefa116	-0.46802586
141	0xbe8ec95b	-0.27887997
142	0x3e7a0ec1	0.2441969
143	0x3e5f2671	0.21792008
144	0x3e2d820a	0.16944137
145	0x3eed7bbf	0.46383473
146	0x3e384d99	0.17998351
147	0x3ddca3b3	0.10773411
148	0x3ec7bbf6	0.3901059
149	0x3ecfc9f9	0.4058378
150	0xbdc09068	-0.09402543
151	0x3edf5120	0.4361658
152	0x3dbe8404	0.09302524
153	0xbd5c60e4	-0.05380334
154	0xbe8a123f	-0.26967046
155	0xbe3dd471	-0.18538071
156	0xbc8196fd	-0.015819067
157	0xbecd0f20	-0.40050602
158	0x3e869490	0.2628522
159	0x3c1c55e3	0.009541961
160	0xbeb6879b	-0.35650334
161	0x3d4115c1	0.047139887
162	0xbd9fcb4c	-0.07802448
163	0x3e4b9267	0.19880067
164	0x3e1dd7fc	0.15414423
165	0xbecd4aed	-0.40096226
166	0x3e908c10	0.2823186
167	0x3e7b9a4f	0.24570583
168	0x3e3530dc	0.1769442
169	0xbec0559b	-0.37565312
170	0xbdb1dc00	-0.0868454
171	0xbe1e15fe	-0.15438077
172	0xbd585a0d	-0.052820254
173	0x3e7506aa	0.23928323
174	0x3da24e90	0.07925141
175	0x3ea3dd12	0.320046
176	0xbd5a1349	-0.053241048
177	0x3e533f5c	0.20629638
178	0x3e52a64f	0.20571254
179	0xbeb983d8	-0.362334
180	0xbe88c842	-0.26715285
181	0xbdd52604	-0.104076415
182	0x3ea11c26	0.31466788
183	0xbe8196f6	-0.25310487
184	0xbec9bf82	-0.3940392
185	0x3e8e3682	0.2777596
186	0x3df23778	0.11826986
187	0x3ebd90e3	0.37024602
188	0xbeae8267	-0.34083864
189	0xbeaefd01	-0.34177402
190	0x3e86e187	0.2634394
191	0x3e6f692d	0.23379965
192	0x3e9ab459	0.3021572
193	0x3e204306	0.15650567
194	0x3e551b70	0.20811248
195	0x3e83a01d	0.25708094
196	0xbe11242f	-0.14173959
197	0xbd8ead12	-0.06966604
198	0x3ea9734b	0.33095774
199	0xbe1a74dc	-0.15083641
200	0xbe987c3e	-0.2978229
201	0x3eb290a5	0.3487598
202	0x3ce26063	0.027633851
203	0x3e51a89d	0.20474477
204	0xbe71b747	-0.23605071
205	0xbdd18051	-0.102295525
206	0x3ed60307	0.41799185
207	0xbe9857f8	-0.29754615
208	0x3d4c0e99	0.04981861
209	0x3e675828	0.22592223
210	0xbe48ac67	-0.19597016
211	0x3e8f5a93	0.2799879
212	0xbe07c058	-0.13256967
213	0xbd1b829d	-0.03796636
214	0xbd2467f3	-0.040138196
215	0xbe3f0287	-0.18653308
216	0xbed829fa	-0.42219526
217	0x3e744891	0.23855807
218	0x3cf3bb11	0.029752286
219	0xbe94c480	-0.29056168
220	0xbe96bcd9	-0.29440954
221	0x3e8f912f	0.28040454
222	0x3e3ddf36	0.1854218
223	0x3d9eb8b4	0.07750073
224	0xbe7bab60	-0.24577093
225	0xbe3bd593	-0.18343191
226	0xbdb21800	-0.08695984
227	0xbd486533	-0.048924636
228	0xbe8e2ca5	-0.27768436
229	0xbbacc64d	-0.0052726627
230	0x3c4343e7	0.011918045
231	0xbda793e1	-0.081825025
232	0x3d63208a	0.055450954
233	0xbe3969c9	-0.1810676
234	0x3de05915	0.10954491
235	0x3dbfb1ca	0.093600824
236	0xbe30190c	-0.17197055
237	0xbeac1293	-0.3360792
238	0x3e1c6d36	0.15276036
239	0x3dd16d5b	0.10225936
240	0xbe0180d3	-0.12646799
241	0x3ecad0e5	0.396125
242	0xbdd9ddca	-0.10638006
243	0x3e493bc1	0.196517
244	0x3e6ce7f1	0.23135354
245	0xbe78c327	-0.24293195
246	0x3e8cc792	0.2749601
247	0xbe8a8bd1	-0.27059796
248	0xbe786be6	-0.2425991
249	0xbb5c51c7	-0.003361808
250	0xbe90ffac	-0.28320062
251	0x3ecd1342	0.40053755
252	0xbdeca0ec	-0.11554131
253	0x3dbdbb92	0.09264292
254	0xbe85e117	-0.26148292
255	0x3e21cfda	0.15801945

bias f4 [16]
0	0xbd9522a4	-0.07281998
1	0x3e078b31	0.13236691
2	0xbe00acbc	-0.12565893
3	0x3e148d18	0.14506948
4	0x3e07aa52	0.13248566
5	0xbd9f302f	-0.07772862
6	0x3e1fb15c	0.15595001
7	0xbda87d07	-0.08226972
8	0x3e06f3cc	0.13178939
9	0xbd93c93e	-0.07216118
10	0x3e0a4a04	0.13504797
11	0x3e0a05ac	0.13478726
12	0x3e346ca8	0.17619574
13	0x3e1d3375	0.1535166
14	0x3e16ceea	0.14727369
15	0xbd9c491f	-0.07631134

weight f4 [16, 32]
0	0xbe051585	-0.1299649
1	0xbe9689e0	-0.29402065
2	0x3e3f4ee6	0.18682441
3	0xbcd31e5e	-0.025771316
4	0xbe1d4e8f	-0.15361999
5	0x3e36ad6b	0.17839591
6	0xbdc94299	-0.098271556
7	0xbde5dd01	-0.11223794
8	0xbdbbd66b	-0.09171756
9	0x3da1f80f	0.079086415
10	0xbecdcc3b	-0.40194878
11	0x3e4b049f	0.19825982
12	0x3e02439d	0.12721105
13	0x3e2e0476	0.16993889
14	0xbdc7e2f3	-0.09760084
15	0x3d8fcc42	0.07021381
16	0x3d116406	0.03549578
17	0x3ec95c75	0.39328352
18	0xbe8858ee	-0.26630348
19	0x3e331439	0.17488183
20	0x3c17960b	0.009252082
21	0xbdf17fc9	-0.11791951
22	0x3e50fded	0.20409365
23	0xbdfdbc81	-0.1238947
24	0xbd6a92c5	-0.057268877
25	0xbe9b6068	-0.3034699
26	0xbea9cc77	-0.33163807
27	0x3edf0d39	0.43564776
28	0xbe83158c	-0.25602376
29	0x3e9d7ce5	0.3075935
30	0xbe58cb10	-0.21171212
31	0xbe10c465	-0.14137419
32	0xbce1e8bb	-0.027576795
33	0x3e8ef28e	0.2791943
34	0xbe4cec61	-0.20012046
35	0x3e053c7d	0.13011356
36	0x3dbccf1a	0.09219189
37	0x3e874d04	0.26425946
38	0x3d39dff1	0.045379583
39	0x3e120619	0.14260139
40	0xbe916a52	-0.28401428
41	0xbea2769d	-0.3173112
42	0x3eae8d5f	0.34092233
43	0xbea2121b	-0.31654438
44	0xbe02f303	-0.12788014
45	0xbc9080ea	-0.017639596
46	0x3eca1fa2	0.3947726
47	0xbd647d2b	-0.055783432
48	0xbe87fe66	-0.26561278
49	0xbdb19289	-0.086705275
50	0x3e5a36c8	0.2130996
51	0x3e1e0048	0.15429795
52	0x3e9d81ba	0.30763036
53	0xbe0f31ad	-0.13983794
54	0x3dca06e7	0.09864598
55	0xbecc6330	-0.39919424
56	0x3e051596	0.12996516
57	0x3e56a525	0.20961435
58	0x3e7e3c96	0.24827799
59	0xbe8a5d6a	-0.27024394
60	0xbe0538d2	-0.13009956
61	0x3ca09625	0.019602844
62	0xbea24ee6	-0.3170082
63	0xbe81992f	-0.25312182
64	0xbe9a246e	-0.3010592
65	0xbbd41123	-0.0064717694
66	0x3e94385d	0.28949252
67	0x3d80ded7	0.06292503
68	0xbc37b0ce	-0.011211587
69	0x3d9ed2fd	0.077550866
70	0xbe7aa66e	-0.2447755
71	0x3cde852a	0.027163107
72	0xbca610ab	-0.02027162
73	0xbdd782d2	-0.10522999
74	0x3e8fc4cb	0.2807983
75	0xbe5da2fe	-0.21644208
76	0x3df0f6c6	0.11765818
77	0xbeab515d	-0.33460513
78	0xbd74033a	-0.05957339
79	0xbe354486	-0.17701921
80	0x3de66214	0.11249176
81	0xbe4fd5c5	-0.2029639
82	0x3e4a5f16	0.19762835
83	0xbe99c620	-0.3003397
84	0x3e4b298c	0.19840068
85	0xbe4cd8bc	-0.20004553
86	0x3e824d08	0.25449395
87	0xbdadb70e	-0.084821805
88	0x3bc414ad	0.00598391
89	0xbde1dd0a	-0.11028488
90	0x3e581ed4	0.2110551
91	0x3e3a9a56	0.18222937
92	0xbe8e16bd	-0.27751723
93	0x3dc64b80	0.09682369
94	0xbe3884b8	-0.18019378
95	0x3e73b7c5	0.23800571
96	0xbbf858e9	-0.0075789583
97	0xbd80b576	-0.06284611
98	0xbe833915	-0.25629488
99	0x3e1ca4e5	0.15297277
100	0xbe248b28	-0.16068709
101	0x3e76f962	0.2411857
102	0x3e5e4afa	0.21708289
103	0x3e66c916	0.22537646
104	0x3c8e013a	0.01733457
105	0xbec4a564	-0.38407433
106	0x3e8f7d89	0.28025463
107	0xbe2f351e	-0.17110106
108	0xbe3345e3	-0.17507128
109	0xbc527a24	-0.012846503
110	0x3e9de025	0.3083507
111	0x3e963032	0.29333645
112	0x3d6331dc	0.05546747
113	0x3e2eaaa0	0.17057276
114	0xbe98acc7	-0.2981932
115	0x3c578139	0.013153368
116	0xbe98dff7	-0.29858372
117	0x3d4c76c7	0.049917962
118	0xbea5e043	-0.3239766
119	0xbe48f158	-0.19623315
120	0x3e785d80	0.24254417
121	0x3ec56f10	0.38561296
122	0xbe4527e8	-0.19253504
123	0xbe87ef0b	-0.26549563
124	0x3bdeccd7	0.006799321
125	0x3d90aa83	0.070637725
126	0xbe0181c5	-0.1264716
127	0xbda845c7	-0.08216434
128	0xbe8ffaf8	-0.2812116
129	0x3e373972	0.17893007
130	0x3e8c5d7b	0.2741507
131	0xbe124f3b	-0.14288037
132	0x3e50faa5	0.20408113
133	0x3e6aca5c	0.22928756
134	0x3e9e1172	0.30872685
135	0xbcf533aa	-0.029931862
136	0xbd734b14	-0.059397772
137	0x3e40943a	0.18806544
138	0x3e7f8774	0.24954015
139	0x3e949487	0.29019567
140	0xbe2d24a4	-0.16908509
141	0x3e29110c	0.16510409
142	0x3e9790bb	0.29602608
143	0xbe60a790	-0.2193892
144	0x3d9751bb	0.07388636
145	0xbd9c4d90	-0.076319814
146	0x3e843007	0.25817892
147	0xbe13ee03	-0.14446263
148	0x3d2441d6	0.04010185
149	0x3e1373dd	0.14399667
150	0xbec8a623	-0.39189252
151	0xbebaef18	-0.3651054
152	0xbe408d3f	-0.18803881
153	0x3e8c51f7	0.27406284
154	0x3e83d2b4	0.2574669
155	0xbe9e38bb	-0.30902657
156	0x3d0163d1	0.031589333
157	0xbe81b67e	-0.25334543
158	0xbe6b793b	-0.22995465
159	0x3eaa9a1b	0.33320698
160	0x3e17a756	0.14809927
161	0xbe360365	-0.17774732
162	0x3e1ccf2f	0.1531341
163	0x3daca172	0.08429231
164	0x3db69949	0.089159556
165	0xbdbbc609	-0.091686316
166	0xbe9b38d4	-0.30316794
167	0x3e30c35c	0.17262024
168	0x3e0346bc	0.12819952
169	0x3e87f9fd	0.26557913
170	0xbe6b0404	-0.2295075
171	0x3e9146ed	0.28374425
172	0x3ebebc26	0.3725292
173	0x3e2d6795	0.16934045
174	0xbc267046	-0.010158604
175	0x3ec77344	0.38955128
176	0xbd7dc177	-0.06195208
177	0x3e3ddaa8	0.18540442
178	0x3e786d8b	0.24260537
179	0x3e9d0a46	0.306719
180	0xbe66276b	-0.22475974
181	0x3edc6c53	0.43051395
182	0x3e595ebf	0.21227549
183	0x3d45f187	0.04832604
184	0x3eba0f85	0.36339965
185	0xbe9a3b29	-0.3012326
186	0x3e13100b	0.14361589
187	0x3efa6ec7	0.4891264
188	0xbe3ac912	-0.18240765
189	0xbdb3dd9e	-0.087825045
190	0xbe7d4436	-0.24733052
191	0xbe1fdc13	-0.15611295
192	0xbed2bf62	-0.41161638
193	0xbdb99623	-0.090618394
194	0x3cf0757b	0.029352894
195	0x3e903496	0.2816512
196	0x3e84cc8e	0.25937313
197	0x3e99d67d	0.30046454
198	0x3e2ebed1	0.17064978
199	0xbe5b68ca	-0.21426693
200	0xbeb7995a	-0.35859185
201	0xbd7ca13b	-0.0616772
202	0x3eb9161c	0.3614968
203	0xbd2de03a	-0.042450167
204	0xbdd1ece7	-0.10250264
205	0xbe5ce296	-0.2157081
206	0xbdfe99a5	-0.12431649
207	0xbe801c84	-0.25021756
208	0x3e8f387c	0.27972782
209	0xbd6549a1	-0.05597842
210	0xbe8fcf13	-0.28087673
211	0x3d46f099	0.048569296
212	0x3d1d8dd0	0.03846532
213	0xbdecd847	-0.11564689
214	0x3d5402ad	0.051760364
215	0x3df11d94	0.1177322
216	0xbeaa67b2	-0.33282238
217	0xbe638edb	-0.22222464
218	0x3b1cc0e4	0.0023918683
219	0xbecbfb9c	-0.398404
220	0xbeb76143	-0.35816392
221	0x3e7846be	0.24245736
222	0xbdc77675	-0.09739391
223	0xbe1607a7	-0.14651357
224	0xbe124830	-0.1428535
225	0xbebf1cb1	-0.37326577
226	0x3eca299c	0.3948487
227	0xbd51fb5d	-0.05126511
228	0xbe49f7c3	-0.1972342
229	0xbe71300b	-0.23553483
230	0x3db411a2	0.08792426
231	0xbdf34311	-0.11878026
232	0x3d5d9035	0.054092605
233	0x3d53a9c7	0.051675584
234	0xbe93ee12	-0.2889257
235	0x3e4aeaf5	0.19816191
236	0x3ed2e553	0.41190585
237	0xbe8381da	-0.25685006
238	0xbdfb23fb	-0.12262722
239	0xbe5c5061	-0.21515037
240	0xbe7179ce	-0.23581621
241	0x3ee91068	0.4552033
242	0xbde5607e	-0.11200045
243	0x3e9871ed	0.29774418
244	0xbe1bf7ff	-0.15231322
245	0xbd6b09e9	-0.057382498
246	0xbdf1bbc2	-0.1180339
247	0x3ed46aa8	0.41487622
248	0xbe563224	-0.20917565
249	0x3cfb9391	0.030710014
250	0xbc9d4467	-0.019197656
251	0x3e906696	0.28203267
252	0x3e89647e	0.26834482
253	0x3d698039	0.05700705
254	0x3eaeb67c	0.341236
255	0xbecb3121	-0.3968592

bias f4 [2]
0	0x3e13bd71	0.14427735
1	0x3e512e19	0.20427741

weight f4 [2, 16]
0	0x3e97dcf1	0.29660752
1	0x3eb7e9d8	0.35920596
2	0x3e0007f9	0.12503041
3	0x3e86affa	0.26306134
4	0x3e293bff	0.16526793
5	0xbd164717	-0.03668889
6	0x3f06e4cb	0.5269286
7	0x3eea9205	0.4581453
8	0x3e3f4f29	0.18682541
9	0xbdd1e130	-0.10248029
10	0x3f05b6e6	0.52232206
11	0xbecdcf04	-0.40197003
12	0x3f085b9d	0.5326479
13	0x3ec555f0	0.38542128
14	0x3eccb421	0.39981177
15	0xbdf1aeb9	-0.11800904
16	0xbf0d2a6f	-0.55142874
17	0x3eea54be	0.45767778
18	0xbe6f8a16	-0.2339252
19	0x3e79a26f	0.2437837
20	0x3ebca9a0	0.36848164
21	0xbf2253a2	-0.63408864
22	0x3d80c42d	0.062874176
23	0xbeae07b1	-0.33990243
24	0x3ee73fd1	0.45165876
25	0xbeffd916	-0.4997031
26	0x3ed595e5	0.41715923
27	0x3ee222b7	0.4416711
28	0x3eccefb6	0.40026635
29	0x3f1ab3ad	0.60430413
30	0x3df419ef	0.11919009
31	0xbf27dad1	-0.6556826

weight f4 [1, 2]
0	0xbccb66e8	-0.024829343
1	0xbfb79903	-1.434357

pout f4 [16, 3]
0	0x3ee8063e	0.45317262
1	0x3e5417f4	0.20712262
2	0x3dbf3d07	0.09337812
3	0x3ee8286d	0.45343342
4	0x3f391426	0.7229637
5	0x3f5b12bc	0.8557546
6	0x3ee90096	0.4550826
7	0x3e5411ff	0.2070999
8	0x3dc104dd	0.09424756
9	0x3ee84736	0.4536683
10	0x3eed4725	0.4634334
11	0x3eba772f	0.36419055
12	0x3ee8b9f7	0.4545438
13	0x3ebe6a3d	0.37190428
14	0x3e76e055	0.24109013
15	0x3ee8252b	0.45340857
16	0x3e60177a	0.21883956
17	0x3dcad489	0.09903819
18	0x3ee8f182	0.45496756
19	0x3e53f408	0.2069856
20	0x3dc0dd45	0.09417204
21	0x3ee9af02	0.45641333
22	0x3e555005	0.20831306
23	0x3dc2b7a6	0.095076844
24	0x3ee96521	0.45584968
25	0x3e54c93f	0.20779894
26	0x3dc1ff37	0.094725065
27	0x3ee8ed56	0.45493573
28	0x3e53e6d2	0.2069352
29	0x3dc0cdff	0.09414291
30	0x3ee85b91	0.4538236
31	0x3e535e8e	0.20641539
32	0x3dbf58fa	0.09343143
33	0x3ee81997	0.45332024
34	0x3e6f3f0b	0.23363893
35	0x3dde0b1a	0.10841961
36	0x3ee8bfca	0.45458823
37	0x3e537de4	0.20653492
38	0x3dc03a0c	0.093860716
39	0x3ee8de1e	0.45481962
40	0x3e53d4e7	0.20686685
41	0x3dc07d2b	0.09398874
42	0x3ee914fc	0.45523822
43	0x3e54195a	0.20712796
44	0x3dc111d9	0.09427232
45	0x3ee8bead	0.45457974
46	0x3e537c4b	0.20652883
47	0x3dc03f69	0.093870945

throughput f4 [16, 1]
0	0x3f8bcaa1	1.0921212
1	0x3e07bc50	0.1325543
2	0x3f8b7fb7	1.089835
3	0x3f29ce35	0.6633027
4	0x3f54bde7	0.8310227
5	0x3f89ed04	1.0775456
6	0x3f8b879f	1.0900763
7	0x3f8b2880	1.0871735
8	0x3f8b4d70	1.0883007
9	0x3f8b8a8a	1.0901654
10	0x3f8bc9bd	1.0920941
11	0x3f874ca6	1.0570266
12	0x3f8ba5c1	1.0909959
13	0x3f8b9496	1.090472
14	0x3f8b7acc	1.089685
15	0x3f8ba5ab	1.0909933

delay f4 [16, 1]
0	0x3dbb8664	0.09156492
1	0x3f4120e0	0.7544079
2	0x3dbbeb18	0.091757
3	0x3e1a6105	0.15076073
4	0x3df6717f	0.120333664
5	0x3dbe0fc1	0.092803486
6	0x3dbbe073	0.0917367
7	0x3dbc60df	0.09198164
8	0x3dbc2eeb	0.091886364
9	0x3dbbdc85	0.0917292
10	0x3dbb8795	0.091567196
11	0x3dc1c044	0.094605
12	0x3dbbb7e9	0.091659375
13	0x3dbbceff	0.09170341
14	0x3dbbf1b9	0.09176964
15	0x3dbbb807	0.0916596

ef1 f4 [16]
0	0xbcf3c080	-0.029754877
1	0x3f6eae71	0.93234926
2	0xbcd2c780	-0.025729895
3	0x3f0fb33c	0.56132865
4	0x3ec3ad06	0.38217944
5	0xbb898a00	-0.004197359
6	0xbcd5a180	-0.026077986
7	0xbcb39c80	-0.021925211
8	0xbcc0ccc0	-0.023535132
9	0xbcd6bb80	-0.026212454
10	0xbcf1b8c0	-0.029507041
11	0x3d0fcd40	0.03510785
12	0xbce16980	-0.027516127
13	0xbcdc9000	-0.026924133
14	0xbcd1d840	-0.025615811
15	0xbce10640	-0.0274688

ef2 f4 [16, 1]
0	0xc33c64bc	-188.3935
1	0xc33660b6	-182.37778
2	0xc33c919a	-188.56876
3	0xc3390f74	-185.06036
4	0xc33a1338	-186.07507
5	0xc33c13e9	-188.07777
6	0xc33c911d	-188.56685
7	0xc33c9581	-188.584
8	0xc33c93db	-188.57756
9	0xc33c909e	-188.56491
10	0xc33c77df	-188.46825
11	0xc33bcbab	-187.79558
12	0xc33c8a4f	-188.54027
13	0xc33c84df	-188.51903
14	0xc33c8d08	-188.5509
15	0xc33c8c14	-188.54718

bias f4 [16]
0	0x00000000	0.0
1	0x3d7695e4	0.06020154
2	0x00000000	0.0
3	0x00000000	0.0
4	0x00000000	0.0
5	0x3d85940c	0.06522378
6	0x00000000	0.0
7	0x00000000	0.0
8	0x00000000	0.0
9	0x00000000	0.0
10	0x3d8ba157	0.068178825
11	0x00000000	0.0
12	0x3d714e7c	0.05891274
13	0x00000000	0.0
14	0xbd287ad6	-0.04113277
15	0x3d98cbef	0.07460772

weight f4 [16, 1]
0	0xbe8e0011	-0.27734426
1	0x3e61c08b	0.22046106
2	0xbe8c24d0	-0.27371836
3	0xbd8eaf60	-0.06967044
4	0xbe7715c8	-0.24129403
5	0x3ef0fa01	0.47065738
6	0xbef01af9	-0.46895579
7	0xbe8c3a20	-0.27388096
8	0xbe2bc820	-0.1677556
9	0xbeb6e41c	-0.3572091
10	0x3e2ec1c8	0.17066109
11	0xbf16367c	-0.58676887
12	0x3f1a2a71	0.6022101
13	0xbf01315b	-0.50465935
14	0x3ed85ab0	0.4225669
15	0x3e434ca1	0.190722

bias f4 [32]
0	0xbd2ff611	-0.042959277
1	0x3d49b9e9	0.049249563
2	0x3d41e187	0.04733422
3	0xbbf173a1	-0.0073685204
4	0x00000000	0.0
5	0x00000000	0.0
6	0xbc929d4f	-0.017897276
7	0x3d4db294	0.050219133
8	0x00000000	0.0
9	0xbd17e012	-0.037078924
10	0x3d3c1104	0.045914665
11	0x00000000	0.0
12	0x3d46c9d3	0.04853232
13	0x3d539db9	0.051664088
14	0x00000000	0.0
15	0x00000000	0.0
16	0x3d4a12b3	0.04933424
17	0x00000000	0.0
18	0xbd3c61e3	-0.04599179
19	0x3d4a45d0	0.049382985
20	0x3d01baf9	0.03167245
21	0x3d473376	0.04863306
22	0x00000000	0.0
23	0x00000000	0.0
24	0x00000000	0.0
25	0x00000000	0.0
26	0x3d47a75c	0.04874359
27	0x3d496427	0.04916778
28	0x00000000	0.0
29	0x00000000	0.0
30	0x00000000	0.0
31	0x3d55adae	0.052167587

weight f4 [32, 16]
0	0x3e51ae06	0.20476541
1	0x3e5b2deb	0.21404235
2	0x3e922391	0.2854276
3	0xbdfa0fa8	-0.122100174
4	0xbda1f1d8	-0.07907456
5	0x3de7bc55	0.11315218
6	0xbdc593cc	-0.09647331
7	0x3e29879a	0.16555634
8	0xbd9e3000	-0.07723999
9	0xbe758db7	-0.23979841
10	0x3d734473	0.05939145
11	0x3d5e0738	0.054206103
12	0x3dcf5837	0.101242475
13	0x3eb3d717	0.35125038
14	0x3e408b4b	0.18803136
15	0x3e8a7379	0.27041224
16	0x3c9b04c0	0.018923163
17	0xbe6c99db	-0.23105566
18	0xbe7dfae0	-0.24802732
19	0xbe60e390	-0.21961808
20	0xbe9f85e3	-0.31156835
21	0xbddbd953	-0.10734811
22	0xbea6a3fc	-0.32546985
23	0xbea702de	-0.32619375
24	0xbe58567e	-0.21126744
25	0xbeb2747a	-0.3485449
26	0xbde86d24	-0.11348942
27	0x3e0a0c6a	0.13481298
28	0x3eba47fb	0.36383042
29	0xbdd762d6	-0.10516898
30	0xbd1789d7	-0.03699669
31	0x3e887093	0.26648387
32	0xbe329e8d	-0.17443295
33	0xbd90a968	-0.07063562
34	0x3e5f100e	0.21783468
35	0xbe9db8f2	-0.30805165
36	0x3d3112a0	0.043230653
37	0x3ecf5449	0.40493992
38	0x3d7856c8	0.060629636
39	0x3dc4e888	0.09614664
40	0xbe52d91e	-0.20590636
41	0xbb9fd640	-0.0048778355
42	0x3e203753	0.15646105
43	0x3db1b6a0	0.08677411
44	0x3e6a3006	0.22869882
45	0x3e9d4af1	0.30721238
46	0xbe3ac48c	-0.18239039
47	0x3de806bc	0.113294095
48	0xbe34e33d	-0.1766481
49	0xbe92fa42	-0.28706557
50	0xbce7ee00	-0.02831173
51	0xbe9f5703	-0.31121072
52	0x3e7caa9e	0.2467446
53	0x3d097f48	0.03356865
54	0xbe431fa8	-0.19055045
55	0x3e3d319e	0.18475959
56	0xbeab525e	-0.3346128
57	0xbe0c0949	-0.13675417
58	0xbd9c2058	-0.076233566
59	0xbe99d23c	-0.3004321
60	0xbe6dc541	-0.23219778
61	0xbd6c5da8	-0.057706505
62	0x3e859380	0.26089096
63	0x3eab053e	0.33402437
64	0x3e665a02	0.22495273
65	0xbe582e96	-0.21111521
66	0xbe6cda76	-0.23130211
67	0x3e9df96f	0.30854365
68	0x3e000f34	0.125058
69	0x3c19e580	0.009393096
70	0x3d43fb58	0.047847122
71	0xbe917c12	-0.2841497
72	0xbdf1c246	-0.11804633
73	0x3eae40a3	0.3403369
74	0xbdb294b0	-0.08719766
75	0xbc914a70	-0.01773569
76	0xbe964e55	-0.29356638
77	0xbe4a86ea	-0.19778028
78	0xbbec90c0	-0.007219404
79	0xbe60e23c	-0.21961302
80	0xbd3395c8	-0.043844014
81	0x3e1355c0	0.1438818
82	0xbeb111aa	-0.3458379
83	0x3dd70f48	0.105009615
84	0xbe6f6207	-0.23377238
85	0xbe30b180	-0.17255211
86	0x3e0afd7a	0.13573256
87	0x3e8feea1	0.28111747
88	0xbdc5e588	-0.0966292
89	0xbe14a452	-0.14515808
90	0xbea3af26	-0.31969565
91	0xbe3ab022	-0.18231252
92	0xbe9e81d9	-0.3095844
93	0xbda5b850	-0.080917954
94	0x3d93c07c	0.07214448
95	0xbea997b6	-0.3312356
96	0x3e9e0ce9	0.30869225
97	0x3e4be940	0.19913197
98	0xbeb13548	-0.34610963
99	0xbe2cebef	-0.16886877
100	0x3dec295c	0.11531326
101	0xbdbf7700	-0.09348869
102	0xbd1dd098	-0.03852901
103	0xbe237754	-0.15963489
104	0x3e9165f5	0.283981
105	0xbe4a6104	-0.19763571
106	0x3e86c34c	0.26320875
107	0x3cbae060	0.022812068
108	0x3d4f8272	0.05066151
109	0x3e8d380d	0.27581826
110	0xbd9decbd	-0.0771117
111	0xbe681149	-0.22662844
112	0xbd6a3758	-0.057181686
113	0x3ebaf6ba	0.36516362
114	0xbe865066	-0.26233214
115	0x3da459f4	0.0802497
116	0xbeb1e77d	-0.34746924
117	0x3e854acd	0.2603363
118	0x3e05c2f8	0.13062656
119	0x3c758fe0	0.014987916
120	0x3e1b626e	0.15174267
121	0x39d07c00	0.0003976524
122	0x3e9d72c9	0.30751637
123	0xbe8f4c72	-0.2798801
124	0x3cb47b91	0.022031577
125	0x3e209b0a	0.15684143
126	0x3ed86a75	0.4226872
127	0x3e86f3e1	0.2635794
128	0xbe83a1f4	-0.25709498
129	0x3e8b38ad	0.27191678
130	0xbda177cc	-0.078841776
131	0xbd9a99d8	-0.075488746
132	0xbea487bd	-0.3213481
133	0xbd63f5d8	-0.055654377
134	0x3e800a31	0.25007775
135	0x3d49f008	0.049301177
136	0xbe52def0	-0.20592856
137	0x3ddee138	0.10882801
138	0xbde82bdc	-0.113364905
139	0x3ea54503	0.32279214
140	0xbe9d1dd7	-0.30686828
141	0xbde4b7e4	-0.11167887
142	0xbeaec998	-0.3413818
143	0xbe0e94ee	-0.13924
144	0x3de44380	0.11145687
145	0x3ed0635a	0.407008
146	0x3d733658	0.059377998
147	0x3eb176bf	0.3466091
148	0x3d8daad4	0.069173485
149	0x3e86f29c	0.2635697
150	0x3e911dc9	0.28343037
151	0x3e97517b	0.29554352
152	0xbe4aa442	-0.19789222
153	0x3ea66d67	0.32505342
154	0x3ea15c00	0.31515503
155	0xbe29481c	-0.16531414
156	0xbde43770	-0.11143386
157	0xbe97d44b	-0.29654154
158	0x3e0e0797	0.13870083
159	0xbe574698	-0.21023023
160	0x3e18ef1e	0.14934966
161	0x3e8dc472	0.27688938
162	0xbe9d451e	-0.30716795
163	0x3dc54fcc	0.09634361
164	0xbceb8ef0	-0.028754681
165	0x3ea6d3c7	0.32583448
166	0x3e4fbbea	0.20286527
167	0xbeb3f5a0	-0.35148335
168	0x3ea6033b	0.3242434
169	0x3e97cf77	0.2965047
170	0x3ea65d57	0.32493088
171	0xbea571d3	-0.32313403
172	0x3d1910e0	0.03736961
173	0xbdd1d814	-0.10246292
174	0x3d93608f	0.071961515
175	0x3ebc3c30	0.3676467
176	0x3e03a06a	0.12854162
177	0x3e8f6655	0.2800776
178	0xbe079785	-0.13241394
179	0x3df3ae48	0.11898476
180	0x3e00cfc4	0.12579256
181	0xbe96b70c	-0.2943653
182	0xbeaf97a4	-0.3429538
183	0xbe3bdba0	-0.18345499
184	0x3e77d52e	0.24202415
185	0xbeaa6c22	-0.33285624
186	0xbe9d90bb	-0.30774483
187	0x3e4ad072	0.19806078
188	0x3e435492	0.1907523
189	0x3e94de75	0.2907597
190	0xbe88a894	-0.26691115
191	0xbe847cee	-0.25876564
192	0x3e39b892	0.18136814
193	0x3ebe1e1e	0.37132353
194	0x3e589f2e	0.21154472
195	0x3d62db40	0.055384874
196	0x3deea338	0.11652225
197	0x3ecb2152	0.3967386
198	0xbe6996c3	-0.22811417
199	0xbe245ead	-0.16051741
200	0x3e7d3bee	0.24729893
201	0xbe77b8a0	-0.24191523
202	0xbddb246c	-0.10700306
203	0x3e84247b	0.25809082
204	0x3e301d47	0.17198668
205	0x3de9ed7c	0.1142225
206	0xbdbc77cf	-0.09202539
207	0x3d80707a	0.06271453
208	0x3ea5acc1	0.32358363
209	0xbdf3ad8b	-0.11898335
210	0x3b362c00	0.0027797222
211	0x3e2c2f76	0.1681498
212	0xbe79ef87	-0.24407779
213	0x3edd8277	0.432636
214	0xbe34e0db	-0.176639
215	0xbdade088	-0.084900916
216	0xbdc3e9f0	-0.095661044
217	0xbe6becfc	-0.23039621
218	0xbe5c4de3	-0.21514086
219	0x3e4c22d6	0.19935164
220	0x3e3a55eb	0.18196838
221	0xbea98af8	-0.33113837
222	0xbe12d46d	-0.14338847
223	0x3ee5b71d	0.44866267
224	0x3e0a6246	0.13514051
225	0x3e11441e	0.14186141
226	0xbe589b67	-0.21153031
227	0xbe1eb762	-0.15499642
228	0xbd5a9ae0	-0.053370357
229	0xbd846b50	-0.06465781
230	0xbe78161f	-0.24227189
231	0x3cee9cc0	0.029127479
232	0x3d0fede0	0.035138965
233	0xbd375de8	-0.04476729
234	0x3d48c2a8	0.049013764
235	0xbe0f7e87	-0.1401311
236	0x3dbc7148	0.09201294
237	0x3e088a16	0.13333926
238	0xbe3eb32c	-0.18623036
239	0xbeb37eb7	-0.35057613
240	0x3e3d80e6	0.18506202
241	0x3dacb814	0.084335476
242	0xbe3820e6	-0.179813
243	0x3eae72dd	0.3407201
244	0xbe23bb33	-0.1598938
245	0x3e74a57e	0.23891255
246	0x3e37ac2a	0.17936769
247	0xbe97c4a1	-0.29642203
248	0x3e697e62	0.22802117
249	0xbea67140	-0.32508278
250	0xbe489322	-0.19587377
251	0xbd716dd0	-0.058942616
252	0xbe7407e9	-0.23831142
253	0x3eb0d6ef	0.3453898
254	0xbd913c34	-0.07091561
255	0x3e0fcc4c	0.14042777

bias f4 [16]
0	0x3d32d3c6	0.043658994
1	0x3d31d3f9	0.043415044
2	0x00000000	0.0
3	0x3d327003	0.043563854
4	0x3d32370e	0.043509535
5	0x3d302fd0	0.043014348
6	0x00000000	0.0
7	0x00000000	0.0
8	0x3d3353e8	0.04378119
9	0xbd86fc5a	-0.06591101
10	0x00000000	0.0
11	0xbd4af87d	-0.049553383
12	0x00000000	0.0
13	0x00000000	0.0
14	0x3d31d9dd	0.04342066
15	0x3d32b1b6	0.04362651

weight f4 [16, 32]
0	0x3dc3a0db	0.09552165
1	0x3e5410de	0.2070956
2	0xbd08beb1	-0.033384982
3	0xbe517376	-0.20454201
4	0x3daad3e0	0.08341193
5	0xbd2b7838	-0.041862696
6	0xbe1a7e77	-0.15087305
7	0x3e52f8b6	0.20602688
8	0x3b522280	0.003206402
9	0x3cb6e6fa	0.022326935
10	0x3d1fa2ae	0.038973503
11	0xbd3e8720	-0.046515584
12	0xbe77754f	-0.24165843
13	0x3e158066	0.14599761
14	0x3baddb00	0.005305648
15	0x3e5bb2c2	0.2145491
16	0x3da2505f	0.07925486
17	0x3ce79100	0.028267384
18	0x3e06f3d7	0.13178955
19	0x3ea872eb	0.32900175
20	0xbddff6b3	-0.10935726
21	0x3e8caa4f	0.27473685
22	0x3db114dc	0.08646557
23	0xbe7185a6	-0.23586139
24	0x3dfc1d3c	0.123102635
25	0xbe592070	-0.2120378
26	0xbd434b44	-0.0476792
27	0xbddab215	-0.10678498
28	0xbe764cd0	-0.24052739
29	0x3e8e90cf	0.27844855
30	0xbea1cc82	-0.3160134
31	0x3e6f80b3	0.23388939
32	0xbe87bb57	-0.26510116
33	0x3d11f899	0.03563747
34	0x3dca0095	0.09863392
35	0x3e83e8a3	0.25763425
36	0xbe0304fb	-0.12794869
37	0x3dd068cc	0.101762384
38	0x3d834a21	0.06410623
39	0x3e896854	0.2683741
40	0x3cac30b0	0.02101931
41	0x3e595a0b	0.21225755
42	0xbae6af85	-0.0017599916
43	0xbe7b95ac	-0.24568814
44	0x3ec0e752	0.37676483
45	0xbe418381	-0.18897821
46	0xbd768890	-0.06018883
47	0xbd2f0d98	-0.042737573
48	0x3ecf46d5	0.40483728
49	0xbd9c7ba0	-0.07640767
50	0xbe6e1b3c	-0.23252577
51	0xbcdb5afe	-0.026776787
52	0x3e78d657	0.24300514
53	0x3e53ab28	0.2067076
54	0x3e95c181	0.29249194
55	0xbd943b1c	-0.07237837
56	0x3e2a8966	0.16653976
57	0xbeaa58b0	-0.33270788
58	0x3e50593c	0.2034654
59	0x3e689703	0.22713856
60	0x3e698be2	0.22807267
61	0xbe4f9bb7	-0.20274244
62	0xbdc15020	-0.09439111
63	0x3e14c885	0.14529617
64	0xbe80a28f	-0.25124022
65	0xbe8fff58	-0.281245
66	0xbeae25fa	-0.3401335
67	0x3ca1ae20	0.01973635
68	0x3e60d256	0.21955237
69	0x3db9fc88	0.0908137
70	0x3cb092c0	0.02155435
71	0x3dfc498c	0.123187155
72	0xbe6381b0	-0.2221744
73	0x3d18ac50	0.037273705
74	0xbdb3e0bc	-0.08783099
75	0xbe3342db	-0.17505972
76	0x3e9c1b31	0.30489495
77	0xbe8c0bcc	-0.2735275
78	0x3d543980	0.05181265
79	0xbe9f1060	-0.3106718
80	0xbc448640	-0.011994898
81	0xbe20e051	-0.1571057
82	0x3dee5404	0.116371185
83	0xbe4b4c68	-0.19853365
84	0x3e67b816	0.22628817
85	0xbe92e426	-0.28689688
86	0x3e59740e	0.21235678
87	0xbe87fa5e	-0.26558203
88	0x3e41e712	0.18935803
89	0xbe18713c	-0.14886945
90	0xba57ea00	-0.0008236468
91	0xbd842588	-0.06452471
92	0x3e6af956	0.22946677
93	0x3ded4cd4	0.115869194
94	0xbe9f83d9	-0.3115528
95	0x3d0524e0	0.03250587
96	0xbe457da7	-0.19286214
97	0x3eae2b7c	0.3401755
98	0x3e07a7e0	0.13247633
99	0xbdad5a6b	-0.084645115
100	0xbe38b378	-0.18037212
101	0x3dfa9fc8	0.12237507
102	0xbe4f4c9d	-0.2024407
103	0x3e6702d5	0.22559674
104	0x3e458e3a	0.19292536
105	0x3e954d16	0.29160374
106	0x3e9b0ae8	0.30281758
107	0xbe9e756c	-0.3094896
108	0x3ea097ee	0.31365913
109	0xbd32fb6a	-0.0436968
110	0xbdd6102e	-0.10452305
111	0xbd1b9690	-0.037985384
112	0x3ea16bbe	0.31527513
113	0x3e8b30cb	0.27185664
114	0x3db8c0de	0.090211615
115	0x3e6a8cc0	0.22905254
116	0xbe8af5b4	-0.27140582
117	0x3d84e672	0.064892665
118	0xbea02514	-0.31278288
119	0x3df6707c	0.120331734
120	0xbe80f795	-0.2518889
121	0xbe010843	-0.12600808
122	0x3e9f5141	0.3111668
123	0x3eccd064	0.4000274
124	0xbe595c66	-0.21226653
125	0xbe48ef77	-0.19622599
126	0x3d335928	0.043786198
127	0x3e492808	0.19644177
128	0xbba6f8c7	-0.0050955745
129	0xbd05a128	-0.032624394
130	0xbe1f655e	-0.15566012
131	0x3e20fbff	0.15721129
132	0x3eb15b17	0.3463981
133	0xbe2f415f	-0.17114781
134	0x3e345071	0.17608811
135	0x3e6ddcc2	0.23228744
136	0x3e9180b7	0.28418514
137	0x3d1bd9e3	0.03804959
138	0x3e63de46	0.2225276
139	0x3e84fea5	0.25975528
140	0x3e91a7b5	0.28448263
141	0x3ed5852e	0.4170317
142	0xbdcf7fb8	-0.10131782
143	0x3e0f40fc	0.13989633
144	0x3e9c4de5	0.3052818
145	0xbe75c1f4	-0.23999768
146	0x3dda4dda	0.1065938
147	0xbc8b6ad5	-0.017018715
148	0x3e9304aa	0.28714496
149	0xbdbe6850	-0.0929724
150	0x3ccb24a0	0.024797738
151	0x3e589c92	0.21153477
152	0xbea5d5bb	-0.32389626
153	0xbe98d88b	-0.2985271
154	0xbdebfe7d	-0.11523149
155	0x3e94d549	0.29068974
156	0x3e72c1ca	0.23706737
157	0xbe7742f6	-0.24146637
158	0x3d8a1284	0.06741813
159	0xbe035ad1	-0.12827612
160	0xbde4a098	-0.11163443
161	0x3ec40e73	0.38292274
162	0x3e7d7ac0	0.24753857
163	0xbdb92639	-0.090404935
164	0x3d552bb0	0.052043617
165	0x3d8c4b84	0.06850341
166	0x3dbcb30f	0.0921384
167	0xbd7b5570	-0.061360776
168	0xbe553308	-0.20820248
169	0x3e9ffef9	0.31249216
170	0x3e84d60f	0.25944564
171	0x3e1787fa	0.14797965
172	0xbd95338a	-0.07285221
173	0x3e74f070	0.23919845
174	0x3e83bd5b	0.25730404
175	0x3e5c2eae	0.21502182
176	0x3e1e44fa	0.15456
177	0x3eb21a11	0.34785512
178	0x3d113d77	0.035459008
179	0x3e0cb850	0.13742185
180	0x3ecaaa4b	0.39583048
181	0x3ed1adc7	0.40952894
182	0xbe18dc29	-0.14927734
183	0x3ea31015	0.31848207
184	0x3e059d30	0.13048244
185	0xbd221a60	-0.039575934
186	0x3ebfd268	0.37465215
187	0xbdf40b4d	-0.11916218
188	0x3e6b3bee	0.2297208
189	0x3eb3614b	0.35035166
190	0xbe79b2e8	-0.24384654
191	0xbe191ebc	-0.1495313
192	0xbeb35fe6	-0.35034102
193	0xbd824e84	-0.06362632
194	0xbea46704	-0.32109845
195	0xbdf28268	-0.11841279
196	0x3ddbd390	0.10733712
197	0x3e7feac6	0.24991903
198	0x3e49ab16	0.1969417
199	0x3e48f5f2	0.1962507
200	0x3e16325e	0.14667651
201	0xbe608c66	-0.21928558
202	0xbe8fba7a	-0.28071958
203	0x3c702020	0.014656097
204	0x3eabe491	0.3357282
205	0x3ca31430	0.019907087
206	0xbcf91c70	-0.030409068
207	0xbe75baac	-0.23996991
208	0xbe33833c	-0.1753053
209	0xbe8b8a8e	-0.27254146
210	0x3e90efbb	0.283079
211	0xbd6bf288	-0.057604343
212	0xbe9fe9ff	-0.31233212
213	0x3d1b59b0	0.03792733
214	0x3cd22e10	0.02565673
215	0xbd32eae0	-0.043681026
216	0x3e0198c6	0.12655935
217	0x3e42b266	0.19013366
218	0xbeaa3b80	-0.3324852
219	0xbe8aad6b	-0.27085432
220	0xbc8b2370	-0.016984671
221	0xbea7d471	-0.32779267
222	0xbea46e41	-0.32115367
223	0x3e9fd2e9	0.312156
224	0xbcdc4ab0	-0.026891083
225	0xbe32fd0a	-0.17479339
226	0xbdf85ee8	-0.12127477
227	0xbe8d536c	-0.27602708
228	0x3e8d42e3	0.27590093
229	0xbd9d0210	-0.07666409
230	0xbe4b8d48	-0.19878113
231	0xbe894992	-0.26813942
232	0x3e539ba6	0.20664844
233	0xbd482e30	-0.048872173
234	0xbd1823a0	-0.03714335
235	0xbdbcb7f8	-0.09214777
236	0xbe2ec3ac	-0.1706683
237	0x3d80ce6c	0.06289372
238	0x3e8b455b	0.27201352
239	0xbe51d498	-0.20491254
240	0x3c8ac520	0.0169397
241	0xbe89aae8	-0.26888204
242	0xbe29c246	-0.16578016
243	0x3e9ee4b1	0.31033853
244	0x3b72f180	0.0037070215
245	0x3eae611f	0.34058473
246	0xbd7db908	-0.061944038
247	0xbe4553bb	-0.19270222
248	0xbe585059	-0.211244
249	0x3ea070a9	0.31335953
250	0xbe8b3396	-0.27187794
251	0x3e3dfeee	0.18554279
252	0x3db3fe28	0.08788711
253	0x3dd5ae34	0.10433617
254	0x3e4c46d6	0.19948897
255	0xbdbd6f6c	-0.09249768

bias f4 [2]
0	0x3d1b4440	0.037906885
1	0x3d098293	0.03357179

weight f4 [2, 16]
0	0x3f06e23b	0.5268895
1	0x3e5570b9	0.20843782
2	0x3ecdd57e	0.40201944
3	0x3ee3c466	0.44485778
4	0x3e67f8cb	0.226535
5	0x3e8df25f	0.27723977
6	0x3e3ec5e4	0.18630177
7	0x3d754bb0	0.059886634
8	0x3f0e517f	0.55593103
9	0x3f3766a5	0.71641
10	0x3e52767c	0.2055301
11	0x3b6992c6	0.0035640462
12	0x3f0484a2	0.5176488
13	0xbee612fc	-0.4493636
14	0x3f0195da	0.5061928
15	0x3ebdcb03	0.37068948
16	0x3ee580de	0.4482488
17	0x3cd22fcb	0.025657555
18	0xbedc8c8e	-0.43075985
19	0x3efa4887	0.4888346
20	0xbe3bd268	-0.18341982
21	0x3e7120c7	0.2354766
22	0x3ea778fe	0.32709497
23	0xbf0a1fdb	-0.5395486
24	0x3ddf34c5	0.10898737
25	0xbc9ea904	-0.019367702
26	0x3ed1ce58	0.4097774
27	0xbeaae48f	-0.333775
28	0x3eb37b3e	0.35054964
29	0x3eb85450	0.36001825
30	0x3ed09d3c	0.4074496
31	0x3f1fe3b6	0.62456834

weight f4 [1, 2]
0	0x3f8ad03a	1.0844796
1	0x3e561991	0.2090819

pout f4 [16, 3]
0	0x3d9f2f9b	0.07772752
1	0x3bc5f789	0.0060414714
2	0x39f63327	0.00046958888
3	0x3d9bfc30	0.0761646
4	0x3ce3c88a	0.027805585
5	0x3be91e99	0.007114243
6	0x3d99ac0c	0.075035185
7	0x3bb84d2e	0.005624435
8	0x39d471c3	0.0004052055
9	0x3d9b6373	0.07587328
10	0x3bc6613c	0.0060540717
11	0x39e5a11e	0.00043798325
12	0x3d9e0c3c	0.07717177
13	0x3c377817	0.011198065
14	0x3aa0821d	0.0012245808
15	0x3da287a4	0.07936028
16	0x3bce5fe0	0.0062980503
17	0x3a030606	0.0004998151
18	0x3d9ff7e1	0.07810951
19	0x3bc7eb8d	0.006101078
20	0x39f9d9ba	0.000476552
21	0x3d9ec424	0.077522546
22	0x3bc3cd74	0.0059754197
23	0x39f27510	0.00046245055
24	0x3d9a61bf	0.07538175
25	0x3c5f3d62	0.013625475
26	0x3aec5417	0.0018030432
27	0x3d9a6e49	0.075405665
28	0x3c5c72d9	0.013455116
29	0x3ae6aef5	0.0017599749
30	0x3d9c14ff	0.07621192
31	0x3bbbfa64	0.005736636
32	0x39e2abfb	0.00043234215
33	0x3d9e0b9d	0.07717059
34	0x3bc158d9	0.005900484
35	0x39ed951f	0.00045315266
36	0x3d9e148f	0.07718765
37	0x3d821aad	0.06352744
38	0x3d1309f4	0.035898164
39	0x3d9c2c89	0.07625682
40	0x3bbecc4a	0.005822693
41	0x39df2caf	0.00042567166
42	0x3d9bf77b	0.076155625
43	0x3c43b255	0.011944373
44	0x3ab6cdec	0.0013946868
45	0x3d9e0584	0.07715896
46	0x3bc2564f	0.005930699
47	0x39efbcbd	0.00045726253

throughput f4 [16, 1]
0	0x3fec1a0f	1.8445452
1	0x3fe63d98	1.7987547
2	0x3feccbdf	1.8499717
3	0x3fec82db	1.8477434
4	0x3feaed16	1.8353603
5	0x3febaf0b	1.8412794
6	0x3fec0104	1.843781
7	0x3fec299a	1.8450196
8	0x3feaa713	1.8332237
9	0x3feab1c0	1.8335495
10	0x3fec8203	1.8477176
11	0x3fec41ff	1.845764
12	0x3fd85d45	1.6903464
13	0x3fec7b15	1.8475062
14	0x3feaf1c2	1.8355029
15	0x3fec40b5	1.8457247

delay f4 [16, 1]
0	0x3d5e0f66	0.054213904
1	0x3d63b68e	0.05559402
2	0x3d5d68a7	0.054054882
3	0x3d5dad01	0.054120068
4	0x3d5f2be3	0.054485213
5	0x3d5e743b	0.054310065
6	0x3d5e26f6	0.054236375
7	0x3d5e00c9	0.054199968
8	0x3d5f6e7a	0.054548718
9	0x3d5f6450	0.054539025
10	0x3d5dadcc	0.054120824
11	0x3d5de9dd	0.054178108
12	0x3d725134	0.059159473
13	0x3d5db44a	0.054127015
14	0x3d5f2774	0.054480985
15	0x3d5deb13	0.054179262

ef1 f4 [16]
0	0xc0150293	-2.328282
1	0xbf92ed72	-1.1478713
2	0xc0191bd9	-2.3923247
3	0xc016f25c	-2.3585424
4	0xbff4bcd4	-1.9120126
5	0xc01346b5	-2.3011906
6	0xc01499d7	-2.3218896
7	0xc0156f92	-2.3349347
8	0xbfdf3b30	-1.7439938
9	0xbfe0933e	-1.7544935
10	0xc0174e9a	-2.3641725
11	0xc0160017	-2.3437555
12	0xbee3cd94	-0.4449278
13	0xc017bd3d	-2.3709252
14	0xbfed81ca	-1.8555233
15	0xc015bfd9	-2.3398345

ef2 f4 [16, 1]
0	0xc31db255	-157.69661
1	0xc31a4906	-154.28525
2	0xc31c00aa	-156.0026
3	0xc31c3df1	-156.24196
4	0xc31c1912	-156.09793
5	0xc31e7c61	-158.48586
6	0xc31de260	-157.88428
7	0xc31d8f14	-157.5589
8	0xc31aeb15	-154.91829
9	0xc31af22d	-154.946
10	0xc31cd12c	-156.81708
11	0xc31d59f0	-157.35132
12	0xc318713c	-152.44232
13	0xc31c9fff	-156.62498
14	0xc31b7cc4	-155.48737
15	0xc31d642b	-157.39128

bias f4 [16]
0	0xbd95d43c	-0.07315871
1	0xbd6c5196	-0.057694994
2	0xbdaf7264	-0.0856674
3	0x3d3d3914	0.046197012
4	0xbd22991c	-0.039696798
5	0xbd95c7e2	-0.07313515
6	0x3ce640d5	0.028107086
7	0xbd8d0341	-0.06885386
8	0x3e0603f2	0.13087443
9	0xbbc6a053	-0.0060615926
10	0x3dea10e2	0.114290014
11	0xbd0a8b60	-0.033824325
12	0xbd7f3d03	-0.062314045
13	0x3e1dc98e	0.15408918
14	0xbd481a7f	-0.048853394
15	0x3e095040	0.13409519

weight f4 [16, 1]
0	0xbeb19c30	-0.34689474
1	0xbe024101	-0.1272011
2	0xbea76dec	-0.3270105
3	0x3ee1f2ff	0.44130704
4	0xbf0bcb95	-0.54607517
5	0xbeb1ba40	-0.3471241
6	0xbe0fe48e	-0.1405203
7	0xbedb073e	-0.42778963
8	0x3e3f7b3a	0.18699351
9	0xbf266d97	-0.6501097
10	0x3f268c3c	0.6505773
11	0xbf13448f	-0.5752649
12	0x3ecb5ae4	0.39717782
13	0x3e818f3e	0.25304598
14	0xbe778697	-0.24172436
15	0x3f00399c	0.50087905

bias f4 [32]
0	0xbd9bf262	-0.0761459
1	0x3dabde14	0.083919674
2	0xbd2a919b	-0.041642766
3	0xbd08e0a1	-0.033417348
4	0x3e4ea4fc	0.20180124
5	0x3cd56f72	0.026054118
6	0x3d8e237f	0.06940364
7	0xbd351b61	-0.044215564
8	0xbd56278d	-0.052283812
9	0xbd6b7d6d	-0.057492662
10	0x3d9cfad9	0.07665033
11	0xbd282f5a	-0.041060783
12	0xbd4631e9	-0.04838744
13	0x3dbf38ba	0.093369916
14	0x3e03c399	0.12867583
15	0xbd2c098a	-0.042001285
16	0xbd1e95f1	-0.038717214
17	0xbd5a2f46	-0.05326774
18	0x3e135992	0.14389637
19	0x3da5f9ed	0.0810431
20	0x3da06bb3	0.07833042
21	0xbd429a6e	-0.047510557
22	0xbcf34781	-0.029697182
23	0xbd321078	-0.043472737
24	0xbc223c19	-0.009902024
25	0x3dc7b005	0.0975037
26	0x3df12e74	0.11776438
27	0xbd0b9111	-0.034073893
28	0xbc0c7028	-0.008571662
29	0xbceceada	-0.02892058
30	0xbd97d98e	-0.07414542
31	0x3de63443	0.11240437

weight f4 [32, 16]
0	0x3eb8c21b	0.3608559
1	0xbd356492	-0.044285364
2	0xbb6deb43	-0.0036303557
3	0x3dc1a3e1	0.094550855
4	0xbcac7e40	-0.021056294
5	0x3e76c44f	0.24098323
6	0xbb3d7b1d	-0.0028912493
7	0xbe285368	-0.16438067
8	0x3d3c3dca	0.045957364
9	0x3e04bbd7	0.1296228
10	0x3da264de	0.07929395
11	0x3eda7429	0.42666748
12	0x3e2dc41b	0.1696934
13	0x3e6ef8c2	0.23337081
14	0x3dc10390	0.094245076
15	0xbec4e8da	-0.38458902
16	0xbea9cfaa	-0.33166248
17	0xbe9cd52a	-0.3063138
18	0xbeca5adc	-0.39522445
19	0xbdbe8bb9	-0.09303994
20	0xbed1745f	-0.40909097
21	0xbed1d511	-0.4098287
22	0xbe9646d3	-0.2935091
23	0xbedd450d	-0.43216744
24	0xbddb07e9	-0.10694868
25	0x3d51af17	0.05119237
26	0x3ec3c3e7	0.382354
27	0xbe4151f8	-0.18878925
28	0xbcc0bfd3	-0.023528969
29	0x3e9a6149	0.30152348
30	0xbe84115b	-0.2579449
31	0xbd9e2855	-0.077225365
32	0x3e854df0	0.26036024
33	0xbe87241f	-0.26394746
34	0x3dafa730	0.0857681
35	0x3e897841	0.2684956
36	0x3dd33e6a	0.10314639
37	0x3e0dffe2	0.13867143
38	0xbe281dd1	-0.16417624
39	0x3d1a2c23	0.03763975
40	0xbd1df1c1	-0.038560633
41	0x3e0464c3	0.12929063
42	0x3dbc60f8	0.09198183
43	0x3eb30fcd	0.34972993
44	0xbe9f0600	-0.31059265
45	0xbd5f8ac3	-0.054575693
46	0xbe097795	-0.13424523
47	0xbea72f34	-0.326532
48	0x3ba4f805	0.005034449
49	0xbe8d8866	-0.27643126
50	0x3e8f699a	0.28010255
51	0x3c02a900	0.007974863
52	0xbe20fbf4	-0.15721112
53	0x3e5f56e6	0.21810493
54	0xbe9a7343	-0.30166063
55	0xbdd3ca8d	-0.10341368
56	0xbde6e727	-0.112745576
57	0xbe88bfe7	-0.2670891
58	0xbe84cef5	-0.25939146
59	0xbcc79c2f	-0.024366466
60	0x3e71ef88	0.2362653
61	0x3e9b14dc	0.30289352
62	0x3e843d29	0.25827911
63	0xbe7c5d92	-0.24645069
64	0xbeddab27	-0.4329464
65	0x3dd72182	0.10504438
66	0xbd9ce03d	-0.076599576
67	0x3e5a2e20	0.21306658
68	0xbe1d7ad1	-0.15378882
69	0xbef8b9fc	-0.48579395
70	0xbea31392	-0.31850868
71	0x3e0e077d	0.13870044
72	0x3e09e9ff	0.13468169
73	0xbe60a2ef	-0.21937154
74	0xbdb53293	-0.08847537
75	0xbecc8054	-0.39941657
76	0x3e4326a6	0.19057712
77	0x3bf8ddd2	0.0075948024
78	0xbe7b5b67	-0.24546586
79	0x3eb3cf55	0.3511912
80	0xbebdcc58	-0.37069964
81	0x3da51d16	0.08062188
82	0xbe846b21	-0.25862983
83	0xbe18be02	-0.14916232
84	0x3de30dcc	0.11086616
85	0x3e8333f1	0.25625566
86	0xbdf94b48	-0.12172562
87	0xbe2e1af4	-0.1700247
88	0xbe9a6884	-0.30157864
89	0xbe5426e6	-0.20717964
90	0xbe92a8df	-0.28644463
91	0xbdd8a57b	-0.10578438
92	0x3dc68cc8	0.09694821
93	0xbea37c1f	-0.31930634
94	0x3e914afd	0.28377524
95	0x3e7a3c34	0.24437028
96	0xbed4702e	-0.41491836
97	0xbe75da1b	-0.24008982
98	0x3d3e694f	0.04648715
99	0xbb7142cd	-0.0036813498
100	0xbddbce85	-0.1073275
101	0xbe69ed1c	-0.22844356
102	0x3e5d8271	0.2163179
103	0xbe886a20	-0.26643467
104	0x3ec478de	0.38373464
105	0xbd3c5c0e	-0.045986228
106	0x3e1223c1	0.14271452
107	0x3e53fd05	0.20701988
108	0x3be1423f	0.006874352
109	0xbddcecc0	-0.10787344
110	0xbe00e768	-0.12588274
111	0x3eb8859f	0.36039445
112	0xbe60511b	-0.2190594
113	0x3dff268b	0.12458523
114	0xbe9bbeb6	-0.30418938
115	0x3e126226	0.14295253
116	0x3e321196	0.17389521
117	0x3d6ea27a	0.05826042
118	0x3e475fd0	0.19470143
119	0x3d32dbb1	0.043666545
120	0x3e14dffe	0.14538571
121	0xbe724a57	-0.23661171
122	0xbdc3cbee	-0.09560381
123	0x3e4ce9ab	0.20011012
124	0x3e9eed6d	0.31040516
125	0x3e08a252	0.1334317
126	0xbe5b018e	-0.21387312
127	0x3e691853	0.22763185
128	0xbcdac6fe	-0.026706215
129	0xbcb1b2dc	-0.021691732
130	0xbe89d483	-0.26919946
131	0xbddbf53a	-0.10740133
132	0x3e9abaff	0.30220792
133	0x3dcfbded	0.10143647
134	0xbe1e035b	-0.15430968
135	0x3e24d1e3	0.1609569
136	0xbe355073	-0.1770647
137	0x3ebff5cf	0.37492225
138	0xbeb89bd2	-0.3605638
139	0xbd73eb3d	-0.059550513
140	0xbec8a1a3	-0.3918582
141	0xbe4b6d29	-0.1986586
142	0x3e277979	0.16354932
143	0x3e924958	0.28571582
144	0x3dedb3f0	0.11606586
145	0x3ecf959a	0.40543824
146	0x3e00e59d	0.1258759
147	0x3e17b091	0.14813448
148	0x3eae22e8	0.34011006
149	0x3eb457b9	0.35223177
150	0xbe116f2b	-0.14202563
151	0x3ec372a6	0.38173407
152	0x3e108c49	0.14116015
153	0xbdde7c4a	-0.1086355
154	0xbe68b859	-0.22726573
155	0xbe759ebb	-0.23986332
156	0x3d0f8cdc	0.035046443
157	0xbeb7058d	-0.35746422
158	0x3e52e28b	0.20594232
159	0x3d53adf6	0.051679574
160	0xbec473e2	-0.38369662
161	0x3c882db0	0.016623348
162	0xbdd7aacb	-0.10530623
163	0x3e744c6d	0.23857279
164	0x3e016217	0.12635075
165	0xbedb2458	-0.42801166
166	0x3e7f1d8a	0.24913612
167	0x3e6144be	0.2199888
168	0x3e7b0259	0.24512614
169	0xbecc9eb0	-0.3996482
170	0xbd3b7d31	-0.04577369
171	0xbe3745d9	-0.17897739
172	0xbc989f46	-0.018630635
173	0x3e9c3d00	0.3051529
174	0x3d557b8e	0.052119784
175	0x3eb9eb01	0.36312106
176	0xbdbba7f1	-0.09162892
177	0x3e250ddb	0.16118567
178	0x3e2a95b2	0.16658667
179	0xbeab50f7	-0.3346021
180	0xbe9ab6a9	-0.30217484
181	0xbe12182e	-0.14267036
182	0x3e909645	0.28239647
183	0xbe958b16	-0.29207677
184	0xbeb76d49	-0.35825565
185	0x3e74926c	0.2388398
186	0x3e187399	0.14887847
187	0x3ea9bf6e	0.33153862
188	0xbe9cc490	-0.30618715
189	0xbe9bee74	-0.30455363
190	0x3e637400	0.22212219
191	0x3e879848	0.2648337
192	0x3e84eee7	0.25963518
193	0x3dd80fa9	0.10549862
194	0x3e2893e8	0.16462672
195	0x3e937af8	0.28804755
196	0xbe385a4c	-0.18003196
197	0xbde63f9c	-0.11242601
198	0x3e96eb77	0.2947652
199	0xbe467be8	-0.19383204
200	0xbe83af12	-0.25719506
201	0x3e9cc29c	0.30617225
202	0x3d7ce952	0.06174595
203	0x3e263333	0.16230468
204	0xbe4875c7	-0.19576178
205	0xbd7e736f	-0.062121805
206	0x3ebe452c	0.3716215
207	0xbe86bc3a	-0.2631548
208	0xbdba4702	-0.09095575
209	0x3d8f078f	0.069838636
210	0xbeacfa28	-0.33784604
211	0x3ee05f44	0.43822682
212	0xbe8a6baf	-0.2703528
213	0xbe36ec5c	-0.17863601
214	0xbe3ff29a	-0.18744889
215	0xbea5f214	-0.32411253
216	0xbe6127aa	-0.21987787
217	0x3dd858a2	0.1056378
218	0x3e461df8	0.1934737
219	0xbed98632	-0.42485195
220	0xbe0f0671	-0.13967301
221	0x3ef2ec68	0.4744599
222	0x3d29f9a8	0.041497856
223	0x3e7a9229	0.24469818
224	0xbeadc2de	-0.33937734
225	0xbe9206cb	-0.28520808
226	0xbe39956a	-0.18123403
227	0x3d845f1b	0.064634524
228	0xbebd7ed6	-0.3701083
229	0xbdca2d22	-0.0987189
230	0xbdbaa23f	-0.09112977
231	0xbe30bf29	-0.17260422
232	0x3e4eb032	0.201844
233	0xbe89330e	-0.26796764
234	0x3e64fbd4	0.2236169
235	0x3bb456e7	0.0055035236
236	0xbd81c6d0	-0.063367486
237	0xbe405373	-0.18781833
238	0x3d6b01a4	0.05737461
239	0x3e5fd731	0.21859433
240	0xbe0d3baf	-0.13792299
241	0x3ec4d16f	0.38441035
242	0xbdf1a5a7	-0.11799174
243	0x3e4a12fa	0.19733801
244	0x3e628f4d	0.22124977
245	0xbe825224	-0.25453293
246	0x3e89e8f8	0.26935554
247	0xbe90ffa1	-0.2832003
248	0xbe80e2dc	-0.2517308
249	0xbc8bc242	-0.017060403
250	0xbe905431	-0.28189233
251	0x3ec64871	0.38727143
252	0xbde33cb0	-0.110955596
253	0x3db75b16	0.0895292
254	0xbe8c3501	-0.2738419
255	0x3e22af0e	0.1588709

bias f4 [16]
0	0xbcb4bc87	-0.022062553
1	0x3d93225d	0.07184289
2	0xbd632b3d	-0.055461157
3	0x3e03e0af	0.12878679
4	0x3d9484f0	0.07251918
5	0xbd5b6bad	-0.053569485
6	0x3e070d8a	0.13188758
7	0xbceb284e	-0.028705742
8	0x3d924928	0.0714286
9	0xbc95d914	-0.018291987
10	0x3d99f07d	0.075165726
11	0x3d914595	0.0709335
12	0x3e4a7313	0.1977046
13	0x3e16b93e	0.14719102
14	0x3dbef09c	0.09323236
15	0xbcb7a9c1	-0.022419812
