Data_model_drive_direct-main/train/models/HARQ-NumK=3-PDB=23_model_pd_satisfy.pt (torch, 36023 bytes, 14 tensors)

bias f4 [16]
00000000: d7d7 11ba c408 23bd 82e9 8bba 51ee b83d
00000010: d759 7bb0 e9e6 e9b9 e262 e23b 92d1 17b6
00000020: f61d 053e 9be3 1aab 4fcb f93d f66c f4ae
00000030: a9f5 88bd ba41 223e 2ebe ffbb 776c 0c3e
-0.00055634737 -0.03980328 -0.0010674449 0.0902983 -9.144094e-10 -0.00044613265 0.0069087604 -2.262274e-06
0.1299971 -5.5027657e-13 0.12196981 -1.1115191e-10 -0.06687481 0.15845385 -0.0078046536 0.13713251

weight f4 [16, 1]
00000000: af1b 99be 513e e0bd f48c 8ebe dd60 f83e
00000010: f91a f0be d124 97be 570a 1ebe a7f7 b6be
00000020: a9e5 3e3e 7c36 16bf 1b95 283f 5b31 01bf
00000030: d3d2 c83e 66f5 833e cb7b 61be b60c 013f
-0.29903933 -0.10949386 -0.27841914 0.485114 -0.46895579 -0.29520276 -0.15433632 -0.3573582
0.18642296 -0.58676887 0.65852517 -0.50465935 0.39223346 0.25773162 -0.2201988 0.5041002

bias f4 [32]
00000000: fc4f 89bd 0d69 a53d 3bf2 323e d4fc 91bc
00000010: 456b 503e b27b 5a3d 759a 8e3d a24e 24bd
00000020: 28d6 d3ba a1c9 f23d 8221 9d3d 28c0 eabc
00000030: cc75 f4bc 36ea a13d a2ea 153e 6815 e9bc
00000040: a439 0ebd 1976 1cbd 1c5a f03d db7d 903d
00000050: 7d27 9b3d b45e 00bd 6562 89bc da07 9fbc
00000060: 6ceb dc32 646d 063e 31a6 ec3d 9a6a acbc
00000070: ffe8 0733 e21d 7bbc 06f9 4dbd 89fd db3d
-0.06704709 0.080766775 0.17475216 -0.017820753 0.2035342 0.05334062 0.06963054 -0.040114053
-0.0016161846 0.11854864 0.07672407 -0.02865608 -0.029841326 0.07906 0.14640287 -0.02845259
-0.03472294 -0.038198564 0.11735937 0.07055255 0.07575891 -0.031340316 -0.016770551 -0.019412924
2.5718428e-08 0.13127667 0.11555136 -0.021046925 3.1644046e-08 -0.015326949 -0.050286315 0.10741717

weight f4 [32, 16]
00000000: e53b b43e 1ef9 62bd 3b82 4cbc 9738 d03d
00000010: e6c8 f4bc 56b8 6d3e 18c0 2ebc fb5c 31be
00000020: d3e8 6e3d 2065 f73d 7203 b53d 6bef d53e
00000030: 0668 363e fe47 7d3e bc22 af3d 6512 c0be
00000040: f761 a8be ddee 99be 6aea c8be def6 bdbd
00000050: 8308 d0be 6567 d0be 408d 95be 01d9 dbbe
00000060: 3230 dcbd 080e 5d3d 22b8 c23e 6a7a 3ebe
00000070: 0dff d9bc 4685 983e ccb3 82be 710f a2bd
00000080: e1b4 313d 1912 f7be 255e 06be 8570 fb3e
00000090: 531a e9bd 335d a0bd 34c1 c2be 7ca1 37be
000000a0: 2f8a 583e 1d8f b3bd 5b3b a13e 24f3 073e
000000b0: c50f cabd a0a9 513e 0bc3 b3be 9990 cdbd
000000c0: f300 2cbc 0e33 96be 0174 873e 79bf bd3c
000000d0: c3e1 30be 836f 4f3e ee33 a2be 5297 f3bd
000000e0: b1f0 b7bd 8ab3 90be 35d7 78be ef66 23bd
000000f0: 9472 803e 2042 a53e e597 783e 2606 6bbe
00000100: 38ba debe 06a0 d63d 2215 a1bd 8414 5f3e
00000110: e69a 1fbe 14c9 f9be 4cc1 a4be 82e7 0b3e
00000120: 9a59 073e 0bc3 62be 5cca b1bd 7090 cdbe
00000130: d4fd 463e dc62 2a3b 327f 7dbe f849 b43e
00000140: d14d ccbe 8555 543d 2ced 92be 6909 f3bd
00000150: 650d a93d e264 693e c46e 19be b81c 4bbe
00000160: efa1 89be 8c28 71be 59d6 82be 8d54 09be
00000170: 2172 023e 1c86 90be c4d0 823e 6e10 8d3e
00000180: 44c3 d4be dd29 74be 03e4 3b3d 7dee 27ba
00000190: a91f ddbd 0993 6abe d0b4 5b3e 7dbe 88be
000001a0: b020 c53e 85fe 3ebd 1d45 133e 6654 533e
000001b0: 2489 f63b c3ff ddbd 8aa9 01be 9d18 b93e
000001c0: c805 64be 7eac f53d fd99 9dbe b3f5 153e
000001d0: fa5d 2e3e fccf 5f3d f3f9 433e fd0c 243d
000001e0: 1b05 1d3e e4fd 75be 2f0f bcbd 0c36 493e
000001f0: 838b a03e 0449 103e eaa8 5ebe d440 6d3e
00000200: 8529 9ebd 2b4f 97bd 3eb4 a3be a4ef a0bd
00000210: b0dd 803e ab8c 503d e537 51be 7f2f e23d
00000220: 5350 f7bd 8218 a63e eb5a abbe 9d69 e1bd
00000230: 3df7 babe b43b 18be c691 e73d 723c a23e
00000240: 7bea 75bd 2e8e 683e 2dcb 4dbd 0c99 a83e
00000250: 66f3 273e c85a 343e bc77 a2be a692 523e
00000260: 0a52 b53e 24c8 91be cbbb 37bd 60f8 d4be
00000270: 25ee 513e a49d 11be dc36 f53c c745 733e
00000280: baa9 c4be e343 9d3c 2676 d8bd a2ea 773e
00000290: aff2 003e 3c5a dbbe fe41 7d3e a9d5 603e
000002a0: fac2 7d3e 6fd6 ccbe cc83 36bd 48b5 37be
000002b0: 6dc9 97bc 5213 9c3e ed5c 533d b69f ba3e
000002c0: 9f96 d4bd 6635 173e 011c 1e3e ca43 a5be
000002d0: 90f1 a0be 638f 1ebe 0a90 8a3e 0ec6 9bbe
000002e0: 3b9b aebe af1c 683e 0365 253e 8984 a33e
000002f0: f3e7 96be fe87 93be ca04 573e 2f45 8e3e
00000300: 025d 773e 4b2a af3d 710f 163e d848 9c3e
00000310: efd8 4abe d9a0 05be 71fb 8d3e ccfa 58be
00000320: f909 72be 5e83 933e 5ebb a33d 90b4 133e
00000330: afae 36be ae09 24bd a30b b53e 7588 7abe
00000340: 26b1 9dbd 4a58 b43d 5bd0 a5be 633c db3e
00000350: 0d49 83be 79a1 28be 1fa2 33be 18cf 9ebe
00000360: 14fb 6cbe 13e3 f43d ecab 383e 9163 d2be
00000370: 108d 1dbe 9971 eb3e 00c4 623d d932 6d3e
00000380: d41c b7be 1e34 9abe 0245 4cbe 926a b13d
00000390: 32da c6be 5e95 efbd 4747 e3bd c475 43be
000003a0: d51c 5f3e 638e 92be ace2 773e 0e43 51bc
000003b0: 4471 35bd f15f 34be 5a8a 1f3d 9a5a 723e
000003c0: 08f6 1abe c512 bd3e 5590 06be 1007 573e
000003d0: 08d7 543e 992f 89be 5b53 833e 38dc 97be
000003e0: 1a93 6fbe ca84 f9bc 963b 89be f76b bf3e
000003f0: d40c c9bd a58f d93d 5a0d 93be 5240 313e
0.35201946 -0.055413358 -0.012482221 0.10167044 -0.029880952 0.2321485 -0.010665916 -0.17320625
0.058327507 0.12079835 0.08838548 0.41784224 0.1781312 0.24734494 0.08551547 -0.37514034
-0.3288724 -0.3006505 -0.39241344 -0.09275602 -0.40631494 -0.40703884 -0.29209328 -0.42938998
-0.1075138 0.05396846 0.38031107 -0.18601385 -0.026610876 0.2978918 -0.255278 -0.079131015
0.04338539 -0.48255995 -0.13121851 0.49109283 -0.11381974 -0.07830276 -0.38038027 -0.17932695
0.21146463 -0.08767531 0.31490597 0.13276345 -0.09866289 0.20474863 -0.35109743 -0.100373454
-0.010498273 -0.29335827 0.2645569 0.02316259 -0.17273621 0.20257382 -0.31680244 -0.118940964
-0.08981455 -0.28261977 -0.24300845 -0.039893087 0.25087416 0.32277012 0.24276693 -0.22951564
-0.4350145 0.10479741 -0.07865359 0.2178517 -0.15586433 -0.48786223 -0.32178724 0.13662532
0.13217774 -0.22144715 -0.08681175 -0.4014926 0.19432765 0.0025998866 -0.24755552 0.35212684
-0.3990312 0.05183937 -0.28696573 -0.11867029 0.08254508 0.2279239 -0.1498366 -0.19835174
-0.26881358 -0.23550624 -0.2555416 -0.1341116 0.12738849 -0.28227317 0.255499 0.27551597
-0.41555226 -0.23844095 0.045871746 -0.0006406082 -0.10797054 -0.22907652 0.21455693 -0.2670783
0.385015 -0.046629447 0.14381833 0.20637664 0.0075236727 -0.10839798 -0.1266233 0.3615159
-0.2226783 0.11995791 -0.30781546 0.14644508 0.17028037 0.05464171 0.19138317 0.04005145
0.15333979 -0.24022633 -0.091825835 0.19649523 0.3135644 0.14090353 -0.21744123 0.23169261
-0.07722763 -0.07388147 -0.3197345 -0.07858208 0.25169134 0.0509154 -0.20431478 0.110442154
-0.120758675 0.32440573 -0.33467802 -0.11006472 -0.36516753 -0.14866525 0.11307101 0.3168674
-0.06003807 0.22710487 -0.05024259 0.32929265 0.16401443 0.17612755 -0.31731975 0.20563754
0.35414153 -0.28473008 -0.044856828 -0.41595745 0.20501001 -0.14220291 0.029933386 0.23757087
-0.3841074 0.01919741 -0.1056941 0.24210599 0.12592576 -0.4284228 0.24732205 0.21956505
0.24781409 -0.4000735 -0.044559285 -0.17940247 -0.018528664 0.3048349 0.051602293 0.36449975
-0.10380291 0.14766464 0.1544037 -0.3227828 -0.31434298 -0.15484385 0.27063018 -0.3042454
-0.34102806 0.22667192 0.16151814 0.31937054 -0.29473838 -0.2881469 0.2099792 0.27787158
0.24156573 0.085529886 0.14654328 0.30524325 -0.19809316 -0.1304964 0.27730897 -0.21189421
-0.23636617 0.28811163 0.07994722 0.14424348 -0.17840074 -0.040048294 0.3536044 -0.24466117
-0.07699804 0.08805902 -0.32385525 0.4281951 -0.2564167 -0.16467847 -0.17542313 -0.31017375
-0.23142654 0.119573735 0.18034333 -0.41091588 -0.15385842 0.45985106 0.0553627 0.23163928
-0.35764182 -0.30117887 -0.199482 0.08662905 -0.38838345 -0.116984114 -0.110975794 -0.19087893
0.21788342 -0.28624257 0.24207562 -0.012772335 -0.04429747 -0.17614724 0.0389503 0.23667374
-0.15132916 0.36928383 -0.13140996 0.20998788 0.20785153 -0.26794127 0.25649533 -0.296602
-0.23395959 -0.030458827 -0.26803273 0.37387058 -0.098169 0.10623101 -0.28721124 0.17309693

bias f4 [16]
00000000: f3b4 83bc 21ed 873d 6a4e 46bd cf99 183e
00000010: a7f3 893d 838f 55bd b12f 003e d717 aebc
00000020: 3aae 873d 7274 6abc e0e6 973d 45dc 843d
00000030: b50a 1d3e ce3e 2c3e 8cbd af3d 270d 31bc
-0.016077494 0.066370256 -0.048414625 0.14902423 0.06735926 -0.052138817 0.12518193 -0.021251602
0.06625028 -0.014309989 0.07417083 0.064873256 0.15336116 0.16820833 0.08581075 -0.010806358

weight f4 [16, 32]
00000000: a746 fbbd e5fc 6abe 9463 c53d aebb cdbc
00000010: 50c9 13be 5579 283e c4a4 63bc f99b 89bd
00000020: 18d1 1ebe 4fd8 80bd f98d a2be 49a2 c53d
00000030: 6a64 b3bb dfbb 4b3e 8f98 143d 07ba c33c
00000040: 6ad7 a43d 9304 923e d486 3dbe 0bfd 473e
00000050: 31e5 8f3d 7acb 60be b284 0e3e baaf 48be
00000060: 7f0b c3bd ce56 1ebe 0298 83be 437d 973e
00000070: 2894 99be 3078 453e f9b2 9abe dc06 75bd
00000080: 1687 8c3d 0854 be3e 33e0 523c df17 063d
00000090: 1971 133e 44fc 113e f774 e83d 7d5b 463e
000000a0: 734a 8fbe fe21 0bbe 60e9 d33e 73ee a5be
000000b0: b10d dfbd dc89 4a3d f72b f03e 3f24 0abe
000000c0: 424d 51be dd0a 21be e9c1 a03e a711 653e
000000d0: d4c3 bc3e 80dc 0fbe 6d1f cd3d fd48 ccbe
000000e0: 4b6b 903d c3ab 8e3e 38fa a13e 4961 8dbe
000000f0: d588 24be 5587 9d3c 9593 a2be 8982 3ebe
00000100: fc8e c1be 357a 6abd 1ae8 113e e67c 103e
00000110: bca5 d63a e78b 2e3e 5537 91be 1b38 e8bb
00000120: 4bbd 22bd 4596 6dbe ace5 773e 9bb8 66be
00000130: adfa 983d b193 bbbe e837 a1bd 5d6a f7bd
00000140: 8d1c 903d fa35 19be 1505 1a3e 9a74 adbe
00000150: b441 243e ca53 5dbe 863b 733e 5160 cebd
00000160: 90a4 413d 8e24 00be 917a 303e cc4e 2d3e
00000170: 5de3 86be 3a1c a53d b57f 48be 303d 503e
00000180: 2fde 3d3e 4e0e c23d 4a7f 8dbc 967a e1bc
00000190: f37a 02be 2a67 943c 4524 b93e 5680 ba3e
000001a0: c726 68bd c074 cebd 8ab4 dc3e db82 84be
000001b0: 5644 74be ca28 113e ead0 cf3e bea4 0e3e
000001c0: 629d 523e 7ae8 983c e270 02be 5857 343e
000001d0: 0e66 1cbe 5cfc efbc 764a cdbe 15d3 8cbe
000001e0: b6eb c83d 868b f33e 0049 29bd 0d26 b2be
000001f0: cc8e d7bd e0d6 24bc 7c95 53be 4f86 833d
00000200: c889 3cbe 26bd 8b3e 890f fa3e e2fa 76be
00000210: 5cb7 833e d985 d93d 7997 c13e 104c b43c
00000220: d5fd 65bd ae32 be3e bdd6 a53e 7440 903e
00000230: 5c0a 1bbe 4f53 6f3e 633e be3e 326b 99be
00000240: 1d4a 0b3e 3652 17be 83a7 b83e 16ec 96bd
00000250: f65d d13d 99d2 113e be55 c8be f44b bbbe
00000260: e354 7ebe ee4d b03e 3655 a73e c4c0 a1be
00000270: fe21 0a39 1a61 82be 98f2 6cbe b4a4 cd3e
00000280: 38da 053e ddbc 3bbe 0b47 3abd ec2c fb3d
00000290: 23d6 1e3d f368 8fbd c35c 8dbe 4aa2 3e3e
000002a0: c380 cb3d 1b6d a03d f04b 51be 8297 643e
000002b0: 9a2c 923e 6729 1b3e afb3 663c 6e04 c73e
000002c0: f881 4fbd d11d 033e 69be 7b3e 20f9 913e
000002d0: 3327 53be 9c59 be3e d8cb 3a3e 6c3f 493c
000002e0: 869c b83e 305d 84be 3816 2a3e 58cd d03e
000002f0: 9998 44be 9984 20be 4dd1 98be 99f7 06be
00000300: 2c61 69be b6cf 613d 3517 8e3e e362 fd3d
00000310: c5a0 9f3e 680e 923d 932b 993e cd38 cbbd
00000320: f1bd cfbe c0c5 433e 2c0d fe3e bd9c d7bd
00000330: 0411 1dbe 454d a2bd 8130 8dbc 479e c7be
00000340: 541b d13e e977 3cbe a1c1 00be e32d 433e
00000350: 7664 283e 23fd 2dbe c2e7 c23a c356 853d
00000360: f63e eabe e5f8 f4bd 3c65 0a3e d926 eabe
00000370: b871 e4be c99c 3f3e 2791 1bbe 6533 8dbc
00000380: 6eb7 0ebe ca9d a1be dc58 843e 7995 58bd
00000390: c756 42be 2009 7dbe 1ef7 363e 9100 8dbd
000003a0: fe31 82bc 4f93 ecbd 70a6 4abe 3577 ac3d
000003b0: e59e 883e 92a1 67be 932e 8e3b 9ad7 87be
000003c0: dfa9 3ebe fb01 aa3e 22d3 02bd 188e a33e
000003d0: e539 adbd c279 2ebe 7a7b 42be f351 ab3e
000003e0: 4e52 80be 2f5a 333e 029b 813d 707e 063e
000003f0: 7809 623e ade2 91bd 87c7 753e 40cd 9dbe
-0.12269335 -0.22948034 0.09638134 -0.025113907 -0.14432263 0.16452534 -0.013894264 -0.067192025
-0.1550945 -0.062912576 -0.31748942 0.09650094 -0.005474617 0.19895886 0.036278304 0.023892416
0.080488995 0.28519115 -0.18508464 0.19530122 0.07026137 -0.2195262 0.13917807 -0.19598284
-0.09523677 -0.15462801 -0.2570191 0.29587755 -0.29995847 0.19284129 -0.3021467 -0.059820995
0.06861703 0.37173486 0.012870836 0.03273761 0.14398612 0.14256388 0.11350434 0.19370838
-0.27986488 -0.13587186 0.41388988 -0.32408485 -0.10891283 0.04944788 0.46908543 -0.1349039
-0.20439628 -0.157268 0.31397942 0.22370015 0.36868155 -0.14048958 0.100157596 -0.39899436
0.070517145 0.2786542 0.31636214 -0.27613285 -0.16067822 0.01922957 -0.3175322 -0.18604483
-0.378044 -0.057245452 0.14248696 0.14110145 0.0016376297 0.17045556 -0.28362527 -0.0070867664
-0.039731305 -0.23201855 0.24208707 -0.22531359 0.074696876 -0.36636117 -0.078719914 -0.12080834
0.07036696 -0.14961997 0.15041001 -0.33878022 0.16040689 -0.21613994 0.23753175 -0.10076965
0.04727608 -0.12513945 0.17234255 0.1692459 -0.2634534 0.080620244 -0.19579966 0.20335841
0.18541788 0.09475385 -0.01727261 -0.027524274 -0.12742214 0.018115599 0.36160484 0.36426038
-0.056677606 -0.10080862 0.4310649 -0.25881085 -0.23854193 0.14175716 0.40589076 0.13930032
0.2056785 0.018665541 -0.12738374 0.17611444 -0.15273306 -0.029295139 -0.40095872 -0.27504793
0.09810583 0.47567385 -0.041329384 -0.34794655 -0.10525283 -0.010060996 -0.20662493 0.06422102
-0.18411934 0.27292746 0.48839977 -0.24119142 0.2572583 0.106212325 0.37810877 0.022008926
-0.056150276 0.3714804 0.32390395 0.28174174 -0.1514067 0.23371623 0.37156972 -0.29964596
0.1360249 -0.14777455 0.360653 -0.073692486 0.10223 0.14240493 -0.39127916 -0.36581385
-0.24837069 0.34434456 0.32682198 -0.3159238 0.00013173369 -0.25464708 -0.23139417 0.4016472
0.13071525 -0.18333764 -0.045477908 0.122644275 0.038778435 -0.07002439 -0.27609834 0.18616596
0.09936669 0.0783331 -0.20439124 0.2232342 0.28549653 0.15152512 0.014080926 0.38870567
-0.050661057 0.12804343 0.24584354 0.2851038 -0.20620422 0.37177742 0.18241823 0.012283187
0.36056918 -0.25852346 0.16610038 0.40781665 -0.19198836 -0.15675582 -0.29847184 -0.13180389
-0.22790974 0.05512973 0.2775208 0.12372377 0.31177345 0.07131654 0.29916057 -0.09922943
-0.405746 0.19118404 0.49619424 -0.10527942 -0.15338522 -0.07924894 -0.017235043 -0.38987944
0.40841162 -0.18405117 -0.12573864 0.19060473 0.16444573 -0.16991095 0.0014870095 0.06510689
-0.4575116 -0.11961535 0.1351518 -0.45732763 -0.4461801 0.18712153 -0.1519209 -0.01723642
-0.1393716 -0.31565696 0.25849044 -0.052876923 -0.18978415 -0.24710512 0.17867705 -0.06884874
-0.015892979 -0.115515344 -0.19790053 0.084211744 0.26683727 -0.22620228 0.004339048 -0.26531678
-0.18619488 0.33204636 -0.031939633 0.31944346 -0.08458308 -0.17038634 -0.18992415 0.3346096
-0.25062793 0.17514871 0.063283935 0.1313417 0.22073925 -0.07123313 0.24001895 -0.30820656

bias f4 [2]
00000000: 2b40 293d 5c77 7c3d
0.04132096 0.061637267

weight f4 [2, 16]
00000000: 5390 b13e 4ec1 f53e 1baf 183e 4b24 c83e
00000010: 6a88 9c3e b76e 283d 86f7 263f b76c fa3e
00000020: aee9 a43e 5cd5 94bd daf4 2a3f d659 9dbe
00000030: 7426 1c3f a960 fc3e 52c1 023f 79a2 b4bd
00000040: 4843 edbe c33b 043f b455 55be 3f53 893e
00000050: 682e e63e e0b6 03bf 7abf 393e 749c 88be
00000060: 473a 073f 0bcf dbbe c984 f43e fa61 053f
00000070: ad62 d93e 3a6c 293f 0824 763e 3dc3 15bf
0.34680423 0.47999042 0.14910547 0.3909019 0.30572826 0.04112121 0.6522144 0.48911068
0.32209533 -0.072672576 0.66779864 -0.30732602 0.60996175 0.49292496 0.51076233 -0.08820052
-0.46340394 0.5165369 -0.20833474 0.26821324 0.4495728 -0.5145092 0.18139449 -0.26681864
0.528233 -0.429314 0.47757557 0.52102625 0.42458096 0.66180766 0.24037182 -0.58501035

weight f4 [1, 2]
00000000: 4c19 f8bd 4cec bfbf
-0.121142 -1.4993987

pout f4 [32, 3]
00000000: 09a3 7a3c c391 8639 4312 7e36 09a3 7a3c
00000010: 4660 7539 493c 7036 09a3 7a3c df3f 9439
00000020: 31d3 9236 09a3 7a3c 79a6 7439 eb69 6f36
00000030: 09a3 7a3c 5aff fb39 1282 3c37 09a3 7a3c
00000040: 4a5e 7239 6fba 6a36 09a3 7a3c ad53 8a39
00000050: 4d14 8436 09a3 7a3c 29f9 f239 4c12 3037
00000060: 09a3 7a3c d317 073c f996 453b 09a3 7a3c
00000070: 1620 7539 88f9 6f36 09a3 7a3c 14a0 8c39
00000080: b253 8736 09a3 7a3c 318b 7439 a946 6f36
00000090: 09a3 7a3c a462 7539 903e 7036 09a3 7a3c
000000a0: 441a 9539 602c 9436 09a3 7a3c 4b4e 7439
000000b0: 9ef3 6e36 09a3 7a3c 41df 7239 064d 6c36
000000c0: 0ca3 7a3c bc31 7239 f515 6836 09a3 7a3c
000000d0: 85c2 9139 2bf5 8e36 09a3 7a3c 0960 7539
000000e0: 0b3c 7036 09a3 7a3c d762 7539 cc3e 7036
000000f0: 0ca3 7a3c ca62 7539 c43e 7036 09a3 7a3c
00000100: a560 7539 a33c 7036 09a3 7a3c 4516 7539
00000110: bcee 6f36 06a3 7a3c d144 7b39 7821 6a36
00000120: 09a3 7a3c 8d2e 7239 93b5 6936 0ca3 7a3c
00000130: 2f60 7639 33ca 6636 0ca3 7a3c 42ff 7239
00000140: 729a 6c36 09a3 7a3c 0c36 7239 9cfe 6736
00000150: 09a3 7a3c d937 7439 55d3 6e36 09a3 7a3c
00000160: 04f5 7439 23c9 6f36 09a3 7a3c 7257 7539
00000170: 8a33 7036 09a3 7a3c 50b4 d339 6774 0837
0.01529766 0.00025667073 3.785958e-06 0.01529766 0.00023400885 3.5797877e-06 0.01529766 0.00028276347
4.375725e-06 0.01529766 0.00023331669 3.5675428e-06 0.01529766 0.00048064702 1.1235958e-05 0.01529766
0.00023114044 3.4977236e-06 0.01529766 0.00026383754 3.93627e-06 0.01529766 0.00046343476 1.0494678e-05
0.01529766 0.008245426 0.0030149801 0.01529766 0.00023376974 3.5759022e-06 0.01529766 0.00026822148
4.033057e-06 0.01529766 0.00023321506 3.5654905e-06 0.01529766 0.00023401767 3.5799203e-06 0.01529766
0.00028439064 4.4159096e-06 0.01529766 0.0002329882 3.5606568e-06 0.01529766 0.00023162087 3.5211574e-06
0.0152976625 0.00023097446 3.4583475e-06 0.01529766 0.00027801484 4.260471e-06 0.01529766 0.00023400797
3.5797736e-06 0.01529766 0.00023401841 3.579934e-06 0.0152976625 0.00023401823 3.5799321e-06 0.01529766
0.00023401024 3.5798082e-06 0.01529766 0.00023373317 3.5752737e-06 0.015297657 0.00023962861 3.4888199e-06
0.01529766 0.0002309626 3.4825396e-06 0.0152976625 0.0002349622 3.4390366e-06 0.0152976625 0.0002317401
3.525664e-06 0.01529766 0.00023099052 3.4569885e-06 0.01529766 0.00023290458 3.5587775e-06 0.01529766
0.00023360929 3.5730852e-06 0.01529766 0.00023397597 3.5792787e-06 0.01529766 0.000403794 8.133334e-06

throughput f4 [32, 1]
00000000: 0014 fc3f 7415 fc3f 4e12 fc3f 8015 fc3f
00000010: 4a05 fc3f a415 fc3f 8a13 fc3f 6e06 fc3f
00000020: 865b f93f 7815 fc3f 4013 fc3f 8215 fc3f
00000030: 7415 fc3f 3212 fc3f 8415 fc3f 9c15 fc3f
00000040: a715 fc3f 9e12 fc3f 7415 fc3f 7415 fc3f
00000050: 7415 fc3f 7415 fc3f 7815 fc3f 1a15 fc3f
00000060: a715 fc3f 6715 fc3f 9a15 fc3f a715 fc3f
00000070: 8615 fc3f 7a15 fc3f 7415 fc3f 600a fc3f
1.9693604 1.9694047 1.9693086 1.9694061 1.9689114 1.9694104 1.9693463 1.9689462
1.9481056 1.9694052 1.9693375 1.9694064 1.9694047 1.9693053 1.9694066 1.9694095
1.9694108 1.9693182 1.9694047 1.9694047 1.9694047 1.9694047 1.9694052 1.969394
1.9694108 1.9694031 1.9694092 1.9694108 1.9694068 1.9694054 1.9694047 1.9690666

delay f4 [32, 1]
00000000: 80fc 4f3d 4cfb 4f3d e5fd 4f3d 43fb 4f3d
00000010: a308 503d 25fb 4f3d e0fc 4f3d b107 503d
00000020: 6c41 523d 4afb 4f3d 1efd 4f3d 40fb 4f3d
00000030: 4cfb 4f3d fcfd 4f3d 3ffb 4f3d 2cfb 4f3d
00000040: 22fb 4f3d a4fd 4f3d 4cfb 4f3d 4cfb 4f3d
00000050: 4cfb 4f3d 4cfb 4f3d 4afb 4f3d 97fb 4f3d
00000060: 22fb 4f3d 57fb 4f3d 2cfb 4f3d 22fb 4f3d
00000070: 3dfb 4f3d 47fb 4f3d 4cfb 4f3d 7104 503d
0.050777912 0.050776765 0.050779242 0.05077673 0.050789487 0.05077662 0.05077827 0.050788585
0.051331922 0.050776757 0.0507785 0.05077672 0.050776765 0.050779328 0.050776716 0.050776646
0.05077661 0.050779 0.050776765 0.050776765 0.050776765 0.050776765 0.050776757 0.050777044
0.05077661 0.050776806 0.050776646 0.05077661 0.05077671 0.050776746 0.050776765 0.050785486

ef1 f4 [32]
00000000: 2cff 5ac0 9a8d 5cc0 0af9 56c0 fca5 5cc0
00000010: cec2 3cc0 9e32 5dc0 22ea 59c0 72a8 3ec0
00000020: 9c4d 05bf 5495 5cc0 4a3d 59c0 14aa 5cc0
00000030: 568d 5cc0 feb7 56c0 bcb3 5cc0 1c03 5dc0
00000040: 2e83 5dc0 f8b6 57c0 a28d 5cc0 508d 5cc0
00000050: 508d 5cc0 908d 5cc0 9496 5cc0 c244 5dc0
00000060: 9451 5dc0 04ab 5dc0 02fa 5cc0 fa85 5dc0
00000070: 7cb7 5cc0 f09a 5cc0 9e8e 5cc0 28be 45c0
-3.4218245 -3.4461427 -3.3589501 -3.447631 -2.94939 -3.4562144 -3.4049153 -2.979031
-0.5207155 -3.4466143 -3.3943658 -3.4478807 -3.4461265 -3.35498 -3.44847 -3.4533148
-3.4611316 -3.3705425 -3.4461446 -3.446125 -3.446125 -3.4461403 -3.4466906 -3.4573216
-3.4581041 -3.463563 -3.4527593 -3.4613023 -3.448699 -3.4469566 -3.4462047 -3.0897312

ef2 f4 [32, 1]
00000000: 0078 413e 0050 bebe 00ba a33e 0064 b5be
00000010: 0090 2c3f 0040 84be 00bc 6d3e 0028 283f
00000020: 00cc 5e40 0070 bbbe 00ba 823e 00ee b3be
00000030: 0068 bebe 00f2 a63e 0084 b0be 0022 95be
00000040: 00a8 45be 00d8 993e 004c bebe 006a bebe
00000050: 006a bebe 0054 bebe 00fa babe 0030 0f3d
00000060: 00f4 70be 0080 26bd 0046 98be 00dc 42be
00000070: 0032 afbe 0062 b9be 00ee bdbe 0027 163f
0.18893433 -0.3717041 0.31977844 -0.35427856 0.67407227 -0.25830078 0.23216248 0.65686035
3.4812012 -0.36608887 0.25532532 -0.35142517 -0.3718872 0.32606506 -0.34475708 -0.29127502
-0.19302368 0.30047607 -0.37167358 -0.37190247 -0.37190247 -0.37173462 -0.3651886 0.034957886
-0.23530579 -0.040649414 -0.29740906 -0.19029236 -0.34217834 -0.3620758 -0.37095642 0.5865326
