train/models/HARQ-CC-NumK=3-PDB=15_model_pd_satisfy.pt (torch, 31822 bytes, 14 tensors)

bias f4 [16]
00000000: d257 1e3d b4f7 4e3d 4fa0 8cbd c31d 673d
00000010: 2f2a 99bd 2a36 4b3d 0f7b 61bd 8ae9 61bd
00000020: 4ab8 513d c00c ddbc 9c14 37bd d59d 2dbd
00000030: 52f3 6e3d 6372 81bd e033 f53c e450 dd3d
0.03865797 0.050529197 -0.06866514 0.056424867 -0.07478749 0.0496122 -0.055049 -0.05515436
0.051201142 -0.026983619 -0.04469739 -0.04238685 0.058337517 -0.06320646 0.029931962 0.10806444

weight f4 [16, 1]
00000000: e543 77be 3004 4c3e 59a8 adbe 3723 8cbc
00000010: db91 a1be 9ea2 e13e c185 05bf 8afa a6be
00000020: 0cdb f5bd 3eb5 c5be 07f5 7a3c 75a0 21bf
00000030: 5854 173f 14c3 10bf 4d02 fa3e d793 503e
-0.24146993 0.19923472 -0.33917502 -0.017106635 -0.3155659 0.4406938 -0.5215722 -0.3261302
-0.120046705 -0.3861484 0.015317208 -0.63135463 0.59113073 -0.56547666 0.4882988 0.20368896

bias f4 [32]
00000000: ad9d 34bd c4ef 803d d982 46bd 89e4 40bd
00000010: d67e a13d 76df 123e bdb9 4ebd 4f53 643d
00000020: 58b4 48bd cd75 57bd 2c55 fb3d 2a69 42bd
00000030: 3051 373d 3056 8d3d fa2f b9bc 9f49 713d
00000040: e6b2 093d ff94 31bd 9f06 31bd 2b83 e73d
00000050: a392 98bd f258 3b3d 2e30 54bd 152c 50bd
00000060: 0deb 7a3d 6173 08bd a8ff 423d fb7d 193d
00000070: ce46 af3d 6f95 243d a34d 3cbd d345 273d
-0.044095684 0.06295732 -0.04846463 -0.047092948 0.0788552 0.14343056 -0.050470103 0.05574351
-0.049000114 -0.052602578 0.122721046 -0.047463574 0.04475516 0.069012046 -0.022605885 0.0589081
0.033617876 -0.043354984 -0.043219205 0.11304315 -0.07449844 0.04573912 -0.05180376 -0.05082329
0.06125932 -0.03331316 0.047607094 0.03747366 0.08558427 0.040181573 -0.045972478 0.040838074

weight f4 [32, 16]
00000000: 135d 773e 771a 743e 7d97 a53e 95c9 c0bd
00000010: b4a5 27bd 607d 0a3e 74d4 6ebd ff5e 503e
00000020: b9b5 2bbd cbad 4ebe 3ada f33d 993e bd3d
00000030: 8e21 fb3d 7b64 c73e 3b30 543e 60af 943e
00000040: d228 15bd d646 7dbe 292a 9cbe 246d 85be
00000050: 48dd bcbe 72e3 fabd 72d4 c3be e624 c4be
00000060: 5d60 87be 7390 cfbe 75e3 38be af49 9f3d
00000070: bbe9 b23e f416 26be 39dd 4bbd 30ab 853e
00000080: 24d5 08be c869 54be 1b13 853e c7d3 8dbe
00000090: 440b af3d f6db 8b3e 7eb1 d23d 4879 0d3e
000000a0: 83b9 2abe d93a 183d c358 06bc 9827 043e
000000b0: 7e6a c93d afef b23e 9ba9 9dbe c579 21bd
000000c0: 9ae4 0bbe f259 a3be 47e8 533c ef52 8fbe
000000d0: a087 933e 5237 203b a3bb 18be b95c 673e
000000e0: 5890 97be 56b3 c3bd b3ad c6bd 389c 84be
000000f0: 40be 86be ce6d 85bc 7943 6c3e ac52 963e
00000100: 621d 1c3e 4f25 0cbe da67 9cbe c799 7f3e
00000110: a4ef 4e3d ae9b a73d 4648 d7bc 6f6b b7be
00000120: 8418 41be 625e 883e 7605 06bd 3c29 bcbd
00000130: 4ea2 62be 4d39 8bbe 1b57 823d f508 06be
00000140: 579f 37be fd59 913e ce58 f7be b5bd 03bc
00000150: a127 bebe d903 17bd 9f84 c2ba a363 133e
00000160: d737 6abe 0c88 90be e10d 5abe b09d a3be
00000170: 661c 32be 0463 5fbe 8d65 523e 4c03 2cbe
00000180: bf63 b43e c5bb 363e 3c31 9abe 59ed 09be
00000190: c850 243e 1baa ebbd c7d0 d53b 3203 ebbd
000001a0: d6f8 a63e 756f 1cbe 815c 863e 6d0a 8b3d
000001b0: 9c11 ec3c d64b a43e db00 ccbd 35fd 81be
000001c0: 9b2e d8bd 6d0c ac3e c5df 9fbe 7aad 363d
000001d0: c29d cbbe 738b 6e3e 8a2e a53d ebc5 0ebd
000001e0: 19ba d73d e660 4abd bba7 683e 98e5 a8be
000001f0: f58b 93bb fdd4 da3d 1be0 cb3e e3d9 783e
00000200: 445e 59be 66dc 683e 9a99 06bd a589 16bd
00000210: 26e0 8cbe 3cf5 ccbd ca92 973e 0efe c23d
00000220: 07d7 25be cb5b 1e3e c343 19be efcd bc3e
00000230: bebb b3be b68f 86bd 532c c5be 7c7a 41be
00000240: 38b5 1f3e 7cbe 973e e66c d73d 07f0 c23e
00000250: 2ed1 eb3d db55 253e 4eab a83e 56bd ae3e
00000260: acd7 1ebe 33df bd3e 2e11 3c3e d345 f4bd
00000270: 6964 58be 5e43 80be 8f63 413d fc8f aebe
00000280: 3985 de3c 0d8f 7b3e f2f3 dcbe 0c40 e33b
00000290: c39e 1dbe 562f 943e 9976 a23d 5d96 f3be
000002a0: fee1 523e 44de 303e 727c 623e 85aa e4be
000002b0: 9422 bf3a c765 67be 1a54 0b3d c2cc b83e
000002c0: 730d 2f3e 92f1 733e e7ef b5bd ea80 1e3e
000002d0: f6a1 2d3e ab05 acbe 9942 99be 1f4e 0fbe
000002e0: 3020 913e 0a2d 94be 618f aebe 757d 773e
000002f0: 47f2 183e 4235 ab3e f794 9dbe 8ad6 9cbe
00000300: dcda 123e b2fb b03e 1352 303e 9540 e43c
00000310: ef82 9d3d 66c5 be3e d1f9 88be 4898 4cbe
00000320: b109 583e 9af4 8fbe cdff 2ebe c2e5 5f3e
00000330: 1bf8 173e 8c29 993d 2087 e9bd 4c42 353d
00000340: 8e71 863e d547 19be fb24 75bd 2746 fa3d
00000350: d531 9dbe 1da2 ce3e 5712 75be a4fd 16be
00000360: c706 1ebe 60fa 95be cf7d 9cbe 05e9 0b3e
00000370: ceb6 1d3e 53a6 c9be da19 2dbe f044 db3e
00000380: 11fc 1b3e 5b03 003e 891e 46be a526 14be
00000390: 421c 10bd 2c3b a5bd 217a 65be 8011 413d
000003a0: c471 513d 1bf6 dabc ddea 263d eab6 f9bd
000003b0: 7fd2 9b3d 8a2a 1b3e 974b 4ebe 74f4 bfbe
000003c0: 25f3 073e 4a22 0e3e 3b7f 6fbe 4d1d 9b3e
000003d0: b385 5bbe 052a 953e eb63 003e f767 b3be
000003e0: f620 363e d204 c2be f371 26be 294d e7bd
000003f0: 8691 3ebe 1d31 953e ab9e a5bc 012d 583e
0.24156599 0.2383822 0.3234214 -0.09413449 -0.04092951 0.1352439 -0.05830808 0.20348738
-0.04192135 -0.20183484 0.11906858 0.09240455 0.122622594 0.38943848 0.20721523 0.2904005
-0.036415882 -0.24734053 -0.30500916 -0.2605983 -0.36887574 -0.12250413 -0.3824802 -0.383094
-0.26440707 -0.40539894 -0.18055518 0.07777726 0.34943947 -0.16219693 -0.04977152 0.26107168
-0.13362557 -0.20743477 0.2599114 -0.27700636 0.085470706 0.27316254 0.1028776 0.13815796
-0.1667233 0.037165496 -0.008199873 0.12905729 0.09834765 0.3494849 -0.3079346 -0.03942277
-0.13661423 -0.3190456 0.012933797 -0.2799296 0.2881441 0.0024447036 -0.14915328 0.22593965
-0.29602313 -0.0955569 -0.09701099 -0.25900435 -0.26317024 -0.01628771 0.23072614 0.2935995
0.15245584 -0.13686107 -0.30547982 0.24961005 0.050521508 0.081839904 -0.02627958 -0.35824153
-0.18857008 0.26634508 -0.03272005 -0.09187552 -0.22132227 -0.27192155 0.0636427 -0.13089354
-0.17931877 0.28388968 -0.4830994 -0.008040835 -0.3713961 -0.036868904 -0.001484055 0.14393477
-0.22872864 -0.28228796 -0.21294357 -0.31956244 -0.17393646 -0.21815115 0.20546551 -0.16798133
0.3523235 0.17845066 -0.30115688 -0.13469447 0.1604644 -0.115070544 0.0065251323 -0.11475219
0.32611722 -0.15276892 0.2624245 0.06789098 0.02881699 0.32089108 -0.09961101 -0.25388494
-0.10555764 0.3360323 -0.3122541 0.044599034 -0.39768797 0.23295383 0.08065517 -0.034856718
0.10533542 -0.049408816 0.22720234 -0.32987666 -0.004502768 0.106851555 0.39819416 0.24301867
-0.21227366 0.22740325 -0.03286133 -0.03675236 -0.27514762 -0.10007712 0.2960418 0.09521113
-0.16195308 0.15464704 -0.14967255 0.36875865 -0.35104173 -0.065703794 -0.3851038 -0.1889438
0.15596473 0.29637516 0.105188176 0.3807375 0.11514507 0.16146033 0.32943195 0.34128827
-0.1551196 0.3708435 0.18365929 -0.119273804 -0.21132053 -0.25051397 0.047214087 -0.34094226
0.027163135 0.24566288 -0.43154866 0.006935125 -0.15392594 0.28942364 0.07932777 -0.47575656
0.20594022 0.17272288 0.22117785 -0.44661346 0.0014582449 -0.22597419 0.034015752 0.36093718
0.17094974 0.2382262 -0.08883648 0.15478864 0.16956314 -0.33598074 -0.29933622 -0.13994645
0.2834487 -0.28940612 -0.34093764 0.24168952 0.14936171 0.3343907 -0.30777714 -0.3063243
0.143413 0.34567028 0.17218809 0.027862826 0.07690989 0.37259978 -0.26753095 -0.19979966
0.21097447 -0.28116304 -0.17089768 0.2186499 0.14840738 0.074786276 -0.11402726 0.04425268
0.2625851 -0.14968808 -0.05984972 0.12220412 -0.3070208 0.40358058 -0.23932777 -0.14745194
-0.15432273 -0.29292583 -0.30564734 0.13663109 0.15401766 -0.39384708 -0.16904393 0.42826033
0.15232874 0.1250128 -0.19347586 -0.14467867 -0.0351832 -0.08067927 -0.2240987 0.04713583
0.051133886 -0.02672868 0.040751327 -0.12193091 0.07608508 0.15152946 -0.20146023 -0.3749119
0.13276346 0.13880268 -0.23388378 0.30295792 -0.21437721 0.2913362 0.12538116 -0.35040256
0.17786011 -0.37894303 -0.16254406 -0.11294014 -0.186102 0.29139033 -0.02021726 0.21110918

bias f4 [16]
00000000: f129 3d3d deda 3e3d 88d8 393d 0e9d 3d3d
00000010: 40d6 3b3d 23a9 423d 5539 a23d 9b12 7dbd
00000020: b71a 3a3d 2f36 ac3d e925 e03d 94c8 1fbd
00000030: aef0 673d e593 49bd 2c00 3d3d 71bf 3e3d
0.046182577 0.046595447 0.045372516 0.046292357 0.04585862 0.047524583 0.079210915 -0.06178532
0.045435634 0.08408772 0.10944731 -0.039009646 0.056626014 -0.04921331 0.046142742 0.04656929

weight f4 [16, 32]
00000000: c1fd 923d 3aee 2f3e 2c6d 64be d5db 46be
00000010: d267 5b3d 6ee7 5eb8 9a93 5fbe 5dc5 3a3e
00000020: 4c88 0ebd 40ef 0dbe 2341 04bd 42c7 abbd
00000030: 3bb2 86be 7e21 003e e2ab f3bc a74b 753e
00000040: 7415 5f3d b204 23bc f69e fe3d e002 a23e
00000050: 8e59 14be f5df 863e b0e1 423d 1914 8cbe
00000060: 9080 b83d 17f7 7cbe 6c9e 8fbd cf34 0bbe
00000070: 3463 8cbe 1168 953e 2d05 b5be 6930 563e
00000080: 13df 94be fe9f 07bb 49e8 c7bd 1a23 893e
00000090: 26de 21be 4c7c 143e 9e8d a3bb d872 783e
000000a0: 05ff 8ebc 8768 303d 8754 92bd be31 91be
000000b0: 80fd b43e 6aef 58be abd7 c4bd 5ac1 83bc
000000c0: a886 c13e 053c ecbd 618c 76be 46d0 27bd
000000d0: 18c7 513e d8b3 463e 2089 813e b291 e2bd
000000e0: 0e5a 083e 7ca1 bcbe a33e 373e 2d66 483e
000000f0: bdb2 463e 78e3 40be 349b 07be 1ad6 f23d
00000100: c174 66be a143 78be 354c e7be 4c10 153d
00000110: 49d8 423e f051 053e 0d58 0cbd b0b5 1f3e
00000120: 29c6 84be c969 3fbd 529d 3d3d b990 58be
00000130: 3799 ae3e f80b 6cbe f836 953c 067e 93be
00000140: ee6f 983c 37cd 46be c822 133e 05d3 1cbe
00000150: ead9 7d3e 03b6 72be 8daf 323e d1d3 9abe
00000160: 5ad3 203e db11 3bbe 22c7 1e3d 4d6e 07bd
00000170: 5e37 493e c2e1 023e 6c48 b2be 38a7 823d
00000180: b103 5ebe 21f8 9b3e dad4 6ebd f430 98bd
00000190: 6457 57be c777 283e 5e5d 8abe 8397 4e3e
000001a0: d484 1e3e e37e 043e dc6d 6d3e 3aa7 b1be
000001b0: e48a 953e 0f99 84bd fd20 0fbe 8128 4fbc
000001c0: 729e 943e c013 6f3e a65f a93d fa90 5d3e
000001d0: 414d 9dbe 0746 5b3d f420 b4be 23e8 a83d
000001e0: 1aeb 91be 2c0a 25be 63ba 933e 23c3 bd3e
000001f0: 97ee 7bbe d00a 3bbe 279e c83b 87a3 2f3e
00000200: 2726 fcbc f637 90bd 0072 b2be 2451 2b3e
00000210: a733 a23e 6edc 04be b707 de3d 3563 533e
00000220: be57 7c3e b5ea 02be bedb 1a3e caf4 633e
00000230: e997 853e 6ba4 c93e 2e7b 0bbe ac0d 293e
00000240: f382 8e3e d35e 8ebe bdc9 c83d 8a3b 02bd
00000250: 453c 7f3e e3ff d9bd 279b 63bc f034 323e
00000260: 6f9c b6be 0aaf aabe cb66 0fbe 30b5 843e
00000270: 478a 503e be6e 69be 79ab f63c 28d9 1ebe
00000280: 1bfc 0abe 46dd b13e 72df 443d 4924 a4bd
00000290: 87e0 ad3c a30e ea3d 75c0 a73c e94e aebd
000002a0: 9a9c 7dbe 9ab3 103e 024d 473e ad41 df3d
000002b0: 7c20 c0bd 942c 603e d6fb 603e 6107 7a3e
000002c0: e2ad 043e ab79 9d3e 5a0b e93c d037 013e
000002d0: 4cdf b73e e0f6 cc3e da81 42be a6ef 8e3e
000002e0: 2e23 c53d b2f8 9cbd b58c b43e 652a 18be
000002f0: f689 473e 2a78 bb3e 40d9 90be ed81 32be
00000300: 0d21 96be 385a 353c b650 f4be 48f8 a2bd
00000310: be4e 453d 9aa2 af3e 9db4 d23d 4cb7 863e
00000320: 66d7 9c3d b6bc aebe 2ef6 f1bd 0faa 60bd
00000330: 000e d13e dc2c ce3d fb5b d1bd 14c8 50be
00000340: 8a0c e4bd 3cfa afbe 4c8e ae3e 9a08 f03c
00000350: abb1 85be 49e1 063e 6096 3bbd 4d99 e8bd
00000360: 31be 803d 5257 f93d fa86 82be 6803 52be
00000370: 238b a6bd f439 a0be 2311 c8be b356 c13e
00000380: 79ae 9dbd 2f22 6fbe a68b 35bd ce7f a3be
00000390: c588 a73e 173f a1bd aad1 f8bd 7a3d a5be
000003a0: fb36 873e 0e3d 423d 83e3 32be 51c0 0cbd
000003b0: bd4b 68be f388 003a 0d87 a53e 1521 3bbe
000003c0: 2c33 12bd 392f 56be 3572 5dbe cd47 803e
000003d0: 040f 21bd ac75 8e3e 5d1b 1cbb e4fa 09be
000003e0: ddc0 21be 67e0 bc3e d1bb a8be eedc 073e
000003f0: 875e 113e 0aed 043e 739e 833e c163 14be
0.07177306 0.1718072 -0.22307271 -0.19419797 0.053565808 -5.314446e-05 -0.2183365 0.1823935
-0.03479795 -0.13860798 -0.03228868 -0.08387615 -0.26307854 0.12512776 -0.029745046 0.2395464
0.05446382 -0.00994985 0.12432663 0.31642818 -0.14487287 0.2634274 0.047578514 -0.27359083
0.09008896 -0.24703632 -0.070126384 -0.13594364 -0.27419436 0.2918096 -0.3535551 0.20916905
-0.29076442 -0.0020694728 -0.09761102 0.26784593 -0.15807399 0.1450054 -0.0049912473 0.2426256
-0.017455587 0.043068435 -0.071450286 -0.28358263 0.35349655 -0.21185079 -0.09611448 -0.016083408
0.37798047 -0.11534885 -0.24076988 -0.04097011 0.20486104 0.19404542 0.2529993 -0.110629454
0.13315603 -0.36841953 0.17894988 0.19570227 0.1940412 -0.18836772 -0.13242799 0.11857243
-0.22505476 -0.24244548 -0.4517533 0.036392495 0.19027819 0.13019538 -0.03426366 0.15596652
-0.25932434 -0.046731744 0.04629261 -0.21148957 0.3410127 -0.2305144 0.018214688 -0.28807086
0.01860806 -0.19414221 0.14368737 -0.15314873 0.24790159 -0.23702244 0.1744978 -0.30239728
0.15705624 -0.1826853 0.038764127 -0.033064175 0.19650027 0.12781432 -0.34820879 0.06379551
-0.21681096 0.30462745 -0.05830846 -0.07431212 -0.2102943 0.16451941 -0.2702436 0.20174985
0.15480357 0.12939028 0.2318644 -0.34697896 0.29207528 -0.06474506 -0.13977428 -0.012643934
0.29027134 0.23347378 0.082701966 0.21637335 -0.30723003 0.05353358 -0.3518139 0.082474016
-0.2849968 -0.16117162 0.2885314 0.3706294 -0.24602734 -0.18265843 0.006122369 0.17152224
-0.030779911 -0.07041924 -0.348526 0.16730171 0.31680033 -0.12974712 0.10841315 0.20643313
0.24642846 -0.12784846 0.15122887 0.22261348 0.2609246 0.39383253 -0.13621208 0.16509122
0.2783428 -0.2780672 0.098041035 -0.031795062 0.24925335 -0.1064451 -0.013891972 0.17403007
-0.35666224 -0.3333667 -0.14004056 0.25919485 0.20365249 -0.22796151 0.030111061 -0.15512526
-0.13572733 0.3473913 0.048064657 -0.08014733 0.021225227 0.11428573 0.020477513 -0.08511145
-0.2476677 0.14131013 0.1946297 0.109011985 -0.09381196 0.21892005 0.21971068 0.24416877
0.12956956 0.30756888 0.028447796 0.12618947 0.3591255 0.400321 -0.18994847 0.27917212
0.096258506 -0.07664622 0.352636 -0.14859922 0.19486222 0.36615115 -0.2829075 -0.17432375
-0.2932209 0.011068873 -0.47717828 -0.07957512 0.048170798 0.34303743 0.102883555 0.2631172
0.076582715 -0.3412835 -0.11814533 -0.05484968 0.40830994 0.1006715 -0.10222622 -0.20388824
-0.11135204 -0.343706 0.3409294 0.029300977 -0.26112112 0.13171877 -0.045797706 -0.11357365
0.06286276 0.12174858 -0.25493604 -0.20509112 -0.08132007 -0.31294215 -0.39075574 0.3776146
-0.07699294 -0.23352884 -0.044322632 -0.31933445 0.32721534 -0.078733616 -0.12149365 -0.32273465
0.26409134 0.047421508 -0.17469601 -0.034363095 -0.22685142 0.00049032195 0.32329598 -0.18274339
-0.035693333 -0.20916452 -0.21625598 0.2505478 -0.03932096 0.27824152 -0.002382002 -0.13474613
-0.15796228 0.36889955 -0.32955793 0.13267872 0.14196216 0.12981048 0.25706825 -0.14491178

bias f4 [2]
00000000: 9abe 633d 71ed 703d
0.055601694 0.05882019

weight f4 [2, 16]
00000000: f8f9 013f 8247 353e feee de3e 8205 d73e
00000010: 3da4 493e 41a3 8d3e 7159 6e3e c915 823c
00000020: 805a 0e3f d711 1d3f 1a3e 763e 9e33 91bc
00000030: bafd 1d3f f9be fcbe f6d4 f23e f9ae b23e
00000040: 25ab dc3e eab8 d0bb 4c24 c9be 18cd ed3e
00000050: a952 5abe e1a4 763e d942 c53e 9848 16bf
00000060: 5a16 f13d d5c4 ddbd 5197 e93e b4dd b6be
00000070: b057 ee3e 6ceb 9f3e 78c2 c03e b388 1a3f
0.5077205 0.1770306 0.43541712 0.4199639 0.19691558 0.27663615 0.23276307 0.015879529
0.5560684 0.61355346 0.24047127 -0.017724808 0.6171528 -0.4936445 0.474281 0.3489912
0.43099323 -0.0063696997 -0.39285505 0.46445537 -0.21320595 0.24086334 0.38527563 -0.5870452
0.11771841 -0.10828558 0.45623258 -0.3571602 0.46551275 0.312343 0.37648368 0.60364836

weight f4 [1, 2]
00000000: 767b 893f acc4 513e
1.0740802 0.2048518

pout f4 [50, 3]
00000000: d27b dc3d 732b 463c 9415 323a d27b dc3d
00000010: 8a6e f33b c152 9439 d27b dc3d 87e3 bd3b
00000020: 280f 5a39 d27b dc3d c222 dc3b 11b9 7c39
00000030: d47b dc3d 00e5 bd3b e210 5a39 d27b dc3d
00000040: 60c3 bc3b 972f 5839 d27b dc3d 44c9 bf3b
00000050: 32f9 5439 d47b dc3d cd8f bd3b f7a3 5939
00000060: d27b dc3d 6650 e73b 177d 8839 d27b dc3d
00000070: ede0 ea3d b841 653d d27b dc3d 0259 bd3b
00000080: d551 5939 d27b dc3d d06d bd3b 3072 5939
00000090: d27b dc3d 4bdf bc3b a16f 5839 d47b dc3d
000000a0: d2b1 bd3b 22d2 5939 d27b dc3d 7e91 bc3b
000000b0: 598f 5439 d27b dc3d 10e5 bd3b f310 5a39
000000c0: d27b dc3d 67d3 bd3b 3efc 5939 d47b dc3d
000000d0: 0385 bc3b 6e83 5739 d27b dc3d 92e4 bd3b
000000e0: 6410 5a39 d47b dc3d 4763 bd3b 8015 5439
000000f0: d47b dc3d 49b2 c13b 687f 5639 d27b dc3d
00000100: 25eb bc3b 0f89 5839 d47b dc3d 1c4a bd3b
00000110: b239 5939 d27b dc3d 9f43 ce3b 0f49 6639
00000120: d47b dc3d 2dd7 bd3b c400 5a39 d27b dc3d
00000130: 0cb5 cf3b 5271 6839 d27b dc3d 17ff 133c
00000140: bd26 d039 d27b dc3d 623e 103c 76d3 c639
00000150: d47b dc3d 0f59 c53b 4454 5a39 d27b dc3d
00000160: 096a bc3b dcd7 5439 d27b dc3d acde bd3b
00000170: 9409 5a39 d27b dc3d c76d d43b 48d1 6f39
00000180: d27b dc3d d2f5 e33b 5a5d 8539 d27b dc3d
00000190: d9b7 bd3b f0d9 5939 d27b dc3d c766 be3b
000001a0: e93d 5439 d27b dc3d f1eb 053d bc66 983b
000001b0: d27b dc3d 7eeb be3d 7bc4 173d d27b dc3d
000001c0: 514c f53b b437 9639 d47b dc3d b89d bc3b
000001d0: d3cd 5739 d47b dc3d bda8 bd3b 28c6 5939
000001e0: d47b dc3d 1869 193c 210b de39 d47b dc3d
000001f0: ae14 bd3b 0928 5439 d27b dc3d 13e5 bd3b
00000200: f810 5a39 d27b dc3d 5ad6 bc3b 4449 5439
00000210: d47b dc3d 38d7 bc3b b45d 5839 d27b dc3d
00000220: 26ad bc3b c8f7 5739 d27b dc3d 92d9 df3b
00000230: 3ea2 8139 d27b dc3d 8545 bc3b 8864 5539
00000240: d27b dc3d ef18 5c3d 2c47 4b3c d27b dc3d
00000250: cde3 bd3b 830f 5a39
0.10765804 0.01209532 0.00067933765 0.10765804 0.007428949 0.00028290416 0.10765804 0.0057949456
0.00020795746 0.10765804 0.0067180106 0.00024101535 0.10765806 0.005795121 0.0002079639 0.10765804
0.005760595 0.00020617094 0.10765804 0.00585285 0.00020310728 0.10765806 0.0057849647 0.00020755814
0.10765804 0.007059145 0.0002603314 0.10765804 0.114686824 0.055970877 0.10765804 0.005778433
0.00020725217 0.10765804 0.005780913 0.00020737271 0.10765804 0.0057639233 0.0002064095 0.10765806
0.00578902 0.00020773013 0.10765804 0.0057546487 0.00020271297 0.10765804 0.0057951286 0.00020796414
0.10765804 0.0057930234 0.000207887 0.10765806 0.005753161 0.00020552959 0.10765804 0.00579507
0.00020796206 0.10765806 0.005779657 0.00020225905 0.10765806 0.005911146 0.00020456093 0.10765804
0.005765336 0.00020650424 0.10765806 0.005776657 0.00020716226 0.10765804 0.006294682 0.00021961726
0.10765806 0.005793473 0.00020790385 0.10765804 0.006338721 0.00022167459 0.10765804 0.009032986
0.00039701714 0.10765804 0.008803936 0.00037923054 0.10765806 0.0060225795 0.00020821491 0.10765804
0.005749945 0.0002029831 0.10765804 0.005794367 0.00020793668 0.10765804 0.006482813 0.0002287078
0.10765804 0.0069567943 0.0002543729 0.10765804 0.0057897386 0.0002077592 0.10765804 0.005810592
0.00020240959 0.10765804 0.032695714 0.0046509188 0.10765804 0.0932226 0.037052613 0.10765804
0.0074859043 0.00028651732 0.10765806 0.005756106 0.00020580673 0.10765806 0.0057879374 0.00020768552
0.10765806 0.009363435 0.0004235143 0.10765806 0.0057702875 0.0002023281 0.10765804 0.00579513
0.00020796421 0.10765804 0.0057628574 0.00020245189 0.10765806 0.0057629608 0.00020634272 0.10765804
0.0057579456 0.00020596304 0.10765804 0.0068313563 0.00024725677 0.10765804 0.005745592 0.00020350714
0.10765804 0.053734716 0.012407105 0.10765804 0.0057949782 0.00020795879

throughput f4 [50, 1]
00000000: 6a77 e43f 7883 e53f 1ade e53f 6aab e53f
00000010: 19de e53f 07e0 e53f 55db e53f a8de e53f
00000020: 4998 e53f 1bb6 c53f 05df e53f e2de e53f
00000030: d7df e53f 6ede e53f 8ae0 e53f 19de e53f
00000040: 37de e53f 75e0 e53f 19de e53f 41df e53f
00000050: 29d8 e53f c1df e53f 1edf e53f 04c3 e53f
00000060: 30de e53f 93c0 e53f 6028 e53f 7535 e53f
00000070: 10d2 e53f c7e0 e53f 22de e53f 8db8 e53f
00000080: 099e e53f 64de e53f 9add e53f 9972 df3f
00000090: 3347 cd3f 4280 e53f 48e0 e53f 7ede e53f
000000a0: 7815 e53f bddf e53f 19de e53f 1fe0 e53f
000000b0: e4df e53f 2ee0 e53f 12a5 e53f f9e0 e53f
000000c0: aeb0 d93f 1ade e53f
1.7848942 1.7930746 1.7958405 1.7942936 1.7958404 1.7958993 1.795756 1.7958574
1.7937099 1.5446199 1.7958685 1.7958643 1.7958935 1.7958505 1.7959149 1.7958404
1.795844 1.7959124 1.7958404 1.7958757 1.7956592 1.7958909 1.7958715 1.7950139
1.7958431 1.7949394 1.7902946 1.7906939 1.7954731 1.7959222 1.7958415 1.7946945
1.7938854 1.7958493 1.7958252 1.7456847 1.6037353 1.7929766 1.795907 1.7958524
1.7897177 1.7958905 1.7958404 1.7959021 1.7958951 1.7959039 1.7941 1.7959281
1.7007043 1.7958405

delay f4 [50, 1]
00000000: 3b7b 653d 386f 643d 2715 643d 7e47 643d
00000010: 2815 643d 3e13 643d e517 643d 9914 643d
00000020: 815a 643d da96 843d 3d14 643d 6014 643d
00000030: 6d13 643d d214 643d bb12 643d 2815 643d
00000040: 0915 643d d112 643d 2815 643d 0214 643d
00000050: 0b1b 643d 8313 643d 2414 643d 0930 643d
00000060: 1015 643d 7732 643d 05ca 643d f6bc 643d
00000070: 1921 643d 7e12 643d 1f15 643d 6f3a 643d
00000080: ca54 643d dd14 643d a515 643d bea2 6a3d
00000090: 5b67 7f3d 6a72 643d fd12 643d c314 643d
000000a0: e8dc 643d 8713 643d 2815 643d 2513 643d
000000b0: 6113 643d 1613 643d cc4d 643d 4c12 643d
000000c0: 66d7 703d 2715 643d
0.056025725 0.05577013 0.055684235 0.055732243 0.05568424 0.055682413 0.05568685 0.055683706
0.055750374 0.06474085 0.055683363 0.055683494 0.05568259 0.05568392 0.055681925 0.05568424
0.055684123 0.055682007 0.05568424 0.055683143 0.055689853 0.05568267 0.05568327 0.055709872
0.05568415 0.05571219 0.055856723 0.05584427 0.055695627 0.055681698 0.055684205 0.05571979
0.055744924 0.05568396 0.055684704 0.05728411 0.062354427 0.055773176 0.05568217 0.055683862
0.055874735 0.055682685 0.05568424 0.05568232 0.055682544 0.055682264 0.055738255 0.05568151
0.05879917 0.055684235

ef1 f4 [50]
00000000: 1cbf 0ac0 5818 23c0 4fa6 2bc0 958c 27c0
00000010: 17a6 2bc0 b3e3 2bc0 3b4e 2cc0 fbb3 2bc0
00000020: 0468 25c0 200b 81be 7bbe 2bc0 59ba 2bc0
00000030: 78db 2bc0 17ae 2bc0 0e5c 2cc0 14a6 2bc0
00000040: b7a8 2bc0 def9 2bc0 27a6 2bc0 026c 2cc0
00000050: 7c1b 2cc0 34d8 2bc0 91c1 2bc0 2322 2ac0
00000060: 24a8 2bc0 cbdf 29c0 1cad 19c0 40f3 1ac0
00000070: 829d 2bc0 9452 2cc0 05a7 2bc0 8a01 29c0
00000080: c50c 26c0 18ad 2bc0 b766 2cc0 168e aabf
00000090: c8c3 dcbe 0bbe 22c0 48f0 2bc0 9eaf 2bc0
000000a0: 65e1 17c0 9469 2cc0 14a6 2bc0 3a65 2cc0
000000b0: c6dd 2bc0 e1ea 2bc0 a9d6 26c0 3b40 2cc0
000000c0: 3605 68bf 43a6 2bc0
-2.1679144 -2.5483608 -2.6820257 -2.6179554 -2.6820123 -2.6857727 -2.6922748 -2.6828601
-2.5844736 -0.252038 -2.683501 -2.6832488 -2.6852703 -2.6825006 -2.6931186 -2.6820116
-2.6821725 -2.6871257 -2.6820161 -2.6940923 -2.6891775 -2.685071 -2.6836894 -2.6583335
-2.6821375 -2.6542842 -2.4011908 -2.4210968 -2.6814885 -2.6925402 -2.682069 -2.640719
-2.5945294 -2.6824398 -2.6937692 -1.3324611 -0.4311812 -2.5428493 -2.6865406 -2.6825938
-2.373132 -2.693944 -2.6820116 -2.6936784 -2.685411 -2.6862109 -2.6068518 -2.6914203
-0.9063295 -2.6820228

ef2 f4 [50, 1]
00000000: c067 223f 0025 323e a058 18bf 003e 1c3d
00000010: e063 18bf 0096 0bbf c0cd 95be 407e 15bf
00000020: 0021 e03d 3874 b240 4050 13bf e02b 14bf
00000030: 204e 0dbf 40b9 16bf 00ff d6be 6064 18bf
00000040: a0d8 17bf e0dc 06bf a060 18bf 40fa bdbe
00000050: 80b0 7fbe 00fc 0dbf 80ac 12bf 007b 9fbd
00000060: 20f7 17bf 004f 82bd 802c c13e 80c0 b43e
00000070: 0007 3fbe c0d7 debe 0033 18bf 0030 adbc
00000080: 003e b73d 80ee 16bf 8021 aabe 8090 df3f
00000090: 38af 9240 806d 3b3e 00ed 08bf 6067 16bf
000000a0: 802b d23e 80b5 c5be 6064 18bf 80f0 ccbe
000000b0: 60d3 0cbf a012 0abf 00e6 813d 800b ebbe
000000c0: 50c8 2f40 e05a 18bf
0.6343956 0.17396927 -0.5951023 0.038145065 -0.595274 -0.54525757 -0.29258537 -0.5839577
0.10943794 5.576687 -0.57544327 -0.5787945 -0.55197334 -0.5887642 -0.41991425 -0.5952816
-0.5931492 -0.5268078 -0.5952244 -0.37104988 -0.24969673 -0.55462646 -0.57294464 -0.07787132
-0.5936146 -0.06362724 0.37729263 0.35303116 -0.18655014 -0.4352398 -0.5945282 -0.021141052
0.089473724 -0.5895767 -0.33228683 1.7465973 4.583889 0.1830349 -0.53486633 -0.5875149
0.41048813 -0.38615036 -0.5952816 -0.40027237 -0.5501003 -0.5393467 0.06342697 -0.4590721
2.746601 -0.59513664
