train/models/HARQ-IR-NumK=3-PDB=11_model_pd_satisfy.pt (torch, 36174 bytes, 14 tensors)

bias f4 [16]
0	0xbd6f7ede	-0.0584706
1	0xbd5b07a0	-0.05347407
2	0xbd84d47c	-0.06485841
3	0xbd0e8232	-0.034792133
4	0x3d5e3217	0.05424699
5	0xbd86223f	-0.06549501
6	0xba69826f	-0.0008907681
7	0xbd9b463c	-0.075817555
8	0xbcfae747	-0.03062786
9	0xbd8c38e4	-0.068467885
10	0x3d0b0412	0.03393943
11	0xbda5d80d	-0.08097849
12	0x3cfc1d12	0.03077558
13	0x3d4b6c2f	0.04966372
14	0xbdc75b45	-0.09734205
15	0x3d277836	0.040886126

weight f4 [16, 1]
0	0xbea18ede	-0.31554312
1	0xbde90b82	-0.11379148
2	0xbe94c357	-0.29055282
3	0x3ec03632	0.37541348
4	0xbecadd2b	-0.39621863
5	0xbea6a0c3	-0.32544526
6	0xbe2a546d	-0.16633768
7	0xbed5d03d	-0.41760436
8	0x3d501a5e	0.050806396
9	0xbf22fac2	-0.63663876
10	0x3f0d905d	0.55298406
11	0xbf11dbc5	-0.56975967
12	0x3f0414bf	0.51594156
13	0x3e2e7b5a	0.17039242
14	0xbe94fad7	-0.29097626
15	0x3ec808f3	0.39069328

bias f4 [32]
0	0xbd87f0c6	-0.06637721
1	0x3d6841f6	0.05670353
2	0xbdd4583f	-0.10368394
3	0xbc3121f4	-0.010811318
4	0x3d861f38	0.06548923
5	0x3d540640	0.051763773
6	0x3d2d4778	0.042304486
7	0xbd3af0e9	-0.045639906
8	0xbdf91377	-0.12161916
9	0xbdc86c39	-0.09786267
10	0x3d38a94c	0.04508333
11	0xbd6aab68	-0.057292372
12	0xbda86b3f	-0.082235806
13	0xbd3908b3	-0.04517431
14	0x3d588c9f	0.05286848
15	0xbd473e97	-0.048643675
16	0xbd37a88f	-0.044838484
17	0xbd91d929	-0.07121498
18	0x3cf0bf63	0.029388135
19	0xbd0680d4	-0.032837704
20	0x3d27dcd6	0.04098209
21	0xbda95d15	-0.08269707
22	0xbdb5373c	-0.08848426
23	0xbdb97a57	-0.090565376
24	0x3d87c225	0.06628827
25	0x3d6addd6	0.057340465
26	0x3d6bc491	0.057560507
27	0xbd889067	-0.066681676
28	0x3e23e3a6	0.1600481
29	0xbda9edca	-0.08297308
30	0xbdc7c2ab	-0.09753927
31	0x3d7ee027	0.062225487

weight f4 [32, 16]
0	0x3e9ce220	0.3064127
1	0xbddb8f35	-0.10720674
2	0xbd710194	-0.058839396
3	0x3e271022	0.16314748
4	0xbd975b77	-0.073904924
5	0x3e3f5639	0.18685235
6	0xbd8164ef	-0.0631808
7	0xbe5d7f46	-0.21630582
8	0x3e0c01e4	0.13672596
9	0x3da6a9a1	0.08137823
10	0x3e197164	0.14984661
11	0x3ec14c24	0.37753403
12	0x3e6fcb61	0.23417427
13	0x3ea822f4	0.32839167
14	0x3d1ee2bf	0.03879046
15	0xbe9fbf01	-0.31200412
16	0xbe8addbd	-0.27122298
17	0xbe73f7ad	-0.2382495
18	0xbeab1bf5	-0.33419767
19	0xbe281e23	-0.16417746
20	0xbeb32396	-0.34988087
21	0xbeb2ff2e	-0.34960312
22	0xbe6ab2c0	-0.2291975
23	0xbebf45be	-0.37357897
24	0xbe51392e	-0.20431969
25	0x3ddb4638	0.107067525
26	0x3e9ddbfe	0.30831903
27	0xbe07702e	-0.13226387
28	0xbdb8823e	-0.09009217
29	0x3e4d2541	0.20033742
30	0xbe496b7d	-0.1966991
31	0xbe1d5e04	-0.15367895
32	0x3e9b5332	0.3033691
33	0xbe608c04	-0.21928412
34	0x3e041b57	0.12901054
35	0x3e716852	0.23574951
36	0x3e137f00	0.14403915
37	0x3e3a919d	0.1821961
38	0xbdfe92fb	-0.12430378
39	0x3da71d5b	0.08159896
40	0xbd58ddcb	-0.052945893
41	0x3e323587	0.17403232
42	0x3d70003b	0.05859397
43	0x3ec9de96	0.39427632
44	0xbeb3a676	-0.35087937
45	0xbdaa324f	-0.08310377
46	0xbdb4981d	-0.08818076
47	0xbeb7d573	-0.35905036
48	0xbc7be0a3	-0.015373382
49	0xbe98edfd	-0.2986907
50	0x3e84ed29	0.2596219
51	0x3cdc7b89	0.026914375
52	0xbe356488	-0.17714131
53	0x3e4a54fa	0.19758978
54	0xbea479ce	-0.3212418
55	0xbdfdee18	-0.123989284
56	0xbda986f3	-0.08277693
57	0xbe93554a	-0.28776008
58	0xbe74682e	-0.23867866
59	0xbd3850d4	-0.04499896
60	0x3e8263dc	0.25466812
61	0x3ea8d303	0.3297349
62	0x3e72f723	0.23727088
63	0xbe6651c4	-0.22492129
64	0xbe814548	-0.2524817
65	0x3e964ae5	0.29354015
66	0x3dd64b0b	0.10463532
67	0x3c8e0c2c	0.017339788
68	0x3ccc5003	0.024940496
69	0xbe9c780a	-0.30560333
70	0xbe07be68	-0.13256228
71	0x3ea228ca	0.31671745
72	0xbda1c031	-0.07897986
73	0xbd3844c4	-0.044987455
74	0xbe9203c2	-0.28518492
75	0xbe658805	-0.22415169
76	0x3a0f70e0	0.0005471837
77	0xbe59db74	-0.21275121
78	0xbd829d91	-0.0637771
79	0x3e1bff4c	0.15234107
80	0xbeb5ae51	-0.35484555
81	0x3dd5be7e	0.10436724
82	0xbe77bd15	-0.24193223
83	0xbe331a84	-0.17490584
84	0x3dfefb48	0.12450272
85	0x3e8b334b	0.2718757
86	0xbdce340e	-0.100685224
87	0xbe206e6b	-0.15667121
88	0xbea2a9c2	-0.3177014
89	0xbe4a43a6	-0.19752368
90	0xbea03107	-0.31287405
91	0xbdc30fba	-0.09524484
92	0x3d8dccc9	0.06923825
93	0xbeaba467	-0.33523867
94	0x3e9a2de6	0.30113143
95	0x3e5f9a0d	0.2183611
96	0xbebc0496	-0.3672225
97	0xbe3f5f44	-0.18688685
98	0x3dc1b12b	0.0945762
99	0xbd6cbb1a	-0.05779562
100	0xbd77e0c7	-0.0605171
101	0xbe393509	-0.18086638
102	0x3e883ff3	0.2661129
103	0xbe612c76	-0.21989617
104	0x3e9dc25b	0.30812344
105	0xba97cce7	-0.0011581451
106	0x3db02cd2	0.08602299
107	0x3e8126fd	0.25225058
108	0xbd32f6d7	-0.043692436
109	0xbe408324	-0.18800026
110	0xbd9ef0a1	-0.0776074
111	0x3e9a7a97	0.30171654
112	0xbe843659	-0.25822714
113	0x3d9dfd68	0.07714349
114	0xbeb03907	-0.34418508
115	0x3e4573fb	0.19282524
116	0x3e0c2743	0.13686852
117	0x3c9e0818	0.019290969
118	0x3e19a641	0.15004827
119	0x3be01554	0.00683848
120	0x3e4e38f6	0.20138916
121	0xbe8a2fa7	-0.2698948
122	0xbd352e16	-0.044233404
123	0x3e29f47d	0.16597171
124	0x3eb8a25b	0.36061367
125	0x3e442c4e	0.19157526
126	0xbe826c59	-0.25473288
127	0x3e8f3401	0.27969363
128	0x3c9b1879	0.018932568
129	0x3cc707d4	0.024295725
130	0xbe64c8e9	-0.22342266
131	0xbe127c71	-0.14305283
132	0x3eb12008	0.3459475
133	0x3e172add	0.14762445
134	0xbde660e1	-0.11248947
135	0x3e54e5bf	0.20790766
136	0xbe4b4293	-0.19849615
137	0x3ed8a5e5	0.42314067
138	0xbecad419	-0.39614943
139	0xbc3e6fb4	-0.011623312
140	0xbedde8c3	-0.43341646
141	0xbe797e6e	-0.24364635
142	0x3e59410f	0.21216224
143	0x3e803bec	0.25045717
144	0x3e0c43ca	0.13697734
145	0x3edaac7a	0.42709714
146	0x3e1683cc	0.14698714
147	0x3e0b6179	0.13611402
148	0x3eb7c6df	0.35893914
149	0x3ebf50b3	0.37366256
150	0xbdff1e7f	-0.124569885
151	0x3eceb3ac	0.40371454
152	0x3e196af4	0.14982206
153	0xbdaf91b4	-0.085727125
154	0xbe74a65c	-0.23891586
155	0xbe5e5fa4	-0.21716172
156	0x3c85f1e6	0.016350698
157	0xbebdf15c	-0.37098205
158	0x3e6b6335	0.22987063
159	0x3d275354	0.040850952
160	0xbeb1574e	-0.3463692
161	0x3d60b03c	0.05485557
162	0xbd8b75f5	-0.06809608
163	0x3e4a1768	0.19735491
164	0x3e288304	0.16456228
165	0xbec81e81	-0.39085773
166	0x3e92caec	0.28670442
167	0x3e83a3d4	0.25710928
168	0x3e326908	0.17422879
169	0xbeb9aa97	-0.36262962
170	0xbdb6f5a1	-0.08933569
171	0xbe115ac6	-0.14194784
172	0xbd58ed77	-0.05296084
173	0x3e78f3f6	0.24311814
174	0x3db48b51	0.08815635
175	0x3ea27c1c	0.31735313
176	0xbdbeef85	-0.093230285
177	0x3e21b75d	0.15792604
178	0x3e28d1ee	0.16486332
179	0xbea74cb5	-0.3267571
180	0xbe9bb21c	-0.30409324
181	0xbe137ddf	-0.14403485
182	0x3e8e2695	0.2776381
183	0xbe95e160	-0.2927351
184	0xbead1b63	-0.33809957
185	0x3e751d4a	0.23936954
186	0x3e212050	0.15734982
187	0x3ea9e0e2	0.33179384
188	0xbe99dc07	-0.3005068
189	0xbe973817	-0.2953498
190	0x3e627612	0.22115353
191	0x3e8c312d	0.27381268
192	0x3e8f00c7	0.2793028
193	0x3e02e2c3	0.12781815
194	0x3e3d0a7d	0.18461032
195	0x3e8d56dd	0.27605334
196	0xbe26aa60	-0.1627593
197	0xbdbd0524	-0.09229496
198	0x3e9f17d3	0.31072864
199	0xbe31aaaf	-0.17350267
200	0xbe7eb9d7	-0.2487558
201	0x3ea75d0d	0.3268818
202	0x3d4a6c38	0.04941961
203	0x3e3b55b5	0.18294413
204	0xbe5a7047	-0.21331893
205	0xbda286e0	-0.079358816
206	0x3ec9da76	0.39424485
207	0xbe8ccd43	-0.27500352
208	0x3da9fb99	0.082999416
209	0x3e870715	0.2637259
210	0xbe266c54	-0.16252261
211	0x3e847184	0.25867856
212	0xbdcff60e	-0.10154353
213	0xbb9454d2	-0.004526713
214	0xbc70a3ba	-0.014687473
215	0xbe1c25cb	-0.15248792
216	0xbed70ed8	-0.42003512
217	0x3e8bee9b	0.2733048
218	0x3ba370f3	0.00498783
219	0xbe832a38	-0.25618148
220	0xbea24044	-0.31689656
221	0x3e801e64	0.25023186
222	0x3e611f3a	0.21984568
223	0x3d54a38b	0.05191378
224	0xbe607e9f	-0.21923302
225	0xbe1f5d64	-0.1556297
226	0xbd76a851	-0.060219113
227	0xbd8f468f	-0.0699588
228	0xbe811e5a	-0.2521847
229	0x3cadbbbd	0.021207685
230	0x3d0b9957	0.034081783
231	0xbd611215	-0.054948885
232	0x3d34cc55	0.04414018
233	0xbe1dd032	-0.15411451
234	0x3db20af2	0.08693494
235	0x3df65623	0.12028148
236	0xbe44fdff	-0.19237517
237	0xbeb805fe	-0.35942072
238	0x3e37755c	0.17915863
239	0x3da25274	0.07925883
240	0xbe24157c	-0.1602382
241	0x3eb63b9d	0.35592356
242	0xbe103687	-0.140833
243	0x3e696318	0.22791708
244	0x3e4ce52a	0.20009294
245	0xbe8da7df	-0.27667138
246	0x3e790207	0.2431718
247	0xbe9b97ec	-0.30389345
248	0xbe54258c	-0.20717448
249	0xbd10e58c	-0.035375163
250	0xbe7f6793	-0.24941854
251	0x3ebc9e11	0.36839345
252	0xbda6c965	-0.08143882
253	0x3e06a455	0.13148625
254	0xbe98123d	-0.29701415
255	0x3e4509b7	0.19241987

bias f4 [16]
0	0xbda5bedf	-0.080930464
1	0x3db18dee	0.08669649
2	0xbdb2eb61	-0.08736301
3	0x3dbd5079	0.092438646
4	0x3db18e6c	0.08669743
5	0xbda13e6e	-0.07873236
6	0x3dc42fdb	0.0957944
7	0xbddbfa77	-0.10741132
8	0x3db1834a	0.086676195
9	0xbdd769b0	-0.10518205
10	0x3db2ed5a	0.087366775
11	0x3dbccbbb	0.09218546
12	0x3e1be055	0.15222295
13	0x3dd880cd	0.10571442
14	0x3db66c4e	0.08907376
15	0xbdb9cf18	-0.09072703

weight f4 [16, 32]
0	0xbe0c3e2b	-0.1369559
1	0xbe8f35c7	-0.27970716
2	0x3e318191	0.17334582
3	0xbda25a2d	-0.07927356
4	0xbe047c30	-0.12937999
5	0x3e5217cb	0.20516889
6	0xbd889f2a	-0.06670983
7	0xbde0e4dc	-0.109811515
8	0xbdc46cb8	-0.09591049
9	0x3d692a7e	0.05692529
10	0xbec1e92e	-0.37873214
11	0x3e2e600c	0.17028826
12	0x3dd9fb0a	0.10643585
13	0x3e3ad7a4	0.18246323
14	0xbd27ccce	-0.0409668
15	0x3bcc9d71	0.0062443544
16	0x3d1f0fcc	0.038833424
17	0x3eb1a338	0.3469484
18	0xbe6ab5e7	-0.22920953
19	0x3e4961c3	0.196662
20	0x3cd0b04e	0.025474694
21	0xbe11a7f8	-0.14224231
22	0x3e4ae757	0.19814812
23	0xbe08a240	-0.13343143
24	0xbd5c3caf	-0.05376881
25	0xbe87cf2e	-0.26525253
26	0xbe9ca8c3	-0.30597505
27	0x3eca03c6	0.39456004
28	0xbe9b386c	-0.30316484
29	0x3e8b331d	0.27187434
30	0xbe708c9e	-0.23491141
31	0xbdef71c5	-0.11691622
32	0xbc8ac736	-0.016940694
33	0x3e80db03	0.25167093
34	0xbe1ea743	-0.15493493
35	0x3df4f41f	0.11960625
36	0x3dac9433	0.08426704
37	0x3e6767c3	0.22598176
38	0x3c8c7b05	0.017148504
39	0x3dfd5259	0.12369222
40	0xbe7afa39	-0.24509515
41	0xbe89eed8	-0.26940036
42	0x3e9ff071	0.3123813
43	0xbe8a2224	-0.26979172
44	0xbda8ee1e	-0.08248542
45	0xbd0c1d08	-0.034207374
46	0x3ebddb9e	0.37081617
47	0xbd6ea5e3	-0.05826367
48	0xbe90b256	-0.2826106
49	0xbd1e1311	-0.038592402
50	0x3e3f719e	0.18695685
51	0x3e1a76c4	0.15084368
52	0x3e917d67	0.28415987
53	0xbdba80e2	-0.09106614
54	0x3e0d0355	0.13770802
55	0xbeb6d175	-0.35706678
56	0x3e0c1e90	0.13683534
57	0x3e3062d3	0.17225198
58	0x3e6148a1	0.22000362
59	0xbe60244b	-0.21888845
60	0xbdda78e0	-0.10667586
61	0x3d985a54	0.07439104
62	0xbe88b545	-0.26700798
63	0xbe911450	-0.2833581
64	0xbe9b70b3	-0.3035942
65	0x3ca19600	0.019724846
66	0x3e7cc588	0.24684727
67	0x3d9754e4	0.073892385
68	0xbbd94075	-0.0066299983
69	0x3dd97e9c	0.10619852
70	0xbe5efde7	-0.21776544
71	0x3d3cc9bc	0.046090826
72	0xbd657aa8	-0.056025177
73	0xbe1aa6c3	-0.15102677
74	0x3e9da42b	0.30789313
75	0xbe85c337	-0.261255
76	0x3d985968	0.07438928
77	0xbea35e0e	-0.31907696
78	0xbd1a9a7d	-0.037744988
79	0xbe32d9db	-0.17465918
80	0x3e0510d3	0.12994699
81	0xbe7dfe05	-0.24803932
82	0x3e636cc5	0.22209461
83	0xbe98509a	-0.29748994
84	0x3e626b71	0.22111298
85	0xbe7ca5ea	-0.24672666
86	0x3e5f9dda	0.2183756
87	0xbdfe9306	-0.12430386
88	0xba6ffb2c	-0.0009154554
89	0xbd97e9cb	-0.07417639
90	0x3e73d884	0.23813063
91	0x3e077018	0.13226354
92	0xbe999557	-0.2999675
93	0x3d32d2ed	0.043658186
94	0xbe698f61	-0.22808601
95	0x3e88a179	0.26685694
96	0x3c388af4	0.011263598
97	0xbdbd827e	-0.09253405
98	0xbe545d4a	-0.20738712
99	0x3e10a82d	0.14126654
100	0xbe32fde3	-0.17479663
101	0x3e41a479	0.18910398
102	0x3e3f33e5	0.1867214
103	0x3e52793c	0.2055406
104	0x3d76c581	0.06024695
105	0xbeaa6445	-0.33279625
106	0x3e7f9a9e	0.24961326
107	0xbdf7a66a	-0.12092288
108	0xbe016ecd	-0.12639923
109	0xbcfe6008	-0.03105165
110	0x3e9157ba	0.28387243
111	0x3e94c8d3	0.29059467
112	0x3d1b747a	0.037952878
113	0x3e643acb	0.22288053
114	0xbea73262	-0.32655627
115	0x3c307e94	0.010772366
116	0xbea5cf7b	-0.32384858
117	0x3dd16500	0.10224342
118	0xbe8fe4f8	-0.28104377
119	0xbe19e6f1	-0.15029503
120	0x3e7f28ad	0.2491786
121	0x3eb134b8	0.34610534
122	0xbe64578e	-0.22299024
123	0xbe584899	-0.21121444
124	0x3d042915	0.03226574
125	0x3e041e9b	0.129023
126	0xbd94ad0f	-0.07259571
127	0xbdeac005	-0.11462406
128	0xbe8a6ef6	-0.2703778
129	0x3e1ae5d2	0.15126732
130	0x3ea38ad2	0.3194185
131	0xbe1ceb0d	-0.1532404
132	0x3e49133c	0.19636244
133	0x3e434420	0.19068956
134	0x3e8f88e5	0.2803413
135	0xbd48797d	-0.048943985
136	0xbca6eed0	-0.020377547
137	0x3e71b71d	0.23605008
138	0x3e6224a2	0.22084287
139	0x3eac8fff	0.3370361
140	0xbdfd26e8	-0.123609364
141	0x3e17fd41	0.14842702
142	0x3e8b3b53	0.27193698
143	0xbe6323cd	-0.22181626
144	0x3d689be7	0.056789305
145	0xbce55efb	-0.027999392
146	0x3e6d71ff	0.23188017
147	0xbe179ce2	-0.1480594
148	0x3c870a78	0.016484484
149	0x3e4579a4	0.19284683
150	0xbeb498ed	-0.35272923
151	0xbea55108	-0.32288384
152	0xbe396692	-0.18105534
153	0x3e7245d6	0.23659453
154	0x3e6a8610	0.22902703
155	0xbe83e519	-0.25760725
156	0x3d61b841	0.05510736
157	0xbe4b4140	-0.1984911
158	0xbe383120	-0.1798749
159	0x3e9b0b5b	0.302821
160	0x3e13992e	0.14413902
161	0xbe1f19bc	-0.1553716
162	0x3e05686c	0.13028115
163	0x3cf5649f	0.029955206
164	0x3de34fcc	0.110992044
165	0xbd925568	-0.07145196
166	0xbe884402	-0.26614386
167	0x3e3b8d34	0.18315583
168	0x3dec8415	0.1154863
169	0x3e709c30	0.23497081
170	0xbe4bfd5c	-0.19920868
171	0x3e7d7cd8	0.24754655
172	0x3eaf723b	0.34266838
173	0x3e3ebbd5	0.1862634
174	0x3d3455f4	0.044027284
175	0x3ea62c04	0.32455456
176	0xbd4eac04	-0.050457016
177	0x3e05c923	0.13065009
178	0x3e91126e	0.28334373
179	0x3ea97783	0.33098993
180	0xbe4dc92a	-0.20096269
181	0x3ecbb6c9	0.39787892
182	0x3e4a948b	0.19783227
183	0x3cf4e4d3	0.029894268
184	0x3eb8039c	0.35940254
185	0xbe856872	-0.26056248
186	0x3e33a10a	0.175419
187	0x3ee3115b	0.4434918
188	0xbe6ecfdf	-0.23321484
189	0xbe054bdb	-0.13017218
190	0xbe8ec7c9	-0.278868
191	0xbdffebd8	-0.124961555
192	0xbeb5af1c	-0.3548516
193	0xbde66999	-0.1125061
194	0x3d95fb75	0.07323352
195	0x3e8dd4d4	0.27701437
196	0x3e631e2c	0.22179478
197	0x3e55c880	0.20877266
198	0x3e179639	0.14803399
199	0xbe63af4d	-0.2223484
200	0xbea381c8	-0.31934953
201	0xbc85de68	-0.016341403
202	0x3eadb8ec	0.33930147
203	0x3a54928b	0.0008108995
204	0xbd754f7d	-0.05989026
205	0xbe6d937d	-0.23200794
206	0xbe1779c0	-0.14792538
207	0xbe7e9619	-0.24861945
208	0x3e8cdcee	0.27512306
209	0xbc620373	-0.013794768
210	0xbe9b4a4c	-0.30330122
211	0x3d2a8f8e	0.04164081
212	0x3cb6a01a	0.02229314
213	0xbd8e1439	-0.06937451
214	0x3db9fc4e	0.090813264
215	0x3e22ae08	0.158867
216	0xbeacbe57	-0.33738968
217	0xbe828d1a	-0.25498277
218	0xbca51596	-0.020151895
219	0xbeb3b2e9	-0.35097435
220	0xbea634a3	-0.32462034
221	0x3e96af9c	0.29430854
222	0xbd4a1b59	-0.049342487
223	0xbe2f7ae7	-0.17136727
224	0xbe274076	-0.16333184
225	0xbec2535f	-0.37954232
226	0x3ed04e33	0.4068466
227	0xbdfd1e77	-0.12359326
228	0xbe1fa540	-0.15590382
229	0xbe3a0b9c	-0.18168491
230	0x3dcdd78d	0.10050879
231	0xbe0bc8b1	-0.13650776
232	0x3d909ea5	0.07061509
233	0x3d73bf4a	0.0595086
234	0xbe93e2c7	-0.28883955
235	0x3e495d59	0.19664516
236	0x3ed76954	0.42072546
237	0xbe7f464c	-0.2492916
238	0xbd9bc438	-0.07605785
239	0xbe95c083	-0.29248437
240	0xbe81699f	-0.25275895
241	0x3ee613e5	0.44937053
242	0xbdb66a37	-0.089069776
243	0x3ea5f24b	0.32411417
244	0xbe1e3d27	-0.15453015
245	0xbd5fded9	-0.054655883
246	0xbdd3e3a1	-0.10346151
247	0x3edae11e	0.42749876
248	0xbe3ee928	-0.1864363
249	0x3d2ab912	0.041680403
250	0xbc45fd43	-0.012084308
251	0x3e8d6997	0.2761962
252	0x3e5b7bc3	0.2143393
253	0x3d4a4869	0.049385462
254	0x3eaef08b	0.34167895
255	0xbec99655	-0.39372507

bias f4 [2]
0	0xbe23f084	-0.16009718
1	0x3e1a3638	0.15059745

weight f4 [2, 16]
0	0x3eeada70	0.4586978
1	0x3ebb2ca9	0.3655751
2	0x3e322620	0.17397356
3	0x3e0e984c	0.13925284
4	0x3e3b13ee	0.18269321
5	0x3dd02003	0.10162356
6	0x3eef4ce1	0.4673834
7	0x3f1f237b	0.62163514
8	0x3e4e4fb1	0.20147587
9	0x3d796f04	0.06089689
10	0x3ef8dd30	0.48606253
11	0xbf21417f	-0.62990564
12	0x3eae5600	0.34049988
13	0x3e61da96	0.2205604
14	0x3eb4057e	0.3516044
15	0x3d3cc676	0.046087705
16	0xbef3a10e	-0.47583812
17	0x3ed815df	0.42204186
18	0xbe84db63	-0.2594863
19	0x3e4fac49	0.20280565
20	0x3eaaec20	0.33383274
21	0xbf12add8	-0.57296515
22	0x3d55df88	0.05221513
23	0xbe92d985	-0.2868158
24	0x3ed56268	0.4167664
25	0xbee77b00	-0.4521103
26	0x3ec01250	0.3751397
27	0x3edeb5fe	0.43498224
28	0x3eb7612f	0.35816333
29	0x3f1fbf25	0.6240104
30	0x3dbbdce2	0.091729894
31	0xbf1b94ba	-0.60773814

weight f4 [1, 2]
0	0x3d50dff5	0.050994832
1	0xbfb286ca	-1.3947384

pout f4 [32, 3]
0	0x3f749d25	0.95552284
1	0x3e8529c6	0.26008433
2	0x3d2d53b3	0.04231615
3	0x3f749d25	0.95552284
4	0x3e9ea938	0.3098848
5	0x3d5f85cf	0.05457097
6	0x3f749d27	0.95552295
7	0x3e843542	0.25821882
8	0x3d2bdc78	0.041958302
9	0x3f749d25	0.95552284
10	0x3e8432ee	0.25820106
11	0x3d2bd904	0.04195501
12	0x3f749d27	0.95552295
13	0x3e8440b3	0.25830612
14	0x3d2bee23	0.04197515
15	0x3f749d27	0.95552295
16	0x3e8432e9	0.2582009
17	0x3d2bd900	0.041954994
18	0x3f749d27	0.95552295
19	0x3e8439e0	0.25825405
20	0x3d2be390	0.041965067
21	0x3f749d27	0.95552295
22	0x3e84b348	0.2591803
23	0x3d2c9e57	0.042143192
24	0x3f749d27	0.95552295
25	0x3e843319	0.25820234
26	0x3d2bd941	0.041955236
27	0x3f749d25	0.95552284
28	0x3e843967	0.25825045
29	0x3d2be2d8	0.041964382
30	0x3f749d25	0.95552284
31	0x3f2f77db	0.6854226
32	0x3e6e448b	0.23268335
33	0x3f749d25	0.95552284
34	0x3e846dc8	0.25865006
35	0x3d2c33d3	0.04204161
36	0x3f749d27	0.95552295
37	0x3e843335	0.25820318
38	0x3d2bd96a	0.04195539
39	0x3f749d25	0.95552284
40	0x3f1e3c36	0.61810625
41	0x3e438266	0.19092712
42	0x3f749d27	0.95552295
43	0x3edf4e97	0.43614647
44	0x3dcb5c36	0.09929697
45	0x3f749d25	0.95552284
46	0x3eb25c5b	0.34836087
47	0x3d88107e	0.06643771
48	0x3f749d25	0.95552284
49	0x3e8432e6	0.25820082
50	0x3d2bd8fd	0.041954983
51	0x3f749d25	0.95552284
52	0x3e84836f	0.25881526
53	0x3d2c5514	0.042073324
54	0x3f749d27	0.95552295
55	0x3e85b753	0.26116428
56	0x3d2e2e47	0.042524602
57	0x3f749d25	0.95552284
58	0x3e84342a	0.25821048
59	0x3d2bdad4	0.041956738
60	0x3f749d25	0.95552284
61	0x40209838	2.5092907
62	0x403da158	2.9629726
63	0x3f749d25	0.95552284
64	0x3e870b62	0.26375872
65	0x3d304921	0.04303849
66	0x3f749d22	0.95552266
67	0x3e8947c1	0.26812556
68	0x3d34029c	0.0439478
69	0x3f749d27	0.95552295
70	0x3e8705fa	0.26371747
71	0x3d304067	0.04303017
72	0x3f749d25	0.95552284
73	0x3e90e2f0	0.2829814
74	0x3d421656	0.047384582
75	0x3f749d22	0.95552266
76	0x3e843303	0.2582017
77	0x3d2bd925	0.041955132
78	0x3f749d25	0.95552284
79	0x3e8432e7	0.25820085
80	0x3d2bd8fe	0.041954987
81	0x3f749d25	0.95552284
82	0x3ea2fede	0.31835073
83	0x3d699d51	0.057034794
84	0x3f749d25	0.95552284
85	0x3e8469ab	0.25861868
86	0x3d2c2d7f	0.042035576
87	0x3f749d25	0.95552284
88	0x3e8432eb	0.25820097
89	0x3d2bd8ff	0.04195499
90	0x3f749d25	0.95552284
91	0x3e843551	0.25821927
92	0x3d2bdc92	0.0419584
93	0x3f749d25	0.95552284
94	0x3eb77783	0.35833368
95	0x3d8ee877	0.06977933

throughput f4 [32, 1]
0	0x3f5d4f24	0.86448884
1	0x3f55aca7	0.8346657
2	0x3f5d9411	0.86554056
3	0x3f5d94b9	0.8655506
4	0x3f5d90d6	0.8654913
5	0x3f5d94b9	0.8655506
6	0x3f5d92c4	0.8655207
7	0x3f5d7080	0.86499786
8	0x3f5d94ac	0.8655498
9	0x3f5d92e7	0.8655228
10	0x3f14c278	0.58109236
11	0x3f5d8418	0.86529684
12	0x3f5d94a5	0.8655494
13	0x3f20f529	0.62874085
14	0x3f40d1bc	0.7532003
15	0x3f4f7801	0.81042486
16	0x3f5d94bb	0.8655507
17	0x3f5d7dfd	0.8652037
18	0x3f5d2737	0.8638796
19	0x3f5d9462	0.8655454
20	0xbf611a52	-0.87930787
21	0x3f5cc6ad	0.86240655
22	0x3f5c2218	0.8598952
23	0x3f5cc838	0.8624301
24	0x3f59e2dc	0.85111785
25	0x3f5d94b4	0.8655503
26	0x3f5d94bb	0.8655507
27	0x3f5452f9	0.82939106
28	0x3f5d8542	0.8653146
29	0x3f5d94bb	0.8655507
30	0x3f5d940d	0.8655403
31	0x3f4dd5cb	0.8040435

delay f4 [32, 1]
0	0x3dece72b	0.11567529
1	0x3df55e22	0.11980845
2	0x3dec9d7a	0.11553474
3	0x3dec9cc7	0.115533404
4	0x3deca0ec	0.11554131
5	0x3dec9cc7	0.115533404
6	0x3dec9edd	0.11553738
7	0x3decc37b	0.115607224
8	0x3dec9cd3	0.11553349
9	0x3dec9eb8	0.11553711
10	0x3e303847	0.17208968
11	0x3decae89	0.115567274
12	0x3dec9cdd	0.11553357
13	0x3e22dd7e	0.15904805
14	0x3e07f405	0.1327668
15	0x3dfcb4fb	0.12339207
16	0x3dec9cc4	0.11553338
17	0x3decb510	0.115579724
18	0x3ded11f0	0.11575687
19	0x3dec9d24	0.1155341
20	0xbde8e914	-0.11372581
21	0x3ded7999	0.115954585
22	0x3dee2b27	0.116293244
23	0x3ded77f1	0.11595143
24	0x3df09fee	0.11749254
25	0x3dec9ccc	0.11553344
26	0x3dec9cc4	0.11553338
27	0x3df6ed9c	0.12057039
28	0x3decad4a	0.1155649
29	0x3dec9cc4	0.11553338
30	0x3dec9d7e	0.11553477
31	0x3dfeb66e	0.124371395

ef1 f4 [32]
0	0xbee7c50a	-0.45267516
1	0xbeaf3766	-0.34221953
2	0xbee9a876	-0.45636338
3	0xbee9acee	-0.45639747
4	0xbee9919a	-0.45618898
5	0xbee9acf2	-0.4563976
6	0xbee99f46	-0.45629328
7	0xbee8ae2a	-0.45445377
8	0xbee9ac9e	-0.4563951
9	0xbee9a036	-0.45630044
10	0x3e933e38	0.28758407
11	0xbee9378a	-0.45550185
12	0xbee9ac6a	-0.45639354
13	0x3e4e86e0	0.20168638
14	0xbda87038	-0.08224529
15	0xbe8376ea	-0.25676662
16	0xbee9acf6	-0.4563977
17	0xbee90c9e	-0.4551744
18	0xbee6ad4e	-0.45054096
19	0xbee9aa96	-0.4563796
20	0x3fb23ef6	1.3925464
21	0xbee4018a	-0.44532424
22	0xbedf5b62	-0.43624407
23	0xbee40c8a	-0.44540817
24	0xbece9d5a	-0.40354425
25	0xbee9acc2	-0.45639616
26	0xbee9acf6	-0.4563977
27	0xbea565ae	-0.32304138
28	0xbee93fb6	-0.4555642
29	0xbee9acf2	-0.4563976
30	0xbee9a852	-0.4563623
31	0xbe711afc	-0.2354545

ef2 f4 [32, 1]
0	0xc0b33470	-5.600151
1	0xc0a4ac12	-5.1460047
2	0xc0b46d5c	-5.6383495
3	0xc0b47243	-5.638948
4	0xc0b45865	-5.6357903
5	0xc0b4724b	-5.638952
6	0xc0b46486	-5.637271
7	0xc0b3b9da	-5.616437
8	0xc0b471e0	-5.6389008
9	0xc0b46560	-5.637375
10	0xc051a3fc	-3.2756338
11	0xc0b413ae	-5.6274023
12	0xc0b471a2	-5.638871
13	0xc064f568	-3.5774784
14	0xc08de4c8	-4.4341774
15	0xc09ced00	-4.9039307
16	0xc0b4724e	-5.638953
17	0xc0b3f647	-5.623813
18	0xc0b2a68e	-5.5828314
19	0xc0b46f98	-5.6386223
20	0x408fda40	4.495392
21	0xc0b17ba4	-5.546343
22	0xc0afcc66	-5.493701
23	0xc0b18014	-5.5468845
24	0xc0ab340e	-5.3501043
25	0xc0b47214	-5.6389256
26	0xc0b4724e	-5.638953
27	0xc0a2dadc	-5.089216
28	0xc0b4197a	-5.62811
29	0xc0b4724e	-5.638953
30	0xc0b46d3e	-5.638335
31	0xc09b1514	-4.846323
