train/models/HARQ-CC-NumK=3-PDB=11_model_pd_satisfy.pt (torch, 36174 bytes, 14 tensors)

bias f4 [16]
000000 cc 42 7b bd 47 0e 72 bd 0c 06 8a bd 44 ed 27 bd
       -0.061343 -0.059095647 -0.067394346 -0.04099776
000010 6b 2d 23 3d b5 45 86 bd 2a 2e 2e 3c 9e 74 a2 bd
       0.039838236 -0.06556264 0.010631124 -0.07932399
000020 f0 ee 64 bc 85 3d 90 bd fd fc 3f 3d 5e a4 9c bd
       -0.013972983 -0.07042984 0.046872128 -0.07648538
000030 8a 36 8a 3c b0 c4 14 3d ae 71 be bd 34 e8 49 3d
       0.01687171 0.03632039 -0.092990264 0.04929371

weight f4 [16, 1]
000000 3b 1b a5 be 47 66 f4 bd 1b e7 97 be bb ed b7 3e
       -0.32247338 -0.1193357 -0.29668507 0.3592356
000010 89 b0 d4 be 2a 9f a7 be 27 e8 26 be 05 96 d9 be
       -0.41540936 -0.3273862 -0.16299497 -0.42497268
000020 ee c2 6a 3d 25 cf 24 bf 85 de 11 3f ae d7 11 bf
       0.057314806 -0.6437858 0.5698016 -0.56969726
000030 f6 a8 fc 3e 02 48 09 3e 0d 68 91 be 38 c7 cd 3e
       0.49347657 0.13406375 -0.28399697 0.40191054

bias f4 [32]
000000 70 03 7f bd 30 5b 73 3d 54 46 d8 bd c9 ea d5 bc
       -0.062259138 0.059413135 -0.10560289 -0.02611293
000010 ac 2d 79 3d 4b 8f 61 3d b4 eb 60 3d 78 0b 4b bd
       0.06083457 0.055068295 0.054912284 -0.049571484
000020 aa 81 d8 bd b4 26 b8 bd 50 8d 6d 3d fa dc 88 bd
       -0.105716065 -0.08991757 0.057996094 -0.06682773
000030 c7 3d a0 bd f2 1e 64 bc a6 88 71 3d 8e 23 5c bd
       -0.07824283 -0.013923394 0.05896821 -0.053744845
000040 4b 4d 51 bd 91 2d 88 bd 88 75 67 3d e7 cb 87 bc
       -0.051099103 -0.06649316 0.05650857 -0.01657672
000050 5b d3 5b 3d 6e 30 a8 bd 9b e9 a4 bd 60 ad af bd
       0.05366836 -0.08212362 -0.08052369 -0.085779905
000060 41 fe 6c 3d 47 ec 78 3d 1e d2 7f 3d b4 cc 86 bd
       0.057859663 0.060772207 0.062456243 -0.06582013
000070 70 44 b8 3d 21 ca a4 bd d7 44 c1 bd f5 17 87 3d
       0.089974284 -0.080463655 -0.09436958 0.06596366

weight f4 [32, 16]
000000 8d b8 a2 3e 3d b1 bd bd 53 e5 40 bd 30 9a 17 3e
       0.31781426 -0.09262321 -0.0470937 0.14804912
000010 33 c7 81 bd 22 cf 4a 3e 09 8d 4f bd 94 be 52 be
       -0.06336822 0.19805577 -0.05067161 -0.20580512
000020 f6 f4 fa 3d e5 47 b9 3d 1f 8a 09 3e 72 15 c6 3e
       0.12253754 0.09046916 0.13431595 0.38688236
000030 05 0e 60 3e 6e 7f a0 3e 8a 1c 4f 3d 8e bf a7 be
       0.21880348 0.3134722 0.050564326 -0.32763332
000040 b5 3c 91 be 5d c5 81 be ee 9f b1 be 12 88 19 be
       -0.28366628 -0.2534589 -0.3469233 -0.14993313
000050 44 14 b9 be 0e 4f b9 be 91 a1 77 be c7 57 c5 be
       -0.36148274 -0.36193126 -0.24182726 -0.3854353
000060 98 ac 43 be cc f9 c4 3d ce 7c a5 3e db bf 12 be
       -0.19108808 0.096179575 0.3232178 -0.14331
000070 78 42 9a bd bb d2 5c 3e 5c 9b 56 be 16 f4 0d be
       -0.07532209 0.21564762 -0.20957702 -0.13862643
000080 dc 44 9d 3e 34 23 5d be b2 f6 07 3e c6 30 6d 3e
       0.30716598 -0.2159546 0.132777 0.23163137
000090 cc f4 17 3e 35 22 3e 3e 2e 3c f9 bd 49 a2 ae 3d
       0.14839476 0.18567736 -0.121696815 0.08527047
0000a0 10 8e 85 bd c7 de 35 3e 20 54 5c 3d b5 a6 cb 3e
       -0.06521237 0.17760764 0.053791165 0.39775625
0000b0 ae 2d b5 be f9 b5 9f bd 2d 31 af bd 2b 43 ba be
       -0.35386413 -0.077983804 -0.085543014 -0.3637937
0000c0 d6 27 a7 bb 64 35 93 be 3f 34 8a 3e 0e 86 9c 3c
       -0.0051011844 -0.2875167 0.26992986 0.019106891
0000d0 a6 6b 2b be 0a f6 54 3e a5 18 a0 be 9d 67 e8 bd
       -0.16740283 0.20796981 -0.31268802 -0.11347888
0000e0 e4 85 b5 bd 9c d5 8d be 2a 15 7d be 8d 8f 0c bd
       -0.08863428 -0.27702034 -0.24715105 -0.03431659
0000f0 2a 74 7c 3e 7a 53 a4 3e 2b e4 7d 3e f4 25 6f be
       0.24653688 0.32094938 0.2479407 -0.23354322
000100 4d 72 86 be 45 78 8f 3e f2 e4 c0 3d cd 9b fc 3c
       -0.2625908 0.28021446 0.09418668 0.03083601
000110 9a 19 81 3c 89 8e a1 be 52 05 13 be 58 6d 9d 3e
       0.015759278 -0.31554058 -0.14357498 0.30747485
000120 fa d9 89 bd 9f 88 58 bd 5f d6 8a be 21 da 6d be
       -0.06731029 -0.052864667 -0.27116677 -0.23227741
000130 3b 02 6a 3c 53 ec 4b be da 19 98 bd 53 77 2a 3e
       0.014282758 -0.1991437 -0.07426806 0.16647081
000140 9c 23 bd be bb 43 b0 3d 80 7d 83 be 38 70 22 be
       -0.3694123 0.086066686 -0.25681686 -0.1586312
000150 27 25 e3 3d 3f cf 83 3e 51 29 ec bd b2 9a 2e be
       0.110910706 0.25744054 -0.11531318 -0.17051199
000160 e7 76 9c be 93 42 57 be 61 4c 97 be 14 76 dd bd
       -0.30559465 -0.2102149 -0.2955046 -0.10813537
000170 e1 71 b0 3d 0f 41 a3 be 2e 7e 92 3e 79 8d 71 3e
       0.08615471 -0.31885573 0.28611892 0.23589124
000180 fb ca c2 be c2 95 4e be 8c 4f a6 3d 33 cc 3a bd
       -0.38045487 -0.20174316 0.08120641 -0.045604896
000190 e7 cb 95 bd 65 b9 46 be 7b 18 82 3e f2 a7 6e be
       -0.07314282 -0.1940666 0.25409302 -0.23306254
0001a0 18 4a a3 3e 6b 13 67 bc 97 d4 ca 3d d8 10 75 3e
       0.31892467 -0.014103751 0.099038295 0.23932207
0001b0 4e e4 fd bc 7b eb 32 be bb a9 ba bd 79 3a a1 3e
       -0.030992653 -0.17472641 -0.09114405 0.31489924
0001c0 44 cc 72 be a7 0c d2 3d 49 2e a5 be d4 0b 2c 3e
       -0.23710734 0.102563195 -0.32261875 0.16801387
0001d0 3e 5a 20 3e 95 0b 25 3d 10 99 30 3e 3a cd dc 3c
       0.15659425 0.04029425 0.17245889 0.026953328
0001e0 42 df 37 3e 35 bb 80 be 7a c9 8e bd 69 36 3d 3e
       0.1795626 -0.25142828 -0.06972022 0.18477787
0001f0 7b 77 ab 3e b1 56 28 3e 57 3d 6e be be 10 82 3e
       0.33489594 0.1643932 -0.23265587 0.25403398
000200 ef 0d 29 3c 1a 7a 83 3c 3f 95 6d be 5e 96 0b be
       0.010318263 0.016049433 -0.23201464 -0.1363158
000210 59 f9 ac 3e 26 fa 0d 3e 10 fa f8 bd 4b 9b 4b 3e
       0.33783987 0.13864955 -0.12157071 0.19883458
000220 e3 5c 4a be d6 ba d3 3e e7 ca c7 be e4 b5 ad bc
       -0.19761996 0.41353482 -0.3902199 -0.021204896
000230 fc c5 d9 be 2d 53 68 be 3b 33 4f 3e 00 56 83 3e
       -0.42533863 -0.22687979 0.20234387 0.2565155
000240 46 5c 06 3e ee fb d6 3e b9 75 10 3e f9 2a 10 3e
       0.13121137 0.41989082 0.14107408 0.14078893
000250 32 62 b5 3e 74 2e bc 3e ab 2e 06 be fc ad cb 3e
       0.3542648 0.3675419 -0.1310374 0.39781177
000260 89 36 18 3e 8f 98 bb bd 66 11 70 be 76 80 64 be
       0.14864554 -0.091599576 -0.23444137 -0.22314629
000270 05 cc bb 3c ef c1 b5 be 1b ad 63 3e 54 69 3a 3d
       0.022924433 -0.35499522 0.22234003 0.045510605
000280 fb 59 b2 be d3 5b 62 3d b9 04 8f bd 9f a3 48 3e
       -0.34834275 0.05526335 -0.06983323 0.19593666
000290 55 d2 25 3e 87 17 c9 be b9 1c 93 3e 9a 4a 82 3e
       0.16193517 -0.39275762 0.2873285 0.2544754
0002a0 e4 a4 32 3e a5 83 bb be ed 68 b9 bd ce bb 14 be
       0.17445713 -0.36623874 -0.09053216 -0.14524767
0002b0 9b f3 63 bd a8 7d 70 3e 18 a8 b2 3d ee d7 a1 3e
       -0.055652242 0.23485434 0.087234676 0.31610054
0002c0 7f b9 a4 bd da a7 30 3e d7 1a 36 3e 5a b5 ad be
       -0.08043193 0.1725153 0.17783676 -0.33927423
0002d0 62 70 95 be e8 7e 06 be df 29 94 3e 01 71 8f be
       -0.29187304 -0.13134348 0.28938195 -0.28015903
0002e0 71 b2 b4 be 1e c5 80 3e af 40 13 3e 56 1a b0 3e
       -0.3529239 0.25150388 0.14380144 0.34395093
0002f0 ad 76 a0 be 73 2c 9d be 06 c2 6f 3e e1 2d 85 3e
       -0.31340542 -0.30697975 0.23413858 0.26011565
000300 b7 ab 8d 3e d9 2e fe 3d 18 4c 3a 3e 5d 69 8e 3e
       0.2767007 0.12411279 0.1819309 0.2781476
000310 55 9e 28 be 93 f2 c2 bd d6 48 9d 3e 31 69 34 be
       -0.16466649 -0.095189236 0.30719632 -0.17618252
000320 c8 ee 81 be a4 fd a5 3e 9c 92 51 3d f2 7b 38 3e
       -0.25377488 0.32420075 0.05116521 0.18016031
000330 be f9 56 be ef 08 8c bd ca dc c7 3e 87 dc 8b be
       -0.20993707 -0.068376414 0.39035636 -0.27316687
000340 6a f2 3e 3d 62 80 60 3e b5 4d 4c be d5 ad 95 3e
       0.046617903 0.21923974 -0.19951518 0.29234186
000350 7d 5d 0a be 38 5d 28 bd 5c 5d 48 bd 29 dd 40 be
       -0.13512225 -0.041104525 -0.04891716 -0.18834366
000360 2c 4f cb be de 55 74 3e 48 e8 29 3d cf 0c 95 be
       -0.3970884 0.2386088 0.041481286 -0.29111335
000370 2f 42 8f be 2e 1b 97 3e bb 4a 39 3e f1 89 b6 3d
       -0.27980182 0.29512924 0.18094914 0.08913029
000380 4d 11 77 be 91 03 3a be 3f 57 a9 bd fd 65 36 bd
       -0.24127693 -0.18165423 -0.08268594 -0.044530857
000390 d9 ba 8b be 5a d9 3a ba c9 21 36 3c 4d c5 9b bd
       -0.2729099 -0.0007127725 0.011116453 -0.076059915
0003a0 83 62 89 3d dc dc 31 be b7 88 e7 3d cb a4 cd 3d
       0.06708243 -0.17369407 0.11305373 0.100411974
0003b0 4c 39 2a be 7b db a9 be 21 11 20 3e 2b 31 d8 3d
       -0.1662342 -0.33175263 0.15631534 0.10556253
0003c0 c9 21 13 be 89 99 c0 3e a5 c6 fd bd 2e 7f 56 3e
       -0.14368357 0.37617138 -0.12391404 0.20946953
0003d0 0e a0 5c 3e 4a 39 85 be 2d 22 85 3e 68 79 93 be
       0.21545431 -0.2602027 0.26002637 -0.28803563
0003e0 23 e1 65 be 16 9c a9 bc c7 a3 89 be 5c 3e c4 3e
       -0.22449164 -0.02070431 -0.26882765 0.38328826
0003f0 0d a0 ce bd 16 b7 e2 3d b6 29 8f be 73 f4 30 3e
       -0.10089121 0.11070077 -0.2796151 0.1728075

bias f4 [16]
000000 e8 91 8d bd 7b 09 a6 3d 22 c7 a0 bd 59 33 ae 3d
       -0.06912595 0.08107277 -0.078504816 0.085058875
000010 ee 4c a6 3d aa e9 90 bd 12 7c a6 3d 40 93 b1 bd
       0.08120142 -0.07075818 0.08129133 -0.08670664
000020 ff b1 a5 3d 3f e0 a0 bd d8 b0 a7 3d 92 dd a7 3d
       0.08090591 -0.078552715 0.08188027 0.08196558
000030 14 26 e2 3d 2e 68 bd 3d fb 64 af 3d 5c b3 9d bd
       0.11042419 0.09248386 0.08564182 -0.07700226

weight f4 [16, 32]
000000 94 d3 fd bd 32 92 8e be 09 9e 29 3e 1c 0c 23 bd
       -0.12393871 -0.27845913 0.16564192 -0.03980647
000010 0b 35 15 be b1 f3 37 3e 95 23 94 bd 4e e4 d3 bd
       -0.14571016 0.17964055 -0.07233349 -0.1034628
000020 3a 70 d2 bd f9 2f 43 3d 46 b8 c0 be 2a e9 28 3e
       -0.10275312 0.047653172 -0.3764059 0.16495195
000030 f8 fd c6 3d 91 ca 30 3e 8b aa 88 bd 68 c9 18 3d
       0.097164094 0.17264773 -0.066731535 0.03730145
000040 73 cf 38 3d 41 f3 a7 3e ca 43 76 be d9 44 37 3e
       0.045119714 0.32802776 -0.24049297 0.17897357
000050 be 8d ca 3c 30 98 17 be 23 5b 45 3e ac 43 0e be
       0.024725791 -0.14804149 0.19273047 -0.13893002
000060 a8 23 7e bd 44 10 89 be 55 d5 9e be 15 56 c6 3e
       -0.062045723 -0.26770222 -0.31022134 0.3873755
000070 b5 35 90 be a9 69 8a 3e 53 d5 72 be f1 01 f2 bd
       -0.28165975 0.27033737 -0.23714189 -0.118167765
000080 30 63 3f 3b 90 a5 8d 3e 9c 5b 31 be 06 30 07 3e
       0.0029203407 0.27665377 -0.17320102 0.13201913
000090 01 c1 89 3d 2a 07 5f 3e 74 04 38 3d 0a f9 18 3e
       0.06726266 0.21780077 0.04492612 0.14938751
0000a0 c3 ad 84 be 3e 0e 95 be 34 1b ae 3e 48 80 96 be
       -0.2591382 -0.29112428 0.3400513 -0.29394746
0000b0 9c 54 d4 bd f3 63 be bc 0a d1 c3 3e 64 4b 4b bd
       -0.103677005 -0.023241019 0.38245422 -0.049632445
0000c0 63 f1 82 be 0a b2 8c bd fe e0 55 3e d1 62 1a 3e
       -0.25574788 -0.06869896 0.20886609 0.15076758
0000d0 92 50 9f 3e 4e f5 e9 bd ed be f8 3d 8f 3b c0 be
       0.31116158 -0.11423741 0.12145791 -0.3754544
0000e0 6e 27 f6 3d c7 86 4b 3e a9 ae 7e 3e 26 18 7d be
       0.12019239 0.19875632 0.24871315 -0.24716243
0000f0 1b b0 de bd 32 97 39 3d b3 2e 95 be bc 0a 83 be
       -0.10873433 0.045310207 -0.2913719 -0.25594127
000100 15 85 a7 be 10 a2 a0 bb ff 22 87 3e 75 69 7d 3d
       -0.3271872 -0.004902132 0.26393887 0.06186815
000110 ab e2 50 3c 9c 4c ee 3d 69 4b 7b be 53 e7 a7 3c
       0.012749354 0.11635706 -0.24540485 0.020496046
000120 55 97 31 bd 83 6d 05 be 05 a7 8f 3e 86 a2 73 be
       -0.043357212 -0.13030057 0.28057113 -0.23792467
000130 76 ba c1 3d 2e d5 a8 be 12 7f 45 bd d6 aa 3a be
       0.09459393 -0.32975143 -0.048216887 -0.18229231
000140 26 02 d3 3d 4c 86 60 be c8 71 4d 3e 07 4e 98 be
       0.10303144 -0.2192623 0.20062935 -0.2974703
000150 e2 da 46 3e bd dc 65 be 92 fa 6e 3e f8 3b db bd
       0.19419435 -0.22447486 0.23337772 -0.107047975
000160 43 88 80 3c 2b ad cd bd 40 89 56 3e e8 d5 23 3e
       0.015689975 -0.10042795 0.20950794 0.15999568
000170 c3 9f 98 be 7f b6 93 3d 3e 7c 51 be fe 74 75 3e
       -0.2980939 0.07212543 -0.20457551 0.2397041
000180 ad b1 fe 3c cb f1 85 bd 01 1f 68 be d4 4f 1e 3e
       0.031090582 -0.06540259 -0.22668077 0.1546014
000190 00 06 45 be 99 7e 39 3e 12 17 5e 3e 59 58 6f 3e
       -0.1924057 0.181147 0.21688488 0.23373546
0001a0 c9 0e 3a 3d 91 1d b6 be 3b 18 8f 3e e6 2a 16 be
       0.045424256 -0.35569432 0.27948174 -0.14664802
0001b0 e3 5a 18 be e6 85 98 bc 0e 39 97 3e ae b7 99 3e
       -0.1487842 -0.018618535 0.29535717 0.3002295
0001c0 9f 2e 8a 3d 9d 96 42 3e 1a f4 9a be 29 9d 28 3c
       0.067471735 0.19002767 -0.3026436 0.010291376
0001d0 b7 a5 96 be 67 20 9f 3d 72 b5 98 be 2b e7 2d be
       -0.29423305 0.07769852 -0.29825932 -0.16982715
0001e0 21 66 6c 3e 68 9f bf 3e 48 3f 44 be bb b5 76 be
       0.23085834 0.37426305 -0.19164765 -0.24092762
0001f0 17 f4 f5 3c f6 32 c9 3d af c5 c9 bd b7 02 ae bd
       0.030023618 0.09824173 -0.09852158 -0.084966116
000200 05 5b 80 be d3 84 34 3e 4f 28 9a 3e c6 39 10 be
       -0.25069442 0.17628793 0.30108878 -0.14084539
000210 c4 c0 37 3e 70 fd 3a 3e b7 c5 9d 3e 43 38 be bc
       0.17944628 0.18260741 0.30814907 -0.023220187
000220 f0 45 0d bd b5 69 5b 3e 84 84 7e 3e 26 2b a0 3e
       -0.034490526 0.21427043 0.24855238 0.3128292
000230 53 55 14 be 23 42 23 3e 92 39 91 3e 6d 44 5a be
       -0.14485674 0.15943198 0.28364235 -0.21315165
000240 e3 5d ab 3d 6c 63 6e bd 5a f6 81 3e d2 a8 17 be
       0.08367517 -0.058200285 0.25383264 -0.14810494
000250 27 3e 32 3d 6e b1 2d 3e 68 f3 bc be 56 c3 ae be
       0.043516304 0.16962215 -0.36904454 -0.34133404
000260 d7 76 4a be b9 b8 86 3e f5 f9 83 3e aa 63 92 be
       -0.19771896 0.26312807 0.2577664 -0.28591663
000270 e5 17 59 3d 90 13 69 be 52 31 51 be 6f 19 a9 3e
       0.053001303 -0.22761369 -0.2042897 0.33027217
000280 25 59 1e 3e 5c 11 22 be 1b a5 02 3e 90 4b 8a 3d
       0.15463693 -0.15826935 0.12758295 0.06752694
000290 b0 48 c7 3d 09 2c bb bd 5d 87 8c be 1d 2c 3d 3e
       0.09730661 -0.091392584 -0.27447024 0.18473859
0002a0 a1 93 e7 3d 25 bc 6c 3e 83 c3 4d be 3d e6 7c 3e
       0.11307455 0.23118646 -0.20094113 0.24697204
0002b0 9b 8e ad 3e b6 d7 32 3e b7 fd a6 3c 39 46 b5 3e
       0.33897862 0.174651 0.020384653 0.35405138
0002c0 8e b0 48 bd 9d 5b f3 3d 2d b6 8a 3e f4 32 a0 3e
       -0.0489965 0.11882708 0.27092114 0.31288874
0002d0 14 86 52 be 25 40 cb 3e 5c 88 49 3e bb 5d ed 3c
       -0.20558959 0.39697376 0.19680923 0.028975358
0002e0 31 1f b6 3e 08 3a 88 be 78 27 2c 3e f2 5f e2 3e
       0.35570672 -0.26606774 0.16811931 0.44213825
0002f0 a4 f4 57 be 26 2f 02 be 81 af 8d be 7d f8 04 be
       -0.21089417 -0.12713298 -0.2767296 -0.12985416
000300 c1 3c b4 be f3 6d c3 bd 32 bc 83 3d a0 eb 90 3e
       -0.35202602 -0.095424555 0.0643238 0.28304768
000310 81 22 5e 3e a1 04 5c 3e 7a 7f 2c 3e 01 4f 52 be
       0.2169285 0.21486141 0.16845503 -0.2053795
000320 81 0e a6 be 2c c5 e9 bc e4 8b b7 3e 13 69 64 bc
       -0.3243294 -0.028536402 0.35848916 -0.013941067
000330 a3 90 92 bd 34 31 64 be ad 97 0f be be d3 77 be
       -0.071564935 -0.22284395 -0.14022703 -0.24201867
000340 95 1c 96 3e d0 53 0a bd 52 68 93 be a8 0f 3e 3d
       0.2931868 -0.033771336 -0.28790528 0.04640165
000350 fa 26 2b 3d 37 86 aa bd 85 c3 aa 3d 79 17 19 3e
       0.041785218 -0.08326381 0.08338074 0.1495036
000360 f0 fa b0 be fc 1a 72 be 16 13 c7 3a a3 70 bd be
       -0.3456645 -0.23643106 0.0015188183 -0.36999997
000370 5a 51 ab be 72 60 8c 3e 01 aa 84 bd 9b 40 1b be
       -0.33460504 0.27417332 -0.06477738 -0.15161364
000380 1e 52 0d be 14 a0 bb be 22 cc c4 3e 44 2a 83 bd
       -0.13800856 -0.36645567 0.3843699 -0.06404546
000390 6c 92 3e be d6 5d 6a be 88 d8 d6 3d e8 78 f0 bd
       -0.18610543 -0.22887358 0.10490519 -0.11741811
0003a0 c5 1b 55 3d c5 72 04 3d 4b 99 8b be 1a f2 33 3e
       0.052028436 0.032336015 -0.2726539 0.17572823
0003b0 43 a9 c9 3e b1 22 84 be f3 7f ce bd bd 2a 7b be
       0.3938695 -0.25807717 -0.10082998 -0.24528022
0003c0 e6 0e 6f be 69 ba ce 3e 80 0a c1 bd 53 55 9a 3e
       -0.23345527 0.40376595 -0.09425831 0.30143222
0003d0 57 2a 14 be fc 37 9c bd 2d 61 f6 bd 98 a7 d1 3e
       -0.14469276 -0.07627866 -0.120302536 0.40948176
0003e0 ae 5a 54 be ed 32 5e 3d 5e 73 c4 bb 8e 1d 7e 3e
       -0.20737717 0.054247785 -0.005995198 0.24815962
0003f0 a5 14 77 3e 76 5a 02 3d 6e 01 a7 3e bb ea c3 be
       0.24128969 0.03182455 0.32618278 -0.38265023

bias f4 [2]
000000 8e fe 17 3b 5b 6d f4 3d
       0.0023192498 0.119349204

weight f4 [2, 16]
000000 93 9b c9 3e c3 6d ae 3e b8 e9 04 3e b6 eb 48 3e
       0.39376506 0.34068117 0.12979782 0.19621167
000010 36 d1 19 3e 4f 3e 47 3d c2 62 fe 3e 4c d7 0b 3f
       0.15021214 0.048643406 0.4968472 0.5462539
000020 18 8e 2f 3e 71 e2 8c bc c1 f1 f7 3e 96 3e ea be
       0.17144048 -0.01719782 0.4842663 -0.45750874
000030 2c 36 e4 3e 6c 6c a5 3e 43 02 bc 3e ed 28 04 bd
       0.4457258 0.32309282 0.36720476 -0.032265592
000040 5b 83 f7 be a8 74 e3 3e 4c e3 6b be 9f d9 4d 3e
       -0.48342404 0.4442494 -0.23035926 0.20102547
000050 94 98 b7 3e 0d a5 12 bf b0 9a fc 3c 9f 49 91 be
       0.35858595 -0.572831 0.03083548 -0.2837648
000060 47 12 e1 3e 77 13 e5 be a1 0a c8 3e ed 15 d0 3e
       0.43959257 -0.44741413 0.3907061 0.40641728
000070 24 c2 ab 3e da 2e 13 3f 13 46 c3 3d a9 4c 1a bf
       0.33546555 0.57493365 0.0953485 -0.60273224

weight f4 [1, 2]
000000 00 11 98 39 8b 5f b3 bf
       0.00029004365 -1.4013532

pout f4 [32, 3]
000000 b5 19 2e 3f af 42 6d 3e 77 ea 56 3d b5 19 2e 3f
       0.68007976 0.23169969 0.052469697 0.68007976
000010 13 0c 8a 3e 8d b3 82 3d b7 19 2e 3f 2e cb 6c 3e
       0.26962337 0.06381903 0.6800799 0.23124382
000020 1b b8 56 3d b5 19 2e 3f e1 cd 6c 3e 44 ba 56 3d
       0.05242167 0.68007976 0.23125412 0.05242373
000030 b7 19 2e 3f 4c c4 6c 3e 71 b2 56 3d b7 19 2e 3f
       0.6800799 0.23121756 0.05241627 0.6800799
000040 ec cd 6c 3e 51 ba 56 3d b7 19 2e 3f 9f c7 6c 3e
       0.23125428 0.05242378 0.6800799 0.23123024
000050 4b b5 56 3d b7 19 2e 3f 62 e6 6c 3e 73 ba 56 3d
       0.05241899 0.6800799 0.23134759 0.052423906
000060 b7 19 2e 3f a1 cd 6c 3e 15 ba 56 3d b5 19 2e 3f
       0.6800799 0.23125316 0.052423555 0.68007976
000070 e2 c7 6c 3e 83 b5 56 3d b5 19 2e 3f 69 3e 16 3f
       0.23123124 0.052419197 0.68007976 0.5868898
000080 3c cd 84 3e b5 19 2e 3f 64 c5 6c 3e e5 ad 56 3d
       0.2593783 0.68007976 0.23122174 0.052411932
000090 b7 19 2e 3f 7d cd 6c 3e f5 b9 56 3d b5 19 2e 3f
       0.6800799 0.23125263 0.052423436 0.68007976
0000a0 b8 9a 07 3f 16 82 5a 3e b7 19 2e 3f 3e 39 c0 3e
       0.5297046 0.21338686 0.6800799 0.37543672
0000b0 25 5e e6 3d b5 19 2e 3f 33 64 9a 3e 31 bb 9c 3d
       0.112484254 0.68007976 0.3015457 0.076528914
0000c0 b5 19 2e 3f e3 cd 6c 3e 4b ba 56 3d b5 19 2e 3f
       0.68007976 0.23125415 0.052423757 0.68007976
0000d0 fb cc 6c 3e 0a b0 56 3d b7 19 2e 3f b8 ce 6d 3e
       0.23125069 0.052413978 0.6800799 0.23223388
0000e0 e4 3f 57 3d b5 19 2e 3f 51 cc 6c 3e 05 b9 56 3d
       0.052551165 0.68007976 0.23124816 0.052422542
0000f0 b5 19 2e 3f 99 e0 08 40 80 72 50 40 b5 19 2e 3f
       0.68007976 2.1387084 3.2569885 0.68007976
000100 b7 5f 6f 3e e0 60 58 3d b3 19 2e 3f 95 63 72 3e
       0.23376356 0.052826762 0.68007964 0.236708
000110 6a fa 5a 3d b7 19 2e 3f e3 58 6f 3e 90 5b 58 3d
       0.05346147 0.6800799 0.23373751 0.052821696
000120 b5 19 2e 3f f1 de 7d 3e e9 76 67 3d b3 19 2e 3f
       0.68007976 0.24792077 0.056509886 0.68007964
000130 c3 cd 6c 3e 33 ba 56 3d b5 19 2e 3f e9 cd 6c 3e
       0.23125367 0.052423667 0.68007976 0.23125423
000140 53 ba 56 3d b5 19 2e 3f aa 9d 8d 3e 7d 08 88 3d
       0.052423786 0.68007976 0.2765935 0.06642244
000150 b5 19 2e 3f 50 c4 6c 3e bb ad 56 3d b5 19 2e 3f
       0.68007976 0.23121762 0.052411776 0.68007976
000160 f0 cd 6c 3e 53 ba 56 3d b5 19 2e 3f 22 cb 6c 3e
       0.23125434 0.052423786 0.68007976 0.23124364
000170 13 b8 56 3d b5 19 2e 3f 20 aa 9e 3e 54 29 a4 3d
       0.05242164 0.68007976 0.3098917 0.08015695

throughput f4 [32, 1]
000000 e1 c2 7d 3f 4e d8 75 3f a9 d5 7d 3f 2d d5 7d 3f
       0.99125487 0.9603318 0.99154145 0.99153405
000010 ec d6 7d 3f 29 d5 7d 3f 4d d6 7d 3f fb d1 7d 3f
       0.9915607 0.9915338 0.9915512 0.9914853
000020 37 d5 7d 3f 43 d6 7d 3f 61 45 27 3f 16 d7 7d 3f
       0.99153465 0.9915506 0.6534024 0.9915632
000030 3e d5 7d 3f 79 41 36 3f 4b 11 5d 3f c7 99 6e 3f
       0.99153507 0.71193653 0.8635451 0.93203396
000040 2b d5 7d 3f f5 d5 7d 3f 25 ab 7d 3f 76 d5 7d 3f
       0.99153394 0.991546 0.9908927 0.9915384
000050 3b 4d 97 bf 5d 64 7d 3f 52 d5 7c 3f 98 65 7d 3f
       -1.1820444 0.9898127 0.98763 0.98983145
000060 a7 8d 7a 3f 32 d5 7d 3f 2a d5 7d 3f b7 49 74 3f
       0.97872394 0.99153435 0.9915339 0.9542498
000070 3c d7 7d 3f 2a d5 7d 3f ac d5 7d 3f a3 aa 6c 3f
       0.99156547 0.9915339 0.9915416 0.9244787

delay f4 [32, 1]
000000 57 9b ce 3d 77 42 d5 3d 0e 8c ce 3d 73 8c ce 3d
       0.100882225 0.10413068 0.10085307 0.10085382
000010 07 8b ce 3d 75 8c ce 3d 89 8b ce 3d 0d 8f ce 3d
       0.10085111 0.10085384 0.10085208 0.100858785
000020 6b 8c ce 3d 90 8b ce 3d d7 b7 1c 3e e5 8a ce 3d
       0.10085376 0.10085213 0.15304504 0.10085086
000030 66 8c ce 3d 42 d5 0f 3e 72 29 ed 3d 07 bc db 3d
       0.100853726 0.14046195 0.11580171 0.10729223
000040 75 8c ce 3d d0 8b ce 3d ac ae ce 3d 37 8c ce 3d
       0.10085384 0.10085261 0.1009191 0.100853376
000050 57 42 ad bd 68 e8 ce 3d 77 5d cf 3d 67 e7 ce 3d
       -0.08459919 0.10102922 0.10125249 0.1010273
000060 87 40 d1 3d 6f 8c ce 3d 75 8c ce 3d 6e 9e d6 3d
       0.10217386 0.10085379 0.10085384 0.10479437
000070 c7 8a ce 3d 75 8c ce 3d 0c 8c ce 3d be 87 dd 3d
       0.100850634 0.10085384 0.100853056 0.108169064

ef1 f4 [32]
000000 96 f2 b7 be 02 68 8c be b6 26 b8 be 7a 24 b8 be
       -0.35927266 -0.27423102 -0.35967034 -0.3596533
000010 96 2c b8 be 6e 24 b8 be a2 29 b8 be 4a 24 b8 be
       -0.35971516 -0.35965294 -0.35969263 -0.35965186
000020 aa 24 b8 be 66 29 b8 be aa 64 ab 3e 4a 31 b8 be
       -0.35965472 -0.35969085 0.33475238 -0.35975105
000030 ce 24 b8 be 70 fc 7f 3e 00 1c e6 bc 54 0b 48 be
       -0.3596558 0.24998641 -0.028089523 -0.19535571
000040 76 24 b8 be 12 2f b8 be 46 9a b7 be c6 25 b8 be
       -0.35965317 -0.35973412 -0.3585989 -0.3596632
000050 5a 81 b7 3f 86 70 b6 be aa c8 b3 be fe 75 b6 be
       1.433635 -0.35632724 -0.35114032 -0.35636896
000060 fe 73 a7 be 8e 24 b8 be 6a 24 b8 be fe 83 83 be
       -0.32705683 -0.3596539 -0.35965282 -0.2568664
000070 76 31 b8 be 6a 24 b8 be c2 26 b8 be 24 72 33 be
       -0.35975236 -0.35965282 -0.3596707 -0.1752401

ef2 f4 [32, 1]
000000 d4 50 83 c0 60 8f 5f c0 70 06 85 c0 58 0d 85 c0
       -4.1036167 -3.493126 -4.157036 -4.157879
000010 fa e8 84 c0 64 0d 85 c0 02 fa 84 c0 08 0b 84 c0
       -4.1534395 -4.1578846 -4.1555185 -4.1263466
000020 ce 0c 85 c0 34 fb 84 c0 e0 70 88 bf ac 88 84 c0
       -4.157813 -4.1556644 -1.0659447 -4.1416836
000030 76 0c 85 c0 b0 7f ba bf 24 48 24 c0 14 50 4b c0
       -4.157771 -1.4570217 -2.566903 -3.1767626
000040 68 0d 85 c0 86 5f 84 c0 6c 8b 82 c0 98 09 85 c0
       -4.1578865 -4.1366606 -4.0795193 -4.157421
000050 06 2e 10 41 c2 ed 80 c0 90 3c 7d c0 e0 f3 80 c0
       9.011236 -4.029023 -3.9568214 -4.02977
000060 4c d7 70 c0 18 0d 85 c0 6a 0d 85 c0 28 cb 5a c0
       -3.7631407 -4.1578484 -4.1578875 -3.4186497
000070 c8 90 84 c0 6a 0d 85 c0 44 06 85 c0 c0 83 46 c0
       -4.1426735 -4.1578875 -4.157015 -3.1017914
