train/models/HARQ-CC-NumK=3-PDB=15_model_pd_satisfy.pt (torch, 31630 bytes, 14 tensors)

bias f4 [16]
0.0 0.061839268 0.0 0.0 0.0 0.07458628 0.0 0.0
0.0 0.0 0.116428606 0.0 0.060522616 0.0 -0.03980011 0.101248205
00000000: 0000 0000 2c4b 7d3d 0000 0000 0000 0000
00000010: 0000 0000 b1c0 983d 0000 0000 0000 0000
00000020: 0000 0000 0000 0000 1f72 ee3d 0000 0000
00000030: 90e6 773d 0000 0000 7105 23bd 385b cf3d

weight f4 [16, 1]
-0.27734426 0.21435131 -0.27371836 -0.06967044 -0.24129403 0.47114617 -0.46895579 -0.27388096
-0.1677556 -0.3572091 0.19785431 -0.58676887 0.59763825 -0.50465935 0.42119756 0.20627533
00000000: 1100 8ebe e97e 5b3e d024 8cbe 60af 8ebd
00000010: c815 77be 123a f13e f91a f0be 203a 8cbe
00000020: 20c8 2bbe 1ce4 b6be 529a 4a3e 7c36 16bf
00000030: d2fe 183f 5b31 01bf 35a7 d73e d739 533e

bias f4 [32]
-0.051907524 0.06335422 0.10335756 -0.007385559 0.0 0.0 -0.018152608 0.06736337
0.0 -0.0027730826 0.11817992 0.0 0.05362971 0.08593633 0.0 0.0
0.047512636 0.0 -0.04601666 0.059297472 0.10005577 0.051418364 0.0 0.0
0.0 0.0 0.05568648 0.050615013 0.0 0.0 0.0 0.055372223
00000000: fc9c 54bd dbbf 813d 21ad d33d 8f02 f2bb
00000010: 0000 0000 0000 0000 c7b4 94bc cef5 893d
00000020: 0000 0000 9bbc 35bb 5008 f23d 0000 0000
00000030: d4aa 5b3d 63ff af3d 0000 0000 0000 0000
00000040: 9c9c 423d 0000 0000 f77b 3cbd e8e1 723d
00000050: 0aea cc3d 109c 523d 0000 0000 0000 0000
00000060: 0000 0000 0000 0000 8217 643d b051 4f3d
00000070: 0000 0000 0000 0000 0000 0000 fccd 623d

weight f4 [32, 16]
0.20476541 0.21734229 0.2854276 -0.122100174 -0.07907456 0.11638735 -0.09647331 0.16555634
-0.07723999 -0.23979841 0.06211495 0.054206103 0.10468724 0.35125038 0.19173358 0.2707783
0.018923163 -0.23053 -0.24802732 -0.21961808 -0.31156835 -0.10764543 -0.32546985 -0.32619375
-0.21126744 -0.3485449 -0.105748214 0.13481298 0.3629814 -0.10516898 -0.039127294 0.27240142
-0.17443295 -0.0346806 0.21783468 -0.30805165 0.043230653 0.43944794 0.060629636 0.09614664
-0.20590636 -0.0048778355 0.2146439 0.08677411 0.26197627 0.30721238 -0.15191984 0.15840168
-0.1766481 -0.28706345 -0.02831173 -0.31121072 0.2467446 0.03357083 -0.19055045 0.18475959
-0.3346128 -0.13675417 -0.07623105 -0.3004321 -0.23219569 -0.057706505 0.26089332 0.3340265
0.22495273 -0.21111521 -0.23130211 0.30854365 0.125058 0.009393096 0.047847122 -0.2841497
-0.11804633 0.3403369 -0.08719766 -0.01773569 -0.29356638 -0.19778028 -0.007219404 -0.21961302
-0.043844014 0.1438818 -0.3458379 0.105009615 -0.23377238 -0.17255211 0.13573256 0.28111747
-0.0966292 -0.14515808 -0.31969565 -0.18231252 -0.3095844 -0.080917954 0.07214448 -0.3312356
0.30869225 0.19855678 -0.34610963 -0.16886877 0.11531326 -0.09422126 -0.03852901 -0.15963489
0.283981 -0.19763571 0.25852582 0.022812068 0.050067443 0.27581826 -0.07760881 -0.22897577
-0.057181686 0.36567476 -0.26233214 0.0802497 -0.34746924 0.26002526 0.13062656 0.014987916
0.15174267 0.0003976524 0.3154344 -0.2798801 0.02114128 0.15684143 0.4204361 0.2697421
-0.25709498 0.27191678 -0.078841776 -0.075488746 -0.3213481 -0.055654377 0.25007775 0.049301177
-0.20592856 0.10882801 -0.113364905 0.32279214 -0.30686828 -0.11167887 -0.3413818 -0.13924
0.11145687 0.36742404 0.059377998 0.3466091 0.069173485 0.22682878 0.28343037 0.29554352
-0.19789222 0.32505342 0.28980827 -0.16531414 -0.14782323 -0.29654154 0.10498412 -0.24689028
0.14934966 0.2765024 -0.30716795 0.09634361 -0.028754681 0.323321 0.20286527 -0.35148335
0.3242434 0.2965047 0.36030245 -0.32313403 0.03345537 -0.10246292 0.06462402 0.37637472
0.12854162 0.2800776 -0.13241394 0.11898476 0.12579256 -0.2943653 -0.3429538 -0.18345499
0.24202415 -0.33285624 -0.30774483 0.19806078 0.1907523 0.2907597 -0.26691115 -0.25876564
0.18136814 0.36542913 0.21154472 0.055384874 0.11652225 0.3905585 -0.22811417 -0.16051741
0.24729893 -0.24191523 -0.111523144 0.25809082 0.16551925 0.1142225 -0.09904363 0.06019182
0.32358363 -0.106449045 0.0027797222 0.1681498 -0.24407779 0.4440389 -0.176639 -0.084900916
-0.095661044 -0.23039621 -0.1895899 0.19935164 0.19251424 -0.33113837 -0.13491873 0.46844584
0.13514051 0.14186141 -0.21153031 -0.15499642 -0.053370357 -0.06465781 -0.24227189 0.029127479
0.035138965 -0.04476729 0.049013764 -0.1401311 0.09201294 0.13333926 -0.18623036 -0.35057613
0.18506202 0.084335476 -0.179813 0.3407201 -0.1598938 0.23891255 0.17936769 -0.29642203
0.22802117 -0.32508278 -0.19587377 -0.058942616 -0.23831142 0.3453898 -0.07091561 0.14042777
00000000: 06ae 513e fa8e 5e3e 9123 923e a80f fabd
00000010: d8f1 a1bd 7e5c ee3d cc93 c5bd 9a87 293e
00000020: 0030 9ebd b78d 75be 3f6c 7e3d 3807 5e3d
00000030: 4466 d63d 17d7 b33e cf55 443e 74a3 8a3e
00000040: c004 9b3c 0e10 6cbe e0fa 7dbe 90e3 60be
00000050: e385 9fbe 3575 dcbd fca3 a6be de02 a7be
00000060: 7e56 58be 7a74 b2be 8592 d8bd 6a0c 0a3e
00000070: b3d8 b93e d662 d7bd f143 20bd 3378 8b3e
00000080: 8d9e 32be 3f0d 0ebd 0e10 5f3e f2b8 9dbe
00000090: a012 313d 52ff e03e c856 783d 88e8 c43d
000000a0: 1ed9 52be 40d6 9fbb 9ccb 5b3e a0b6 b13d
000000b0: c121 863e f14a 9d3e e090 1bbe 0d34 223e
000000c0: 3de3 34be fbf9 92be 00ee e7bc 0357 9fbe
000000d0: 9eaa 7c3e 9181 093d a81f 43be 9e31 3d3e
000000e0: 5e52 abbe 4909 0cbe 061f 9cbd 3cd2 99be
000000f0: b5c4 6dbe a85d 6cbd cf93 853e 8505 ab3e
00000100: 025a 663e 962e 58be 76da 6cbe 6ff9 9d3e
00000110: 340f 003e 80e5 193c 58fb 433d 127c 91be
00000120: 46c2 f1bd a340 ae3e b094 b2bd 704a 91bc
00000130: 554e 96be ea86 4abe c090 ecbb 3ce2 60be
00000140: c895 33bd c055 133e aa11 b1be 480f d73d
00000150: 0762 6fbe 80b1 30be 7afd 0a3e a1ee 8f3e
00000160: 88e5 c5bd 52a4 14be 26af a3be 22b0 3abe
00000170: d981 9ebe 50b8 a5bd 7cc0 933d b697 a9be
00000180: e90c 9e3e 7852 4b3e 4835 b1be efeb 2cbe
00000190: 5c29 ec3d 13f7 c0bd 98d0 1dbd 5477 23be
000001a0: f565 913e 0461 4abe 7f5d 843e 60e0 ba3c
000001b0: 8513 4d3d 0d38 8d3e 5ef1 9ebd a078 6abe
000001c0: 5837 6abd b939 bb3e 6650 86be f459 a43d
000001d0: 7de7 b1be 0822 853e f8c2 053e e08f 753c
000001e0: 6e62 1b3e 007c d039 9e80 a13e 724c 8fbe
000001f0: 7a30 ad3c 0a9b 203e 6743 d73e a31b 8a3e
00000200: f4a1 83be ad38 8b3e cc77 a1bd d899 9abd
00000210: bd87 a4be d8f5 63bd 310a 803e 08f0 493d
00000220: f0de 52be 38e1 de3d dc2b e8bd 0345 a53e
00000230: d71d 9dbe e4b7 e4bd 98c9 aebe ee94 0ebe
00000240: 8043 e43d 011f bc3e 5836 733d bf76 b13e
00000250: d4aa 8d3d ce45 683e c91d 913e 7b51 973e
00000260: 42a4 4abe 676d a63e c061 943e 1c48 29be
00000270: f95e 17be 4bd4 97be ea01 d73d ced0 7cbe
00000280: 1eef 183e b991 8d3e 1e45 9dbe cc4f c53d
00000290: f08e ebbc 558a a53e eabb 4f3e a0f5 b3be
000002a0: 3b03 a63e 77cf 973e 9079 b83e d371 a5be
000002b0: 8008 093d 14d8 d1bd 9959 843d 30b4 c03e
000002c0: 6aa0 033e 5566 8f3e 8597 07be 48ae f33d
000002d0: c4cf 003e 0cb7 96be a497 afbe a0db 3bbe
000002e0: 2ed5 773e 226c aabe bb90 9dbe 72d0 4a3e
000002f0: 9254 433e 75de 943e 94a8 88be ee7c 84be
00000300: 92b8 393e 8719 bb3e 2e9f 583e 40db 623d
00000310: 38a3 ee3d 49f7 c73e c396 69be ad5e 24be
00000320: ee3b 7d3e a0b8 77be 3f66 e4bd 7b24 843e
00000330: e17d 293e 7ced e93d 63d7 cabd b38b 763d
00000340: c1ac a53e f501 dabd 002c 363b 762f 2c3e
00000350: 87ef 79be 1159 e33e dbe0 34be 88e0 adbd
00000360: f0e9 c3bd fcec 6bbe db23 42be d622 4c3e
00000370: 7422 453e f88a a9be 2328 0abe 22d8 ef3e
00000380: 4662 0a3e 1e44 113e 679b 58be 62b7 1ebe
00000390: e09a 5abd 506b 84bd 1f16 78be c09c ee3c
000003a0: e0ed 0f3d e85d 37bd a8c2 483d 877e 0fbe
000003b0: 4871 bc3d 168a 083e 2cb3 3ebe b77e b3be
000003c0: e680 3d3e 14b8 ac3d e620 38be dd72 ae3e
000003d0: 33bb 23be 7ea5 743e 2aac 373e a1c4 97be
000003e0: 627e 693e 4071 a6be 2293 48be d06d 71bd
000003f0: e907 74be efd6 b03e 343c 91bd 4ccc 0f3e

bias f4 [16]
0.050038837 0.051559843 0.0 0.050223704 0.05108478 0.051137414 0.0 0.0
0.049698867 0.06338207 0.0 -0.044435937 0.0 0.0 0.05026167 0.050500575
00000000: 86f5 4c3d 6a30 533d 0000 0000 5fb7 4d3d
00000010: 463e 513d 7775 513d 0000 0000 0000 0000
00000020: 0a91 4b3d 75ce 813d 0000 0000 7502 36bd
00000030: 0000 0000 0000 0000 2edf 4d3d b1d9 4e3d

weight f4 [16, 32]
0.08722839 0.21612771 -0.021810027 -0.20455359 0.08341193 -0.041862696 -0.15125622 0.19848602
0.003206402 -0.005102038 0.048285045 -0.046515584 -0.24894346 0.1452052 0.005305648 0.2145491
0.071146786 0.028267384 0.12619796 0.32213464 -0.114342526 0.2683307 0.08646557 -0.23586139
0.123102635 -0.2120378 -0.053522095 -0.11437117 -0.24052739 0.27844855 -0.3160134 0.22589864
-0.27357325 0.04638346 0.11220293 0.2576227 -0.12794869 0.101762384 0.06371274 0.26093704
0.02101931 0.18207513 0.009619599 -0.24568814 0.36967754 -0.18879254 -0.06018883 -0.042737573
0.39675272 -0.07640767 -0.2383391 -0.033385944 0.23833287 0.20071594 0.29249194 -0.07237837
0.16653976 -0.33270788 0.1980818 0.21978658 0.22807267 -0.20274244 -0.09439111 0.13737449
-0.25124022 -0.281245 -0.3401335 0.01973635 0.21955237 0.0908137 0.02155435 0.123187155
-0.2221744 0.037273705 -0.08783099 -0.17505972 0.30489495 -0.2735275 0.05181265 -0.3106718
-0.011994898 -0.1571057 0.116371185 -0.19853365 0.22628817 -0.28689688 0.21235678 -0.26558203
0.18935803 -0.14886945 -0.0008236468 -0.06452471 0.22946677 0.115869194 -0.3115528 0.03250587
-0.20117016 0.34948605 0.14437586 -0.08465671 -0.18037212 0.12237507 -0.20282501 0.21808337
0.19292536 0.26381385 0.3125843 -0.3094896 0.30641374 -0.044330206 -0.10452305 -0.037985384
0.30718404 0.27185664 0.08459346 0.2222364 -0.27633032 0.058558732 -0.31278288 0.120331734
-0.2518889 -0.12600808 0.30540422 0.39248818 -0.21226653 -0.19622599 0.043786198 0.18847325
-0.0137308305 -0.02286558 -0.14319664 0.15719962 0.3463981 -0.17114781 0.17569669 0.22453694
0.28418514 0.008240877 0.23293933 0.25975528 0.2770537 0.41654572 -0.10131782 0.13989633
0.2969258 -0.23999768 0.10075541 -0.024006266 0.28207108 -0.099408604 0.024797738 0.21153477
-0.32389626 -0.2985271 -0.12108736 0.28296027 0.23706737 -0.24146637 0.06741813 -0.13648264
-0.11970593 0.39435512 0.2618678 -0.09041653 0.052043617 0.06850341 0.09174952 -0.068317436
-0.20820248 0.28360707 0.27239037 0.14797965 -0.079483025 0.23993243 0.25730404 0.21502182
0.1469257 0.34785512 0.029823339 0.13130178 0.39166722 0.40402576 -0.14927734 0.31848207
0.13048244 -0.039575934 0.36979178 -0.12601803 0.2297208 0.35035166 -0.24384654 -0.15701793
-0.35034102 -0.06362632 -0.32109845 -0.11841279 0.10733712 0.24991903 0.1969417 0.1962507
0.14667651 -0.21928558 -0.28071958 0.014656097 0.3357282 0.019907087 -0.030409068 -0.23996991
-0.1753053 -0.27254146 0.283079 -0.057604343 -0.31233212 0.03792733 0.02565673 -0.043681026
0.12655935 0.19013366 -0.3324852 -0.27085432 -0.016984671 -0.32779267 -0.32115367 0.312156
-0.026891083 -0.17479339 -0.12127477 -0.27602708 0.27590093 -0.07666409 -0.19878113 -0.26813942
0.20664844 -0.048872173 -0.03714335 -0.09214777 -0.1706683 0.06289372 0.27201352 -0.20491254
0.0169397 -0.26888204 -0.16578016 0.31033853 0.0037070215 0.34058473 -0.061944038 -0.19270222
-0.211244 0.31335953 -0.27187794 0.18554279 0.08788711 0.10433617 0.19948897 -0.09249768
00000000: cca4 b23d 9550 5d3e f1aa b2bc 7f76 51be
00000010: e0d3 aa3d 3878 2bbd e9e2 1abe eb3f 4b3e
00000020: 8022 523b ff2e a7bb 8ac6 453d 2087 3ebd
00000030: 09eb 7ebe acb0 143e 00db ad3b c2b2 5b3e
00000040: 68b5 913d 0091 e73c 0a3a 013e d5ee a43e
00000050: 6a2c eabd a462 893e dc14 b13d a685 71be
00000060: 3c1d fc3d 7020 59be fc39 5bbd 6f3b eabd
00000070: d04c 76be cf90 8e3e 82cc a1be f951 673e
00000080: cb11 8cbe 95fc 3d3d a6ca e53d 1fe7 833e
00000090: fb04 03be cc68 d03d d37b 823d 8a99 853e
000000a0: b030 ac3c e771 3a3e 869b 1d3c ac95 7bbe
000000b0: 6046 bd3e d552 41be 9088 76bd 980d 2fbd
000000c0: 2c23 cb3e a07b 9cbd 2a0f 74be b3bf 08bd
000000d0: 880d 743e 7b88 4d3e 81c1 953e 1c3b 94bd
000000e0: 6689 2a3e b058 aabe f5d5 4a3e bc0f 613e
000000f0: e28b 693e b79b 4fbe 2050 c1bd e6ab 0c3e
00000100: 8fa2 80be 58ff 8fbe fa25 aebe 20ae a13c
00000110: 56d2 603e 88fc b93d c092 b03c 8c49 fc3d
00000120: b081 63be 50ac 183d bce0 b3bd db42 33be
00000130: 311b 9c3e cc0b 8cbe 8039 543d 6010 9fbe
00000140: 4086 44bc 51e0 20be 0454 ee3d 684c 4bbe
00000150: 16b8 673e 26e4 92be 0e74 593e 5efa 87be
00000160: 12e7 413e 3c71 18be 00ea 57ba 8825 84bd
00000170: 56f9 6a3e d44c ed3d d983 9fbe e024 053d
00000180: 8dff 4dbe d6ef b23e 44d7 133e 7f60 adbd
00000190: 78b3 38be c89f fa3d 5cb1 4fbe 3f51 5f3e
000001a0: 3a8e 453e 9c12 873e 0d0b a03e 6c75 9ebe
000001b0: 43e2 9c3e 9793 35bd 2e10 d6bd 9096 1bbd
000001c0: 3a47 9d3e cb30 8b3e 563f ad3d f091 633e
000001d0: 2b7b 8dbe 48db 6f3d 1425 a0be 7c70 f63d
000001e0: 95f7 80be 4308 01be f15d 9c3e 36f4 c83e
000001f0: 665c 59be 77ef 48be 2859 333d 22ff 403e
00000200: 47f7 60bc 9950 bbbc 24a2 12be f0f8 203e
00000210: 175b b13e 5f41 2fbe d5e9 333e 03ed 653e
00000220: b780 913e be04 073c a687 6e3e a5fe 843e
00000230: fcd9 8d3e 7b45 d53e b87f cfbd fc40 0f3e
00000240: a906 983e f4c1 75be da58 ce3d caa8 c4bc
00000250: 9f6b 903e bd96 cbbd a024 cb3c 929c 583e
00000260: bbd5 a5be 8bd8 98be a6fc f7bd 2be0 903e
00000270: cac1 723e f642 77be 8412 8a3d 1bc2 0bbe
00000280: 6228 f5bd eae8 c93e 8913 863e 4d2c b9bd
00000290: b02b 553d 844b 8c3d 2ce7 bb3d 03ea 8bbd
000002a0: 0833 55be f234 913e c076 8b3e fa87 173e
000002b0: ffc7 a2bd d9b0 753e 5bbd 833e ae2e 5c3e
000002c0: b173 163e 111a b23e 1350 f43c f973 063e
000002d0: 9b88 c83e 77dc ce3e 29dc 18be 1510 a33e
000002e0: 309d 053e 601a 22bd 5955 bd3e df0a 01be
000002f0: ee3b 6b3e 4b61 b33e e8b2 79be 4fc9 20be
00000300: e65f b3be 844e 82bd 0467 a4be 6882 f2bd
00000310: 90d3 db3d c6ea 7f3e 16ab 493e f2f5 483e
00000320: 5e32 163e 668c 60be 7aba 8fbe 2020 703c
00000330: 91e4 ab3e 3014 a33c 701c f9bc acba 75be
00000340: 3c83 33be 8e8a 8bbe bbef 903e 88f2 6bbd
00000350: ffe9 9fbe b059 1b3d 102e d23c e0ea 32bd
00000360: c698 013e 66b2 423e 803b aabe 6bad 8abe
00000370: 7023 8bbc 71d4 a7be 416e a4be e9d2 9f3e
00000380: b04a dcbc 0afd 32be e85e f8bd 6c53 8dbe
00000390: e342 8d3e 1002 9dbd 488d 4bbe 9249 89be
000003a0: a69b 533e 302e 48bd a023 18bd f8b7 bcbd
000003b0: acc3 2ebe 6cce 803d 5b45 8b3e 98d4 51be
000003c0: 20c5 8a3c e8aa 89be 46c2 29be b1e4 9e3e
000003d0: 80f1 723b 1f61 ae3e 08b9 7dbd bb53 45be
000003e0: 5950 58be a970 a03e 9633 8bbe eefe 3d3e
000003f0: 28fe b33d 34ae d53d d646 4c3e 6c6f bdbd

bias f4 [2]
0.053109545 0.05456171
00000000: 6589 593d 1a7c 5f3d

weight f4 [2, 16]
0.52339953 0.2024305 0.40201944 0.44016263 0.22072765 0.28112286 0.18630177 0.059886634
0.5494927 0.7290628 0.2055301 -0.0015752699 0.5176488 -0.4493636 0.5207454 0.3660413
0.4485535 0.022287633 -0.43075985 0.48757473 -0.18667446 0.2447399 0.32709497 -0.5395486
0.10509407 0.00075232924 0.4097774 -0.33905548 0.35054964 0.36001825 0.42868808 0.622897
00000000: 83fd 053f f149 4f3e 7ed5 cd3e ff5c e13e
00000010: 6e06 623e 56ef 8f3e e4c5 3e3e b04b 753d
00000020: 8eab 0c3f dca3 3a3f 7c76 523e 4979 ceba
00000030: a284 043f fc12 e6be 924f 053f c469 bb3e
00000040: cea8 e53e 8e94 b63c 8e8c dcbe 65a3 f93e
00000050: 9727 3fbe 199d 7a3e fe78 a73e db1f 0abf
00000060: 8f3b d73d f637 453a 58ce d13e ae98 adbe
00000070: 3e7b b33e 5054 b83e 017d db3e 2e76 1f3f

weight f4 [1, 2]
1.0853158 0.2156108
00000000: a1eb 8a3f 14c9 5c3e

pout f4 [50, 3]
0.10561751 0.011547128 0.00062745495 0.10561751 0.0070908507 0.00026140895 0.10561751 0.005577314
0.00019635397 0.10561751 0.0064133345 0.00022291888 0.10561753 0.0055775186 0.00019636114 0.10561751
0.00553494 0.00019421312 0.10561751 0.005597854 0.00018917002 0.10561753 0.0055653225 0.00019588065
0.10561751 0.0067382357 0.00024064071 0.10561751 0.10955343 0.051742576 0.10561751 0.005557371
0.00019551553 0.10561751 0.005560396 0.00019565938 0.10561751 0.005539239 0.00019450173 0.10561753
0.0055702156 0.000196085 0.10561751 0.005513613 0.00018978586 0.10561751 0.0055775256 0.00019636133
0.10561751 0.005575023 0.00019627115 0.10561753 0.005524953 0.0001934317 0.10561751 0.005577462
0.00019635921 0.10561753 0.0055332743 0.00018895144 0.10561753 0.005651222 0.0001902555 0.10561751
0.0055410424 0.00019461622 0.10561753 0.0055551897 0.00019540792 0.10561751 0.006011318 0.00020343842
0.10561753 0.005575556 0.00019629078 0.10561751 0.0060530333 0.00020529675 0.10561751 0.008622063
0.0003666738 0.10561751 0.008403329 0.00035025342 0.10561753 0.0057548736 0.00019331252 0.10561751
0.0055106245 0.00019017511 0.10561751 0.005576625 0.00019632965 0.10561751 0.0061897296 0.00021168008
0.10561751 0.0066407043 0.00023516711 0.10561751 0.005571082 0.0001961196 0.10561751 0.0055599897
0.00018879563 0.10561751 0.031226851 0.004298282 0.10561751 0.08904842 0.034252483 0.10561751
0.007145178 0.00026473642 0.10561753 0.005528996 0.00019377033 0.10561753 0.005568912 0.00019603208
0.10561753 0.008937648 0.00039113918 0.10561753 0.0055255457 0.00018913837 0.10561751 0.005577528
0.00019636145 0.10561751 0.005519658 0.00018937208 0.10561753 0.0055380063 0.00019442131 0.10561751
0.0055314573 0.00019396066 0.10561751 0.0065212287 0.00022863733 0.10561751 0.0055089896 0.00019088418
0.10561751 0.051325567 0.011468262 0.10561751 0.005577356 0.00019635547
00000000: fe4d d83d 2a30 3d3c ca7b 243a fe4d d83d
00000010: 5e5a e83b b70d 8939 fe4d d83d e7c1 b63b
00000020: 5ee4 4d39 fe4d d83d f326 d23b 55bf 6939
00000030: 014e d83d 9ec3 b63b 4be6 4d39 fe4d d83d
00000040: 715e b53b b0a5 4b39 fe4d d83d 346e b73b
00000050: f15b 4639 014e d83d 4f5d b63b 5065 4d39
00000060: fe4d d83d 6bcc dc3b 8054 7c39 fe4d d83d
00000070: 8c5d e03d 06f0 533d fe4d d83d 9b1a b63b
00000080: 4d03 4d39 fe4d d83d fb33 b63b ea29 4d39
00000090: fe4d d83d 8182 b53b 29f3 4b39 014e d83d
000000a0: 5b86 b63b 2b9c 4d39 fe4d d83d 8aab b43b
000000b0: 4101 4739 fe4d d83d adc3 b63b 58e6 4d39
000000c0: fe4d d83d afae b63b 23ce 4d39 014e d83d
000000d0: aa0a b53b edd3 4a39 fe4d d83d 24c3 b63b
000000e0: c6e5 4d39 014e d83d 7850 b53b 4421 4639
000000f0: 014e d83d e32d b93b 527f 4739 fe4d d83d
00000100: a291 b53b e511 4c39 014e d83d 4f08 b63b
00000110: 6ae6 4c39 fe4d d83d 97fa c43b 1652 5539
00000120: 014e d83d 27b3 b63b 68d3 4d39 fe4d d83d
00000130: 8658 c63b ed44 5739 fe4d d83d 8e43 0d3c
00000140: 203e c039 fe4d d83d 1eae 093c 38a2 b739
00000150: 014e d83d 6193 bc3b efb3 4a39 fe4d d83d
00000160: 7892 b43b be69 4739 fe4d d83d 1fbc b63b
00000170: d7dd 4d39 fe4d d83d 37d3 ca3b 70f6 5d39
00000180: fe4d d83d 449a d93b 3197 7639 fe4d d83d
00000190: 9f8d b63b 74a5 4d39 fe4d d83d 9330 b63b
000001a0: 71f7 4539 fe4d d83d 74cf ff3c 9ad8 8c3b
000001b0: fe4d d83d 055f b63d 554c 0c3d fe4d d83d
000001c0: 1922 ea3b 52cc 8a39 014e d83d 942c b53b
000001d0: d42e 4b39 014e d83d 6b7b b63b f68d 4d39
000001e0: 014e d83d 366f 123c d011 cd39 014e d83d
000001f0: a30f b53b 7253 4639 fe4d d83d b2c3 b63b
00000200: 60e6 4d39 fe4d d83d 3fde b43b 2e92 4639
00000210: 014e d83d 2a78 b53b 93dd 4b39 fe4d d83d
00000220: 3a41 b53b eb61 4b39 fe4d d83d 08b0 d53b
00000230: 5ebe 6f39 fe4d d83d c184 b43b 1528 4839
00000240: fe4d d83d c23a 523d 61e5 3b3c fe4d d83d
00000250: 41c2 b63b c5e4 4d39

throughput f4 [50, 1]
1.7891232 1.7969463 1.799511 1.7981104 1.7995106 1.7995836 1.7994907 1.7995313
1.7975534 1.560698 1.7995449 1.7995396 1.799576 1.799523 1.7996261 1.7995106
1.7995148 1.799601 1.7995108 1.7995957 1.7994022 1.7995728 1.7995486 1.7987958
1.7995139 1.7987249 1.7942879 1.7946697 1.799229 1.7996302 1.7995121 1.7984923
1.7977208 1.7995214 1.7995528 1.751694 1.6167659 1.7968526 1.7995938 1.799525
1.7937361 1.7996078 1.7995106 1.7996169 1.7995781 1.7995896 1.7979256 1.7996314
1.7088684 1.799511
00000000: fd01 e53f 5602 e63f 6056 e63f 7b28 e63f
00000010: 5d56 e63f c158 e63f b655 e63f 0b57 e63f
00000020: 3b16 e63f f4c4 c73f 7d57 e63f 5057 e63f
00000030: 8258 e63f c556 e63f 265a e63f 5d56 e63f
00000040: 8056 e63f 5359 e63f 5f56 e63f 2759 e63f
00000050: d052 e63f 6758 e63f 9c57 e63f f13e e63f
00000060: 7956 e63f 9e3c e63f 3aab e53f bdb7 e53f
00000070: 234d e63f 485a e63f 6a56 e63f ff34 e63f
00000080: b71b e63f b856 e63f bf57 e63f 8237 e03f
00000090: 2ff2 ce3f 44ff e53f 1759 e63f d656 e63f
000000a0: 2599 e53f 8c59 e63f 5d56 e63f d959 e63f
000000b0: 9358 e63f f458 e63f 6d22 e63f 525a e63f
000000c0: 33bc da3f 6056 e63f

delay f4 [50, 1]
0.0558933 0.05564997 0.055570655 0.055613935 0.055570662 0.055568412 0.055571277 0.055570025
0.055631172 0.06407389 0.055569604 0.05556977 0.055568643 0.055570282 0.055567097 0.055570662
0.05557054 0.055567876 0.055570655 0.05556804 0.05557401 0.055568743 0.055569492 0.055592746
0.05557056 0.055594936 0.055732418 0.055720557 0.055579364 0.05556697 0.055570614 0.055602126
0.05562599 0.05557033 0.055569362 0.057087597 0.061851874 0.055652864 0.055568095 0.05557022
0.05574956 0.055567667 0.055570662 0.05556738 0.05556858 0.055568226 0.055619657 0.055566937
0.05851826 0.055570655
00000000: 5ff0 643d 39f1 633d 0e9e 633d 70cb 633d
00000010: 109e 633d b49b 633d b59e 633d 659d 633d
00000020: 83dd 633d 2c39 833d f49c 633d 219d 633d
00000030: f29b 633d aa9d 633d 539a 633d 109e 633d
00000040: ef9d 633d 249b 633d 0e9e 633d 509b 633d
00000050: 93a1 633d 0d9c 633d d69c 633d 38b5 633d
00000060: f59d 633d 84b7 633d ad47 643d 3d3b 643d
00000070: 30a7 633d 319a 633d 039e 633d 0ebf 633d
00000080: 14d8 633d b79d 633d b39c 633d afd4 693d
00000090: 6458 7d3d 42f4 633d 5f9b 633d 999d 633d
000000a0: a759 643d ec9a 633d 109e 633d 9f9a 633d
000000b0: e19b 633d 829b 633d 70d1 633d 289a 633d
000000c0: d8b0 6f3d 0e9e 633d

ef1 f4 [50]
-1.2024174 -1.5826795 -1.7069602 -1.6518531 -1.7069445 -1.7117214 -1.7231476 -1.7080085
-1.6186309 0.713848 -1.7088187 -1.7084994 -1.7110765 -1.7075555 -1.7217362 -1.706944
-1.7071435 -1.7134724 -1.7069488 -1.7236497 -1.7206628 -1.7108209 -1.7090578 -1.691567
-1.7071002 -1.687618 -1.4357202 -1.4556177 -1.7137401 -1.7208464 -1.7070141 -1.67432
-1.6286235 -1.707479 -1.7240081 -0.36670518 0.53469205 -1.5771863 -1.7127128 -1.7076728
-1.4076686 -1.7232203 -1.7069438 -1.7226841 -1.711256 -1.7122862 -1.6408529 -1.7192302
0.059497595 -1.7069571
00000000: d0e8 99bf 3e95 cabf ac7d dabf ec6f d3bf
00000010: 287d dabf b019 dbbf 1a90 dcbf 06a0 dabf
00000020: 4c2f cfbf bebe 363f 92ba dabf 1cb0 dabf
00000030: 8e04 dbbf 2e91 dabf da61 dcbf 247d dabf
00000040: ae83 dabf 1053 dbbf 4c7d dabf 8ea0 dcbf
00000050: ae3e dcbf 2efc dabf 68c2 dabf 4485 d8bf
00000060: 4282 dabf de03 d8bf aec5 b7bf ae51 babf
00000070: d65b dbbf b244 dcbf 707f dabf 1e50 d6bf
00000080: bc76 d0bf ac8e dabf 4cac dcbf c8c0 bbbe
00000090: 94e1 083f 3ee1 c9bf 2c3a dbbf 0695 dabf
000000a0: 7c2e b4bf 7c92 dcbf 227d dabf ea80 dcbf
000000b0: 700a dbbf 322c dbbf 7807 d2bf bc0f dcbf
000000c0: c0b3 733d 927d dabf

ef2 f4 [50, 1]
1.1979027 0.7390671 -0.059770584 0.602211 -0.05995941 -0.0049533844 0.26329994 -0.047389984
0.67416763 6.078377 -0.037996292 -0.041685104 -0.012273788 -0.052711487 0.12956238 -0.05996704
-0.057590485 0.015083313 -0.059906006 0.18117142 0.3078556 -0.015171051 -0.035245895 0.48440933
-0.058107376 0.49892426 0.9424019 0.9182129 0.37307358 0.11328888 -0.059129715 0.54213333
0.6540489 -0.05361557 0.22185135 2.2974052 5.098381 0.74816895 0.0063438416 -0.05132675
0.9754715 0.16526413 -0.05996704 0.15035439 -0.010232925 0.0014762878 0.62776566 0.08790207
3.2847214 -0.05981064
00000000: e054 993f 8033 3d3f 00d2 74bd 802a 1a3f
00000010: 0098 75bd 0050 a2bb 40cf 863e 001c 42bd
00000020: 4096 2c3f 1082 c240 00a2 1bbd 00be 2abd
00000030: 0018 49bc 00e8 57bd 00ac 043e 00a0 75bd
00000040: 00e4 6bbd 0020 773c 0060 75bd 0085 393e
00000050: 409f 9d3e 0090 78bc 005e 10bd 8004 f83e
00000060: 0002 6ebd 0073 ff3e 4041 713f 0010 6b3f
00000070: 8003 bf3e 0004 e83d 0032 72bd 40c9 0a3f
00000080: c06f 273f 009c 5bbd 002d 633e b008 1340
00000090: f025 a340 0088 3f3f 00e0 cf3b 003c 52bd
000000a0: 80b8 793f 003b 293e 00a0 75bd 80f6 193e
000000b0: 00a8 27bc 0080 c13a 40b5 203f 0006 b43d
000000c0: e038 5240 00fc 74bd
