train/models/HARQ-CC-NumK=5_avg.pt (torch, 45386 bytes, 14 tensors)

bias f4 [16]
-0.06896572 -0.061695594 -0.08839451 0.066729665 -0.09111246 0.079159684 -0.093341075 -0.086711444
0.055778954 -0.080192 -0.077431425 -0.092416905 0.06646187 -0.078404695 0.04247077 0.103495955
00000000: e63d 8dbd 85b4 7cbd 2e08 b5bd 90a9 883d
00000010: 2b99 babd 791e a23d 9b29 bfbd c595 b1bd
00000020: 7978 643d b43b a4bd 5e94 9ebd 1345 bdbd
00000030: 291d 883d a492 a0bd d5f5 2d3d b0f5 d33d

weight f4 [16, 1]
-0.34601194 0.114228226 -0.36279485 -0.0037855138 -0.334048 0.44167304 -0.56323975 -0.36024764
-0.11353528 -0.43533492 0.009211718 -0.68114203 0.5190567 -0.5848797 0.50379986 0.13886136
00000000: 7a28 b1be 7df0 e93d 3fc0 b9be 6216 78bb
00000010: 5708 abbe f822 e23e 7b30 10bf 6172 b8be
00000020: 2f85 e8bd 38e4 debe bfec 163c 535f 2ebf
00000030: e6e0 043f adba 15bf 07f9 003f ac31 0e3e

bias f4 [32]
-0.07023259 0.08070748 -0.07205109 -0.0520349 0.0778772 0.10467937 -0.07358271 0.070796594
-0.092145085 -0.08274108 0.109473646 -0.06618801 0.06500874 0.07893161 0.11325501 0.09623373
0.05954173 -0.06956468 -0.052446846 0.07184057 -0.076905556 0.068492256 -0.06822245 -0.06732676
0.062340554 -0.052829344 0.0729461 0.056102555 0.0661203 0.07843606 -0.06292645 0.07060156
00000000: 1bd6 8fbd f749 a53d 868f 93bd 8c22 55bd
00000010: 157e 9f3d 2362 d63d 88b2 96bd cefd 903d
00000020: 90b6 bcbd 2874 a9bd b833 e03d 948d 87bd
00000030: 4d23 853d e5a6 a13d 3ef2 e73d 3116 c53d
00000040: 07e2 733d ed77 8ebd 81d2 56bd 2621 933d
00000050: a980 9dbd ab45 8c3d 36b8 8bbd 9de2 89bd
00000060: cf58 7f3d 9563 58bd c464 953d cbcb 653d
00000070: 146a 873d 16a3 a03d 95df 80bd 8d97 903d

weight f4 [32, 16]
0.2716991 0.25527143 0.3542153 -0.09852319 -0.010330371 0.14498858 -0.026848802 0.23424517
-0.024864687 -0.17166372 0.13791125 0.12392766 0.13349591 0.42073938 0.217434 0.30244505
-0.060546283 -0.27318236 -0.3289674 -0.24877091 -0.39270175 -0.13738216 -0.40648317 -0.4070145
-0.27498883 -0.4287331 -0.20580466 0.05381759 0.3328295 -0.1859321 -0.06507632 0.2401163
-0.109210275 -0.18089947 0.2852993 -0.2885604 0.110178985 0.29335883 0.1305434 0.16351613
-0.15682793 0.062537305 0.01775845 0.15717627 0.119526915 0.37714636 -0.28730664 -0.016499374
-0.12573518 -0.3002868 0.024310384 -0.28782842 0.29961118 0.014761628 -0.13817619 0.23731017
-0.2931137 -0.085326925 -0.07940074 -0.24830468 -0.24989076 -0.005513912 0.24290708 0.31214103
0.14220862 -0.14326432 -0.31487697 0.2672473 0.0405237 0.09235678 -0.03321384 -0.36759287
-0.18782413 0.2584861 -0.044630606 -0.09812166 -0.21380739 -0.27832213 0.075318575 -0.13049918
-0.14931844 0.23007289 -0.4521517 0.056071486 -0.34057 -0.07093999 0.030109316 0.1749388
-0.18625244 -0.25067532 -0.27081934 -0.2878392 -0.21135241 -0.18618803 0.17114295 -0.20969845
0.38251078 0.18467486 -0.2709999 -0.13677792 0.19083518 -0.11986607 0.035983775 -0.084647775
0.3433633 -0.12353691 0.27340114 0.09716325 0.025643742 0.35002404 -0.104556814 -0.252614
-0.1279577 0.31544942 -0.33454812 0.05350295 -0.42006892 0.22315793 0.058978528 -0.057113316
0.09496234 -0.070719376 0.20638672 -0.35132116 -0.016084308 0.08549184 0.38824597 0.22699347
-0.16342328 0.19891554 0.014975065 -0.028089983 -0.22686441 -0.14392397 0.34268516 0.14297232
-0.12734759 0.20203526 -0.16222483 0.4154225 -0.3924251 -0.019432303 -0.42987695 -0.23059511
0.18432121 0.33288884 0.13470843 0.363839 0.14357162 0.19156078 0.3626697 0.37077653
-0.14422792 0.40101197 0.21953891 -0.08515725 -0.18026389 -0.21714287 0.07783945 -0.3079267
0.048830323 0.15573244 -0.4084037 0.0684296 -0.12945808 0.21831252 0.098432764 -0.45259017
0.2445591 0.19391237 0.15113513 -0.42887697 -0.072322875 -0.2070148 -0.03764769 0.27873933
0.19633563 0.22859417 -0.063238524 0.15369008 0.19571944 -0.35859755 -0.27536818 -0.11440077
0.29732284 -0.26534453 -0.34292212 0.26520428 0.1290724 0.3579564 -0.33179125 -0.32134956
0.11856675 0.3138733 0.14693302 0.040155288 0.051854633 0.3477601 -0.29314408 -0.22502254
0.1999095 -0.30573714 -0.19982985 0.1930885 0.1225067 0.04939095 -0.13886258 0.01385552
0.24433388 -0.16114736 -0.07768496 0.1321212 -0.32495728 0.40538728 -0.25648573 -0.16524518
-0.16088319 -0.30987844 -0.31837696 0.11966791 0.15350029 -0.41067123 -0.16734372 0.42272952
0.023295043 0.21504472 -0.32381988 -0.20731467 -0.16567709 0.02122487 -0.35534284 -0.083030745
-0.059482712 -0.15739052 0.08987572 -0.25362992 0.17514464 0.020458799 -0.10358446 -0.2433741
0.088992506 0.14139247 -0.27725795 0.30411258 -0.25767004 0.30899787 0.082211405 -0.3937278
0.14988203 -0.42167515 -0.16989015 -0.155992 -0.17120935 0.24857412 -0.003948921 0.23044667
00000000: 251c 8b3e f0b2 823e b55b b53e 87c6 c9bd
00000010: b740 29bc e377 143e 05f2 dbbc f7dd 6f3e
00000020: 07b1 cbbc 9dc8 2fbe 9b38 0d3e c9cd fd3d
00000030: 27b3 083e 276b d73e 05a7 5e3e 14da 9a3e
00000040: 61ff 77bd 8fde 8bbe 6a6e a8be cdbd 7ebe
00000050: 3410 c9be e9ad 0cbe 901e d0be 3464 d0be
00000060: 56cb 8cbe e882 dbbe 75be 52be d56f 5c3d
00000070: a168 aa3e fc64 3ebe bc46 85bd 0ce1 753e
00000080: a3a9 dfbd b63d 39be c012 923e 30be 93be
00000090: 85a5 e13d 2133 963e 2bad 053e c670 273e
000000a0: 8097 20be 8f13 803d 2b7a 913c d1f2 203e
000000b0: 87ca f43d 5419 c13e db19 93be b229 87bc
000000c0: b9c0 00be 31bf 99be 9226 c73c 3f5e 93be
000000d0: a366 993e c1da 713c 0f7e 0dbe 7001 733e
000000e0: 0013 96be e2bf aebd db9c a2bd 9543 7ebe
000000f0: 5de3 7fbe 0cae b4bb a2bc 783e f3d0 9f3e
00000100: 239f 113e e2b3 12be 8e37 a1be a3d4 883e
00000110: 2efc 253d 8d25 bd3d 3c0b 08bd 2235 bcbe
00000120: f854 40be 4a58 843e 95ce 36bd 02f4 c8bd
00000130: 53f0 5abe 3d80 8ebe a040 9a3d 94a1 05be
00000140: efe6 18be 3a98 6b3e 6d80 e7be 37ab 653d
00000150: 315f aebe fc48 91bd d0a7 f63c 2823 333e
00000160: f6b8 3ebe 8458 80be d5a8 8abe a95f 93be
00000170: c46c 58be 13a8 3ebe 1940 2f3e 31bb 56be
00000180: 74d8 c33e 681b 3d3e 80c0 8abe 830f 0cbe
00000190: 4c6a 433e 587c f5bd b963 133d d05b adbd
000001a0: 51cd af3e eb00 fdbd 3cfb 8b3e 87fd c63d
000001b0: d312 d23c 5a36 b33e e221 d6bd 9f56 81be
000001c0: 5807 03be 9682 a13e e449 abbe e925 5b3d
000001d0: 4613 d7be 8383 643e 7893 713d a7ef 69bd
000001e0: 9e7b c23d 52d5 90bd 0a57 533e 5ee0 b3be
000001f0: 3dc3 83bc 5916 af3d 2dc8 c63e fa70 683e
00000200: 6f58 27be 84b0 4b3e fa59 753c f71c e6bc
00000210: 254f 68be ce60 13be 6e74 af3e 5667 123e
00000220: 6867 02be 55e2 4e3e 441e 26be 42b2 d43e
00000230: f1eb c8be 7e30 9fbc d518 dcbe 2021 6cbe
00000240: b3be 3c3e 6870 aa3e 02f1 093e 1b49 ba3e
00000250: 7004 133e 8228 443e d8af b93e 6cd6 bd3e
00000260: 7cb0 13be 7151 cd3e cfce 603e ed66 aebd
00000270: 1997 38be b35a 5ebe 4a6a 9f3d 92a8 9dbe
00000280: 4e02 483d 5378 1f3e 4a1a d1be d124 8c3d
00000290: a990 04be 518d 5f3e 1e97 c93d e6b9 e7be
000002a0: b36d 7a3e f790 463e 2bc3 1a3e c395 dbbe
000002b0: 041e 94bd b0fb 53be 7734 1abd ecb6 8e3e
000002c0: 350c 493e 9714 6a3e 3383 81bd ef60 1d3e
000002d0: ad6a 483e 199a b7be 0ffd 8cbe f34a eabd
000002e0: b33a 983e 3ddb 87be 7d93 afbe dbc8 873e
000002f0: 8e2b 043e 1046 b73e 8be0 a9be ee87 a4be
00000300: 20d3 f23d 00b4 a03e 9c75 163e df79 243d
00000310: 8665 543d 9d0d b23e fb16 96be 4f6c 66be
00000320: 13b5 4c3e 9489 9cbe 32a0 4cbe feb8 453e
00000330: cbe4 fa3d 2a4e 4a3d fe31 0ebe 4302 633c
00000340: a932 7a3e d003 25be 4b19 9fbd c84a 073e
00000350: cd60 a6be ec8e cf3e 1952 83be 0836 29be
00000360: 90be 24be 63a8 9ebe 4e02 a3be 7314 f53d
00000370: 2e2f 1d3e 8043 d2be 275c 2bbe 0170 d83e
00000380: 3fd5 be3c af34 5c3e b8cb a5be 4c4a 54be
00000390: 41a7 29be c7df ad3c 7fef b5be 060c aabd
000003a0: 25a4 73bd fb2a 21be c310 b83d c8db 81be
000003b0: 1e59 333e 3699 a73c 1724 d4bd 0f37 79be
000003c0: b441 b63d 30c9 103e c1f4 8dbe a5b4 9b3e
000003d0: 54ed 83be f834 9e3e 745e a83d b196 c9be
000003e0: ad7a 193e cee5 d7be aff7 2dbe 5ebc 1fbe
000003f0: 8151 2fbe 378a 7e3e f365 81bb 36fa 6b3e

bias f4 [16]
0.064209595 0.0582641 0.06515463 0.063538685 0.054406304 0.067469485 0.07618702 -0.07547504
0.06557341 0.0722772 0.07943642 -0.06095689 0.067451395 -0.04315384 0.06393287 0.0646966
00000000: 5280 833d 56a6 6e3d ca6f 853d 9220 823d
00000010: 25d9 5e3d 712d 8a3d f107 9c3d a892 9abd
00000020: 5a4b 863d 1206 943d 90af a23d efad 79bd
00000030: f523 8a3d 15c2 30bd 3def 823d a77f 843d

weight f4 [16, 32]
0.031621877 0.19880994 -0.18651722 -0.16710404 0.0756199 0.009412163 -0.24185565 0.16726632
-0.064564794 -0.12713598 -0.049134195 -0.11318625 -0.29740188 0.13017538 0.114856854 0.31526497
0.033185836 -0.014859162 0.13503698 0.28379 -0.17199625 0.21108133 0.016020522 -0.30356532
0.100651965 -0.22071305 -0.07061608 -0.15795866 -0.27703375 0.3872875 -0.38313165 0.196611
-0.3313146 0.018888332 -0.053069957 0.29121694 -0.13694198 0.14745617 -0.023628253 0.22505133
-0.04111159 0.060474962 -0.09613804 -0.30780914 0.31678873 -0.21100754 0.0441029 0.0509077
0.3547191 -0.117506705 -0.23357068 -0.0772027 0.1771806 0.13680044 0.22728729 -0.13530299
0.14481978 -0.34028548 0.17379987 0.17136717 0.19414355 -0.100347504 -0.15658648 0.103296705
-0.25957793 -0.2119771 -0.4197347 0.06502859 0.21069871 0.14243974 -0.063886076 0.14870821
-0.29127893 -0.038913354 0.03537389 -0.24381705 0.31434125 -0.21720338 0.161856 -0.20849551
0.004379929 -0.20434734 0.15879668 -0.17769167 0.22620508 -0.28090864 0.14002919 -0.335228
0.16548091 -0.16184643 0.045836072 -0.048323467 0.19156154 0.22524503 -0.38045284 0.05877798
-0.25685737 0.33088374 -0.020551503 -0.04756852 -0.18835673 0.17300615 -0.29315275 0.18652315
0.125773 0.14173321 0.21376717 -0.3756896 0.25759333 -0.06005874 0.0043375976 0.061925616
0.26891315 0.22888958 0.09310056 0.18333912 -0.33427802 0.00053405977 -0.3826753 0.05312917
-0.2743046 -0.13465829 0.28754702 0.3484479 -0.24852309 -0.088216536 -0.022810012 0.15880159
-0.072403565 -0.05314924 -0.30313402 0.18814756 0.33671984 -0.13008668 0.09335741 0.18602698
0.22624576 -0.109621964 0.12194635 0.20186909 0.22199222 0.3906221 -0.0024176403 0.22500078
0.25282982 -0.27715662 0.102609195 -0.07017954 0.22033437 -0.16616668 -0.03597832 0.15287362
-0.34476557 -0.3030994 -0.14890726 0.23278105 0.20508786 -0.1448537 0.009411651 -0.17325686
-0.17643778 0.3760908 0.08875773 -0.050919652 0.045134097 0.12387787 -0.0029197354 -0.099914625
-0.27947217 0.15618612 0.17623374 0.077796705 -0.12838474 0.22482206 0.37196472 0.32389256
0.1084347 0.30143717 0.040289048 0.09278819 0.33190647 0.34738323 -0.2233555 0.24724309
0.107361026 -0.050733034 0.3531901 -0.17058243 0.19156656 0.46446896 -0.31443682 -0.18632266
-0.30064923 0.024427703 -0.4177406 -0.060418446 0.09194442 0.317291 0.09021897 0.2798611
0.063919336 -0.32038188 -0.14487365 -0.07249769 0.4270586 0.118345514 0.089943685 -0.11860103
-0.098814964 -0.3623367 0.3506639 0.031989194 -0.25850725 0.16709986 -0.061686605 -0.13071606
0.089665726 0.12468033 -0.23577774 -0.19316542 -0.06865299 -0.20653506 -0.40649548 0.39691103
-0.07135831 -0.25800556 -0.03212928 -0.33878407 0.29118305 -0.14099456 -0.09962974 -0.34899688
0.28827763 0.04480849 -0.14683671 -0.0054539326 -0.2551857 -0.025717521 0.16814813 -0.29277685
-0.057507925 -0.17318174 -0.23529747 0.23203725 -0.048277467 0.24555133 0.02267501 -0.10639729
-0.17789298 0.3890449 -0.35858375 0.11297578 0.14046176 0.0044907937 0.28427282 -0.17235619
00000000: f185 013d d594 4b3e 5ffe 3ebe 521d 2bbe
00000010: 9bde 9a3d 7935 1a3c 02a9 77be dd47 2b3e
00000020: 8c3a 84bd ef2f 02be f040 49bd 31ce e7bd
00000030: 0f45 98be b24c 053e 123a eb3d 696a a13e
00000040: dfed 073d d873 73bc 2247 0a3e ec4c 913e
00000050: c91f 30be b425 583e 783d 833c ea6c 9bbe
00000060: 9e22 ce3d 9a02 62be 2a9f 90bd eabf 21be
00000070: 5ed7 8dbe 8c4a c63e d529 c4be 6554 493e
00000080: 11a2 a9be b4bb 9a3c e25f 59bd 631a 953e
00000090: 853a 0cbe c0fe 163e 0a90 c1bc db73 663e
000000a0: a064 28bd 98b4 773d 05e4 c4bd 2999 9dbe
000000b0: 2232 a23e 5c12 58be 3ea5 343d 9884 503d
000000c0: be9d b53e 5ba7 f0bd 272d 6fbe 731c 9ebd
000000d0: d56e 353e 6a15 0c3e 00be 683e de8c 0abe
000000e0: a34b 143e e639 aebe 98f8 313e e07a 2f3e
000000f0: 91cd 463e fe82 cdbd 3558 20be 398d d33d
00000100: 66e7 84be 8610 59be 77e7 d6be b62d 853d
00000110: 67c1 573e b9db 113e b4d6 82bd f746 183e
00000120: 8322 95be 9c63 1fbd 36e4 103d 2dab 79be
00000130: 56f1 a03e 906a 5ebe 94bd 253e d97f 55be
00000140: 8285 8f3b 6e40 51be 999b 223e cef4 35be
00000150: 4ea2 673e 42d3 8fbe d063 0f3e 01a3 abbe
00000160: d473 293e 12bb 25be 9bbe 3b3d d4ee 45bd
00000170: b528 443e a2a6 663e b7ca c2be 2ec1 703d
00000180: cf82 83be 9869 a93e a05b a8bc 35d7 42bd
00000190: 96e0 40be 8628 313e 1e18 96be edff 3e3e
000001a0: a3ca 003e 8322 113e c8e5 5a3e 635a c0be
000001b0: 46e3 833e 2700 76bd 6822 8e3b b7a5 7d3d
000001c0: fcae 893e 0862 6a3e 82ab be3d 40bd 3b3e
000001d0: 7d26 abbe 2500 0c3a 04ee c3be f99d 593d
000001e0: a771 8cbe dde3 09be 5d39 933e c367 b23e
000001f0: d67c 7ebe dfaa b4bd 10dc babc e29c 223e
00000200: 5248 94bd 04b3 59bd 6234 9bbe c1a9 403e
00000210: 8b66 ac3e 7135 05be 2b32 bf3d db7d 3e3e
00000220: f8ac 673e 7b81 e0bd 02bf f93d c5b6 4e3e
00000230: ee51 633e 9fff c73e 4671 1ebb 9b66 663e
00000240: e972 813e 79e7 8dbe c524 d23d 4aba 8fbd
00000250: 559f 613e 9927 2abe 015e 13bd e78a 1c3e
00000260: 1d85 b0be d82f 9bbe 257b 18be 285e 6e3e
00000270: 8d02 523e 8754 14be 5333 1a3c 3f6a 31be
00000280: 1bac 34be f98e c03e 9dc6 b53d 2091 50bd
00000290: 88de 383d aeb3 fd3d 0859 3fbb 0aa0 ccbd
000002a0: fa16 8fbe 41ef 1f3e 9e76 343e e153 9f3d
000002b0: 4a77 03be c137 663e 2972 be3e 3fd5 a53e
000002c0: 0313 de3d f955 9a3e 2106 253d bc07 be3d
000002d0: a5ef a93e 37dc b13e 4eb7 64be 4b2d 7d3e
000002e0: 19e0 db3d 71cd 4fbd 55d5 b43e 29ad 2ebe
000002f0: 062a 443e e0ce ed3e ddfd a0be 5ecb 3ebe
00000300: b2ee 99be 9b1c c83c 19e2 d5be 5579 77bd
00000310: 5b4d bc3d f773 a23e b9c4 b83d f449 8f3e
00000320: 24e8 823d 1809 a4be c259 14be ab79 94bd
00000330: 6da7 da3e 225f f23d 6534 b83d 19e5 f2bd
00000340: 805f cabd 3284 b9be 388a b33e 1a07 033d
00000350: 105b 84be 3a1c 2b3e 18ab 7cbd 6eda 05be
00000360: aaa2 b73d 6758 ff3d b86f 71be 28cd 45be
00000370: f099 8cbd ed7d 53be 2d20 d0be ec37 cb3e
00000380: 4e24 92bd 4e19 84be fe99 03bd 1b75 adbe
00000390: f215 953e e160 10be ad0a ccbd b8af b2be
000003a0: 2099 933e 1b89 373d 5d5c 16be e7b6 b2bb
000003b0: b3a7 82be 8dad d2bc 062f 2c3e d9e6 95be
000003c0: 6e8d 6bbd 8e56 31be d2f1 70be 2c9b 6d3e
000003d0: 98be 45bd cf71 7b3e f1c0 b93c d3e6 d9bd
000003e0: 9429 36be e530 c73e 4a98 b7be d95f e73d
000003f0: 35d5 0f3e 8227 933b 358c 913e 247e 30be

bias f4 [2]
0.05945973 0.06845003
00000000: 0c8c 733d 882f 8c3d

weight f4 [2, 16]
0.53874695 0.15221137 0.5021622 0.42727703 0.16440694 0.29606634 0.2709839 -0.0059298524
0.46213144 0.63474107 0.27008703 -0.033259787 0.62791216 -0.51650065 0.50266874 0.3662182
0.46651998 -0.025974791 -0.32044545 0.4771805 -0.24171166 0.26195887 0.42460912 -0.6151106
0.015931793 -0.08905302 0.4904402 -0.37014553 0.47247976 0.28324354 0.4097448 0.62705785
00000000: 52eb 093f 4cdd 1b3e b48d 003f 0ec4 da3e
00000010: 4b5a 283e 0296 973e 67be 8a3e 354f c2bb
00000020: 7e9c ec3e 647e 223f d948 8a3e 6a3b 08bd
00000030: dabe 203f 6339 04bf e6ae 003f f480 bb3e
00000040: b5db ee3e 16c9 d4bc 6d11 a4be 0151 f43e
00000050: 4383 77be 791f 863e 5e66 d93e e377 1dbf
00000060: 6483 823c 6e61 b6bd fa1a fb3e b783 bdbe
00000070: dee8 f13e 4c05 913e 12ca d13e dd86 203f

weight f4 [1, 2]
1.0981048 0.23845264
00000000: b38e 8c3f ee2c 743e

pout f4 [50, 5]
0.0510171 0.0012965346 2.2030743e-05 2.8103838e-07 2.8681295e-09 0.12002972 0.0072035524 0.00028821354
8.64855e-06 2.0761661e-07 0.10303112 0.0053075273 0.00018228029 4.695139e-06 9.674916e-08 0.10303112
0.017404523 0.0014155032 6.573067e-05 1.9727777e-06 0.13926676 0.009697366 0.00045017377 1.5673566e-05
4.365614e-07 0.067942046 0.015707595 0.0016873472 9.937793e-05 3.6324684e-06 0.0857213 0.003674058
0.00010498171 2.249792e-06 3.8571024e-08 0.067942046 0.0023780672 5.1763425e-05 8.332038e-07 1.0851516e-08
0.12002972 0.007203528 0.00028821256 8.648521e-06 2.0761595e-07 0.13926673 0.00966277 0.0004480783
1.5604204e-05 4.3476587e-07 0.0510171 0.0016697106 2.998732e-05 3.5674432e-07 3.1684628e-09 0.0510171
0.0012959621 2.1380934e-05 2.666615e-07 2.6969509e-09 0.0857213 0.0036740499 0.000104981445 2.2497877e-06
3.8570978e-08 0.10303112 0.0053076907 0.00018228574 4.695281e-06 9.675207e-08 0.06794205 0.0022933667
5.077276e-05 8.508633e-07 1.1525611e-08 0.085721314 0.0037837327 0.00010428326 2.1296169e-06 3.5194468e-08
0.13926673 0.009697532 0.00045018143 1.5673837e-05 4.3656914e-07 0.0510171 0.0012907789 2.1420481e-05
2.6924872e-07 2.7372884e-09 0.13926673 0.009697618 0.00045018518 1.5673955e-05 4.365721e-07 0.103031136
0.0053074895 0.000182279 4.695104e-06 9.674839e-08 0.067942046 0.0023078008 5.2265565e-05 8.877589e-07
1.2063247e-08 0.13926673 0.009673289 0.00044883502 1.5629654e-05 4.3540578e-07 0.12002972 0.0073558767
0.00028546547 8.269523e-06 1.9407105e-07 0.067942046 0.0035841516 9.888119e-05 1.715291e-06 2.11623e-08
0.10303111 0.0053033037 0.00018212685 4.691362e-06 9.667308e-08 0.13926673 0.009656926 0.00044759014
1.5587164e-05 4.34341e-07 0.0510171 0.0012999441 2.2104872e-05 2.8194387e-07 2.8768565e-09 0.1644565
0.01351936 0.0007411132 3.0470457e-05 1.0022161e-06 0.12002973 0.0072001405 0.0002880732 8.644495e-06
2.0752084e-07 0.12002973 0.0071614357 0.0002854316 8.563971e-06 2.0576083e-07 0.12002972 0.0071725687
0.00028249473 8.411935e-06 2.0184409e-07 0.0857213 0.0038479718 0.00010612297 2.1448457e-06 3.4917434e-08
0.1989749 0.01979041 0.0013125951 6.5293876e-05 2.5983775e-06 0.051017094 0.0013632855 2.222275e-05
2.6440264e-07 2.5309563e-09 0.0510171 0.0012966174 2.2032775e-05 2.8106382e-07 2.8683704e-09 0.10303112
0.0066593573 0.00024015055 5.821796e-06 1.06651015e-07 0.1989749 0.02027392 0.0013053359 6.263527e-05
2.433255e-06 0.13926673 0.01091454 0.00050250016 1.632632e-05 4.1685146e-07 0.10303112 0.0069808005
0.00025966155 6.3863476e-06 1.169731e-07 0.085721314 0.003927727 0.00010873271 2.1779776e-06 3.4893397e-08
0.12002972 0.007185604 0.0002822563 8.380562e-06 2.0081133e-07 0.12002972 0.0072022406 0.00028816075
8.647005e-06 2.0757987e-07 0.0857213 0.0036738564 0.000104975916 2.2496702e-06 3.8568956e-08 0.067942046
0.0022863029 5.117479e-05 8.66096e-07 1.1779328e-08 0.12002972 0.007202441 0.00028816878 8.647235e-06
2.0758534e-07 0.120029695 0.007422529 0.00028777658 8.280953e-06 1.9278977e-07 0.13926673 0.009656574
0.00044755894 1.5586054e-05 4.343137e-07 0.067942046 0.0023108404 5.0733965e-05 8.398898e-07 1.1278999e-08
0.06794205 0.0022878223 5.094488e-05 8.588309e-07 1.16669705e-08 0.16445653 0.013522972 0.0007413136
3.0478459e-05 1.0024762e-06
00000000: 4ff7 503d 7bf0 a93a a9ce b837 9fe1 9634
00000010: ab18 4531 24d2 f53d c70b ec3b 5e1b 9739
00000020: 3d19 1137 38ed 5e34 fb01 d33d c4ea ad3b
00000030: 7e22 3f39 f08a 9d36 6ac4 cf33 fb01 d33d
00000040: ee93 8e3c 6888 b93a e2d8 8938 1064 0436
00000050: f29b 0e3e b3e1 1e3c 4d05 ec39 ba7a 8337
00000060: 8b60 ea34 3325 8b3d 37ad 803c fa29 dd3a
00000070: 1f69 d038 55c5 7336 a68e af3d 77c8 703b
00000080: a029 dc38 22fb 1636 4aa9 2533 3325 8b3d
00000090: 59d9 1b3b 8e1c 5938 54a9 5f35 796d 3a32
000000a0: 24d2 f53d 930b ec3b 3c1b 9739 1d19 1137
000000b0: 0aed 5e34 f09b 0e3e 9850 1e3c 0dec ea39
000000c0: c6e5 8237 c469 e934 4ff7 503d 31da da3a
000000d0: 488d fb37 9186 bf34 30bc 5931 4ff7 503d
000000e0: 46dd a93a 355b b337 ad29 8f34 4355 3931
000000f0: a68e af3d 54c8 703b 7c29 dc38 0ffb 1636
00000100: 3da9 2533 fb01 d33d 23ec ad3b f523 3f39
00000110: 288c 9d36 03c6 cf33 3425 8b3d 4f4c 163b
00000120: d6f4 5438 e166 6435 2c02 4632 a88e af3d
00000130: 80f8 773b a6b2 da38 8aea 0e36 ba28 1733
00000140: f09b 0e3e 66e2 1e3c 5406 ec39 4f7b 8337
00000150: 9b61 ea34 4ff7 503d 5a2f a93a 22b0 b337
00000160: 438d 9034 e31a 3c31 f09b 0e3e c2e2 1e3c
00000170: d506 ec39 907b 8337 0362 ea34 fd01 d33d
00000180: 73ea ad3b 2522 3f39 a38a 9d36 fdc3 cf33
00000190: 3325 8b3d 793e 173b b937 5b38 544e 6e35
000001a0: b93e 4f32 f09b 0e3e b77c 1e3c 9e51 eb39
000001b0: 6d1c 8337 b7c1 e934 24d2 f53d 9109 f13b
000001c0: 87aa 9539 55bd 0a37 d861 5034 3325 8b3d
000001d0: 16e4 6a3b 6f5e cf38 f338 e635 64c8 b532
000001e0: f901 d33d 56c7 ad3b 4ef9 3e39 7e6a 9d36
000001f0: 969a cf33 f09b 0e3e 1538 1e3c 88aa ea39
00000200: 2ec1 8237 5f2f e934 4ff7 503d e362 aa3a
00000210: da6d b937 125e 9734 32b2 4531 4967 283e
00000220: 4e80 5d3c 4447 423a cf9a ff37 e283 8635
00000230: 26d2 f53d 28ef eb3b 8808 9739 d307 1137
00000240: e5d2 5e34 26d2 f53d 7aaa ea3b fba5 9539
00000250: faad 0f37 1bef 5c34 24d2 f53d de07 eb3b
00000260: cd1b 9439 fc20 0d37 7bba 5834 a68e af3d
00000270: 412e 7c3b 568e de38 2bf0 0f36 20f8 1533
00000280: 14c0 4b3e 7f1f a23c 620b ac3a 62ee 8838
00000290: c95f 2e36 4df7 503d 45b0 b23a fe6a ba37
000002a0: 39f3 8d34 0eed 2d31 4ff7 503d 43f3 a93a
000002b0: 06d3 b837 1ee5 9634 e81c 4531 fb01 d33d
000002c0: bd36 da3b ecd0 7b39 d958 c336 0408 e533
000002d0: 14c0 4b3e 7e15 a63c ce17 ab3a 0e5b 8338
000002e0: 014b 2336 f09b 0e3e e6d2 323c 37ba 033a
000002f0: 81f4 8837 a1cb df34 fb01 d33d 33bf e43b
00000300: 2f23 8839 4f4a d636 a432 fb33 a88e af3d
00000310: 2ab4 803b 6e07 e438 5f29 1236 b2dd 1533
00000320: 24d2 f53d 3775 eb3b cdfb 9339 3d9a 0c37
00000330: 999e 5734 24d2 f53d c600 ec3b 4814 9739
00000340: 9b12 1137 1fe3 5e34 a68e af3d 15c5 703b
00000350: 8426 dc38 0af9 1636 04a7 2533 3325 8b3d
00000360: ccd5 153b 83a4 5638 aa7d 6835 085e 4a32
00000370: 24d2 f53d 7402 ec3b 5c15 9739 9713 1137
00000380: a0e4 5e34 21d2 f53d b038 f33b b8e0 9639
00000390: 6cee 0a37 a601 4f34 f09b 0e3e 9b36 1e3c
000003a0: 58a6 ea39 ccbe 8237 9f2b e934 3325 8b3d
000003b0: 7871 173b 2ecb 5438 ca74 6135 90c5 4132
000003c0: 3425 8b3d 4aef 153b a6ad 5538 698a 6635
000003d0: e16f 4832 4b67 283e 758f 5d3c b754 423a
000003e0: feab ff37 d28c 8635

throughput f4 [50, 1]
1.9005337 1.7737882 1.804198 1.7826598 1.7399923 1.8425703 1.8357 1.8685081
1.7737882 1.7400478 1.8998455 1.9005361 1.8357 1.8041978 1.8686577 1.8355167
1.7399919 1.9005454 1.7399919 1.804198 1.8686298 1.7400306 1.7735535 1.8663214
1.8042052 1.7400575 1.9005275 1.6967146 1.7737939 1.7738589 1.7738464 1.8354052
1.6391475 1.9004129 1.9005337 1.8019047 1.6385119 1.7380716 1.8013505 1.8352665
1.7738261 1.7737904 1.8357004 1.8686692 1.7737899 1.7734451 1.7400582 1.8686271
1.868667 1.6967092
00000000: b044 f33f 7e0b e33f f6ef e63f 322e e43f
00000010: 11b8 de3f 58d9 eb3f 38f8 ea3f 462b ef3f
00000020: 7e0b e33f e3b9 de3f 232e f33f c444 f33f
00000030: 38f8 ea3f f4ef e63f 2d30 ef3f 36f2 ea3f
00000040: 0eb8 de3f 1245 f33f 0eb8 de3f f6ef e63f
00000050: 432f ef3f 53b9 de3f cd03 e33f 9fe3 ee3f
00000060: 32f0 e63f 34ba de3f 7c44 f33f f22d d93f
00000070: ae0b e33f cf0d e33f 660d e33f 8fee ea3f
00000080: 96cf d13f bb40 f33f b044 f33f d0a4 e63f
00000090: c2ba d13f 2179 de3f a792 e63f 03ea ea3f
000000a0: bc0c e33f 900b e33f 3bf8 ea3f 8d30 ef3f
000000b0: 8c0b e33f 4000 e33f 3aba de3f 2c2f ef3f
000000c0: 7b30 ef3f c42d d93f

delay f4 [50, 1]
0.0526168 0.056376517 0.055426285 0.05609595 0.057471517 0.054272015 0.054475132 0.05351863
0.056376517 0.05746968 0.05263586 0.052616738 0.054475132 0.055426296 0.05351435 0.054480575
0.057471532 0.05261648 0.057471532 0.055426285 0.053515147 0.05747025 0.05638398 0.05358134
0.055426072 0.057469368 0.05261697 0.058937434 0.056376334 0.05637427 0.056374665 0.05448388
0.061007325 0.052620143 0.0526168 0.055496834 0.061030988 0.05753503 0.055513907 0.054488
0.056375314 0.056376446 0.05447512 0.05351402 0.056376465 0.056387424 0.057469342 0.05351523
0.053514082 0.058937624
00000000: b784 573d 10eb 663d ac06 633d dec4 653d
00000010: 4167 6b3d 554c 5e3d 5121 5f3d 5a36 5b3d
00000020: 10eb 663d 5465 6b3d b398 573d a684 573d
00000030: 5121 5f3d af06 633d dd31 5b3d 0627 5f3d
00000040: 4567 6b3d 6184 573d 4567 6b3d ac06 633d
00000050: b332 5b3d ed65 6b3d e3f2 663d 1b78 5b3d
00000060: 7306 633d 0065 6b3d e484 573d 6168 713d
00000070: dfea 663d b5e8 663d 1fe9 663d 7d2a 5f3d
00000080: d1e2 793d 3888 573d b784 573d a650 633d
00000090: a1fb 793d daa9 6b3d 8d62 633d cf2e 5f3d
000000a0: cde9 663d fdea 663d 4e21 5f3d 8431 5b3d
000000b0: 02eb 663d 80f6 663d f964 6b3d c932 5b3d
000000c0: 9531 5b3d 9468 713d

ef1 f4 [50]
-8.642402 -6.7827377 -7.1143527 -5.804922 -6.4599547 -5.5397983 -7.513739 -8.064509
-6.7827396 -6.461745 -8.599152 -8.669127 -7.5137396 -7.1143394 -8.038337 -7.5535254
-6.459947 -8.66268 -6.459944 -7.114356 -8.018537 -6.4611063 -6.8120394 -7.7744374
-7.114695 -6.462169 -8.641082 -6.0990386 -6.7829385 -6.7866373 -6.7949843 -7.556958
-5.685298 -8.696715 -8.642365 -7.072035 -5.7138124 -6.4800186 -7.031914 -7.557257
-6.797212 -6.782815 -7.513762 -8.02888 -6.782803 -6.814916 -6.462197 -8.0477295
-8.033042 -6.098926
00000000: 4747 0ac1 300c d9c0 c7a8 e3c0 ecc1 b9c0
00000010: f3b7 cec0 0746 b1c0 8d70 f0c0 3b08 01c1
00000020: 340c d9c0 9dc6 cec0 2096 09c1 bfb4 0ac1
00000030: 8e70 f0c0 aba8 e3c0 079d 00c1 7bb6 f1c0
00000040: e3b7 cec0 569a 0ac1 dcb7 cec0 cea8 e3c0
00000050: ed4b 00c1 62c1 cec0 3afc d9c0 31c8 f8c0
00000060: 95ab e3c0 17ca cec0 df41 0ac1 532b c3c0
00000070: d50d d9c0 222c d9c0 8370 d9c0 9ad2 f1c0
00000080: f6ed b5c0 bf25 0bc1 2147 0ac1 1c4e e2c0
00000090: 8dd7 b6c0 505c cfc0 7105 e1c0 0dd5 f1c0
000000a0: c382 d9c0 d20c d9c0 bd70 f0c0 4b76 00c1
000000b0: b90c d9c0 cb13 dac0 51ca cec0 80c3 00c1
000000c0: 5787 00c1 672a c3c0

ef2 f4 [50, 1]
-189.28256 -11.629433 -30.818115 -29.14589 -0.35837555 -108.98585 -61.87051 -110.844246
-11.629412 -0.32801056 -188.56152 -189.0617 -61.8705 -30.818298 -111.02971 -61.50017
-0.35847855 -189.10173 -0.35853195 -30.81807 -111.22916 -0.3391075 -11.307699 -110.308334
-30.81287 -0.3207512 -189.30063 5.6554155 -11.626345 -11.565174 -11.465 -61.45003
8.3981285 -188.86218 -189.28304 -30.092281 8.734901 0.21401405 -30.035435 -61.39936
-11.443493 -11.628286 -61.87019 -111.10509 -11.628464 -11.274208 -0.32028198 -110.96652
-111.06944 5.653737
00000000: 5648 3dc3 2812 3ac1 808b f6c1 c82a e9c1
00000010: 007d b7be c1f8 d9c2 677b 77c2 41b0 ddc2
00000020: 1212 3ac1 00f1 a7be c08f 3cc3 cc0f 3dc3
00000030: 647b 77c2 e08b f6c1 360f dec2 2d00 76c2
00000040: 808a b7be 0b1a 3dc3 8091 b7be 688b f6c1
00000050: 5475 dec2 809f adbe 56ec 34c1 de9d dcc2
00000060: c280 f6c1 8039 a4be f64c 3dc3 2af9 b440
00000070: 8205 3ac1 f40a 39c1 a470 37c1 d5cc 75c2
00000080: bc5e 0641 b8dc 3cc3 7548 3dc3 febc f0c1
00000090: 28c2 0b41 8026 5b3e 9248 f0c1 f298 75c2
000000a0: 8c18 37c1 760d 3ac1 137b 77c2 ce35 dec2
000000b0: 300e 3ac1 2863 34c1 00fc a3be dcee ddc2
000000c0: 8e23 dec2 6aeb b440
