train/models/HARQ-NumK=3-PDB=15_model_pd_satisfy.pt (torch, 38391 bytes, 14 tensors)

bias f4 [16]
000000 e1 9f 37 3d 2b b6 71 3d f6 b3 85 bd 8e ff 65 3d
       0.044830207 0.05901162 -0.065284654 0.05615192
000010 cd 9c 80 bd 25 29 67 3d 85 db 64 bd 14 e8 65 bd
       -0.062799074 0.056435723 -0.055873413 -0.05612953
000020 bc 80 5d 3d 01 b1 18 bd eb 51 47 bd cf d1 06 bd
       0.05407785 -0.03727818 -0.048662107 -0.032914933
000030 51 26 60 3d 2f 99 78 bd 0f d3 18 3d cc 24 9a 3d
       0.05472404 -0.060692962 0.037310656 0.0752655

weight f4 [16, 1]
000000 53 ae 70 be d2 be 56 3e 6e 52 ac be be 1c 8d bc
       -0.23504 0.2097123 -0.3365664 -0.01722562
000010 4c 4e 9b be 8e b9 e5 3e 05 e5 05 bf 82 d4 a7 be
       -0.30333173 0.4486813 -0.5230258 -0.32779318
000020 ef 6e ef bd ab 1f cb be d2 37 37 3c 68 7c 1f bf
       -0.11691081 -0.39672598 0.011182742 -0.62299204
000030 58 9b 16 3f ab 48 10 bf cb 7a ff 3e 12 3c 31 3e
       0.58830786 -0.5636088 0.4989837 0.17308071

bias f4 [32]
000000 31 17 42 bd 81 f3 79 3d 1e 49 45 bd 05 37 49 bd
       -0.0473854 0.06102324 -0.048165433 -0.049124736
000010 74 1a 9c 3d fb 50 ff 3d 52 d7 4c bd 87 0f 69 3d
       0.07622233 0.12466618 -0.050010033 0.056899574
000020 3f bd 4b bd 0a 92 59 bd 52 04 96 3d 84 b5 4e bd
       -0.049741026 -0.05311779 0.07325043 -0.050466076
000030 c0 b3 4b 3d 8d 00 81 3d 44 26 0b bd a4 f9 8e 3d
       0.04973197 0.06298933 -0.03397204 0.06981209
000040 e8 1d 26 3d a7 e1 42 bd 10 d5 3a bd b6 d7 d8 3d
       0.040555865 -0.04757848 -0.04561335 0.105880186
000050 a0 e2 6d bd 1b 3c 4c 3d 77 f8 56 bd bd 94 5b bd
       -0.058077455 0.04986201 -0.05248305 -0.053608645
000060 c6 4b 6a 3d f8 73 1f bd 61 ce 50 3d 00 a5 36 3d
       0.05720117 -0.038928956 0.05097807 0.04459095
000070 37 3c a6 3d 25 cf 46 3d fb d1 45 bd 24 f8 66 3d
       0.08116954 0.048537392 -0.048295956 0.05638899

weight f4 [32, 16]
000000 91 bf 7a 3e 89 3b 70 3e b9 2c a7 3e 50 c6 b9 bd
       0.2448714 0.23460211 0.32651308 -0.09071028
000010 4b 8a 1b bd e1 39 07 3e 84 f4 61 bd 72 91 53 3e
       -0.037973683 0.13205673 -0.05516483 0.20660952
000020 03 37 1e bd f4 6a 4b be 08 29 ee 3d ad ae c3 3d
       -0.038626682 -0.19865018 0.1162892 0.09554801
000030 ee d6 f4 3d 72 00 c9 3e 47 bc 50 3e 1f 1d 95 3e
       0.11955057 0.39258152 0.20384322 0.2912378
000040 16 26 11 bd ec 03 7e be 1d 4b 9b be 5d e8 85 be
       -0.035436712 -0.24806184 -0.30330744 -0.26153842
000050 87 de bb be 2c bd fd bd 0e 05 c3 be b7 4c c3 be
       -0.36693212 -0.12389597 -0.38089794 -0.38144466
000060 4d f0 86 be 7d c9 ce be 0e 76 38 be 07 85 a2 3d
       -0.2635521 -0.40388098 -0.18013784 0.07935529
000070 6a 1a b2 3e cb 77 24 be aa 9e 4f bd 3f 7f 80 3e
       0.34785777 -0.16061322 -0.050688423 0.2509708
000080 1e 39 09 be 9f af 53 be dc b6 84 3e 91 29 8d be
       -0.13400695 -0.20672463 0.2592076 -0.27570775
000090 1a 36 ad 3d cd 51 8c 3e 03 75 d1 3d a7 ca 0c 3e
       0.08457585 0.2740616 0.10227396 0.1374918
0000a0 96 eb 2a be a5 d3 15 3d 77 b6 17 bc 1b 8a 03 3e
       -0.16691431 0.036578793 -0.009259812 0.12845652
0000b0 25 6d cb 3d 6a a0 b2 3e 0a 64 9d be 3a fc 04 bd
       0.09932927 0.3488801 -0.30740386 -0.032467104
0000c0 c6 e9 09 be 19 62 a4 be 40 f0 6f 3c 58 e6 8d be
       -0.13468084 -0.32106093 0.014644682 -0.277148
0000d0 22 52 94 3e 23 d9 52 3a f9 e7 16 be 39 26 69 3e
       0.28968912 0.000804322 -0.14736928 0.22768487
0000e0 e6 86 96 be 0f 01 c0 bd 9b 80 cb bd 71 b2 83 be
       -0.29399794 -0.09375202 -0.09936639 -0.25722077
0000f0 18 8a 87 be f6 a3 6d bc b1 50 6a 3e fc dc 97 3e
       -0.26472545 -0.014504423 0.22882344 0.29660785
000100 ae 57 1d 3e 60 77 0d be 3e 78 9b be 58 7c 7d 3e
       0.15365478 -0.13815069 -0.30365175 0.24754465
000110 7e 3e 57 3d 90 b7 a4 3d 36 15 c9 bc 6f 82 b6 be
       0.05254983 0.08042824 -0.024546247 -0.35646388
000120 b9 51 40 be ed 39 89 3e 28 7e fb bc eb 9c b8 bd
       -0.18781175 0.26802006 -0.030699804 -0.09014305
000130 67 3a 64 be ba 55 8a be b2 a4 80 3d 19 05 11 be
       -0.22287904 -0.2701853 0.06281413 -0.14162101
000140 0a da 26 be e6 f0 88 3e 5f 5d ee be 60 ef 71 3b
       -0.16294113 0.2674629 -0.46555611 0.003691636
000150 5e 08 b5 be 52 19 5c bd 14 6f 82 3c e6 4a 25 3e
       -0.35357946 -0.053735085 0.015922107 0.16141853
000160 ba d5 59 be b5 a7 87 be 5d 73 66 be 01 b4 9a be
       -0.21272936 -0.26495138 -0.22504945 -0.30215457
000170 08 d1 43 be 96 8f 4d be 56 e6 41 3e 3a 1d 4c be
       -0.19122708 -0.20074305 0.18935522 -0.19933024
000180 9c 45 b4 3e 75 49 37 3e 25 75 9a be 6f fa 07 be
       0.35209358 0.17899115 -0.301675 -0.13279127
000190 30 9e 23 3e 54 7e ea bd e9 b7 c7 3b a7 ff eb bd
       0.15978312 -0.114498764 0.006094922 -0.11523371
0001a0 aa 03 a7 3e 3c da 1c be 64 69 85 3e 7b 29 8a 3d
       0.32619983 -0.15317625 0.2605697 0.06746193
0001b0 fe 43 f1 3c 9d 13 a4 3e 1b a0 cb bd c9 48 7d be
       0.029451367 0.32046214 -0.09942647 -0.24734797
0001c0 93 42 dc bd 95 6b ad 3e ba 9a a0 be 67 11 2b 3d
       -0.107548855 0.3387114 -0.31368047 0.041764643
0001d0 f7 3d cc be d7 6d 70 3e 52 18 a2 3d aa cc 14 bd
       -0.39891025 0.234794 0.07914795 -0.036327995
0001e0 a2 9b d3 3d f2 d8 50 bd 0a c9 6a 3e 7a ab a9 be
       0.10332419 -0.050988145 0.22928253 -0.3313864
0001f0 13 25 3a bb 1d c0 d7 3d 9c fd cc 3e a7 b9 73 3e
       -0.0028403446 0.105346896 0.4003724 0.2380129
000200 8a b2 57 be e1 07 67 3e dc bd fe bc db c2 07 bd
       -0.21064201 0.225616 -0.031096391 -0.033144813
000210 4d f5 8b be e4 82 d1 bd 06 76 98 3e 28 a8 c6 3d
       -0.27335587 -0.102300435 0.29777545 0.09700042
000220 d7 94 23 be 1f 2d 20 3e 29 f6 1c be 9d af bd 3e
       -0.15974747 0.15642212 -0.15328278 0.37048045
000230 b8 da b4 be 87 05 83 bd 7d 70 c6 be d3 08 40 be
       -0.3532312 -0.06397539 -0.38757697 -0.18753366
000240 6e 94 20 3e 58 66 97 3e ed 75 d8 3d 5a 51 c4 3e
       0.15681621 0.2957027 0.105693676 0.38343316
000250 24 7d ec 3d 8a d1 24 3e eb f7 a8 3e 4a 04 af 3e
       0.11547306 0.16095558 0.33001646 0.3418296
000260 e0 ba 1d be 5c 2f be 3e 51 8a 39 3e 26 14 f3 bd
       -0.15403318 0.37145507 0.1811917 -0.118690774
000270 f3 cc 58 be 4a ee 7f be 66 c3 3d 3d fc 7d ab be
       -0.21171932 -0.24993244 0.046328925 -0.33494556
000280 f2 e1 8a 3d 5b 7a 55 3e e3 53 c7 be 32 27 24 3d
       0.06781377 0.20847456 -0.38931188 0.040076442
000290 2d c3 e4 bd 42 af 80 3e 96 44 f9 3d 27 00 de be
       -0.11170039 0.2513371 0.12171285 -0.4335949
0002a0 32 8f 7b 3e b2 f6 5b 3e 3a 0a 40 3e 15 f3 ce be
       0.24566343 0.21480826 0.18753901 -0.40419832
0002b0 4f e3 18 bd e6 f8 3b be c3 5c 60 bb 29 14 9e 3e
       -0.037326153 -0.18356666 -0.0034234978 0.30874756
0002c0 83 da 32 3e bb b1 6f 3e 07 12 ae bd 87 80 23 3e
       0.17466168 0.23407643 -0.08499532 0.15966998
0002d0 ec 91 31 3e 5a 38 ae be 87 4f 97 be ff 58 0b be
       0.17340821 -0.34027368 -0.29552862 -0.13608168
0002e0 0a 3c 93 3e 11 34 92 be ac ea b0 be c0 60 7b 3e
       0.28756744 -0.2855535 -0.3455404 0.24548626
0002f0 a0 9f 14 3e e1 27 ad 3e 9a e2 9f be 3d 5c 9d be
       0.14514017 0.33819488 -0.3122757 -0.30734435
000300 84 1a 0d 3e a0 6d b4 3e 91 e6 2a 3e f4 66 b8 3c
       0.13779646 0.35239887 0.16689517 0.02251003
000310 01 f3 92 3d a1 be c1 3e b4 b4 8b be 48 0e 52 be
       0.071752556 0.3784075 -0.27286303 -0.2051326
000320 eb 57 52 3e 23 b9 92 be d2 80 2a be 0d 71 5a 3e
       0.2054135 -0.28656873 -0.16650704 0.21332188
000330 d4 bf 1d 3e 04 41 8e 3d 62 47 dd bd bb c0 3a 3d
       0.15405208 0.069459945 -0.10804631 0.04559396
000340 07 f5 88 3e 03 1e 1e be 60 0a 5e bd ac ac ff 3d
       0.2674944 -0.15441136 -0.054209113 0.124841064
000350 82 2f 9a be a4 ed cb 3e a4 67 6f be fe 43 11 be
       -0.3011437 0.39829743 -0.2337938 -0.14186093
000360 2a 30 19 be 97 2d 93 be c0 14 9e be 18 93 11 3e
       -0.1495978 -0.2874572 -0.30875206 0.14216268
000370 1a 14 18 3e b0 d0 c6 be 5a fe 31 be db bb d3 3e
       0.14851418 -0.3883109 -0.17382184 0.4135426
000380 3e 25 28 3e 64 9b e5 3d 90 96 39 be db 86 08 be
       0.16420457 0.11211279 -0.18123841 -0.13332693
000390 69 61 bb bc 07 8f bf bd 90 0c 59 be ab 38 73 3d
       -0.022873597 -0.09353452 -0.21196198 0.059380215
0003a0 26 76 81 3d 11 2c 6e bc 19 da fa 3c ad e5 e0 bd
       0.06321363 -0.014536873 0.030621575 -0.10981307
0003b0 d3 f2 81 3d 12 96 27 3e d3 66 5b be 53 f0 c4 be
       0.06345143 0.16365841 -0.21425943 -0.38464603
0003c0 17 c0 f2 3d 14 73 21 3e 5a 5e 7d be c6 14 96 3e
       0.118530445 0.15766555 -0.24743024 0.29312724
0003d0 fd 57 69 be 35 68 9d 3e 0f 49 e5 3d 86 5e ba be
       -0.22787471 0.30743566 0.111955754 -0.3640024
0003e0 ea 2e 28 3e 94 02 c9 be ff 0b 1f be b3 62 01 be
       0.16424146 -0.3925978 -0.1553192 -0.12635307
0003f0 13 80 2e be 3e 53 8e 3e 28 40 8a bb 3e 75 65 3e
       -0.17041044 0.27797884 -0.004219074 0.22408006

bias f4 [16]
000000 bd f7 51 3d 6c 8a 54 3d 21 0e 50 3d 83 5f 52 3d
       0.051261652 0.051889822 0.050794724 0.05136062
000010 30 24 52 3d 19 42 55 3d b9 e6 a1 3d e4 55 7c bd
       0.051304042 0.05206499 0.07905335 -0.06160535
000020 89 f9 4f 3d eb 4a 9f 3d e7 b3 d4 3d 41 74 37 bd
       0.050775085 0.07777961 0.10385876 -0.044788603
000030 c8 9c 6b 3d 0f b0 3f bd 11 f2 51 3d f5 43 53 3d
       0.057522565 -0.046798762 0.051256243 0.05157848

weight f4 [16, 32]
000000 7f cf 9e 3d 97 42 34 3e a6 9c 2e be ee 38 46 be
       0.077544205 0.17603527 -0.17051944 -0.19357654
000010 26 0e 44 3d c5 77 45 bc be 98 56 be 3a bd 40 3e
       0.047865056 -0.012052481 -0.20956704 0.18822184
000020 b5 91 25 bd 03 37 db bd cc 0c 79 bd f2 31 b7 bd
       -0.04042216 -0.10703852 -0.06080322 -0.08945073
000030 c1 9a 83 be 58 f4 02 3e b6 45 1c bd 97 5b 8f 3e
       -0.25704005 0.12788522 -0.03815242 0.27999565
000040 dd 8b 79 3d 59 5d 70 bc 27 cf 04 3e 4a bf a2 3e
       0.0609244 -0.014670693 0.12969647 0.31786567
000050 ae c5 0c be b0 c0 88 3e 91 4f 2e 3d 18 ec 8e be
       -0.13747284 0.2670951 0.04255635 -0.279145
000060 0d 73 aa 3d a2 0b 82 be 99 ee 85 bd df 6f 02 be
       0.083227254 -0.253995 -0.065396495 -0.12737988
000070 76 82 8f be 1d 6f ab 3e fa f1 b7 be 6a 88 5e 3e
       -0.2802922 0.3348321 -0.359268 0.21731725
000080 34 a9 91 be 7c 4b 32 3b 55 a6 37 bd 99 58 89 3e
       -0.28449404 0.0027205637 -0.04483636 0.26825407
000090 2b 0f 28 be 5f dd 08 3e a2 6c 73 3b 7a 0b 7f 3e
       -0.16412036 0.13365696 0.0037143608 0.24906722
0000a0 ed 12 c0 bc ad 66 99 3d c0 51 ca bd d8 3e 94 be
       -0.023446525 0.07490287 -0.09878874 -0.28954196
0000b0 8e 76 b8 3e 6e 79 55 be 7a 33 d7 bd 2d d5 df 3c
       0.3602795 -0.20847103 -0.10507865 0.02732333
0000c0 b9 25 c5 3e 75 b9 f6 bd a6 a2 70 be e3 2a 1f bd
       0.38505343 -0.12047092 -0.23499545 -0.03885926
0000d0 85 db 59 3e f2 66 4b 3e 3e 86 7d 3e a9 b4 ee bd
       0.21275146 0.1986349 0.2475824 -0.11655552
0000e0 1b de 00 3e 2f 75 c0 be 9d cd 3c 3e 68 f6 51 3e
       0.12584727 -0.37589404 0.1843781 0.20504153
0000f0 43 0c 40 3e 25 aa 11 be c3 d7 0d be 1d 8b 02 3e
       0.18754677 -0.14225061 -0.13851838 0.1274838
000100 d2 5c 60 be df 77 73 be 71 b6 cd be be 25 18 3d
       -0.21910408 -0.23776196 -0.40178254 0.03714537
000110 61 df 3c 3e 13 3d f4 3d de 90 db bc 22 fe 25 3e
       0.18444587 0.119257115 -0.026802476 0.16210225
000120 37 cc 87 be 11 97 8c bc c1 a9 a2 3c 2e 98 5e be
       -0.2652299 -0.017161878 0.019856336 -0.2173774
000130 7d e5 b1 3e 8e 95 68 be bd 2c 18 3c 85 01 7e be
       0.34745398 -0.227133 0.00928801 -0.24805267
000140 ff 5c cf 3c e4 17 4c be 2b d1 18 3e c6 82 1a be
       0.025312899 -0.19930989 0.14923541 -0.15088949
000150 7e bd 82 3e 46 05 6e be 4a 2c 2d 3e 7e d4 9d be
       0.25535196 -0.23244199 0.16911426 -0.3082618
000160 14 a4 19 3e ef 95 42 be 26 44 34 3d c0 1a c7 bc
       0.15003997 -0.19002508 0.044010304 -0.024304748
000170 5a ca 42 3e 36 ea 2d 3e 93 5b b5 be c1 bb 93 3d
       0.19022503 0.16983876 -0.35421428 0.072135456
000180 b7 12 58 be 50 24 9e 3e 27 bb b5 bb 06 fd 96 bd
       -0.21100889 0.3088708 -0.005545992 -0.07372479
000190 00 33 5d be 41 28 1c 3e 71 d3 85 be 92 97 54 3e
       -0.21601486 0.1524973 -0.2613788 0.20760944
0001a0 1a c0 18 3e 13 00 25 3e 44 38 50 3e 18 83 b4 be
       0.14917031 0.1611331 0.20333964 -0.35256267
0001b0 0d a7 98 3e e5 dd 7d bd 93 bf 17 be 03 7d e6 3c
       0.2981495 -0.061979193 -0.14819174 0.028135782
0001c0 46 f2 97 3e 26 3e 6a 3e 7f 6a b4 3d ad 09 5f 3e
       0.29677027 0.2287527 0.08809375 0.21781035
0001d0 6e 7e 99 be 62 5d 6a 3d c0 b3 b6 be 16 85 9d 3d
       -0.2997927 0.057217963 -0.35684013 0.076914
0001e0 15 72 95 be 78 2e 2c be 67 29 96 3e 40 2d c2 3e
       -0.291886 -0.16814601 0.29328462 0.37925148
0001f0 63 19 81 be b2 96 0e be 12 fa d1 39 fc 09 38 3e
       -0.2521468 -0.13924673 0.00040049903 0.17972559
000200 4a 2c c8 bc 46 ed 85 bd 5c 17 98 be 5e d9 2b 3e
       -0.024435181 -0.06539397 -0.29705322 0.16782138
000210 2e 17 9f 3e 1e 28 10 be ee 6f ee 3d 8b 21 5a 3e
       0.31072372 -0.14077803 0.11642443 0.21301858
000220 3f 14 76 3e 97 8f c6 bd 15 f5 fe 3d 6b b1 5d 3e
       0.24031161 -0.09695356 0.124490894 0.21649711
000230 85 2a 89 3e bd 8a cb 3e 6a e9 14 be 11 57 54 3e
       0.26790252 0.39754286 -0.14542165 0.20736338
000240 64 2f 92 3e 11 1f 91 be 55 c0 d4 3d 3a 61 ef bc
       0.2855178 -0.28344014 0.10388247 -0.029221166
000250 0f a2 83 3e 28 b1 cf bd 3b c0 9f bc 9a fb 2b 3e
       0.25709578 -0.10141212 -0.019500842 0.16795197
000260 82 5e ba be ee 9c ae be 7f 95 09 be 52 84 89 3e
       -0.3640023 -0.34104103 -0.13435934 0.26858765
000270 58 d5 49 3e 66 b1 3b be df a7 c3 3c 1f ad 15 be
       0.1971029 -0.18329391 0.023883758 -0.14616822
000280 fa 30 05 be 65 c7 b3 3e ef 12 d5 3d f2 95 a3 bd
       -0.13006964 0.35113063 0.10404002 -0.07987584
000290 5a 42 80 3c c2 0f cf 3d c8 a4 ff 3c 45 de a2 bd
       0.015656639 0.101104274 0.031206504 -0.07952551
0002a0 78 80 81 be 43 2e 34 3e d2 ee 27 3e 41 a4 d4 3d
       -0.25293326 0.17595772 0.16399696 0.103828914
0002b0 59 67 b4 bd ba 4a 62 3e cd 01 59 3e 60 ad 92 3e
       -0.088087745 0.22098818 0.21192093 0.286479
0002c0 b7 22 0b 3e 98 59 9b 3e d5 d8 09 3d e6 c0 01 3e
       0.13587461 0.30341792 0.033654053 0.12671241
0002d0 13 b3 bb 3e a1 60 ce 3e d8 2e 47 be 01 4c 8c 3e
       0.3666006 0.40308097 -0.19451463 0.27401736
0002e0 08 56 b7 3d 03 5c aa bd 57 b7 b6 3e 18 66 0f be
       0.08951956 -0.08318331 0.35686752 -0.1400379
0002f0 e7 79 41 3e 28 da d2 3e 10 96 93 be 97 29 2a be
       0.18894158 0.41182065 -0.28825426 -0.16617428
000300 36 08 96 be af bd ee 3b 0b a4 d3 be 39 35 a8 bd
       -0.2930314 0.0072857956 -0.41336092 -0.082132764
000310 4b 8a 3d 3d 92 72 a2 3e fe 90 f8 3d a9 25 86 3e
       0.046274465 0.31728035 0.1213703 0.26200607
000320 3d 98 9c 3d 2b 28 9a be 4d bd 25 be f6 09 5f bd
       0.07646225 -0.3010877 -0.16185494 -0.05445286
000330 e7 f8 cf 3e c0 f0 c0 3d e5 32 cf bd 96 c7 14 be
       0.40619585 0.094209194 -0.10117129 -0.14529261
000340 76 d8 e3 bd bf b0 ae be a9 c2 ae 3e 1c 4d 94 3c
       -0.11125271 -0.34119222 0.3413289 0.018103175
000350 56 b2 83 be c0 cb fc 3d 4e ac 35 bd 72 e8 e7 bd
       -0.25721997 0.1234355 -0.044353776 -0.11323632
000360 a5 a3 76 3d 98 12 fa 3d 44 ba 84 be 48 8d 4f be
       0.060214657 0.12210578 -0.2592336 -0.20268738
000370 e2 05 aa bd dc ef 76 be 42 14 c8 be 1f 7e c2 3e
       -0.08301903 -0.24114937 -0.39077955 0.37986848
000380 e3 b3 a4 bd 17 f2 6e be ee f6 90 bd 39 b4 a5 be
       -0.08042123 -0.23334537 -0.07078348 -0.3236406
000390 e0 f3 a8 3e 85 ed 61 bd d2 f4 07 be 6d fa a5 be
       0.32998562 -0.055158157 -0.13276985 -0.32417622
0003a0 a5 e7 87 3e 58 74 8d 3c c1 fa a1 bd 7e 55 06 bd
       0.26543918 0.017267391 -0.07909156 -0.032796375
0003b0 8a 4a 68 be 82 6f 45 3b d9 cc a7 3e 94 09 2f be
       -0.22684684 0.0030126278 0.32773474 -0.17093498
0003c0 db 3d 1a bd 14 d9 54 be d6 b2 60 be d9 82 80 3e
       -0.037656646 -0.20785934 -0.2194322 0.2509983
0003d0 36 7d 31 bd ef f9 91 3e 58 80 bb ba ab 81 08 be
       -0.0433323 0.28510997 -0.0014305217 -0.13330714
0003e0 a9 9a 1f be 38 28 be 3e 16 24 a8 be 81 7f 06 3e
       -0.15586342 0.3714006 -0.3284003 0.13134576
0003f0 14 79 13 3e 9f c7 09 3e db 60 84 3e 3f d5 15 be
       0.14401656 0.13455056 0.25855145 -0.14632128

bias f4 [2]
000000 2c 8a 72 3d 80 db 79 3d
       0.059213802 0.061000347

weight f4 [2, 16]
000000 6c 95 02 3f c7 51 3e 3e 2a 83 e5 3e a5 31 d9 3e
       0.5100925 0.18585883 0.44826633 0.42420688
000010 73 d9 50 3e 9d e3 88 3e 2f 78 77 3e 6d f6 29 3c
       0.2039545 0.26736155 0.2416694 0.010373694
000020 53 eb 0c 3f 09 15 1c 3f a3 48 7a 3e 5f 69 6a bc
       0.55046576 0.609696 0.24441771 -0.014307349
000030 d5 a1 1a 3f 4d 9b ff be 68 31 f5 3e bd 44 b5 3e
       0.60403186 -0.49923173 0.47889256 0.35404006
000040 14 cb dc 3e 5f 4a 12 3b d2 36 c2 be 56 38 ef 3e
       0.43123686 0.002232216 -0.3793245 0.46722668
000050 d3 bf 53 be 50 b1 68 3e 07 2b c9 3e 26 6c 17 bf
       -0.20678644 0.2272389 0.3929064 -0.59149396
000060 c8 49 da 3d 4d e2 ed bd 8c ce ea 3e 87 04 b5 be
       0.10658604 -0.11615429 0.45860708 -0.35355017
000070 b5 31 e5 3e 54 93 9d 3e 0e 4b c2 3e f9 84 1b 3f
       0.44764486 0.30776465 0.37947887 0.60749775

weight f4 [1, 2]
000000 3a 2c 89 3f c6 1d 4a 3e
       1.0716622 0.1973792

pout f4 [50, 3]
000000 19 d4 df 3d de 3e cc 3c ec c2 8b 3b 19 d4 df 3d
       0.10929126 0.024932321 0.00426518 0.10929126
000010 4a e3 7a 3c 95 ca e8 3a 19 d4 df 3d a3 b1 43 3c
       0.015312979 0.001776057 0.10929126 0.011944207
000020 e0 19 ab 3a 19 d4 df 3d 1a e0 62 3c f0 50 c6 3a
       0.0013053976 0.10929126 0.013847375 0.0015130322
000030 1b d4 df 3d 27 b3 43 3c 3c 1b ab 3a 19 d4 df 3d
       0.10929128 0.011944569 0.0013054381 0.10929126
000040 8c 88 42 3c 61 a1 a9 3a 19 d4 df 3d c0 a6 45 3c
       0.011873376 0.0012941771 0.10929126 0.012063682
000050 9c 1c a7 3a 1b d4 df 3d 4d 5b 43 3c b7 c5 aa 3a
       0.0012749615 0.10929128 0.011923623 0.0013028894
000060 19 d4 df 3d c5 65 6e 3c bb 36 d6 3a 19 d4 df 3d
       0.10929126 0.014550631 0.0016343215 0.10929126
000070 fc 15 72 3e fa ee b3 3e 19 d4 df 3d d1 22 43 3c
       0.23641199 0.35143262 0.10929126 0.011910156
000080 3d 85 aa 3a 19 d4 df 3d 43 38 43 3c a4 9e aa 3a
       0.0013009679 0.10929126 0.011915269 0.0013017249
000090 19 d4 df 3d 56 a5 42 3c aa d3 a9 3a 1b d4 df 3d
       0.10929126 0.0118802395 0.0012956758 0.10929128
0000a0 60 7e 43 3c f3 e9 aa 3a 19 d4 df 3d 52 55 42 3c
       0.011931986 0.0013039693 0.10929126 0.011861162
0000b0 ff c8 a6 3a 19 d4 df 3d 38 b3 43 3c 48 1b ab 3a
       0.0012724696 0.10929126 0.011944585 0.0013054395
0000c0 19 d4 df 3d 01 a1 43 3c 04 0b ab 3a 1b d4 df 3d
       0.10929126 0.011940242 0.0013049548 0.10929128
0000d0 44 48 42 3c 40 1a a9 3a 19 d4 df 3d b5 b2 43 3c
       0.01185805 0.00129015 0.10929126 0.011944463
0000e0 d3 1a ab 3a 1b d4 df 3d ae 2d 43 3c 89 69 a6 3a
       0.0013054259 0.10929128 0.011912746 0.0012696247
0000f0 1b d4 df 3d ef 9e 47 3c 1c 4f a8 3a 19 d4 df 3d
       0.10929128 0.012183889 0.0012840959 0.10929126
000100 8a b1 42 3c a0 e7 a9 3a 1b d4 df 3d 73 13 43 3c
       0.011883149 0.0012962706 0.10929128 0.0119064925
000110 47 72 aa 3a 19 d4 df 3d 9b 93 54 3c 32 b4 b4 3a
       0.0013004028 0.10929126 0.012974645 0.0013786613
000120 1b d4 df 3d e4 a4 43 3c 91 0e ab 3a 19 d4 df 3d
       0.10929128 0.011941168 0.0013050606 0.10929126
000130 6b 10 56 3c b3 65 b6 3a 19 d4 df 3d 26 88 98 3c
       0.013065438 0.0013915807 0.10929126 0.018619608
000140 22 5a 23 3b 19 d4 df 3d f1 a9 94 3c 7f 08 1c 3b
       0.002492555 0.10929126 0.01814744 0.0023808775
000150 1b d4 df 3d 9e 62 4b 3c 4f 51 ab 3a 19 d4 df 3d
       0.10929128 0.012413649 0.0013070496 0.10929126
000160 9c 2c 42 3c dc 01 a7 3a 19 d4 df 3d a3 ac 43 3c
       0.011851456 0.0012741643 0.10929126 0.011943015
000170 7f 15 ab 3a 19 d4 df 3d 62 ee 5a 3c b1 2f bc 3a
       0.0013052671 0.10929126 0.013362499 0.0014357475
000180 19 d4 df 3d ca f0 6a 3c 50 4f d1 3a 19 d4 df 3d
       0.10929126 0.014339635 0.0015969072 0.10929126
000190 97 84 43 3c 17 f0 aa 3a 19 d4 df 3d 43 39 44 3c
       0.011933467 0.0013041523 0.10929126 0.011976543
0001a0 6b 89 a6 3a 19 d4 df 3d bd 07 8a 3d ea 38 ef 3c
       0.0012705749 0.10929126 0.06739757 0.029201943
0001b0 19 d4 df 3d 36 c7 44 3e 1e 3b 6e 3e 19 d4 df 3d
       0.10929126 0.19216618 0.23264739 0.10929126
0001c0 c2 cf 7c 3c d4 c3 eb 3a 1b d4 df 3d bb 61 42 3c
       0.015430393 0.0017987438 0.10929128 0.011864121
0001d0 a1 54 a9 3a 1b d4 df 3d 03 75 43 3c 8e e0 aa 3a
       0.0012918898 0.10929128 0.011929753 0.0013036893
0001e0 1b d4 df 3d b9 1c 9e 3c 5f 41 2e 3b 1b d4 df 3d
       0.10929128 0.019300805 0.0026589257 0.10929128
0001f0 a0 dc 42 3c 05 78 a6 3a 19 d4 df 3d 38 b3 43 3c
       0.011893421 0.0012700564 0.10929126 0.011944585
000200 4a 1b ab 3a 19 d4 df 3d 58 9c 42 3c 0d 92 a6 3a
       0.0013054397 0.10929126 0.011878096 0.0012708321
000210 1b d4 df 3d 04 9d 42 3c 98 c5 a9 3a 19 d4 df 3d
       0.10929128 0.011878256 0.0012952564 0.10929126
000220 a3 71 42 3c 94 75 a9 3a 19 d4 df 3d 2c b4 66 3c
       0.011867913 0.0012928718 0.10929126 0.014081042
000230 fc 73 cb 3a 19 d4 df 3d ec 06 42 3c 33 70 a7 3a
       0.0015522237 0.10929126 0.011842471 0.0012774527
000240 19 d4 df 3d ba d9 e2 3d f8 8a 9f 3d 19 d4 df 3d
       0.10929126 0.11076684 0.07790178 0.10929126
000250 ec b1 43 3c 25 1a ab 3a
       0.011944275 0.0013054056

throughput f4 [50, 1]
000000 0d be e0 3f 3a 3b e3 3f 82 05 e4 3f 7b 96 e3 3f
       1.7557999 1.775245 1.7814181 1.7780298
000010 7c 05 e4 3f da 09 e4 3f 12 01 e4 3f ba 06 e4 3f
       1.7814174 1.7815506 1.7812827 1.7814553
000020 f3 6a e3 3f b5 c2 76 3f 8b 07 e4 3f 3c 07 e4 3f
       1.7767013 0.9639085 1.7814802 1.7814708
000030 69 09 e4 3f 3b 06 e4 3f c3 0b e4 3f 7c 05 e4 3f
       1.7815372 1.7814401 1.7816089 1.7814174
000040 bd 05 e4 3f e3 0a e4 3f 7f 05 e4 3f 3d 09 e4 3f
       1.7814251 1.7815822 1.7814177 1.7815319
000050 46 fa e3 3f 38 09 e4 3f c3 07 e4 3f a2 cb e3 3f
       1.7810752 1.7815313 1.7814869 1.7796519
000060 af 05 e4 3f 2a c6 e3 3f 0e 67 e2 3f d3 85 e2 3f
       1.7814234 1.779485 1.76877 1.769709
000070 fb ec e3 3f 2a 0c e4 3f 94 05 e4 3f 28 b4 e3 3f
       1.7806696 1.7816212 1.7814202 1.7789354
000080 10 78 e3 3f 24 06 e4 3f dc 05 e4 3f dc 34 d3 3f
       1.7771015 1.7814374 1.7814288 1.6500506
000090 b2 f0 96 3f d4 33 e3 3f 78 0a e4 3f 5c 06 e4 3f
       1.1792204 1.7750192 1.7815695 1.7814441
0000a0 69 3a e2 3f 38 0a e4 3f 7c 05 e4 3f f9 0a e4 3f
       1.7674075 1.7815619 1.7814174 1.7815849
0000b0 88 09 e4 3f 36 0a e4 3f 13 88 e3 3f 71 0c e4 3f
       1.7815409 1.7815616 1.7775902 1.7816297
0000c0 f2 7a c1 3f 82 05 e4 3f
       1.5115645 1.7814181

delay f4 [50, 1]
000000 b4 48 69 3d 8e ba 66 3d de ed 65 3d 0b 5e 66 3d
       0.0569541 0.056330256 0.05613505 0.05624203
000010 e4 ed 65 3d 7d e9 65 3d 58 f2 65 3d a5 ec 65 3d
       0.056135073 0.056130875 0.05613932 0.056133885
000020 23 8a 66 3d e3 77 d4 3d d2 eb 65 3d 22 ec 65 3d
       0.05628408 0.10374429 0.0561331 0.056133397
000030 f0 e9 65 3d 24 ed 65 3d 90 e7 65 3d e4 ed 65 3d
       0.056131303 0.056134358 0.05612904 0.056135073
000040 a3 ed 65 3d 73 e8 65 3d e2 ed 65 3d 1b ea 65 3d
       0.05613483 0.056129884 0.056135066 0.056131463
000050 34 f9 65 3d 21 ea 65 3d 99 eb 65 3d 4a 28 66 3d
       0.05614586 0.056131486 0.056132887 0.056190766
000060 b1 ed 65 3d d0 2d 66 3d c8 92 67 3d 53 73 67 3d
       0.056134883 0.056196034 0.056536466 0.056506466
000070 9d 06 66 3d 29 e7 65 3d ce ed 65 3d 05 40 66 3d
       0.05615865 0.056128655 0.05613499 0.056213398
000080 da 7c 66 3d 3b ed 65 3d 84 ed 65 3d 1b 3c 78 3d
       0.05627141 0.056134444 0.056134716 0.060604196
000090 90 ac ad 3d 11 c2 66 3d de e8 65 3d 03 ed 65 3d
       0.08480179 0.05633742 0.056130283 0.056134235
0000a0 7b c0 67 3d 1e e9 65 3d e4 ed 65 3d 5d e8 65 3d
       0.056580048 0.05613052 0.056135073 0.056129802
0000b0 d1 e9 65 3d 21 e9 65 3d a0 6c 66 3d e1 e6 65 3d
       0.056131188 0.056130532 0.056255937 0.056128386
0000c0 20 7d 87 3d de ed 65 3d
       0.066156626 0.05613505

ef1 f4 [50]
000000 38 5e af bf ce 11 e0 bf 58 2f f1 bf bc fa e8 bf
       -1.3700628 -1.7505434 -1.8842573 -1.8201518
000010 e8 2e f1 bf 32 aa f1 bf 12 7f f2 bf b6 4a f1 bf
       -1.884244 -1.8880064 -1.8945029 -1.8850925
000020 5c b1 e4 bf 4e bc 0b 3f b6 5f f1 bf 70 57 f1 bf
       -1.7866626 0.54584205 -1.8857334 -1.8854809
000030 ba 99 f1 bf ec 3e f1 bf ea 9a f2 bf e2 2e f1 bf
       -1.8875039 -1.8847327 -1.8953526 -1.8842432
000040 2c 34 f1 bf 8c d6 f1 bf 08 2f f1 bf c4 ba f2 bf
       -1.8844047 -1.88936 -1.8842478 -1.8963246
000050 7c 19 f2 bf 30 93 f1 bf e6 65 f1 bf 42 26 ee bf
       -1.8914027 -1.8873043 -1.8859222 -1.8605425
000060 04 33 f1 bf 84 a1 ed bf c0 3a cd bf 14 c7 cf bf
       -1.8843694 -1.8564916 -1.6033554 -1.6232629
000070 58 1d f1 bf fa 87 f2 bf c4 30 f1 bf de e4 eb bf
       -1.883708 -1.8947747 -1.8843007 -1.842922
000080 f0 fa e5 bf ec 3c f1 bf 20 b0 f2 bf c6 da 08 bf
       -1.7967205 -1.8846717 -1.8959999 -0.5345882
000090 dc bf bb 3e 2c 5d df bf 5e c3 f1 bf fa 41 f1 bf
       0.36669815 -1.7450309 -1.8887746 -1.884826
0000a0 3a a3 c9 bf ee b5 f2 bf e2 2e f1 bf 3c ad f2 bf
       -1.5752938 -1.896177 -1.8842432 -1.8959117
0000b0 54 9e f1 bf 8e b8 f1 bf d0 8e e7 bf 4a 63 f2 bf
       -1.8876443 -1.8884447 -1.8090458 -1.8936551
0000c0 60 1c de bd 42 2f f1 bf
       -0.10845256 -1.8842547

ef2 f4 [50, 1]
000000 40 c4 3a 3f 00 12 16 3d 60 5b 58 bf 80 7a 0d be
       0.72955704 0.03663826 -0.8451443 -0.13816261
000010 40 66 58 bf 20 9f 4b bf a0 a7 06 bf 40 8e 55 bf
       -0.8453102 -0.7953968 -0.52599525 -0.8342018
000020 00 da 43 bd 0c b7 28 41 c0 64 53 bf 00 3f 54 bf
       -0.047815323 10.544689 -0.8257561 -0.8290863
000030 e0 5c 4d bf c0 c4 56 bf 80 26 2a bf a0 66 58 bf
       -0.8021984 -0.83893967 -0.66464996 -0.84531593
000040 80 de 57 bf 20 ce 46 bf 00 63 58 bf 40 b1 1c bf
       -0.84323883 -0.7765827 -0.8452606 -0.6120796
000050 c0 c6 f4 be a0 0c 4e bf 80 c1 52 bf c0 12 8f be
       -0.47807884 -0.80488014 -0.8232651 -0.27943993
000060 40 fc 57 bf 40 5e 86 be c0 f4 a4 3e 80 a6 92 3e
       -0.8436928 -0.26243782 0.3221798 0.28642654
000070 40 10 d0 be 00 54 2e bf c0 36 58 bf 80 3e 58 be
       -0.40637398 -0.68096924 -0.8445854 -0.21117592
000080 00 5a 96 bd 00 f9 56 bf a0 de 11 bf d0 cc 34 40
       -0.07341385 -0.83973694 -0.56980324 2.8250008
000090 48 8b 08 41 00 94 47 3d 20 ea 48 bf 40 74 56 bf
       8.534004 0.04872513 -0.78482246 -0.83771133
0000a0 80 63 be 3e 80 df 20 bf a0 66 58 bf 00 c4 24 bf
       0.37185287 -0.62841034 -0.84531593 -0.6436157
0000b0 c0 e0 4c bf 60 15 4a bf 00 06 da bd e0 c7 34 bf
       -0.8003044 -0.78938866 -0.10645676 -0.70617485
0000c0 e0 5b 9a 40 80 5d 58 bf
       4.823715 -0.8451767
