train/models/HARQ-IR-NumK=5_avg.pt (torch, 38282 bytes, 14 tensors)

bias f4 [16]
0	0xbd58332b	-0.052783173
1	0xbd3a5886	-0.04549458
2	0xbd8a7593	-0.06760707
3	0x3d51783a	0.051140048
4	0xbd8fa415	-0.07013718
5	0x3d9895ec	0.0745047
6	0xbd9a5556	-0.07535808
7	0xbd8cdd5a	-0.06878157
8	0x3d32bf11	0.043639246
9	0xbd77461a	-0.06036959
10	0xbd766cfd	-0.060162533
11	0xbd9096bc	-0.0706
12	0x3dcc91e3	0.09988763
13	0xbd79575f	-0.06087434
14	0xbb410221	-0.0029450732
15	0x3ddffc16	0.109367535

weight f4 [16, 1]
0	0xbea950fc	-0.330696
1	0x3df87880	0.121323586
2	0xbeaf0b10	-0.34188128
3	0xbc59695b	-0.013269748
4	0xbea03994	-0.3129393
5	0x3ee91af8	0.45528388
6	0xbf0b6b68	-0.54460764
7	0xbeaf3730	-0.34221792
8	0xbdfbbc7c	-0.1229181
9	0xbed58058	-0.4169948
10	0x3c539476	0.012913814
11	0xbf28e827	-0.65979236
12	0x3f08b8c6	0.5340694
13	0xbf10f60f	-0.56625456
14	0x3ef7d033	0.4840103
15	0x3e55febb	0.20897953

bias f4 [32]
0	0xbd6d247f	-0.057896134
1	0x3d88fd99	0.06688995
2	0xbd744db9	-0.059644435
3	0xbd4131a5	-0.047166485
4	0x3d65bb89	0.05608705
5	0x3d916437	0.070991926
6	0xbd84f1fa	-0.06491466
7	0x3d75c541	0.06000257
8	0xbd9c693e	-0.07637261
9	0xbd87f3db	-0.066383086
10	0x3dcd47dd	0.100234725
11	0xbd59dd78	-0.053189725
12	0x3d695018	0.05696115
13	0x3d87637a	0.066107705
14	0x3dc8188d	0.09770308
15	0x3da8008a	0.08203228
16	0x3d568a85	0.052378196
17	0xbd629cff	-0.055325504
18	0xbd356a06	-0.044290565
19	0xbd358033	-0.044311713
20	0xbd6b9ffb	-0.057525616
21	0x3d7e25ad	0.06204765
22	0xbd63db42	-0.055629022
23	0xbd5f0d55	-0.054456074
24	0x3d04ab4a	0.032389916
25	0xbd1b4b35	-0.03791352
26	0x3d802f51	0.06259025
27	0x3d491446	0.0490916
28	0x3d448afe	0.047984116
29	0x3d83c65d	0.06434319
30	0xbd517fa3	-0.051147114
31	0x3d80ef54	0.06295648

weight f4 [32, 16]
0	0x3e85be16	0.26121587
1	0x3e805722	0.25066477
2	0x3eaf78fe	0.34271997
3	0xbdb72586	-0.08942704
4	0xbcb1344b	-0.02163138
5	0x3e10cdaa	0.14140955
6	0xbd201df6	-0.039091073
7	0x3e642c04	0.22282416
8	0xbce5a30c	-0.028031848
9	0xbe3ba2d7	-0.18323837
10	0x3e056906	0.13028345
11	0x3de44822	0.11146571
12	0x3e04db62	0.12974313
13	0x3ed12852	0.40851074
14	0x3e5bc277	0.21460901
15	0x3e969933	0.29413757
16	0xbd42da6d	-0.04757159
17	0xbe88331a	-0.26601487
18	0xbea16130	-0.3151946
19	0xbe846bcd	-0.25863495
20	0xbec21096	-0.3790328
21	0xbe06ffec	-0.13183564
22	0xbec8e0ae	-0.39233917
23	0xbec96344	-0.39333546
24	0xbe89f7cb	-0.26946864
25	0xbed46e44	-0.41490376
26	0xbe4690a0	-0.19391108
27	0x3d8b8799	0.068129726
28	0x3ead5fa5	0.33862033
29	0xbe2ff5df	-0.17183636
30	0xbd783a0f	-0.060602244
31	0x3e820645	0.25395408
32	0xbdf02c08	-0.11727148
33	0xbe437b9b	-0.1909012
34	0x3e8d497e	0.27595133
35	0xbe8d3e94	-0.27586806
36	0x3dcf9547	0.10135894
37	0x3e911e8d	0.2834362
38	0x3df45872	0.11930932
39	0x3e1df0d2	0.15423897
40	0xbe2050da	-0.15655842
41	0x3d57c31e	0.052676313
42	0x3bc4f76f	0.0060109417
43	0x3e14edd3	0.14543848
44	0x3de08a0a	0.10963829
45	0x3ebb4bad	0.36581174
46	0xbe97cc31	-0.29647973
47	0xbd01a1ca	-0.031648435
48	0xbe0494f5	-0.12947448
49	0xbe9d38dd	-0.30707446
50	0x3ca12a09	0.019673364
51	0xbe8f36d1	-0.2797151
52	0x3e9710a9	0.29504898
53	0x3c0ee2fa	0.008721108
54	0xbe129357	-0.14314018
55	0x3e6e4e66	0.23272094
56	0xbe95a092	-0.29224068
57	0xbdb7f7df	-0.089828245
58	0xbdb3b9fe	-0.087757096
59	0xbe81b679	-0.25334528
60	0xbe831e89	-0.25609234
61	0xbc2b3b41	-0.010451139
62	0x3e736a8a	0.2377111
63	0x3e9a5536	0.30143136
64	0x3e2a3e9b	0.16625445
65	0xbe24b537	-0.16084753
66	0xbe94cc56	-0.29062146
67	0x3e8b5d94	0.27219832
68	0x3d8535c3	0.06504395
69	0x3d8e3154	0.06943002
70	0xbc21946d	-0.009862048
71	0xbeafd6bf	-0.34343526
72	0xbe2d9ee2	-0.1695514
73	0x3e90a5dd	0.28251544
74	0xbd558e68	-0.052137762
75	0xbd9954a9	-0.07486851
76	0xbe7113ae	-0.23542663
77	0xbe82a400	-0.25515747
78	0x3d51d8f3	0.05123229
79	0xbe1b165d	-0.1514525
80	0xbdef72c9	-0.116918154
81	0x3e53c935	0.20682223
82	0xbed6a6ed	-0.4192423
83	0x3d76f079	0.060287926
84	0xbe9d94e5	-0.3077766
85	0xbdcb2ec0	-0.09921026
86	0x3d823222	0.06357218
87	0x3e54b96d	0.2077386
88	0xbe2514ef	-0.16121267
89	0xbe5eb7c6	-0.21749792
90	0xbe8e3a8b	-0.2777904
91	0xbe8215b8	-0.25407195
92	0xbe74340e	-0.23847982
93	0xbe1c697c	-0.15274614
94	0x3e11cfcc	0.14239424
95	0xbe70fc68	-0.23533785
96	0x3ebddebd	0.37083998
97	0x3e59d052	0.21270874
98	0xbe90e3ba	-0.28298742
99	0xbe0f83ff	-0.14015196
100	0x3e369a4d	0.17832299
101	0xbdb08a70	-0.08620155
102	0x3cd11931	0.025524708
103	0xbdc5b672	-0.09653939
104	0x3eabcc0a	0.33554107
105	0xbe0a116f	-0.13483213
106	0x3e95cc92	0.29257637
107	0x3db2087e	0.08693026
108	0x3d6ebba2	0.05828441
109	0x3eadf6f8	0.33977485
110	0xbd8ef8c3	-0.06981041
111	0xbe650009	-0.22363295
112	0xbdf20d11	-0.118188985
113	0x3ea60128	0.32422757
114	0xbea5e4d6	-0.3240115
115	0x3d2fde42	0.04293657
116	0xbed1bcae	-0.40964264
117	0x3e6bebb0	0.23039126
118	0x3d8f399a	0.069934085
119	0xbd3f218e	-0.04666286
120	0x3dc840c5	0.09777979
121	0xbd762840	-0.06009698
122	0x3e5f7d10	0.21825051
123	0xbeae2c4b	-0.34018168
124	0xbc0c95cb	-0.008580635
125	0x3dc571e2	0.09640862
126	0x3ec9cbdf	0.39413354
127	0x3e792cf7	0.24333559
128	0xbe3a5a8e	-0.18198606
129	0x3e594a76	0.21219811
130	0xbb695477	-0.0035603323
131	0xbd05bade	-0.032648914
132	0xbe7b8f53	-0.24566393
133	0xbe01af47	-0.12664519
134	0x3ea67fa8	0.3251927
135	0x3dff1531	0.12455214
136	0xbe10b0fa	-0.14130011
137	0x3e3c12c9	0.18366541
138	0xbe1cd988	-0.15317357
139	0x3ecbcd5f	0.39805123
140	0xbec08671	-0.3760257
141	0xbd16905e	-0.036758773
142	0xbed218e7	-0.41034624
143	0xbe62d2d7	-0.22150742
144	0x3e3016c4	0.17196184
145	0x3ea79236	0.32728738
146	0x3df7bdf0	0.120967746
147	0x3ec07c53	0.37594852
148	0x3e057a30	0.13034892
149	0x3e3f1733	0.18661194
150	0x3eb1b9c7	0.3471205
151	0x3eb6d75c	0.3571118
152	0xbe16ca11	-0.1472552
153	0x3ec609f1	0.3867946
154	0x3e573f02	0.2102013
155	0xbdcf3a16	-0.10118501
156	0xbe3dd055	-0.18536504
157	0xbe6e5bba	-0.23277178
158	0x3d9618f7	0.073289804
159	0xbea15c78	-0.3151586
160	0x3d47d0a5	0.048782963
161	0x3e481dd9	0.19542636
162	0xbed076a3	-0.40715513
163	0x3d1ed15b	0.038773876
164	0xbe044636	-0.12917408
165	0x3e854ba2	0.26034266
166	0x3dd32af3	0.10310926
167	0xbee72693	-0.45146617
168	0x3e70f557	0.2353109
169	0x3e48f273	0.19623737
170	0x3e3f5c08	0.18687451
171	0xbed8add2	-0.42320114
172	0xbd012542	-0.031529672
173	0xbe4ec96b	-0.20194022
174	0x3a221ae0	0.0006183814
175	0x3eb7b808	0.35882592
176	0x3e3a48cd	0.18191834
177	0x3e7302fa	0.23731604
178	0xbda0099f	-0.07814335
179	0x3e1a63e1	0.15077163
180	0x3e38e975	0.18057807
181	0xbeb138fe	-0.34613794
182	0xbe9439ff	-0.28950498
183	0xbe0451ea	-0.12921873
184	0x3e934928	0.2876675
185	0xbe8f510a	-0.27991515
186	0xbead1d4a	-0.33811408
187	0x3e809859	0.25116232
188	0x3e0ff579	0.14058484
189	0x3eb01d87	0.34397528
190	0xbea29f70	-0.31762266
191	0xbea060f0	-0.31323957
192	0x3dfd2f2b	0.12362512
193	0x3e9fec2f	0.3123488
194	0x3e1c9add	0.1529345
195	0x3d044654	0.032293633
196	0x3d6b8ec7	0.05750921
197	0x3eb147d4	0.34625113
198	0xbe925dc7	-0.2858717
199	0xbe605b7d	-0.219099
200	0x3e4b4429	0.1985022
201	0xbe994201	-0.2993317
202	0xbe4d55ae	-0.20052215
203	0x3e4d956c	0.20076531
204	0x3df7ba29	0.12096054
205	0x3d68618a	0.056733645
206	0xbe10cb2f	-0.14140008
207	0x3c9514fe	0.018198486
208	0x3e837453	0.25674686
209	0xbe1fc6f2	-0.15603235
210	0xbd8451d0	-0.06460917
211	0x3dfeefb2	0.12448062
212	0xbe9fb4ac	-0.3119253
213	0x3ed0f8a9	0.40814713
214	0xbe791091	-0.24322726
215	0xbe1beaa5	-0.15226229
216	0xbe1ed609	-0.15511335
217	0xbe97f32a	-0.29677707
218	0xbe9d6a93	-0.30745372
219	0x3e084209	0.1330644
220	0x3e206af8	0.15665805
221	0xbecb81c8	-0.39747453
222	0xbe2998a5	-0.16562136
223	0x3ede370c	0.43401372
224	0x3d196901	0.037453655
225	0x3e66bd6c	0.22533196
226	0xbe9e4301	-0.30910495
227	0xbe606c10	-0.21916223
228	0xbe1ad771	-0.15121247
229	0x3cf31abe	0.029675838
230	0xbeadffbb	-0.3398417
231	0xbd8c2623	-0.068432115
232	0xbd56e22c	-0.052461788
233	0xbe11c058	-0.1423353
234	0x3dda50e4	0.1065996
235	0xbe7387d7	-0.23782288
236	0x3e3bf575	0.18355353
237	0x3d137b7d	0.03600644
238	0xbdc68348	-0.09693009
239	0xbe5be7c3	-0.21475129
240	0x3dc8ab65	0.09798316
241	0x3e1d4a39	0.15360345
242	0xbe88cfc8	-0.26721025
243	0x3e959b90	0.29220247
244	0xbe7e4051	-0.24829222
245	0x3ea502f4	0.32228816
246	0x3dc190fb	0.09451481
247	0xbec480a4	-0.38379395
248	0x3e1b2d4b	0.15153997
249	0xbed25734	-0.41082156
250	0xbe214838	-0.15750206
251	0xbe127094	-0.14300758
252	0xbe227461	-0.15864708
253	0x3e85ae6a	0.2610963
254	0x3bd4b030	0.0064907297
255	0x3e89fb5a	0.2694958

bias f4 [16]
0	0x3d60c1d0	0.054872334
1	0x3d4bf776	0.049796544
2	0x3d65318c	0.055955455
3	0x3d5fb36b	0.054614466
4	0x3d403618	0.046926588
5	0x3d6c9652	0.057760544
6	0x3d7ff4c9	0.062489305
7	0xbd825909	-0.06364638
8	0x3d68ff71	0.056884233
9	0x3d7b0d2b	0.061291855
10	0x3d855634	0.065105826
11	0xbd5bc100	-0.053650856
12	0x3d66aceb	0.05631725
13	0xbd1946bb	-0.03742097
14	0x3d6190fb	0.055069905
15	0x3d6338d3	0.055474114

weight f4 [16, 32]
0	0x3d09b834	0.033622935
1	0x3e446b87	0.19181643
2	0xbe29a1dd	-0.16565652
3	0xbe32086e	-0.17386028
4	0x3d60d4dd	0.054890502
5	0xbd00e04f	-0.031463917
6	0xbe7fcf9c	-0.2498154
7	0x3e280667	0.16408692
8	0xbd5e02fb	-0.05420206
9	0xbdd9e14e	-0.106386766
10	0xbd8a00e7	-0.06738453
11	0xbdd45843	-0.10368397
12	0xbe9972da	-0.29970437
13	0x3e026e2a	0.12737337
14	0x3dca0e19	0.0986597
15	0x3ea2f887	0.31830236
16	0x3d009c49	0.031399045
17	0x3b113da4	0.0022161985
18	0x3e07b59e	0.13252875
19	0x3e858974	0.2608143
20	0xbe2ec9f6	-0.1706923
21	0x3e5da853	0.21646242
22	0x3cd4bcfd	0.025969023
23	0xbe9664f5	-0.293739
24	0x3db23d86	0.08703141
25	0xbe595874	-0.21225148
26	0xbd942e93	-0.07235446
27	0xbe257cfb	-0.16160958
28	0xbe905fa8	-0.2819798
29	0x3ebd6c06	0.36996478
30	0xbebef798	-0.37298274
31	0x3e45fead	0.19335432
32	0xbea9327b	-0.33046326
33	0x3c57bd68	0.013167717
34	0xbd075eec	-0.03304951
35	0x3e91dc14	0.2848822
36	0xbe1e26d8	-0.15444505
37	0x3de34d73	0.11098757
38	0xbcf40889	-0.029789226
39	0x3e62d6d9	0.2215227
40	0xbd02db63	-0.031947505
41	0x3da4f6ad	0.08054862
42	0xbde62250	-0.11237013
43	0xbe996c35	-0.29965368
44	0x3ea0aa97	0.3138015
45	0xbe5a6765	-0.21328504
46	0x3cf29269	0.02961083
47	0x3d58a010	0.052887022
48	0x3eb46867	0.35235903
49	0xbdcf3cf1	-0.101190455
50	0xbe714466	-0.23561248
51	0xbdcaba36	-0.09898798
52	0x3e359ccd	0.17735596
53	0x3e10b32b	0.14130847
54	0x3e719408	0.23591626
55	0xbe01ed96	-0.12688288
56	0x3e080ff2	0.13287333
57	0xbea9f3f0	-0.33193922
58	0x3e30aaca	0.17252651
59	0x3e2b40a2	0.16723874
60	0x3e426813	0.18985014
61	0xbdee7fb3	-0.116454504
62	0xbe175cc4	-0.14781481
63	0x3dcc8c82	0.09987737
64	0xbe8290c2	-0.25501066
65	0xbe5f6147	-0.21814452
66	0xbecb8cc2	-0.39755827
67	0x3d7050ed	0.058670927
68	0x3e413290	0.18866944
69	0x3dca7592	0.09885706
70	0xbd8d04bc	-0.06885669
71	0x3e17893e	0.14798447
72	0xbe8fff5d	-0.28124514
73	0xbc83ac9a	-0.016073514
74	0x3cb293cf	0.021798996
75	0xbe70a6a8	-0.23501074
76	0x3ea0f9c6	0.31440562
77	0xbe5ecad9	-0.21757068
78	0x3e14b6e8	0.14522898
79	0xbe4f72bd	-0.20258613
80	0x3ba6e37a	0.0050930353
81	0xbe4120a6	-0.1886011
82	0x3e21f09b	0.1581444
83	0xbe4ccf5e	-0.2000098
84	0x3e6beb0a	0.23038879
85	0xbe8c2499	-0.27371672
86	0x3e1900f5	0.14941771
87	0xbea6f062	-0.32605273
88	0x3e1a8e16	0.15093264
89	0xbe1e2a5c	-0.15445846
90	0x3d3fee0f	0.04685789
91	0xbd4af73e	-0.049552195
92	0x3e3e7b26	0.18601665
93	0x3e54a178	0.2076472
94	0xbebde064	-0.3708526
95	0x3d6e1609	0.058126483
96	0xbe826889	-0.2547038
97	0x3ea61b48	0.3244269
98	0xb843799b	-4.6604877e-05
99	0xbd5d7ad8	-0.05407223
100	0xbe55e52a	-0.208882
101	0x3e07dc26	0.13267574
102	0xbe9a4567	-0.30131075
103	0x3e3c2848	0.18374741
104	0x3e0aef45	0.13567837
105	0x3e261444	0.16218668
106	0x3e4964d9	0.19667377
107	0xbebbba5a	-0.36665612
108	0x3e82e20d	0.25563088
109	0xbd7eee64	-0.062239066
110	0xbc3908b5	-0.01129358
111	0x3d8737d0	0.06602442
112	0x3e88f0da	0.26746255
113	0x3e7b6d3a	0.24553385
114	0x3dba5a6c	0.09099278
115	0x3e2498a1	0.16073848
116	0xbeaa614e	-0.33277363
117	0x3bcd66a8	0.006268341
118	0xbebf15db	-0.37321362
119	0x3d7fe8f4	0.06247802
120	0xbe936e57	-0.2879512
121	0xbe017f28	-0.12646163
122	0x3e92a5c7	0.28642103
123	0x3eb0b314	0.34511626
124	0xbe81dccc	-0.25363767
125	0xbdd6f885	-0.1049662
126	0xbc5711d3	-0.013126808
127	0x3e1fbded	0.15599795
128	0xbd950a49	-0.07277352
129	0xbd6dccf7	-0.058056798
130	0xbe917918	-0.284127
131	0x3e3acd30	0.18242335
132	0x3ea49082	0.321415
133	0xbe268edc	-0.16265434
134	0x3db325a5	0.087474145
135	0x3e39d81e	0.18148848
136	0x3e6ff6b1	0.23433949
137	0xbdb8e97b	-0.09028908
138	0x3dd5faa7	0.10448199
139	0x3e562160	0.20911169
140	0x3e5f3aaa	0.21799722
141	0x3ec672c3	0.3875943
142	0xbc7d6b00	-0.015467405
143	0x3e6669d7	0.22501312
144	0x3e7f60c2	0.24939254
145	0xbe85a75d	-0.2610425
146	0x3dcd7f71	0.10034073
147	0xbdba3e3f	-0.09093904
148	0x3e605825	0.21908624
149	0xbe25fafe	-0.16209027
150	0xbce808da	-0.028324533
151	0x3e242e82	0.16033366
152	0xbeb604a7	-0.35550424
153	0xbe970415	-0.29495302
154	0xbe1aa7e2	-0.15103105
155	0x3e694318	0.227795
156	0x3e4df52f	0.20113061
157	0xbe2391a8	-0.15973532
158	0x3c8c9aef	0.017163722
159	0xbe35f9c9	-0.17771067
160	0xbe3261f8	-0.17420185
161	0x3ebceccb	0.3689941
162	0x3de09378	0.109656274
163	0xbd6e26c6	-0.058142446
164	0x3cb7e88b	0.022449752
165	0x3da488ca	0.08033903
166	0xbc54e104	-0.012993101
167	0xbdd2fb81	-0.10301877
168	0xbe899d9c	-0.2687806
169	0x3e35025a	0.17676678
170	0x3e23be4f	0.15990566
171	0x3db33596	0.08750455
172	0xbe058ddc	-0.13042396
173	0x3e639471	0.22224595
174	0x3eb67cce	0.35642093
175	0x3ea99abf	0.33125874
176	0x3ddac10e	0.106813535
177	0x3ea30e26	0.31846732
178	0x3d1a0485	0.037601966
179	0x3d8b97cb	0.068160616
180	0x3eaac7fa	0.33355695
181	0x3eb4f009	0.35339382
182	0xbe5a4a35	-0.2131737
183	0x3e83bc5f	0.25729653
184	0x3dbd8a70	0.092549205
185	0xbd2b6f8c	-0.041854426
186	0x3eb43a1f	0.35200593
187	0xbe3258c8	-0.1741668
188	0x3e3e9c51	0.18614317
189	0x3ee5504a	0.44787818
190	0xbe9ba317	-0.30397865
191	0xbe4214b9	-0.18953218
192	0xbe97a39c	-0.29617012
193	0x3c378dc6	0.011203235
194	0xbecd80f9	-0.4013746
195	0xbd93ef00	-0.0722332
196	0x3d8d11aa	0.06888135
197	0x3e83e826	0.25763053
198	0x3dbf4409	0.093391486
199	0x3e8a351b	0.2699364
200	0x3da27f36	0.0793442
201	0xbe9d3201	-0.30702212
202	0xbe1accb5	-0.15117152
203	0xbd693a2f	-0.056940254
204	0x3ed8e21a	0.42360002
205	0x3ddc355a	0.107523635
206	0x3d997954	0.07493845
207	0xbdd2bb23	-0.102896
208	0xbdd93519	-0.10605831
209	0xbeb20931	-0.34772637
210	0x3eae861a	0.34086686
211	0xbc0a4766	-0.008439874
212	0xbe832d8f	-0.25620696
213	0x3e6584f7	0.22414003
214	0xbd3eb0c8	-0.04655531
215	0xbdebeb9b	-0.115195476
216	0x3da0ec26	0.07857542
217	0x3e106283	0.14100079
218	0xbe7a5261	-0.24445488
219	0xbe4f21ac	-0.20227689
220	0xbd8d38bf	-0.06895589
221	0xbe630ea8	-0.2217356
222	0xbec7f9bc	-0.3905772
223	0x3ec65000	0.3873291
224	0xbd884340	-0.06653452
225	0xbe7a6a0c	-0.24454516
226	0xbd3b0ec8	-0.045668393
227	0xbea6d6bd	-0.32585707
228	0x3e9d9643	0.30778703
229	0xbde45463	-0.11148908
230	0xbde667e5	-0.11250285
231	0xbeabe2b3	-0.33571395
232	0x3e8c56ae	0.2740988
233	0x3d037848	0.03209713
234	0xbe08e301	-0.13367845
235	0xbcae11e5	-0.021248767
236	0xbe7c8cfd	-0.24663158
237	0xbc547bd8	-0.01296898
238	0x3e3b4139	0.18286599
239	0xbe90cc78	-0.28280997
240	0xbd3b0e04	-0.045667663
241	0xbe42ddc3	-0.19029908
242	0xbe64c012	-0.22338894
243	0x3e8cc714	0.27495635
244	0xbd353d10	-0.044247687
245	0x3e697aa3	0.22800688
246	0x3c0c07d9	0.008546793
247	0xbdf92baa	-0.121665314
248	0xbe2cc7a8	-0.16873038
249	0x3eb5b2b0	0.3548789
250	0xbeb1cf20	-0.34728336
251	0x3dfe20ef	0.12408625
252	0x3e0d6987	0.13809787
253	0x3c9dfc57	0.019285364
254	0x3e8995b1	0.26872018
255	0xbe24fd0f	-0.16112159

bias f4 [2]
0	0x3d53a155	0.05166753
1	0x3d7454d8	0.059651226

weight f4 [2, 16]
0	0x3f08540f	0.53253263
1	0x3e14af82	0.14520076
2	0x3efd589f	0.49481675
3	0x3edb9ef4	0.4289471
4	0x3e2599f3	0.16172008
5	0x3e96dfd0	0.2946763
6	0x3e7c165d	0.24617906
7	0x3b4f1a5c	0.0031601405
8	0x3eec5ce6	0.46164626
9	0x3f227634	0.63461614
10	0x3e818a79	0.2530096
11	0xbcd4dcc6	-0.02598418
12	0x3f1f0de0	0.62130547
13	0xbf01b906	-0.5067295
14	0x3f029356	0.51006067
15	0x3eb9c4b7	0.36282894
16	0x3eebc51f	0.4604883
17	0xbcece9fa	-0.028920162
18	0xbea7c12f	-0.32764575
19	0x3ef66735	0.48125616
20	0xbe745e36	-0.23864064
21	0x3e876bb5	0.2644936
22	0x3ecd3d39	0.40085772
23	0xbf1af26b	-0.6052615
24	0x3c38c7a5	0.011278068
25	0xbda9742d	-0.08274112
26	0x3ef4518e	0.4771847
27	0xbeb6909e	-0.3565721
28	0x3eef4eea	0.46739894
29	0x3e96544a	0.29361182
30	0x3ed64d14	0.4185568
31	0x3f206234	0.62649846

weight f4 [1, 2]
0	0x3f8c011c	1.0937839
1	0x3e712b06	0.23551568

pout f4 [50, 5]
0	0x3d82e757	0.06391781
1	0x3b8be1c4	0.0042688567
2	0x39001179	0.0001221354
3	0x35fdff40	1.8924256e-06
4	0x329d9d5e	1.8348768e-08
5	0x3e1fe370	0.15614104
6	0x3be0cf69	0.0068606627
7	0x393c17b2	0.00017937904
8	0x3664d195	3.409664e-06
9	0x335bed0a	5.1205497e-08
10	0x3dadce63	0.08486631
11	0x3b047c1c	0.0020215577
12	0x37f39cbb	2.904084e-05
13	0x34a2364a	3.0214352e-07
14	0x3129ae1e	2.469171e-09
15	0x3e42211f	0.18957947
16	0x3c2682b3	0.010162997
17	0x39abc73e	0.0003276411
18	0x36ff95f3	7.6170486e-06
19	0x34152d5d	1.389321e-07
20	0x3ddb54a8	0.10709506
21	0x3b53db1f	0.0032326651
22	0x38719a71	5.7602712e-05
23	0x35485231	7.462541e-07
24	0x3203a586	7.662839e-09
25	0x3ddb54a8	0.10709506
26	0x3b530d4f	0.0032203977
27	0x3874bcb5	5.834988e-05
28	0x354d9b47	7.659441e-07
29	0x3207b6ff	7.899643e-09
30	0x3d3c2402	0.045932777
31	0x3a4a9678	0.000772811
32	0x36d6eaef	6.405047e-06
33	0x33108df3	3.3656715e-08
34	0x2f0dd109	1.289814e-10
35	0x3e422121	0.1895795
36	0x3c257c6a	0.010100463
37	0x39a8cf75	0.00032198025
38	0x36fa326d	7.456451e-06
39	0x3412259d	1.3610993e-07
40	0x3e422121	0.1895795
41	0x3c268575	0.010163655
42	0x39abca12	0.00032766216
43	0x36ff9a06	7.617523e-06
44	0x34152fba	1.3894069e-07
45	0x3dadce65	0.08486632
46	0x3b0e67d1	0.002172936
47	0x37fe1d51	3.0292811e-05
48	0x349daff1	2.9371543e-07
49	0x31198572	2.2340285e-09
50	0x3ddb54a8	0.10709506
51	0x3b5490f5	0.0032435034
52	0x3877c22f	5.9070237e-05
53	0x35503ea9	7.757722e-07
54	0x3209530e	7.993334e-09
55	0x3ddb54a8	0.10709506
56	0x3b52faaf	0.0032192876
57	0x387467b2	5.8270707e-05
58	0x354d40ab	7.6462555e-07
59	0x32077e0c	7.886694e-09
60	0x3e1fe36e	0.15614101
61	0x3c2cb967	0.01054225
62	0x39b1eb39	0.00033935325
63	0x36dfa3af	6.664973e-06
64	0x33c598f2	9.201348e-08
65	0x3e0526d7	0.13003097
66	0x3bdd2fe5	0.0067500942
67	0x393255d4	0.00017007376
68	0x3632f740	2.6667985e-06
69	0x3300a0bc	2.994851e-08
70	0x3ddb54ab	0.107095085
71	0x3b5490fe	0.0032435055
72	0x3877c22e	5.9070233e-05
73	0x35503ea8	7.7577215e-07
74	0x3209530d	7.993333e-09
75	0x3e0526d7	0.13003097
76	0x3babf8ee	0.0052481806
77	0x38ee703b	0.00011369629
78	0x35e2f723	1.6910238e-06
79	0x32a7f126	1.955102e-08
80	0x3e0526d7	0.13003097
81	0x3b9c5ea1	0.004772023
82	0x38dd3a74	0.00010548989
83	0x35e1cbe3	1.6823145e-06
84	0x32b4cdd1	2.1048352e-08
85	0x3ddb54ab	0.107095085
86	0x3b80ad0a	0.003926878
87	0x3899d2ca	7.334871e-05
88	0x3570b24d	8.966643e-07
89	0x320d1512	8.212071e-09
90	0x3dadce63	0.08486631
91	0x3b057ba4	0.0020367885
92	0x37f6942f	2.9394489e-05
93	0x34a43c4a	3.0591247e-07
94	0x312ba5ac	2.4977949e-09
95	0x3dadce63	0.08486631
96	0x3b04f006	0.0020284667
97	0x37f54d58	2.9242292e-05
98	0x34a36b7a	3.0439315e-07
99	0x312ad7af	2.4860858e-09
100	0x3e1fe36e	0.15614101
101	0x3be1dc39	0.0068927077
102	0x393fe826	0.00018301661
103	0x366b2c2d	3.5043442e-06
104	0x33621ab9	5.264403e-08
105	0x3e422121	0.1895795
106	0x3c268649	0.010163852
107	0x39abcae7	0.00032766836
108	0x36ff9b41	7.617666e-06
109	0x34153071	1.3894329e-07
110	0x3dadce63	0.08486631
111	0x3b04fddc	0.0020292914
112	0x37f57492	2.9260558e-05
113	0x34a3851b	3.0457963e-07
114	0x312af043	2.4874829e-09
115	0x3e700aa3	0.23441558
116	0x3c7d1a60	0.015448183
117	0x3a20be99	0.0006131917
118	0x3793d349	1.7622153e-05
119	0x34d58fce	3.9778973e-07
120	0x3d3c2402	0.045932777
121	0x3a1bbc12	0.00059408054
122	0x369b8b2c	4.6355617e-06
123	0x32e055be	2.6116023e-08
124	0x2efddb9f	1.15441205e-10
125	0x3e422121	0.1895795
126	0x3c95fed0	0.01830998
127	0x3a569ea6	0.00081870926
128	0x37b54158	2.160731e-05
129	0x34d06c8e	3.8822003e-07
130	0x3e700aa3	0.23441558
131	0x3c7d3cee	0.015456421
132	0x3a2104f9	0.00061424036
133	0x37941f49	1.7657543e-05
134	0x34d5f439	3.9852037e-07
135	0x3d3c2402	0.045932777
136	0x3a1d0e33	0.00059911906
137	0x3696fdb1	4.499882e-06
138	0x32d1ba6b	2.4415575e-08
139	0x2ee8311d	1.0558863e-10
140	0x3ddb54a6	0.10709505
141	0x3b545da9	0.0032404459
142	0x387782c0	5.901116e-05
143	0x35500ba6	7.750299e-07
144	0x32093227	7.985853e-09
145	0x3e422121	0.1895795
146	0x3c26863e	0.010163842
147	0x39abcadb	0.000327668
148	0x36ff9b27	7.6176543e-06
149	0x34153065	1.3894312e-07
150	0x3e422121	0.1895795
151	0x3c516961	0.012781472
152	0x39e3c9e5	0.00043447237
153	0x37204833	9.553553e-06
154	0x34273318	1.5571675e-07
155	0x3e700aa3	0.23441558
156	0x3c7e8fa7	0.015537179
157	0x3a225c90	0.00061936025
158	0x37955ab1	1.7804416e-05
159	0x34d79486	4.0154936e-07
160	0x3e1fe36e	0.15614101
161	0x3be1e2d6	0.006893496
162	0x393fedd6	0.0001830378
163	0x366b32f6	3.5047392e-06
164	0x33622122	5.264986e-08
165	0x3d3c2402	0.045932777
166	0x3a1b933d	0.0005934721
167	0x3696b7b7	4.4917356e-06
168	0x32d454b4	2.4718567e-08
169	0x2eedfc9e	1.0822386e-10
170	0x3d3c2404	0.045932785
171	0x3a1af78c	0.0005911521
172	0x36970e98	4.5018496e-06
173	0x32d68d85	2.4977235e-08
174	0x2ef1cacf	1.0995437e-10
175	0x3dadce63	0.08486631
176	0x3c15275c	0.009103622
177	0x39d9e071	0.00041556687
178	0x372ace49	1.0180819e-05
179	0x3425fbbc	1.5458403e-07
180	0x3ddb54a8	0.10709506
181	0x3b5490d0	0.0032434948
182	0x3877c200	5.9070066e-05
183	0x35503e7a	7.7576954e-07
184	0x320952eb	7.993303e-09
185	0x3ddb54a8	0.10709506
186	0x3b59297e	0.0033136304
187	0x38748982	5.8302197e-05
188	0x35454897	7.349385e-07
189	0x31fcffc1	7.363241e-09
190	0x3dadce63	0.08486631
191	0x3b057ba6	0.002036789
192	0x37f6943a	2.9394509e-05
193	0x34a43c54	3.0591275e-07
194	0x312ba5b7	2.4977973e-09
195	0x3ddb54a8	0.10709506
196	0x3b548f36	0.0032433993
197	0x3877c020	5.906832e-05
198	0x35503cf5	7.757474e-07
199	0x320951f2	7.993082e-09
200	0x3e422121	0.1895795
201	0x3c26864a	0.010163853
202	0x39abcaeb	0.00032766847
203	0x36ff9b43	7.617667e-06
204	0x34153072	1.389433e-07
205	0x3d82e757	0.06391781
206	0x3c973b91	0.01846102
207	0x3b1019de	0.0021988074
208	0x390e06f4	0.00013544766
209	0x36a7206c	4.9807622e-06
210	0x3e0526d8	0.13003099
211	0x3bbb860b	0.0057227663
212	0x39077dde	0.00012921492
213	0x3600f5d5	1.921658e-06
214	0x32b8d9cf	2.1519467e-08
215	0x3d82e757	0.06391781
216	0x3a96792f	0.0011480207
217	0x3750cf0e	1.2445975e-05
218	0x33d185e1	9.756673e-08
219	0x30250478	6.0033e-10
220	0x3e700aa3	0.23441558
221	0x3c823408	0.015893951
222	0x3a2140a2	0.00061512936
223	0x378f36ba	1.7072412e-05
224	0x34ca0031	3.762557e-07
225	0x3d3c2402	0.045932777
226	0x3a1c1fe8	0.0005955682
227	0x369c10c9	4.6511163e-06
228	0x32e10fbc	2.6200603e-08
229	0x2efea16f	1.1579259e-10
230	0x3dadce63	0.08486631
231	0x3b730eb8	0.003708763
232	0x389bf063	7.4357515e-05
233	0x356a774a	8.734538e-07
234	0x31ee874e	6.942094e-09
235	0x3e422121	0.1895795
236	0x3c25d5ab	0.010121743
237	0x39aad44f	0.0003258311
238	0x36fe3af3	7.5766525e-06
239	0x341471ca	1.382497e-07
240	0x3d3c2402	0.045932777
241	0x3a47b0e0	0.0007617604
242	0x36d1d4d4	6.253462e-06
243	0x330c7ebc	3.2711554e-08
244	0x2f09d42f	1.253546e-10
245	0x3e1fe370	0.15614104
246	0x3be14d46	0.006875667
247	0x393f52b0	0.00018245983
248	0x366a7f80	3.4942932e-06
249	0x33617e92	5.250201e-08

throughput f4 [50, 1]
0	0x3fefa172	1.8721144
1	0x3fdc15e0	1.7194176
2	0x3feb874e	1.8400667
3	0x3fd551ca	1.6665585
4	0x3fe68ce9	1.8011752
5	0x3fe68d86	1.801194
6	0x3ff4934c	1.9107451
7	0x3fd554e7	1.6666535
8	0x3fd551c1	1.6665574
9	0x3feb7ed5	1.8398081
10	0x3fe68c42	1.8011553
11	0x3fe68d97	1.801196
12	0x3fdb5c41	1.7137529
13	0x3fe129bd	1.7590863
14	0x3fe68c42	1.8011553
15	0x3fe178e7	1.7615021
16	0x3fe1918b	1.7622541
17	0x3fe66730	1.800024
18	0x3feb8670	1.8400402
19	0x3feb86e8	1.8400545
20	0x3fdc1424	1.7193646
21	0x3fd551c0	1.6665573
22	0x3feb86dc	1.8400531
23	0x3fccb80b	1.5993665
24	0x3ff49e19	1.9110748
25	0x3fd3cae1	1.6546289
26	0x3fccb7a7	1.5993546
27	0x3ff49dce	1.9110658
28	0x3fe68c6c	1.8011603
29	0x3fd551c0	1.6665573
30	0x3fd4d5f6	1.6627796
31	0x3fccb40d	1.5992447
32	0x3fdc141b	1.7193636
33	0x3ff49e25	1.9110762
34	0x3ff49e48	1.9110804
35	0x3fe9eb45	1.8274924
36	0x3fe68c42	1.8011553
37	0x3fe68894	1.801043
38	0x3feb8670	1.8400402
39	0x3fe68c43	1.8011554
40	0x3fd551c0	1.6665573
41	0x3fec0184	1.8437963
42	0x3fe15ffd	1.7607418
43	0x3ff05b9f	1.877796
44	0x3fcca550	1.5987949
45	0x3ff49e03	1.9110721
46	0x3feb274f	1.8371371
47	0x3fd553c0	1.6666183
48	0x3ff493f8	1.9107656
49	0x3fdc14ff	1.7193907

delay f4 [50, 1]
0	0x3d5aca40	0.053415537
1	0x3d6e385f	0.05815923
2	0x3d5e99c3	0.054345857
3	0x3d75c6a4	0.06000389
4	0x3d636837	0.05551931
5	0x3d63679c	0.05551873
6	0x3d565ddb	0.0523356
7	0x3d75c30f	0.060000475
8	0x3d75c6af	0.060003933
9	0x3d5ea1c5	0.054353494
10	0x3d6368da	0.055519916
11	0x3d63678a	0.055518664
12	0x3d6f01f5	0.058351476
13	0x3d68d921	0.056847695
14	0x3d6368da	0.055519916
15	0x3d688761	0.056769732
16	0x3d686dfa	0.056745507
17	0x3d638d72	0.055554815
18	0x3d5e9a95	0.05434664
19	0x3d5e9a23	0.054346215
20	0x3d6e3a3f	0.058161017
21	0x3d75c6b1	0.06000394
22	0x3d5e9a2e	0.054346256
23	0x3d800cfa	0.06252475
24	0x3d565465	0.05232658
25	0x3d778c48	0.060436517
26	0x3d800d39	0.06252522
27	0x3d5654a7	0.052326825
28	0x3d6368b2	0.055519767
29	0x3d75c6b1	0.06000394
30	0x3d7655a4	0.060140267
31	0x3d800f7a	0.06252952
32	0x3d6e3a4a	0.058161058
33	0x3d56545a	0.052326538
34	0x3d56543b	0.052326422
35	0x3d6021dd	0.054719795
36	0x3d6368da	0.055519916
37	0x3d636c7c	0.05552338
38	0x3d5e9a95	0.05434664
39	0x3d6368d9	0.055519912
40	0x3d75c6b1	0.06000394
41	0x3d5e267e	0.054235928
42	0x3d68a115	0.056794245
43	0x3d5a20c9	0.053253923
44	0x3d8018b3	0.06254711
45	0x3d565478	0.05232665
46	0x3d5ef4a1	0.054432515
47	0x3d75c462	0.06000174
48	0x3d565d45	0.052335043
49	0x3d6e3953	0.058160137

ef1 f4 [50]
0	0xc0fac3bb	-7.836393
1	0xc0ec807a	-7.390683
2	0xc10b51b6	-8.707449
3	0xc0dea15c	-6.957197
4	0xc1037324	-8.2156105
5	0xc1033d00	-8.202393
6	0xc11fd4e2	-9.989473
7	0xc0deea60	-6.96611
8	0xc0dea124	-6.9571705
9	0xc10c03bc	-8.750912
10	0xc1032807	-8.197272
11	0xc1033feb	-8.203105
12	0xc0e45b54	-7.1361485
13	0xc0f3f4bc	-7.623625
14	0xc1032807	-8.197272
15	0xc0f9e1f0	-7.8088303
16	0xc0f8db66	-7.776782
17	0xc102f801	-8.185548
18	0xc10b3d36	-8.702444
19	0xc10b4591	-8.704484
20	0xc0ec1de8	-7.3786507
21	0xc0dea113	-6.9571624
22	0xc10b4491	-8.70424
23	0xc0d002d6	-6.500346
24	0xc1209a2c	-10.03764
25	0xc0d05979	-6.510922
26	0xc0cffc4f	-6.4995494
27	0xc12138de	-10.076384
28	0xc10329b2	-8.1976795
29	0xc0dea114	-6.957163
30	0xc0dd0b97	-6.907665
31	0xc0cfe15f	-6.496261
32	0xc0ec1d83	-7.3786025
33	0xc1210d04	-10.065678
34	0xc120f0cc	-10.058788
35	0xc0dd2590	-6.9108353
36	0xc1032809	-8.197274
37	0xc103ba16	-8.232931
38	0xc10b3d35	-8.702443
39	0xc1032815	-8.197286
40	0xc0dea113	-6.9571624
41	0xc0ace2f4	-5.4027042
42	0xc0f88ca5	-7.7671685
43	0xc1152551	-9.32161
44	0xc0d0c8d7	-6.5245166
45	0xc12094c4	-10.03632
46	0xc10422db	-8.25851
47	0xc0deb2e1	-6.959336
48	0xc120079e	-10.00186
49	0xc0ec2785	-7.379824

ef2 f4 [50, 1]
0	0xc2d662c2	-107.19289
1	0xc02716c8	-2.6107655
2	0xc2760868	-61.50821
3	0x40491a1c	3.1422186
4	0xc1fe5242	-31.790165
5	0xc1ff53b6	-31.915874
6	0xc33619fa	-182.10147
7	0x40513534	3.2688723
8	0x404913a4	3.1418238
9	0xc274745b	-61.11363
10	0xc1ffecf1	-31.990694
11	0xc1ff418c	-31.907005
12	0xbfefad50	-1.8724766
13	0xc14d0a32	-12.814989
14	0xc1ffecf2	-31.990696
15	0xc151fd5c	-13.124355
16	0xc159cbb8	-13.612236
17	0xc1fab6ee	-31.339321
18	0xc2764f16	-61.577232
19	0xc27630ac	-61.54753
20	0xc0312188	-2.7676716
21	0x404911b4	3.1417055
22	0xc2763448	-61.551056
23	0x40c253d4	6.072733
24	0xc336cef0	-182.80835
25	0x4086dcd2	4.2144556
26	0x40c1f01c	6.06056
27	0xc33687d3	-182.53056
28	0xc1ffe08b	-31.98464
29	0x404911cc	3.1417112
30	0x40769534	3.8528566
31	0x40c03068	6.005909
32	0xc0312d90	-2.768406
33	0xc33696fa	-182.58975
34	0xc336a144	-182.62994
35	0xc27049f8	-60.072235
36	0xc1ffece8	-31.990677
37	0xc1fd448a	-31.658466
38	0xc2764f16	-61.577232
39	0xc1ffec8f	-31.990507
40	0x404911b4	3.1417055
41	0xc2d3944b	-105.789635
42	0xc14fddbc	-12.991634
43	0xc2d8e6ca	-108.45076
44	0x40ca5c1c	6.323744
45	0xc336d36a	-182.82584
46	0xc2726302	-60.596687
47	0x404b5eb4	3.1776552
48	0xc3361d50	-182.1145
49	0xc02fe480	-2.7483215
