train/models/HARQ-NumK=3-PDB=19_model_pd_satisfy.pt (torch, 36023 bytes, 14 tensors)

bias f4 [16]
00000000: 3cd4 95bd 9651 6cbd 6472 afbd 1439 3d3d
00000010: 1c99 22bd e2c7 95bd d540 e63c 4103 8dbd
00000020: f203 063e 53a0 c6bb e210 ea3d 608b 0abd
00000030: 033d 7fbd 8ec9 1d3e 7f1a 48bd 4050 093e
-0.07315871 -0.057694994 -0.0856674 0.046197012 -0.039696798 -0.07313515 0.028107086 -0.06885386
0.13087443 -0.0060615926 0.114290014 -0.033824325 -0.062314045 0.15408918 -0.048853394 0.13409519

weight f4 [16, 1]
00000000: 309c b1be 0141 02be ec6d a7be fff2 e13e
00000010: 95cb 0bbf 40ba b1be 8ee4 0fbe 3e07 dbbe
00000020: 3a7b 3f3e 976d 26bf 3c8c 263f 8f44 13bf
00000030: e45a cb3e 3e8f 813e 9786 77be 9c39 003f
-0.34689474 -0.1272011 -0.3270105 0.44130704 -0.54607517 -0.3471241 -0.1405203 -0.42778963
0.18699351 -0.6501097 0.6505773 -0.5752649 0.39717782 0.25304598 -0.24172436 0.50087905

bias f4 [32]
00000000: 62f2 9bbd 14de ab3d 9b91 2abd a1e0 08bd
00000010: fca4 4e3e 726f d53c 7f23 8e3d 611b 35bd
00000020: 8d27 56bd 6d7d 6bbd d9fa 9c3d 5a2f 28bd
00000030: e931 46bd ba38 bf3d 99c3 033e 8a09 2cbd
00000040: f195 1ebd 462f 5abd 9259 133e edf9 a53d
00000050: b36b a03d 6e9a 42bd 8147 f3bc 7810 32bd
00000060: 193c 22bc 05b0 c73d 742e f13d 1191 0bbd
00000070: 2870 0cbc daea ecbc 8ed9 97bd 4334 e63d
-0.0761459 0.083919674 -0.041642766 -0.033417348 0.20180124 0.026054118 0.06940364 -0.044215564
-0.052283812 -0.057492662 0.07665033 -0.041060783 -0.04838744 0.093369916 0.12867583 -0.042001285
-0.038717214 -0.05326774 0.14389637 0.0810431 0.07833042 -0.047510557 -0.029697182 -0.043472737
-0.009902024 0.0975037 0.11776438 -0.034073893 -0.008571662 -0.02892058 -0.07414542 0.11240437

weight f4 [32, 16]
00000000: 1bc2 b83e 9264 35bd 43eb 6dbb e1a3 c13d
00000010: 407e acbc 4fc4 763e 1d7b 3dbb 6853 28be
00000020: ca3d 3c3d d7bb 043e de64 a23d 2974 da3e
00000030: 1bc4 2d3e c2f8 6e3e 9003 c13d dae8 c4be
00000040: aacf a9be 2ad5 9cbe dc5a cabe b98b bebd
00000050: 5f74 d1be 11d5 d1be d346 96be 0d45 ddbe
00000060: e907 dbbd 17af 513d e7c3 c33e f851 41be
00000070: d3bf c0bc 4961 9a3e 5b11 84be 5528 9ebd
00000080: f04d 853e 1f24 87be 30a7 af3d 4178 893e
00000090: 6a3e d33d e2ff 0d3e d11d 28be 232c 1a3d
000000a0: c1f1 1dbd c364 043e f860 bc3d cd0f b33e
000000b0: 0006 9fbe c38a 5fbd 9577 09be 342f a7be
000000c0: 05f8 a43b 6688 8dbe 9a69 8f3e 00a9 023c
000000d0: f4fb 20be e656 5f3e 4373 9abe 8dca d3bd
000000e0: 27e7 e6bd e7bf 88be f5ce 84be 2f9c c7bc
000000f0: 88ef 713e dc14 9b3e 293d 843e 925d 7cbe
00000100: 27ab ddbe 8221 d73d 3de0 9cbd 202e 5a3e
00000110: d17a 1dbe fcb9 f8be 9213 a3be 7d07 0e3e
00000120: ffe9 093e efa2 60be 9332 b5bd 5480 ccbe
00000130: a626 433e d2dd f83b 675b 7bbe 55cf b33e
00000140: 58cc bdbe 161d a53d 216b 84be 02be 18be
00000150: cc0d e33d f133 833e 484b f9bd f41a 2ebe
00000160: 8468 9abe e626 54be dfa8 92be 7ba5 d8bd
00000170: c88c c63d 1f7c a3be fd4a 913e 343c 7a3e
00000180: 2e70 d4be 1bda 75be 4f69 3e3d cd42 71bb
00000190: 85ce dbbd 1ced 69be 7182 5d3e 206a 88be
000001a0: de78 c43e 0e5c 3cbd c123 123e 05fd 533e
000001b0: 3f42 e13b c0ec dcbd 68e7 00be 9f85 b83e
000001c0: 1b51 60be 8b26 ff3d b6be 9bbe 2662 123e
000001d0: 9611 323e 7aa2 6e3d d05f 473e b1db 323d
000001e0: fedf 143e 574a 72be eecb c3bd abe9 4c3e
000001f0: 6ded 9e3e 52a2 083e 8e01 5bbe 5318 693e
00000200: fec6 dabc dcb2 b1bc 83d4 89be 3af5 dbbd
00000210: ffba 9a3e edbd cf3d 5b03 1ebe e3d1 243e
00000220: 7350 35be cff5 bf3e d29b b8be 3deb 73bd
00000230: a3a1 c8be 296d 4bbe 7979 273e 5849 923e
00000240: f0b3 ed3d 9a95 cf3e 9de5 003e 91b0 173e
00000250: e822 ae3e b957 b43e 2b6f 11be a672 c33e
00000260: 498c 103e 4a7c debd 59b8 68be bb9e 75be
00000270: dc8c 0f3d 8d05 b7be 8be2 523e f6ad 533d
00000280: e273 c4be b02d 883c cbaa d7bd 6d4c 743e
00000290: 1762 013e 5824 dbbe 8a1d 7f3e be44 613e
000002a0: 5902 7b3e b09e ccbe 317d 3bbd d945 37be
000002b0: 469f 98bc 003d 9c3e 8e7b 553d 01eb b93e
000002c0: f1a7 bbbd db0d 253e b295 2a3e f750 abbe
000002d0: a9b6 9abe 2e18 12be 4596 903e 168b 95be
000002e0: 496d b7be 6c92 743e 9973 183e 6ebf a93e
000002f0: 90c4 9cbe 74ee 9bbe 0074 633e 4898 873e
00000300: e7ee 843e a90f d83d e893 283e f87a 933e
00000310: 4c5a 38be 9c3f e6bd 77eb 963e e87b 46be
00000320: 12af 83be 9cc2 9c3e 52e9 7c3d 3333 263e
00000330: c775 48be 6f73 7ebd 2c45 be3e 3abc 86be
00000340: 0247 babd 8f07 8f3d 28fa acbe 445f e03e
00000350: af6b 8abe 5cec 36be 9af2 3fbe 14f2 a5be
00000360: aa27 61be a258 d83d f81d 463e 3286 d9be
00000370: 7106 0fbe 68ec f23e a8f9 293d 2992 7a3e
00000380: dec2 adbe cb06 92be 6a95 39be 1b5f 843d
00000390: d67e bdbe 222d cabd 3fa2 babd 29bf 30be
000003a0: 32b0 4e3e 0e33 89be d4fb 643e e756 b43b
000003b0: d0c6 81bd 7353 40be a401 6b3d 31d7 5f3e
000003c0: af3b 0dbe 6fd1 c43e a7a5 f1bd fa12 4a3e
000003d0: 4d8f 623e 2452 82be f8e8 893e a1ff 90be
000003e0: dce2 80be 42c2 8bbc 3154 90be 7148 c63e
000003f0: b03c e3bd 165b b73d 0135 8cbe 0eaf 223e
0.3608559 -0.044285364 -0.0036303557 0.094550855 -0.021056294 0.24098323 -0.0028912493 -0.16438067
0.045957364 0.1296228 0.07929395 0.42666748 0.1696934 0.23337081 0.094245076 -0.38458902
-0.33166248 -0.3063138 -0.39522445 -0.09303994 -0.40909097 -0.4098287 -0.2935091 -0.43216744
-0.10694868 0.05119237 0.382354 -0.18878925 -0.023528969 0.30152348 -0.2579449 -0.077225365
0.26036024 -0.26394746 0.0857681 0.2684956 0.10314639 0.13867143 -0.16417624 0.03763975
-0.038560633 0.12929063 0.09198183 0.34972993 -0.31059265 -0.054575693 -0.13424523 -0.326532
0.005034449 -0.27643126 0.28010255 0.007974863 -0.15721112 0.21810493 -0.30166063 -0.10341368
-0.112745576 -0.2670891 -0.25939146 -0.024366466 0.2362653 0.30289352 0.25827911 -0.24645069
-0.4329464 0.10504438 -0.076599576 0.21306658 -0.15378882 -0.48579395 -0.31850868 0.13870044
0.13468169 -0.21937154 -0.08847537 -0.39941657 0.19057712 0.0075948024 -0.24546586 0.3511912
-0.37069964 0.08062188 -0.25862983 -0.14916232 0.11086616 0.25625566 -0.12172562 -0.1700247
-0.30157864 -0.20717964 -0.28644463 -0.10578438 0.09694821 -0.31930634 0.28377524 0.24437028
-0.41491836 -0.24008982 0.04648715 -0.0036813498 -0.1073275 -0.22844356 0.2163179 -0.26643467
0.38373464 -0.045986228 0.14271452 0.20701988 0.006874352 -0.10787344 -0.12588274 0.36039445
-0.2190594 0.12458523 -0.30418938 0.14295253 0.17389521 0.05826042 0.19470143 0.043666545
0.14538571 -0.23661171 -0.09560381 0.20011012 0.31040516 0.1334317 -0.21387312 0.22763185
-0.026706215 -0.021691732 -0.26919946 -0.10740133 0.30220792 0.10143647 -0.15430968 0.1609569
-0.1770647 0.37492225 -0.3605638 -0.059550513 -0.3918582 -0.1986586 0.16354932 0.28571582
0.11606586 0.40543824 0.1258759 0.14813448 0.34011006 0.35223177 -0.14202563 0.38173407
0.14116015 -0.1086355 -0.22726573 -0.23986332 0.035046443 -0.35746422 0.20594232 0.051679574
-0.38369662 0.016623348 -0.10530623 0.23857279 0.12635075 -0.42801166 0.24913612 0.2199888
0.24512614 -0.3996482 -0.04577369 -0.17897739 -0.018630635 0.3051529 0.052119784 0.36312106
-0.09162892 0.16118567 0.16658667 -0.3346021 -0.30217484 -0.14267036 0.28239647 -0.29207677
-0.35825565 0.2388398 0.14887847 0.33153862 -0.30618715 -0.30455363 0.22212219 0.2648337
0.25963518 0.10549862 0.16462672 0.28804755 -0.18003196 -0.11242601 0.2947652 -0.19383204
-0.25719506 0.30617225 0.06174595 0.16230468 -0.19576178 -0.062121805 0.3716215 -0.2631548
-0.09095575 0.069838636 -0.33784604 0.43822682 -0.2703528 -0.17863601 -0.18744889 -0.32411253
-0.21987787 0.1056378 0.1934737 -0.42485195 -0.13967301 0.4744599 0.041497856 0.24469818
-0.33937734 -0.28520808 -0.18123403 0.064634524 -0.3701083 -0.0987189 -0.09112977 -0.17260422
0.201844 -0.26796764 0.2236169 0.0055035236 -0.063367486 -0.18781833 0.05737461 0.21859433
-0.13792299 0.38441035 -0.11799174 0.19733801 0.22124977 -0.25453293 0.26935554 -0.2832003
-0.2517308 -0.017060403 -0.28189233 0.38727143 -0.110955596 0.0895292 -0.2738419 0.1588709

bias f4 [16]
00000000: 87bc b4bc 5d22 933d 3d2b 63bd afe0 033e
00000010: f084 943d ad6b 5bbd 8a0d 073e 4e28 ebbc
00000020: 2849 923d 14d9 95bc 7df0 993d 9545 913d
00000030: 1373 4a3e 3eb9 163e 9cf0 be3d c1a9 b7bc
-0.022062553 0.07184289 -0.055461157 0.12878679 0.07251918 -0.053569485 0.13188758 -0.028705742
0.0714286 -0.018291987 0.075165726 0.0709335 0.1977046 0.14719102 0.09323236 -0.022419812

weight f4 [16, 32]
00000000: 312b 02be ff17 72be 57c2 d13d 7c68 56bc
00000010: 3efd 0fbe d843 2e3e b10b b5bc 88a7 94bd
00000020: 4db0 18be 1b5f 5bbd 40a3 a6be a1d7 d23d
00000030: ccab e33c df4d 463e 33cb e83c 289a ed3c
00000040: e97b 993d 7bdb 953e 5542 46be 932b 423e
00000050: c6aa 823d 384b 59be f1f5 143e 9389 42be
00000060: aecd b6bd 89ef 20be 8d4d 87be 6fc7 9c3e
00000070: a684 96be 0efc 4b3e fe8a 97be 20b0 8abd
00000080: 5220 863d 530f b63e d8aa 6ebe 3a42 823c
00000090: d79f 033e 88d1 0c3e 28e7 ea3d c714 493e
000000a0: 0dc6 91be 4597 a5be ba78 d43e 44d7 a9be
000000b0: 66f9 15be 8a41 5e3d fb33 ef3e e6b1 14be
000000c0: 536d 4ebe ac8f 2fbe 2350 9f3e 4935 6f3e
000000d0: 1bad be3e f505 1abe c3ff c03d cfd0 cebe
000000e0: db8c 863d 18f5 8d3e 8c3b a53e d657 95be
000000f0: f177 29be 3ec5 553c 3075 a5be c20f 3bbe
00000100: 2c55 c1be 5d1f 64bd 23ff 963e b8ad 213e
00000110: ab92 ddbb fbb1 343e c5fa 94be 2622 3fbc
00000120: c2a6 08bd 5c12 02be 60b9 6e3e 8e33 5ebe
00000130: 80c5 ee3d 555e c0be 9c46 bdbd 7e48 e3bd
00000140: 80db 853d fbe0 0bbe 7901 0b3e 11c9 b3be
00000150: fd21 1d3e 0cbc 52be 09a2 7a3e 7130 c1bd
00000160: a2a2 5b3d e854 09be 0594 253e 91eb 3c3e
00000170: 9aa3 83be 4059 b43d c05a 41be 73c8 453e
00000180: c8b2 153e c6d0 8a3d fd06 adbe f29c 3ebc
00000190: 9443 e4bd 35d0 1b3d 270b ae3e 6952 ac3e
000001a0: 8f8a 0ebd d6ed e1be 51ea d13e 84c8 74be
000001b0: e0fe 70be 4158 043e c4cd d63e 6111 1f3e
000001c0: 6432 373e 18df 063d 59cd 15be e0b4 243e
000001d0: df41 34be ddb0 33bc 4961 c2be f4a5 81be
000001e0: 99bf f53d ba2a 003f 066c 75bd 7c3d abbe
000001f0: 60b9 aabd 0e09 363c 9d8f 3dbe 14b9 323d
00000200: 7cf8 3fbe 8f1c 833e 30fc 753e d0f0 83be
00000210: 3850 773e 0ccc cf3d d8e4 c13e 967e c73c
00000220: e58a 78bd e05e 393e 8a0e a63e 087f 8c3e
00000230: f1d5 40be 0dab 733e 400d bd3e 4582 9ebe
00000240: 07ce 0d3e 1c91 25be d4d3 b63e 84b1 83bd
00000250: 1a12 d83d d6f9 073e 4734 cbbe c7a9 bdbe
00000260: 5278 81be 8171 af3e 554c aa3e b38b a9be
00000270: 4e20 8fbb 2c62 85be 6863 72be d509 cf3e
00000280: ec24 0a3e 8b06 2fbe 2b0b 013e 84ff 073e
00000290: eb04 3c3d ed46 8ebd 32f5 8cbe 634c 3f3e
000002a0: 92e2 cc3d 82c0 463e 399d 51be 5029 673e
000002b0: 6450 a33e f102 193e 342b 363c 2f64 c83e
000002c0: f730 4dbd 8d2b 0a3e 6e94 793e 6726 8f3e
000002d0: dc6a 53be e983 c03e a34c 3c3e 395e 553c
000002e0: 8df1 b83e 4d60 84be ba02 273e bd1d d53e
000002f0: fcec 43be 2cce 1ebe 842f 98be a8c7 08be
00000300: 1132 73be aae4 463d 7fb8 89bd 99bd df3d
00000310: 81b0 a13e 5fd8 823d 5baf 9a3e d5d6 c6bd
00000320: 2fca d2be fb4a 00be 84d2 ff3e f1eb e9bd
00000330: 6788 2fbe 5657 8ebd d097 e7bb afc3 ccbe
00000340: 7370 d23e 74c0 4cbe 7408 fcbd a6a2 4f3e
00000350: 79b9 2c3e 2c06 39be da1e aebb e2f6 713d
00000360: 5248 edbe 67ed d2bd 9c33 123e 5569 f2be
00000370: b57a e7be dd76 383e 2950 22be d623 4dbc
00000380: a89b 14be ada7 9fbe 382d 993e cef8 13bd
00000390: d4b9 35be df0b 76be a3c9 2f3e 1dbd 9abd
000003a0: 9156 0cbc c1e4 babd 35da 51be 043e bd3d
000003b0: 3635 9d3e 5731 6dbe 7d51 003c 7518 84be
000003c0: 2c91 45be f526 af3e b0cc 0cbd 282f a03e
000003d0: 1700 bcbd 26e8 24be 2670 3abe e616 af3e
000003e0: 4b28 79be d2c8 403e 4358 643d b6bd 123e
000003f0: fa85 693e 117c 81bd 92a0 7d3e 7ea1 a1be
-0.12711789 -0.23641966 0.102421455 -0.013086434 -0.14061448 0.17018068 -0.022100301 -0.072585166
-0.14911003 -0.053557497 -0.32546425 0.10295034 0.02779188 0.19365643 0.028417205 0.029004171
0.07494337 0.29269013 -0.19361241 0.18961935 0.06380229 -0.212201 0.14546944 -0.18997793
-0.08925949 -0.15716375 -0.26426354 0.30620906 -0.29398078 0.1992037 -0.2959823 -0.067718744
0.06549133 0.35558566 -0.23307359 0.01590072 0.12853943 0.13751805 0.11469871 0.19636832
-0.28471413 -0.32341972 0.41498357 -0.33172047 -0.14645919 0.05426172 0.46719345 -0.14520988
-0.20158891 -0.1714465 0.31115827 0.2336017 0.37241444 -0.15041335 0.09423783 -0.40393683
0.06569835 0.27726054 0.32271993 -0.29168576 -0.1654966 0.0130475145 -0.3231597 -0.1826773
-0.37760293 -0.055693973 0.2949153 0.15788925 -0.006761869 0.17646019 -0.29097572 -0.0116658565
-0.033362158 -0.12702316 0.23312902 -0.21699354 0.11658764 -0.3757197 -0.09241983 -0.11097811
0.06536007 -0.13660042 0.1357478 -0.3511434 0.15344997 -0.20579547 0.24475874 -0.094330676
0.053621896 -0.13411295 0.16169746 0.18449236 -0.25710756 0.088060856 -0.18882275 0.19314747
0.14618981 0.067781016 -0.33794394 -0.011634098 -0.11145702 0.03804036 0.33992884 0.33656624
-0.03480011 -0.44126767 0.40999082 -0.23904616 -0.23534727 0.12924291 0.41953862 0.15533973
0.17890316 0.032927603 -0.14629115 0.16084623 -0.17603253 -0.01096746 -0.37964848 -0.25321925
0.11999435 0.50065196 -0.059917472 -0.33445346 -0.08336139 0.011110557 -0.18511815 0.043633536
-0.18747133 0.25607726 0.24021983 -0.25769663 0.24151695 0.10146341 0.37869906 0.024352353
-0.060679335 0.18102598 0.32432967 0.27440667 -0.18831612 0.2379572 0.3692417 -0.30958763
0.13848124 -0.16168636 0.35708487 -0.06430343 0.105503276 0.13278899 -0.39688322 -0.37043592
-0.2528711 0.34266284 0.33261362 -0.33114395 -0.0043678647 -0.26051462 -0.23670733 0.4043719
0.13490647 -0.1709234 0.12601916 0.13281065 0.045903128 -0.06947122 -0.2753082 0.18681483
0.10004152 0.19409373 -0.20470132 0.22574353 0.3189727 0.14942528 0.011118699 0.39138934
-0.050095525 0.13493176 0.24373028 0.27958986 -0.20646232 0.3760064 0.1838861 0.013022953
0.3612179 -0.25854722 0.16309634 0.4162425 -0.19133371 -0.15508336 -0.29723752 -0.13357413
-0.23749568 0.048557915 -0.06724643 0.10924835 0.31579974 0.06388926 0.3021191 -0.09708945
-0.4116988 -0.12528603 0.49965298 -0.114219554 -0.17141877 -0.06950252 -0.007067658 -0.39993045
0.41101417 -0.1999529 -0.123063 0.20276889 0.16867627 -0.1806876 -0.0053137364 0.059073336
-0.4634424 -0.10299187 0.142775 -0.47345987 -0.45210806 0.18014093 -0.15850891 -0.012520751
-0.14512503 -0.31182614 0.29917312 -0.03612595 -0.17746669 -0.24027966 0.17166762 -0.07555602
-0.008565561 -0.091256626 -0.20493396 0.09240344 0.3070466 -0.23163353 0.007831928 -0.2579991
-0.1929366 0.3420941 -0.034374893 0.31285977 -0.09179705 -0.16104183 -0.18206844 0.34197158
-0.24331777 0.18826607 0.055748235 0.14330181 0.22805014 -0.06322492 0.24768284 -0.3156852

bias f4 [2]
00000000: df3d 663d 4d8b 8a3d
0.05621135 0.06764851

weight f4 [2, 16]
00000000: 6ccc 9b3e a276 003f f960 1f3e 7bf7 c63e
00000010: 0394 a53e 913b 053d f497 303f 3b57 f13e
00000020: 943c ad3e 69c4 b6bd dcae 2e3f f195 93be
00000030: a23b 203f 52f4 fe3e a12d 0c3f 9858 d6bd
00000040: d901 f6be a7bc 043f f787 54be 7857 873e
00000050: 9d01 e23e 88df 06bf 9c36 333e 259b 8bbe
00000060: 035a 053f fb89 debe f3c1 f43e 4d6e 053f
00000070: f508 e03e e84d 2a3f 64c1 6b3e 431d 17bf
0.304294 0.5018102 0.15564336 0.38860688 0.32339486 0.03252751 0.6898186 0.47136864
0.3383528 -0.08924181 0.68235564 -0.28825334 0.6259099 0.49795777 0.54757124 -0.10466117
-0.48048285 0.5185036 -0.20754991 0.2643392 0.44141856 -0.5268483 0.175013 -0.27266803
0.5209047 -0.43464646 0.47804222 0.5212143 0.43756834 0.66525126 0.23022991 -0.59029025

weight f4 [1, 2]
00000000: 3b99 01be 3bc9 bebf
-0.12656109 -1.4905161

pout f4 [32, 3]
00000000: 5e9a 213d 891e ca3a ea9c 7d38 5e9a 213d
00000010: 6cca e03a 45b2 8938 609a 213d a8f7 cb3a
00000020: 93c1 8038 5e9a 213d ed06 cc3a 5ecb 8038
00000030: 609a 213d a4be cb3a 149a 8038 609a 213d
00000040: 0907 cc3a 74cb 8038 609a 213d 75de cb3a
00000050: a8b0 8038 609a 213d dca3 ca3a 5020 7f38
00000060: 609a 213d a605 cc3a 93ca 8038 5e9a 213d
00000070: c2e0 cb3a 3db2 8038 5e9a 213d 3e25 6e3b
00000080: 8c2a 8139 5e9a 213d e52c cb3a 7021 8038
00000090: 609a 213d e004 cc3a 16ca 8038 5e9a 213d
000000a0: 4f3c 573b e364 5539 609a 213d e5a8 193b
000000b0: 87e0 e538 5e9a 213d cd28 f93a 8ad0 a038
000000c0: 5e9a 213d 0707 cc3a 74cb 8038 5e9a 213d
000000d0: b2fa ca3a f8e0 7f38 609a 213d b7d1 c93a
000000e0: 3b39 7c38 5e9a 213d 71fe cb3a fdc5 8038
000000f0: 5e9a 213d b866 573c 5872 463b 5e9a 213d
00000100: 20ca c93a 9305 7a38 5c9a 213d 5ac3 ca3a
00000110: 4f7d 7838 609a 213d 04c9 c93a 2d0c 7a38
00000120: 5e9a 213d 7d4d d13a 1ec1 7c38 5c9a 213d
00000130: 4b06 cc3a 01cb 8038 5e9a 213d 0b07 cc3a
00000140: 76cb 8038 5e9a 213d 2505 e63a e241 8e38
00000150: 5e9a 213d 8237 cb3a 462b 8038 5e9a 213d
00000160: 1607 cc3a 79cb 8038 5e9a 213d 50f7 cb3a
00000170: 59c1 8038 5e9a 213d b1a6 ff3a b9a6 a738
0.039453857 0.0015420477 6.0466038e-05 0.039453857 0.001715017 6.565874e-05 0.039453864 0.0015561478
6.1395716e-05 0.039453857 0.0015566029 6.141396e-05 0.039453864 0.0015544486 6.132215e-05 0.039453864
0.0015566061 6.141412e-05 0.039453864 0.0015553968 6.1364204e-05 0.039453864 0.0015460211 6.082683e-05
0.039453864 0.0015565648 6.141248e-05 0.039453857 0.0015554654 6.136715e-05 0.039453857 0.0036338116
0.00024636497 0.039453857 0.001550105 6.109744e-05 0.039453864 0.0015565418 6.141157e-05 0.039453857
0.0032842343 0.00020350846 0.039453864 0.0023446616 0.000109613924 0.039453857 0.0019009352 7.668238e-05
0.039453857 0.0015566059 6.141412e-05 0.039453857 0.001548609 6.1006256e-05 0.039453864 0.0015397583
6.0134782e-05 0.039453857 0.00155635 6.140394e-05 0.039453857 0.013147049 0.0030280557 0.039453857
0.0015395321 5.9609836e-05 0.03945385 0.0015469596 5.924451e-05 0.039453864 0.001539499 5.9615984e-05
0.039453857 0.0015968528 6.0261336e-05 0.03945385 0.001556584 6.141328e-05 0.039453857 0.0015566064
6.141413e-05 0.039453857 0.0017549141 6.783359e-05 0.039453857 0.0015504214 6.111576e-05 0.039453857
0.0015566077 6.141415e-05 0.039453857 0.0015561376 6.1395294e-05 0.039453857 0.0019504634 7.994235e-05

throughput f4 [32, 1]
00000000: 4ae7 f53f 81dc f53f 61e6 f53f 5ae6 f53f
00000010: 7ce6 f53f 5ae6 f53f 6ce6 f53f 07e7 f53f
00000020: 5ce6 f53f 6ce6 f53f 5f5d f53f c4e6 f53f
00000030: 5ce6 f53f 2075 f53f b4b3 f53f 93d0 f53f
00000040: 5ae6 f53f dbe6 f53f 74e7 f53f 5ee6 f53f
00000050: 7d78 f23f 80e7 f53f 12e7 f53f 80e7 f53f
00000060: fee3 f53f 5ce6 f53f 5ae6 f53f f6d9 f53f
00000070: bfe6 f53f 5ae6 f53f 61e6 f53f 60cd f53f
1.9211209 1.9207917 1.9210931 1.9210923 1.9210963 1.9210923 1.9210944 1.9211129
1.9210925 1.9210944 1.916912 1.9211049 1.9210925 1.9176369 1.9195466 1.9204277
1.9210923 1.9211076 1.9211259 1.9210927 1.894302 1.9211273 1.9211142 1.9211273
1.9210203 1.9210925 1.9210923 1.9207141 1.9211043 1.9210923 1.9210931 1.92033

delay f4 [32, 1]
00000000: 7835 553d d33e 553d 4236 553d 4736 553d
00000010: 2b36 553d 4736 553d 3936 553d b235 553d
00000020: 4736 553d 3936 553d 50ad 553d eb35 553d
00000030: 4736 553d a398 553d 3b62 553d 2c49 553d
00000040: 4736 553d d835 553d 5335 553d 4536 553d
00000050: 373a 583d 4935 553d a935 553d 4935 553d
00000060: 5438 553d 4736 553d 4736 553d 0841 553d
00000070: f035 553d 4736 553d 4236 553d f24b 553d
0.052052945 0.052061867 0.052053697 0.052053716 0.05205361 0.052053716 0.052053664 0.05205316
0.052053716 0.052053664 0.052167237 0.052053373 0.052053716 0.05214752 0.052095633 0.052071735
0.052053716 0.052053303 0.052052807 0.05205371 0.052789893 0.05205277 0.052053127 0.05205277
0.05205567 0.052053716 0.052053716 0.05206397 0.052053392 0.052053716 0.052053697 0.05207438

ef1 f4 [32]
00000000: a4b7 3ac0 666d 38c0 124b 3ac0 f448 3ac0
00000010: 9a53 3ac0 f048 3ac0 b84e 3ac0 4e8d 3ac0
00000020: 2049 3ac0 624e 3ac0 4cac 13c0 b86d 3ac0
00000030: 3c49 3ac0 1cfc 18c0 c42e 2ac0 121d 34c0
00000040: f048 3ac0 5a78 3ac0 bade 3ac0 1e4a 3ac0
00000050: 13e1 9bbf 1c1d 3bc0 da48 3bc0 621c 3bc0
00000060: c4cf 3ac0 0849 3ac0 f048 3ac0 8885 37c0
00000070: 966b 3ac0 ee48 3ac0 1e4b 3ac0 d4f4 32c0
-2.9174585 -2.8816772 -2.910832 -2.9107027 -2.9113526 -2.9107018 -2.9110546 -2.9148746
-2.9107132 -2.911034 -2.3073912 -2.9129467 -2.9107199 -2.3903875 -2.6591043 -2.8142743
-2.9107018 -2.9135957 -2.9198442 -2.9107738 -1.2178062 -2.9236517 -2.9263215 -2.9236073
-2.918931 -2.9107075 -2.9107018 -2.867525 -2.9128165 -2.9107013 -2.9108348 -2.7961931

ef2 f4 [32, 1]
00000000: 00fc 47be 004b 963e 00a1 8cbe 0071 8dbe
00000010: 0057 89be 0073 8dbe 0037 8bbe 00a0 67be
00000020: 0060 8dbe 0059 8bbe 80db 7c3f 00fe 7ebe
00000030: 0056 8dbe 8046 6a3f 806d 283f 007e e43e
00000040: 0073 8dbe 001c 77be 0020 29be 00ff 8cbe
00000050: a010 1740 0034 ddbd 0040 13bd 00d4 debd
00000060: 00ec fb3d 0069 8dbe 0073 8dbe 00a3 aa3e
00000070: 004a 80be 0073 8dbe 009c 8cbe 004c f43e
-0.19529724 0.29354095 -0.27466583 -0.27625275 -0.26824188 -0.276268 -0.271904 -0.22619629
-0.27612305 -0.2721634 0.9877243 -0.24901581 -0.27604675 0.91513824 0.65792084 0.4462738
-0.276268 -0.24131775 -0.16516113 -0.275383 2.3603897 -0.10800934 -0.035949707 -0.108802795
0.12300873 -0.2761917 -0.276268 0.33327484 -0.25056458 -0.276268 -0.2746277 0.47714233
