train/models/HARQ-NumK=5-PDB=15_model_pd_satisfy.pt (torch, 45815 bytes, 14 tensors)

bias f4 [16]
00000000: 8372 8fba b8fd 2d3d b0f7 07bd c99f 0e3d
00000010: 4224 fbbc 1fa6 1f3d 4b9b ffbc 309b 04bd
00000020: a52d 083d 6698 1f3c 3d00 17bd 99b6 e03c
00000030: 868a 3d3d 100f ebbc 082c d73c 45e4 d53c
-0.0010944161 0.042478293 -0.033195198 0.03482035 -0.030656938 0.038976785 -0.03120198 -0.03237456
0.033246655 0.009740924 -0.03686546 0.02743082 0.046274684 -0.028693706 0.026266113 0.026109824

weight f4 [16, 1]
00000000: a321 90be f3c4 4b3e 3b8a 9ebe 5905 00bd
00000010: b2ac 8cbe 8028 e03e 9e8c 00bf 7135 9ebe
00000020: f950 06be 036e b3be 7902 7c3c 02b5 0fbf
00000030: bb81 163f 80f3 08bf d249 fa3e 32eb 043e
-0.28150663 0.19899349 -0.30964836 -0.0312551 -0.27475506 0.437809 -0.50214565 -0.30900148
-0.13116826 -0.3504487 0.015381449 -0.5613557 0.58791703 -0.5349655 0.48884445 0.12980345

bias f4 [32]
00000000: 3356 0abd 58e8 e03c aa90 bfbc 93ee f0bc
00000010: 0cd7 8a3c 54de 7b3d 4e88 bcbc 42fd ed3c
00000020: 4153 69bc 5c82 d0bc 49bd 17bd e24e 08bc
00000030: 89c0 ee3c 9fc9 ff3c 6ed3 e1bc fd07 9a3c
00000040: 872f 043d 5cd4 bbbc fafc e9bc 9ba5 f2bb
00000050: 6375 f1bb f849 ff3c 53ad 96bc 0f68 4abc
00000060: cdd9 023d 1c79 acbc 271a e63c 27a7 d93c
00000070: b03e c23b 0e85 e23c 73d7 c5bb 3392 d43c
-0.033773612 0.02745454 -0.02338441 -0.029410636 0.016948245 0.061491325 -0.023014214 0.029051427
-0.014241041 -0.025452785 -0.03704575 -0.008319588 0.029144542 0.03122407 -0.027566638 0.018802637
0.032271888 -0.02292841 -0.028563011 -0.0074049956 -0.00736873 0.0311632 -0.018393194 -0.012353911
0.031945992 -0.021053843 0.028088642 0.026568962 0.005927883 0.027651336 -0.0060376464 0.02594862

weight f4 [32, 16]
00000000: 4642 803e e154 663e 6f8d a93e 2f35 9abd
00000010: 35c7 07bd 6453 f83d aa0a 53bd 5c5b 583e
00000020: a36b f9bc d81f 47be 0858 c83d b3b5 ca3d
00000030: 1a2f de3d 9ad0 ca3e 5a0a 453e 3f7d 923e
00000040: fd38 abbc 227b 85be e358 93be 0f06 86be
00000050: e4fb b3be b138 09be 1d99 babe 9e5e bbbe
00000060: ce34 81be a2a3 c6be 2b19 33be d098 c43d
00000070: eb1b ad3e 9387 13be 11a0 74bd f959 6d3e
00000080: 0444 10be 3f98 50be 78b2 803e 4a8a 8bbe
00000090: 1b8a 9d3d e54b 8d3e db89 bf3d 82c9 043e
000000a0: 1962 2fbe 6a4c e83c d3cd 82bc d5ce f43d
000000b0: b9de ce3d 701a ae3e 45bf 9cbe 982d d1bc
000000c0: 90aa 0bbe 4eb0 a5be 1bbc 443c 7982 8abe
000000d0: d912 933e c615 25bb 4797 1abe 207b 663e
000000e0: 6943 96be 4f57 c6bd bf08 debd dca4 85be
000000f0: 375b 89be 980f 95bc f95f 663e dc95 983e
00000100: c359 4c3e 1cc2 3bbe f56e 83be e19c 8f3e
00000110: 0fca cb3d 69f0 173d 2407 bc3c fb7d 9ebe
00000120: 7dfa 13be 1e5e a13e 8c3a 70bd 0730 2ebd
00000130: b91e 88be ebf7 63be 4ce7 a73c 13cc 44be
00000140: 8622 e1bd ea76 593e 17f2 d2be 1bbb 2e3d
00000150: b797 99be 9f9e d6bd 764a 8f3d b61c 5c3e
00000160: 843d 26be 6510 58be bb2f 85be 76e5 7dbe
00000170: 97a8 77be e829 16be 0ddc 0e3e dab5 86be
00000180: a554 af3e 5983 3d3e d3f1 9fbe 3f78 07be
00000190: 1bcb 183e c1d8 dfbd f205 b3bb 9bef 00be
000001a0: c552 a33e 7e24 28be cf29 833e 0f55 643d
000001b0: 98e5 0c3d 8d1d 9e3e cf51 c2bd c45c 73be
000001c0: d08f cabd 5211 aa3e aba4 9bbe 1c41 143d
000001d0: 4a57 c7be 0c19 6c3e dbd7 b73d 1981 dabc
000001e0: c7ad de3d 3196 27bd 3563 753e 3922 a4be
000001f0: 3f03 dcbb 3eb1 ed3d c359 cb3e 247e 663e
00000200: 3c5b 72be eacc 7f3e 3a29 6fbd d4cb 57bd
00000210: 1f03 9abe 7530 9fbd e455 8a3e 21dc 8e3d
00000220: 1313 3dbe 6132 043e d8f2 0bbe c886 af3e
00000230: 1b6c a8be 7b9a bbbd 311a babe d7c6 24be
00000240: efa8 163e 3c7b 9a3e d490 c23d abc6 c43e
00000250: 31f5 d63d cfb5 293e cc08 a33e 338f a93e
00000260: 69ff 24be 3e86 b83e 38a1 343e e194 05be
00000270: ed28 54be 7af1 85be b87d 4e3d 4b50 a6be
00000280: 7936 4a3e 580f 753d e1ac 84be c027 133e
00000290: b400 9f3c 0abe e13d 7c16 803e 3d5d 9bbe
000002a0: d9fd be3e 4737 b03e 47e1 c23d b850 8dbe
000002b0: f1da 35be 2438 62bd 7638 11be bdba 173e
000002c0: a8ef 143e 62ae 853e 7bae ecbd 2313 0f3e
000002d0: 8931 123e e27d a0be a835 a7be a09a 2abe
000002e0: fc3a 853e c9e1 a1be aab4 a8be 3c7f 5b3e
000002f0: e5c2 2f3e 8d3a 9d3e 267a 92be d1f3 8dbe
00000300: 6cf4 0e3e 44b2 b43e c0ea 2d3e ad70 3a3c
00000310: 45cd 983d e1f7 c23e f1bc 89be 7113 4fbe
00000320: 4c2a 513e b708 91be 20b4 1abe 4f91 5e3e
00000330: 7d8e 203e 6050 963d e279 d6bd 5c7d 243d
00000340: de33 8f3e 32b1 28be b8f6 27bd f087 f93d
00000350: 7b7d 93be 0305 c83e 88e9 60be 26c7 03be
00000360: 6c3c 10be d337 8cbe 14e2 99be f643 203e
00000370: f4a3 103e 2185 bfbe d5b0 38be dc0c cb3e
00000380: b445 313e 26fa ce3d 7bd0 31be ad83 eabd
00000390: d50a 7bbc f8d4 d7bd 80ec 51be 063e 893d
000003a0: 8429 983d 5985 e9bb c48f 063c b7ea d2bd
000003b0: 5cf2 513d a2a3 2e3e ed56 68be e148 c8be
000003c0: 07ed 1e3e e352 f03d f69f 56be ebdc 9d3e
000003d0: 7f6b 42be ca24 8b3e 81e2 193e 8204 a7be
000003e0: 00b2 493e 8d8c b5be b676 27be 1704 b4bd
000003f0: 2663 52be 10fb a13e 750a 1cbd e544 313e
0.25050563 0.22493316 0.33115718 -0.07529675 -0.033148963 0.121252805 -0.051523842 0.21128601
-0.030446833 -0.19445741 0.09782416 0.098979376 0.10848828 0.39612275 0.1924223 0.2861118
-0.020901198 -0.26070505 -0.28778753 -0.26176497 -0.35153115 -0.13400532 -0.3644494 -0.36595625
-0.252356 -0.38796717 -0.1749007 0.09599459 0.33810362 -0.14407186 -0.059722964 0.23178853
-0.14088446 -0.20370577 0.2513616 -0.27253944 0.07692357 0.27596965 0.09352466 0.12967494
-0.17127265 0.02835675 -0.015967285 0.119535126 0.10101075 0.34004545 -0.30614677 -0.025534436
-0.13639283 -0.32361072 0.012007738 -0.27052668 0.28725317 -0.002518998 -0.1509677 0.22507906
-0.29348305 -0.096846215 -0.10841512 -0.2610234 -0.26827404 -0.018195912 0.22497548 0.29801834
0.19956116 -0.18335766 -0.2567059 0.28049377 0.09950649 0.037094507 0.022952624 -0.3095549
-0.14451022 0.31517118 -0.058649585 -0.04252627 -0.2658594 -0.22262542 0.020496033 -0.19218473
-0.10992913 0.21236768 -0.41200325 0.042658906 -0.29998562 -0.10479473 0.06996624 0.21495327
-0.16234404 -0.21100004 -0.26012978 -0.24794564 -0.24185406 -0.14664423 0.1395113 -0.26310617
0.34244266 0.18507136 -0.31239185 -0.13229464 0.14921229 -0.109300144 -0.005463355 -0.12591402
0.31899086 -0.1642017 0.25617835 0.05574518 0.034398645 0.3088192 -0.0948826 -0.23765856
-0.09890711 0.3321634 -0.3039907 0.036194906 -0.38933784 0.2305643 0.08976718 -0.026672887
0.10872989 -0.040914718 0.23963626 -0.3205736 -0.006714254 0.11606072 0.3971692 0.22509056
-0.23667616 0.24980512 -0.058388926 -0.05268462 -0.30080506 -0.07772914 0.27018654 0.0697558
-0.18464307 0.12909843 -0.13666856 0.34282517 -0.32894978 -0.09160324 -0.36348107 -0.16091476
0.1471288 0.30172145 0.0950028 0.38432822 0.10495985 0.1657326 0.3184265 0.33117065
-0.16113056 0.3603992 0.17639625 -0.13045074 -0.20718737 -0.26160794 0.050412863 -0.32483134
0.19747342 0.059829086 -0.25913146 0.14370632 0.019409515 0.11022575 0.25017154 -0.30344573
0.37303045 0.34417173 0.095156245 -0.27600646 -0.17759301 -0.05522932 -0.14181694 0.14817329
0.14544547 0.26109606 -0.11556717 0.13972144 0.14276709 -0.3134604 -0.32658124 -0.16660547
0.26021564 -0.31617573 -0.32950336 0.21435255 0.1716419 0.30708733 -0.28608817 -0.2772508
0.13960427 0.35292256 0.16984081 0.011379403 0.07461027 0.38079742 -0.26901963 -0.2022226
0.20426291 -0.2832696 -0.15107775 0.21735118 0.15679355 0.07339549 -0.10472466 0.040158615
0.2796926 -0.16473845 -0.041006774 0.12184131 -0.28806672 0.39066324 -0.21964085 -0.12868938
-0.14085549 -0.2738634 -0.30055296 0.15650925 0.14125043 -0.37406257 -0.18036206 0.39658248
0.17311746 0.10106306 -0.17364685 -0.114508964 -0.015322407 -0.105386674 -0.20500374 0.06701283
0.074297935 -0.007126492 0.008212987 -0.102986746 0.051256523 0.17054608 -0.2268941 -0.39118102
0.15520106 0.117345594 -0.20959458 0.3083261 -0.18986319 0.27176505 0.1502781 -0.32620627
0.19696808 -0.35458794 -0.16353878 -0.087898426 -0.20545635 0.31636858 -0.03809591 0.17311437

bias f4 [16]
00000000: 0886 883b 70cf 813b e151 8b3b a319 873b
00000010: aba0 7e3b d34c 853b 92b9 e73b c048 4c3d
00000020: 0210 bb3b 5698 013c 6f94 bfbc 289b b8bb
00000030: 098b b33b 9573 6d3d 092f 883b c18f 863b
0.0041663684 0.003961496 0.004251704 0.004122929 0.003885309 0.004067996 0.0070716823 0.049874067
0.0057086954 0.007909855 -0.023386208 -0.0056337304 0.0054792208 0.057971556 0.0041559977 0.0041064923

weight f4 [16, 32]
00000000: efdd b73d 75cc 313e 5578 17be fd23 3cbe
00000010: 37f1 3d3d eb02 87bd 2c0e 4fbe 86e4 443e
00000020: 18bb e6bc 710e bbbd 3b68 44be af48 a8bd
00000030: 6b3e 82be 6a74 fe3d f6af 1bbd 1a06 563e
00000040: 0997 893d 7219 5bbc 343e 0c3e 23f5 9e3e
00000050: 7f1e fdbd 947e 853e ac4c 533d 3c4a 8abe
00000060: c021 b03d c218 83be 231c 89bd 56b8 fcbd
00000070: 4257 8cbe 1f07 983e f810 b3be 7a1b 623e
00000080: 8699 8bbe 4132 39ba 827f a0bc 3ab9 8e3e
00000090: 9b4f 29be cc43 9d3d 8892 4f3c 3c22 813e
000000a0: ad6e 2dbc 1414 bd3d 5d33 70be dd33 90be
000000b0: f025 b93e e599 5abe a727 d4bd d280 45bd
000000c0: 47ee c73e 9839 f2bd 5f84 69be 1a90 43bd
000000d0: e3be 673e b561 423e f1c3 833e f9e1 dabd
000000e0: 252d 043e 39f8 c0be 90d4 393e 88e8 543e
000000f0: 1ce1 463e 0571 3cbe 2076 03be 530e 053e
00000100: e34e 53be 8a17 75be 95f3 c2be bba7 3f3d
00000110: eaf2 3a3e b6ed 883d 1188 a7bc 77eb 2a3e
00000120: 24cd 81be 4a70 2abb 540f debd bab8 57be
00000130: 01c1 b33e d549 6bbe 6fbe 0b3c e7e9 a1be
00000140: 733c 043d c277 4bbe ccb2 203e 80f3 20be
00000150: 8e14 8a3e 4df9 72be a9c6 353e cc7c 99be
00000160: 9af8 1b3e 5376 45be 3200 323d f270 9fbc
00000170: 16a1 483e ed86 093e 7ac3 b0be b897 9c3d
00000180: cb9b 4bbe 4ad5 9c3e 9bc9 8e3c 03ab 82bd
00000190: 34ad 5ebe a322 c93d a8f0 81be 9f9b 583e
000001a0: f066 253e 2c55 353e 30c4 923d f7bb b0be
000001b0: 8fea 993e 92cb 86bd 4067 17be 5a3b 32bd
000001c0: 6416 9b3e 23b5 6b3e 872d c33d c53c 573e
000001d0: 086a 92be ade2 4e3d 1b05 b2be 5241 b03d
000001e0: a7fc 93be ed20 2ebe 2e44 953e 9821 c43e
000001f0: 49c7 7bbe 38fa 35be 0147 243c e574 3b3e
00000200: c85e 45bc ee74 8bbd 03bf 8bbe 7f87 363e
00000210: 1839 9e3e c8a5 48be 933b ff3d ac10 5e3e
00000220: cc55 813e 2782 a4bd c919 21bc 702f 653e
00000230: d146 8a3e d265 c93e d63a 14be 12af 093e
00000240: bc50 953e c551 90be d004 e43d a486 18bd
00000250: 73db 8a3e ac42 dfbd d914 29bc 944e 353e
00000260: 5101 b9be 8f7b afbe a1ae 0bbe 1165 8b3e
00000270: 641e 503e a419 64be f302 093d bd5e 12be
00000280: 0f4c f3bd 16b4 b13e 6c3a 053e 8424 8ebd
00000290: 2f73 723c 85d2 333d d5ea 263d 31af 9dbd
000002a0: f176 75be cfbc 463e b15c da3c 6caf e53d
000002b0: 5123 b3bd 026b 5c3e 3214 5b3e ac8a 563e
000002c0: 8716 103e 9ab7 9c3e 446b 243d 3a86 ef3d
000002d0: b763 c23e 445e c93e e5ba 3cbe e174 913e
000002e0: 55d2 be3d 1161 abbd c1da b43e ff22 0dbe
000002f0: 43af 483e 97e9 bc3e 1332 8ebe 0f56 28be
00000300: d039 9abe eb8a 95bc 66d4 b9be 4177 b1bd
00000310: b733 883d 9313 613e 2d40 1d3e d758 793e
00000320: 1120 e53d a2c8 85be d71a 9cbe e1a4 c7bc
00000330: 0b0b c53e addb 883d fdf6 99bd 3666 7abe
00000340: 5581 02be bb17 a2be f6ce a73e eb08 48bc
00000350: 73a8 87be 4472 b53d 7654 4cbc 795e a6bd
00000360: f595 af3d 18bb 133e 1ef9 91be ec05 64be
00000370: f9e3 5dbd 2608 9dbe ea6a b7be ca15 b83e
00000380: 86f8 a3bc e7d3 23be 6446 10be 9a14 89be
00000390: 6638 843e 6e47 3bbd 7aee 5dbe bda2 82be
000003a0: 7a7c 3b3e 650e 8bbd f594 a5bd ea6d e3bd
000003b0: 3f5e 21be 40b6 9e3d 16a3 823e 1fb0 0ebe
000003c0: b809 f13c 9610 92be a11b 1ebe ff82 a63e
000003d0: 89c4 843c 1c81 b53e 020c aabd 6d0d 5bbe
000003e0: 1c14 69be 25bf 983e dee0 83be b760 4b3e
000003f0: e050 873d 5df9 163e 2974 363e 4a26 a2bd
0.08977877 0.1736315 -0.14791997 -0.18373103 0.04637262 -0.065923534 -0.2022025 0.192278
-0.028165385 -0.09133614 -0.19180386 -0.08216988 -0.25438246 0.12424548 -0.038009606 0.20900765
0.06718261 -0.013372766 0.13695604 0.310464 -0.12359332 0.26073134 0.051586792 -0.2700976
0.08600187 -0.25604826 -0.0669482 -0.12339847 -0.27410322 0.29692933 -0.34973884 0.22080794
-0.27265567 -0.00070646784 -0.01959205 0.27875692 -0.16534273 0.07678947 0.012669213 0.2522143
-0.010585469 0.09232345 -0.23457094 -0.2816457 0.36161757 -0.21347769 -0.103591256 -0.048218556
0.3904898 -0.118273914 -0.22804402 -0.047744848 0.22631411 0.18982585 0.2573543 -0.10687632
0.12907846 -0.3768938 0.18147492 0.20791829 0.1942181 -0.18402489 -0.1283803 0.12993746
-0.20635562 -0.2393476 -0.38076463 0.04679082 0.18256727 0.06685965 -0.020450624 0.16691385
-0.25351822 -0.002600687 -0.10842767 -0.21066561 0.35108188 -0.22977383 0.00852929 -0.31623766
0.03228421 -0.19869903 0.15693206 -0.15717888 0.26968807 -0.23727913 0.17751564 -0.29978025
0.15231553 -0.19283418 0.043457218 -0.019463036 0.195927 0.13430376 -0.34524137 0.076461256
-0.19883649 0.30631477 0.017430117 -0.06380274 -0.21745759 0.098210596 -0.2537892 0.21153115
0.16152549 0.17708272 0.07166326 -0.34518406 0.30061767 -0.06581797 -0.1478548 -0.043513633
0.3029052 0.23018317 0.09530168 0.21019275 -0.2859652 0.050509144 -0.3476952 0.08606209
-0.28903696 -0.17004748 0.2915358 0.3830688 -0.2458774 -0.17771232 0.010026694 0.1830631
-0.012046523 -0.06809412 -0.27294168 0.17825125 0.30902934 -0.1959449 0.12462535 0.21686047
0.2526077 -0.08032637 -0.009832808 0.22381377 0.27007154 0.39335495 -0.14475569 0.1344569
0.29163158 -0.28187385 0.111337304 -0.03723778 0.2712055 -0.109013885 -0.010319912 0.17705756
-0.36133817 -0.34273955 -0.13640834 0.27225545 0.20324093 -0.22275406 0.03345008 -0.14293952
-0.118797414 0.34707707 0.13010567 -0.069405586 0.01479797 0.04390194 0.040751297 -0.07699431
-0.23971154 0.19407962 0.026655527 0.112151 -0.087469704 0.21525195 0.21394423 0.20951337
0.14071093 0.30608827 0.04014136 0.116955236 0.379667 0.3932973 -0.1843067 0.28409484
0.093174614 -0.08368123 0.35323146 -0.13782881 0.19598107 0.36896965 -0.2777258 -0.16439079
-0.30122232 -0.018254718 -0.3629486 -0.08665324 0.06650489 0.21980123 0.15356512 0.24350296
0.11187757 -0.26129633 -0.30489227 -0.024370613 0.38484988 0.06682525 -0.075178124 -0.24453053
-0.12744649 -0.3165873 0.32775086 -0.012209157 -0.26495704 0.08859685 -0.012471309 -0.08123488
0.08573524 0.1442684 -0.28510374 -0.22267884 -0.05417249 -0.3067028 -0.35823756 0.35954124
-0.020015966 -0.15998803 -0.14089352 -0.2677353 0.2582428 -0.045722418 -0.21673003 -0.25514784
0.18309203 -0.06789855 -0.08085052 -0.11104949 -0.15758608 0.07749605 0.2551505 -0.13934372
0.02942358 -0.2852828 -0.15440227 0.32521817 0.016206997 0.35450065 -0.083030716 -0.2139184
-0.22761577 0.29833332 -0.25757498 0.19861113 0.066072226 0.14743562 0.17817749 -0.07917459

bias f4 [2]
00000000: 08d6 4abd db58 4fbd
-0.049520522 -0.05062185

weight f4 [2, 16]
00000000: 3594 fe3e feba 423e 9a4a e13e 8aac d53e
00000010: 7b17 583e 7b99 7c3e 8465 2f3e 46b9 213d
00000020: 4c55 023f b921 053f 534a 433e 448b 4a3c
00000030: f1c0 0a3f 9b85 efbe b9cd ef3e 3ba9 b23e
00000040: 956e d33e e1ef 073b ab16 c9be 062d e93e
00000050: 2026 51be 09db 4a3e 7b70 9f3e b763 0fbf
00000060: 4229 683d f70e 60be 8527 ca3e e690 a6be
00000070: 9c0a c03e b0cf ae3e aacd b93e e902 193f
0.49722448 0.19016644 0.4400223 0.417332 0.21102707 0.24667923 0.17128569 0.03948333
0.509114 0.5200458 0.19071321 0.012362305 0.54200655 -0.4678162 0.4683664 0.34894738
0.41295305 0.0020742344 -0.39275107 0.45542163 -0.204247 0.19810118 0.31140503 -0.5601153
0.05667997 -0.21880709 0.39483276 -0.32532424 0.37508094 0.34142828 0.36289722 0.59770066

weight f4 [1, 2]
00000000: 02f6 863f bdd6 333e
1.0543826 0.17562385

pout f4 [50, 5]
00000000: dc3e 6e3e 0cad b23d e4ab d03c e694 ca3b
00000010: 3e69 ad3a d93e 6e3e 12a4 5d3d 8f44 4e3c
00000020: d7f6 3f3b c8a6 323a dc3e 6e3e eab8 5d3d
00000030: 5958 4e3c cc08 403b 4cb7 323a d93e 6e3e
00000040: b4eb e43d f7cb 243d acd5 3c3c c8dd 363b
00000050: d93e 6e3e 1d84 5d3d 6e24 4e3c 41da 3f3b
00000060: d68c 323a d93e 6e3e fd1f ac3e 44de ad3e
00000070: 6ac9 803e bb75 143e dc3e 6e3e 84ac 5d3d
00000080: ae4c 4e3c 2bfe 3f3b 81ad 323a d93e 6e3e
00000090: 630e 5d3d dc9c 4d3c 1362 3f3b ba22 323a
000000a0: d83e 6e3e b8b8 5d3d 2858 4e3c 9608 403b
000000b0: 1bb7 323a dc3e 6e3e fbb0 683d ae29 503c
000000c0: 1f40 353b 2ea9 1e3a d73e 6e3e 1d7f 5d3d
000000d0: 361f 4e3c 9cd5 3f3b 9e88 323a d93e 6e3e
000000e0: 1ba5 5d3d 8945 4e3c b9f7 3f3b 8ea7 323a
000000f0: d93e 6e3e eab8 5d3d 5358 4e3c c208 403b
00000100: 4bb7 323a d93e 6e3e 4f32 5d3d 2ec9 4d3c
00000110: 9089 3f3b 2f45 323a d93e 6e3e 80b5 803d
00000120: 5102 6f3c 1b64 4c3b 0604 293a d73e 6e3e
00000130: e494 5b3d 0c28 493c cc00 3a3b 5d1f 2d3a
00000140: d93e 6e3e 5fed 663d 7b69 4e3c e879 343b
00000150: 9e0d 1f3a dc3e 6e3e f661 5c3d 090e 483c
00000160: 0342 373b 94c7 293a dc3e 6e3e 77f2 5b3d
00000170: afb2 4b3c a280 3d3b a983 303a d93e 6e3e
00000180: e3bc 5b3d ba18 4b3c 16d0 3c3b 27e6 2f3a
00000190: d93e 6e3e 30c3 5c3d a236 4d3c 5305 3f3b
000001a0: bcd2 313a d93e 6e3e dbcf a53d fb8e b63c
000001b0: 1200 aa3b 72e7 8d3a d93e 6e3e 19b6 5d3d
000001c0: c155 4e3c 6506 403b 12b5 323a d93e 6e3e
000001d0: 2902 5d3d 298d 4d3c 0254 3f3b 8916 323a
000001e0: d93e 6e3e d18e 5c3d 8be6 4c3c 53ba 3e3b
000001f0: 7a92 313a d83e 6e3e 252c 5d3d c3c1 4d3c
00000200: fa82 3f3b 693f 323a d73e 6e3e e8b8 5d3d
00000210: 5258 4e3c c408 403b 4bb7 323a dc3e 6e3e
00000220: 5cb1 5d3d 4851 4e3c 5502 403b 55b1 323a
00000230: d93e 6e3e 29c2 5c3d 2235 4d3c ee03 3f3b
00000240: 8cd1 313a d93e 6e3e 1ab8 5d3d 9b57 4e3c
00000250: 1b08 403b b0b6 323a d93e 6e3e fd7e 5d3d
00000260: 8aeb 473c c79b 353b 8f40 273a dc3e 6e3e
00000270: e6b8 5d3d 4e58 4e3c c108 403b 46b7 323a
00000280: d93e 6e3e 285a 793e c28a 383e ff15 cb3d
00000290: c461 303d d93e 6e3e 96b6 5d3d 2e56 4e3c
000002a0: d006 403b 76b5 323a d93e 6e3e de1b bd3e
000002b0: 7653 d13e 885e a93e 9494 543e d93e 6e3e
000002c0: 0d9d 5d3d b03d 4e3c aff0 3f3b 20a1 323a
000002d0: d93e 6e3e d06b 633d e545 4b3c 8b96 333b
000002e0: e0a1 203a d93e 6e3e 0cb2 5d3d f451 4e3c
000002f0: ec02 403b e3b1 323a d93e 6e3e 9c6c 233e
00000300: 9c59 a23d f2b7 f63c e643 183c d93e 6e3e
00000310: 7ab0 5b3d 46ec 4a3c 159a 3c3b f1b4 2f3a
00000320: d93e 6e3e e488 5b3d cf7a 493c eb8f 3a3b
00000330: 88b7 2d3a d93e 6e3e 6547 5c3d f969 4c3c
00000340: cf40 3e3b 782a 313a d93e 6e3e b5b8 5d3d
00000350: 1e58 4e3c 9008 403b 17b7 323a d93e 6e3e
00000360: d8e9 5c3d e06c 4d3c d936 3f3b 59fd 313a
00000370: dc3e 6e3e 5296 5b3d 8c21 493c f1f4 393b
00000380: 7712 2d3a dc3e 6e3e 8f54 5c3d 8182 4c3c
00000390: 4259 3e3b 6f3f 313a d93e 6e3e c89b 5b3d
000003a0: 1092 4a3c a527 3c3b b14a 2f3a d93e 6e3e
000003b0: f1b8 5d3d 5658 4e3c cd08 403b 4db7 323a
000003c0: d93e 6e3e e1b8 5d3d 5258 4e3c c008 403b
000003d0: 47b7 323a d93e 6e3e 94b8 5d3d 1158 4e3c
000003e0: 8708 403b 0ab7 323a
0.23266166 0.08724412 0.025472589 0.006182301 0.0013230217 0.23266162 0.054111548 0.012589588
0.0029291415 0.00068150135 0.23266166 0.054131426 0.012594306 0.0029302118 0.00068174745 0.23266162
0.11177769 0.04023358 0.011525553 0.0027903188 0.23266162 0.05408107 0.012581928 0.0029274377
0.00068111473 0.23266162 0.33618155 0.33958638 0.25153667 0.14498036 0.23266166 0.0541196
0.012591524 0.0029295783 0.0006816015 0.23266162 0.0539688 0.012549605 0.0029202744 0.0006795336
0.2326616 0.05413124 0.01259426 0.0029301993 0.0006817446 0.23266166 0.056809407 0.01270525
0.0027656627 0.00060524314 0.23266159 0.054076303 0.012580683 0.0029271608 0.00068105187 0.23266162
0.054112535 0.012589821 0.0029291941 0.0006815129 0.23266162 0.054131426 0.0125943 0.0029302095
0.0006817474 0.23266162 0.054003056 0.012560172 0.002922628 0.00068004703 0.23266162 0.062846184
0.014587955 0.0031187597 0.0006447438 0.23266159 0.05360879 0.012277614 0.0028381823 0.00066041
0.23266162 0.05637872 0.012598391 0.0027538482 0.0006067398 0.23266166 0.05380436 0.0122103775
0.002796293 0.0006476578 0.23266166 0.05369803 0.012432738 0.0028915782 0.0006733486 0.23266162
0.053646933 0.012396032 0.0028810552 0.00067100156 0.23266162 0.053897083 0.0125252325 0.002914746
0.0006783416 0.23266162 0.08096286 0.022284975 0.0051879967 0.0010826422 0.23266162 0.05412874
0.0125936875 0.0029300686 0.0006817143 0.23266162 0.05395714 0.012545862 0.002919436 0.0006793519
0.23266162 0.053847138 0.012506138 0.0029102757 0.0006773841 0.2326616 0.053997178 0.012558403
0.0029222355 0.000679961 0.23266159 0.05413142 0.012594299 0.00293021 0.0006817474 0.23266166
0.05412422 0.012592621 0.0029298265 0.00068165857 0.23266162 0.053896103 0.012524875 0.002914663
0.0006783239 0.23266162 0.05413065 0.012594129 0.0029301706 0.00068173837 0.23266162 0.054076184
0.012202153 0.0027711259 0.00063801644 0.23266166 0.05413141 0.012594296 0.0029302093 0.0006817471
0.23266162 0.24350798 0.18021682 0.09916305 0.043061987 0.23266162 0.054129206 0.012593789
0.0029300936 0.0006817201 0.23266162 0.36935323 0.40883988 0.33079934 0.20759803 0.23266162
0.054104853 0.01258795 0.0029287746 0.00068141706 0.23266162 0.05552274 0.012406801 0.0027402963
0.0006127637 0.23266162 0.054124877 0.012592781 0.0029298617 0.00068166683 0.23266162 0.159594
0.07927248 0.030117009 0.009293532 0.23266162 0.053635098 0.012385434 0.0028778363 0.00067026826
0.23266162 0.053597346 0.012297346 0.002846713 0.00066267746 0.23266162 0.053779025 0.012476438
0.0029030328 0.00067583425 0.23266162 0.05413123 0.012594251 0.0029301979 0.00068174436 0.23266162
0.05393395 0.012538165 0.002917698 0.0006789766 0.23266166 0.053610153 0.012276065 0.0028374756
0.0006602178 0.23266166 0.05379158 0.012482286 0.00290449 0.00067614665 0.23266162 0.05361536
0.012363926 0.0028710153 0.000668685 0.23266162 0.054131452 0.012594303 0.002930212 0.0006817475
0.23266162 0.054131392 0.012594299 0.002930209 0.00068174716 0.23266162 0.054131106 0.012594239
0.0029301958 0.0006817436

throughput f4 [50, 1]
00000000: f928 bd3f 4b71 c43f 4970 c43f e9d7 b63f
00000010: da72 c43f abac 4a3f e270 c43f ca78 c43f
00000020: 4d70 c43f ff0e c43f 1973 c43f 3e71 c43f
00000030: 4970 c43f f276 c43f d8d0 c23f 5b95 c43f
00000040: 0f24 c43f a792 c43f 3089 c43f 1b8d c43f
00000050: c77c c43f 88ae be3f 6c70 c43f 6d79 c43f
00000060: aa7f c43f 4277 c43f 4a70 c43f a770 c43f
00000070: d57c c43f 5470 c43f ec89 c43f 4970 c43f
00000080: 3a8b 8b3f 6670 c43f ff41 2d3f a271 c43f
00000090: a44c c43f 9e70 c43f 35e5 a83f 248e c43f
000000a0: 9694 c43f cd83 c43f 4d70 c43f b57a c43f
000000b0: 6495 c43f 0483 c43f 1390 c43f 4970 c43f
000000c0: 4970 c43f 4e70 c43f
1.4778129 1.5347074 1.5346767 1.428464 1.534755 0.7916972 1.5346949 1.5349362
1.5346771 1.5317076 1.5347625 1.5347059 1.5346767 1.5348799 1.5219984 1.535808
1.5323504 1.5357255 1.5354366 1.5355562 1.5350579 1.4897013 1.5346808 1.5349556
1.535146 1.5348895 1.5346768 1.5346879 1.5350596 1.534678 1.535459 1.5346767
1.0901864 1.5346801 0.6767883 1.5347178 1.5335889 1.5346868 1.3194948 1.5355878
1.5357845 1.5352722 1.5346771 1.5349947 1.535809 1.5352483 1.5356468 1.5346767
1.5346767 1.5346773

delay f4 [50, 1]
00000000: 4a95 8a3d 1572 853d c572 853d eb5e 8f3d
00000010: 0571 853d a657 013e 5c72 853d fe6c 853d
00000020: c272 853d fcb4 853d db70 853d 1e72 853d
00000030: c572 853d 3e6e 853d 588f 863d 9a59 853d
00000040: a1a6 853d 705b 853d db61 853d 335f 853d
00000050: 486a 853d 2c7a 893d ad72 853d 8e6c 853d
00000060: 5368 853d 086e 853d c372 853d 8472 853d
00000070: 3f6a 853d bd72 853d 5c61 853d c572 853d
00000080: 99db bb3d b072 853d 894d 173e da71 853d
00000090: ff8a 853d 8a72 853d fe35 9b3d 7f5e 853d
000000a0: 1f5a 853d 8365 853d c272 853d b06b 853d
000000b0: 9359 853d 0c66 853d 305d 853d c572 853d
000000c0: c572 853d c072 853d
0.06766756 0.065159 0.06516031 0.07000526 0.065156974 0.12631091 0.06515953 0.06514929
0.06516029 0.06528661 0.06515666 0.06515907 0.06516031 0.06515168 0.065703094 0.06511231
0.065259226 0.06511581 0.06512805 0.065122984 0.06514412 0.067127556 0.06516013 0.06514846
0.06514039 0.065151274 0.0651603 0.06515983 0.065144055 0.06516025 0.065127105 0.06516031
0.09172744 0.065160155 0.14775671 0.06515856 0.06520652 0.06515987 0.075786576 0.06512164
0.0651133 0.065135024 0.06516029 0.065146804 0.065112256 0.065136045 0.06511915 0.06516031
0.06516031 0.065160275

ef1 f4 [50]
00000000: 7e70 f0bf 7ba8 0ac0 eaa5 0ac0 d0f4 c6bf
00000010: 85ac 0ac0 3c2e 253e 6fa7 0ac0 0ebd 0ac0
00000020: f1a5 0ac0 dcf4 0dc0 2dad 0ac0 5ca8 0ac0
00000030: eaa5 0ac0 afb7 0ac0 0033 0cc0 2c88 0bc0
00000040: 4ae3 0dc0 ea12 0cc0 1efe 0ac0 f616 0bc0
00000050: 8cc9 0ac0 0096 fbbf 42a6 0ac0 f5be 0ac0
00000060: 99d3 0ac0 95b8 0ac0 eaa5 0ac0 d7a6 0ac0
00000070: bcc9 0ac0 02a6 0ac0 a27d 0cc0 eaa5 0ac0
00000080: 0458 bbbe 33a6 0ac0 166b a23e 5da9 0ac0
00000090: fe9c 0dc0 c1a6 0ac0 a612 84bf be1e 0bc0
000000a0: c96f 0bc0 e6e3 0ac0 f2a5 0ac0 e4c2 0ac0
000000b0: 3f8a 0bc0 9ce0 0ac0 922f 0bc0 e9a5 0ac0
000000c0: eaa5 0ac0 f4a5 0ac0
-1.878433 -2.1665332 -2.1663766 -1.5543461 -2.1667798 0.16130918 -2.1664693 -2.167789
-2.1663783 -2.21807 -2.1668198 -2.1665258 -2.1663766 -2.1674612 -2.1906128 -2.1801863
-2.2169976 -2.1886544 -2.17176 -2.1732764 -2.1685514 -1.9655151 -2.1663976 -2.167905
-2.169165 -2.167516 -2.1663766 -2.166433 -2.168563 -2.1663823 -2.195168 -2.1663766
-0.36590588 -2.166394 0.31722325 -2.166587 -2.212707 -2.1664279 -1.0318191 -2.1737514
-2.1786978 -2.1701598 -2.1663785 -2.1681452 -2.1803129 -2.169959 -2.1747785 -2.1663764
-2.1663766 -2.166379

ef2 f4 [50, 1]
00000000: dc7e 4bc1 b441 6dc1 1c49 6dc1 2af5 39c1
00000010: 5c35 6dc1 b807 d040 c644 6dc1 e8ff 6cc1
00000020: 0c49 6dc1 f4cf 63c1 5833 6dc1 1642 6dc1
00000030: 1e49 6dc1 9411 6dc1 fe97 5dc1 6cba 6ac1
00000040: 5462 64c1 607b 69c1 842e 6cc1 b8e4 6bc1
00000050: 88d6 6cc1 92e4 4fc1 2848 6dc1 a0f9 6cc1
00000060: 6ab5 6cc1 a00e 6dc1 1e49 6dc1 8046 6dc1
00000070: ecd5 6cc1 d848 6dc1 b08f 68c1 1c49 6dc1
00000080: 3038 4cc0 5448 6dc1 5c98 2e41 143f 6dc1
00000090: e6a3 65c1 c046 6dc1 a46a 12c1 54ce 6bc1
000000a0: 86f6 6ac1 7680 6cc1 0e49 6dc1 9cec 6cc1
000000b0: 60b5 6ac1 0a8b 6cc1 109f 6bc1 1e49 6dc1
000000c0: 1e49 6dc1 0049 6dc1
-12.718472 -14.828541 -14.830349 -11.6223545 -14.825527 6.500942 -14.82929 -14.812477
-14.830334 -14.23827 -14.825035 -14.828634 -14.830351 -14.816792 -13.849607 -14.670513
-14.274006 -14.592621 -14.761356 -14.74334 -14.802376 -12.993303 -14.830116 -14.810944
-14.794291 -14.816071 -14.830351 -14.829712 -14.802227 -14.830284 -14.53508 -14.830349
-3.1909294 -14.830158 10.912197 -14.8279 -14.352514 -14.829773 -9.151035 -14.737873
-14.685186 -14.781363 -14.830336 -14.807766 -14.669281 -14.783945 -14.726334 -14.830351
-14.830351 -14.830322
