train/models/HARQ-NumK=5_avg.pt (torch, 44915 bytes, 14 tensors)

bias f4 [16]
000000 0f 77 c1 bd 8a 90 53 3d 3c 66 e5 bd 29 ce a5 3d
       -0.09446537 0.051651515 -0.1120114 0.080959626
000010 6c 23 ee bd 10 49 d9 3d 16 6d ea bd 98 d7 e1 bd
       -0.1162785 0.10609639 -0.11446588 -0.11027449
000020 8d eb 46 3d 53 0f de bd 59 41 ca bd b7 64 ec bd
       0.048564482 -0.108427666 -0.09875745 -0.11542647
000030 be 1d b6 3d 0d 8b c7 bd f2 4b ab 3d 29 e6 00 3e
       0.088923916 -0.09743319 0.08364095 0.12587799

weight f4 [16, 1]
000000 d8 17 c1 be ba bf 0c 3e 47 8e c7 be d8 ea a4 39
       -0.37713504 0.13745013 -0.38975736 0.0003145549
000010 1f ca b9 be fb 9c ee 3e 99 96 16 bf 4f 50 c6 be
       -0.3628702 0.46604142 -0.58823544 -0.38733146
000020 cf 6d f3 bd 1b 1d f0 be 29 30 70 3c f1 5e 35 bf
       -0.11886179 -0.46897206 0.01465992 -0.70847994
000030 44 d0 08 3f 8a 45 1b bf f3 bc 06 3f 44 26 06 3e
       0.5344279 -0.60652983 0.52632064 0.13100535

bias f4 [32]
000000 23 b8 b5 bd 2e 6c d4 3d f6 c8 b4 bd ce 66 51 bd
       -0.08873012 0.10372196 -0.08827393 -0.051123433
000010 e4 f8 c5 3d d8 13 05 3e 44 4f b3 bd 7c 81 bb 3d
       0.09666613 0.12995851 -0.08755353 0.091555566
000020 b4 ec da bd f4 5e ce bd 83 e3 0b 3e ea 59 a5 bd
       -0.10689679 -0.100767046 0.13661008 -0.0807379
000030 48 36 ac 3d 0a 1b d2 3d 61 61 11 3e d1 75 fe 3d
       0.08408791 0.102590635 0.14197303 0.124248154
000040 df 1c ab 3d f3 bb b5 bd c6 2f 5d bd 09 38 db 3d
       0.08355116 -0.08873739 -0.05400064 0.10704047
000050 b8 0d b8 bd 25 2d bc 3d 7d 52 a8 bd 0f 4d a2 bd
       -0.08986992 0.09188298 -0.082188584 -0.07924854
000060 11 ba 16 3d 7d 18 b8 bd 7b f9 c1 3d bd cc a7 3d
       0.03679854 -0.08989046 0.09471413 0.081933476
000070 73 e3 9b 3d e4 43 d0 3d 2e ac 98 bd 89 2c d2 3d
       0.07611742 0.10169199 -0.07454716 0.10262401

weight f4 [32, 16]
000000 4c ca 94 3e f4 50 7d 3e 49 5f bf 3e aa 54 c8 bd
       0.2906059 0.24737912 0.37377384 -0.097817734
000010 24 31 16 3c 2f 72 11 3e d9 0e e6 bb 95 f7 81 3e
       0.0091669895 0.14203714 -0.007020813 0.25384203
000020 34 c7 49 bc b6 92 1b be 11 2b 0d 3e 41 4c 13 3e
       -0.01231556 -0.15192685 0.1378596 0.14384557
000030 3a aa 05 3e 1c 82 e1 3e 05 48 5c 3e 84 57 98 3e
       0.13053218 0.44044578 0.21511848 0.2975427
000040 88 62 ac bd 64 c9 88 be dd d1 b4 be c1 8e 7c be
       -0.08417231 -0.2671615 -0.35316363 -0.24663831
000050 50 62 d5 be 1f 9c 0d be 13 c0 dc be 62 cb dc be
       -0.4167657 -0.13829087 -0.4311529 -0.4312392
000060 7c b3 94 be fb 1a e8 be 1a b9 56 be 39 94 ed 3c
       -0.29043186 -0.45333084 -0.20969048 0.029001342
000070 8e fe a9 3e c7 89 57 be 57 8a 88 bd a8 6d 76 3e
       0.33202022 -0.21048652 -0.06667011 0.24065268
000080 a1 bc c2 bd f7 ce 38 be 38 dc 99 3e c3 65 94 be
       -0.09508634 -0.18047701 0.30050826 -0.28983888
000090 12 0d 00 3e 54 e7 98 3e 54 91 16 3e 2c 13 37 3e
       0.12504986 0.2986399 0.14703876 0.17878407
0000a0 a5 cc 18 be dc 29 a0 3d 2e 62 b7 3c c7 34 32 3e
       -0.14921816 0.07820484 0.022385683 0.17402945
0000b0 33 dc fe 3d 62 89 c9 3e 21 29 90 be b6 55 36 bc
       0.124443434 0.39362627 -0.2815638 -0.0111288335
0000c0 f2 bd 00 be 36 8e 9c be 50 5b c9 3c ad e4 92 be
       -0.12572458 -0.30577248 0.024579674 -0.2869009
0000d0 4d 91 99 3e 2c cf 66 3c 3d 89 0d be c6 55 73 3e
       0.29993668 0.01408748 -0.13821883 0.23763189
0000e0 46 2a 96 be 70 56 ae bd 3e 25 a9 bd 19 68 7e be
       -0.29329127 -0.085125804 -0.082590565 -0.24844398
0000f0 fd 6f 80 be d6 e0 b8 bb aa fe 77 3e 5e 74 9f 3e
       -0.2508544 -0.005642037 0.2421824 0.3114347
000100 25 c6 f6 3d 87 65 ee bd c7 4d ac be 49 3f 8a 3e
       0.12049512 -0.116404586 -0.3365309 0.27001408
000110 ef 91 98 3c 9f d2 e5 3d b5 c1 5d bd 6a 4d c7 be
       0.018624274 0.112218134 -0.05413981 -0.3892625
000120 8b be 51 be 80 7c 72 3e cc 3e 26 bd e2 93 f3 bd
       -0.20482843 0.23680305 -0.04058723 -0.11893441
000130 e0 b1 47 be c7 1b 99 be 1a 12 c1 3d cc 6d d4 bd
       -0.19501448 -0.29904005 0.09427281 -0.103725046
000140 e1 a6 30 be 23 17 7f 3e b9 f1 f3 be 42 e9 70 3d
       -0.17251159 0.2491117 -0.47645357 0.058816202
000150 77 ae ba be d9 63 7b bd f0 53 92 3b 23 38 1a 3e
       -0.3646123 -0.06137452 0.0044655725 0.15060477
000160 f8 64 4e be 19 f6 8c be d9 85 87 be 2c b0 a0 be
       -0.20155704 -0.27531508 -0.26469305 -0.31384408
000170 f5 cc 4e be 41 e9 58 be d5 d5 38 3e f1 99 4e be
       -0.20195372 -0.2118273 0.1805032 -0.20175911
000180 80 ed cc 3e 29 06 19 3e a0 e0 81 be 17 4c 06 be
       0.40024948 0.14943756 -0.25366688 -0.13114963
000190 36 a2 55 3e ef 6c 1a be 90 ae 54 3d c9 d3 89 bd
       0.2086266 -0.15080617 0.05192429 -0.06729848
0001a0 b2 1f b7 3e 3e c6 d9 bd b7 75 83 3e 27 31 e7 3d
       0.3576637 -0.10633515 0.25675747 0.11288672
0001b0 83 8c 76 bb 88 3f bb 3e e4 e7 0b be 8f 5c 92 be
       -0.0037620373 0.36571908 -0.13662678 -0.28586242
0001c0 71 b0 1a be 87 98 a6 3e 8c 34 b7 be 60 b2 5a 3d
       -0.1510637 0.32538244 -0.35782278 0.053392768
0001d0 88 07 e3 be 5d 63 68 3e a7 85 13 3d ee ac a4 bd
       -0.44341683 0.22694154 0.036016133 -0.08040796
0001e0 66 60 a1 3d 3f fc c0 bd 01 ca 53 3e cb 9d bf be
       0.07879715 -0.09423112 0.20682527 -0.37425074
0001f0 e7 cc 4b bc 50 73 80 3d 8e 5c c8 3e 4a 75 6e 3e
       -0.012438989 0.06271994 0.39133114 0.2328693
000200 d7 a6 13 be b4 08 30 3e 99 59 08 3d 21 6a e1 bc
       -0.14419113 0.1719082 0.033288572 -0.027516427
000210 f7 28 55 be 57 85 27 be 51 27 b8 3e 93 26 25 3e
       -0.20816408 -0.16359459 0.35967496 0.16127996
000220 3e 94 e3 bd aa c4 61 3e 6f 50 2e be 74 47 dd 3e
       -0.11112259 0.22047678 -0.1702287 0.43218577
000230 0a 5b d2 be cf 01 2d bb fb a6 e6 be 30 a5 81 be
       -0.41085082 -0.0026398783 -0.4504927 -0.2532134
000240 be 28 4c 3e a5 c9 aa 3e 9c b5 1a 3e 70 b8 b8 3e
       0.19937417 0.33356968 0.15108341 0.36078215
000250 f9 68 23 3e d7 10 4a 3e 27 e3 c2 3e 43 41 c6 3e
       0.15958013 0.19732986 0.38063928 0.38721666
000260 75 1b 0c be 15 f4 d5 3e 53 c0 67 3e 22 9b 88 bd
       -0.13682349 0.41787782 0.2263196 -0.06670214
000270 c7 03 33 be 4c f1 4b be cd 0b ac 3d 59 9e 9a be
       -0.1748191 -0.19916266 0.08400688 -0.30198935
000280 85 d9 c5 3c e4 39 17 3e b5 6b de be a6 f4 a1 3d
       0.024151573 0.14768177 -0.4344155 0.07907991
000290 b4 8d 1e be e0 04 4d 3e 49 7b 8f 3d 7f 0f f5 be
       -0.15483743 0.20021391 0.07005937 -0.47863385
0002a0 22 e7 6c 3e c7 0d 2b 3e cd 88 08 3e 33 68 ea be
       0.23135045 0.16704474 0.13333435 -0.45782623
0002b0 6c 5b b8 bd d2 23 71 be 86 30 64 bd 66 12 83 3e
       -0.09001812 -0.2354882 -0.055710338 0.25599974
0002c0 bd 62 5b 3e 54 a5 51 3e 78 1e 3b bd 67 fb 1e 3e
       0.21424384 0.20473224 -0.045683354 0.1552559
0002d0 28 cc 5a 3e 16 b7 c0 be cc a0 84 be 7d 50 c6 bd
       0.21366942 -0.37639683 -0.25903928 -0.09683321
0002e0 01 03 9f 3e 40 ce 7d be 29 c8 b1 be 6e 0a 90 3e
       0.3105698 -0.2478571 -0.34723023 0.28132957
0002f0 ac 5d e6 3d 9c 82 bf 3e 69 4f b3 be dd 7c b0 be
       0.11248335 0.37404335 -0.35021523 -0.34470263
000300 e1 26 c5 3d f1 3e a9 3e 79 59 ff 3d 4c 3b 0b 3d
       0.09626556 0.33055833 0.124682374 0.033992097
000310 7a 65 f0 3c 4e 6b b8 3e 05 0e a1 be 74 3b 7d be
       0.029345263 0.36019367 -0.3145601 -0.24729711
000320 95 f1 3a 3e aa f4 a7 be 85 3a 46 be 22 e7 2f 3e
       0.18256219 -0.3280385 -0.19358261 0.17178014
000330 b9 f6 09 3e 7e f4 e6 3c 3a 84 02 be 1e 3a f1 3c
       0.13473023 0.028192755 -0.12745753 0.029446658
000340 36 14 61 3e 9f f0 25 be c6 49 d2 bd 64 71 0b 3e
       0.21980366 -0.16205071 -0.102679774 0.13617474
000350 73 1a b3 be 2c 4c cb 3e 9d 54 90 be 31 d4 42 be
       -0.34981117 0.39706552 -0.28189555 -0.19026257
000360 71 52 35 be f2 af ab be 38 c7 a7 be 2f c8 c0 3d
       -0.1770723 -0.33532673 -0.3276918 0.09413182
000370 1b cd 14 3e c1 35 df be d4 8d 34 be f5 db d4 3e
       0.14531367 -0.43595698 -0.17632228 0.41574064
000380 1f 86 44 bb c2 f2 59 3e e6 cb b3 be 16 61 4d be
       -0.002998717 0.21284011 -0.351165 -0.20056567
000390 27 1f 45 be ca d2 16 3c b9 f6 c4 be 14 19 e2 bd
       -0.19250165 0.0092055295 -0.38469484 -0.110399395
0003a0 19 5b 99 bd f3 05 3e be e8 3a 9c 3d 7b 26 91 be
       -0.074880786 -0.18556957 0.07628423 -0.2834967
0003b0 e9 4c 27 3e d1 c7 12 bc a9 df ec bd 37 85 84 be
       0.16337933 -0.008958773 -0.11566097 -0.25882885
0003c0 dc ca 81 3d f8 f6 12 3e 61 99 9b be 90 a9 9d 3e
       0.063375205 0.14352024 -0.30390456 0.30793428
0003d0 af 55 91 be 3a 36 9a 3e 5a 51 5c 3d e2 40 d7 be
       -0.28385684 0.30119497 0.05378852 -0.4204169
0003e0 7f ff 08 3e ee eb e5 be b5 46 34 be d2 52 3d be
       0.13378714 -0.44906563 -0.17605098 -0.18488625
0003f0 e7 c4 36 be 0a 65 61 3e c8 5c 46 bc 62 6b 61 3e
       -0.1784855 0.220112 -0.012107082 0.2201362

bias f4 [16]
000000 0e 58 a1 3d da 34 9a 3d 37 1c a5 3d 52 3b a0 3d
       0.07878123 0.07529612 0.08062022 0.078238145
000010 55 e9 90 3d a4 77 ab 3d 17 e8 bf 3d a4 34 a6 bd
       0.070757546 0.08372429 0.093704395 -0.08115509
000020 94 54 a6 3d 5b 00 b3 3d 12 52 c8 3d 0a 82 84 bd
       0.08121601 0.08740302 0.09781279 -0.064701155
000030 3d 56 aa 3d 21 54 33 bd bb a5 a1 3d 89 5f a3 3d
       0.0831723 -0.043781403 0.07892939 0.07977206

weight f4 [16, 32]
000000 09 5c fe 3c 91 10 61 3e 6d 04 59 be 1a 8d 1d be
       0.031049745 0.21978976 -0.21193095 -0.15385857
000010 da 25 ac 3d d2 77 f5 3c 4c 2d 87 be 37 be 38 3e
       0.08405657 0.029964361 -0.26401746 0.18041311
000020 0d 30 ac bd 88 e9 18 be 48 30 84 bc f9 c8 0a be
       -0.084076025 -0.14932835 -0.016136304 -0.13553227
000030 7a 9e 90 be a9 3d 1c 3e 8c 52 15 3e 58 67 af 3e
       -0.28245908 0.15257896 0.1458227 0.34258533
000040 a5 2d 3b 3d a5 3d 63 bd 82 8d 17 3e c5 96 9a 3e
       0.045697827 -0.05547871 0.14800075 0.30193153
000050 13 09 2b be ad 09 7d 3e 32 28 9d bb 7b df a6 be
       -0.1670268 0.24710722 -0.0047960514 -0.32592377
000060 83 3f aa 3d d7 75 90 be a7 f6 4d bd 29 9e 0d be
       0.08312895 -0.28214905 -0.050284054 -0.13829865
000070 44 c5 91 be 34 2d d6 3e 60 50 cf be f3 80 58 3e
       -0.28470814 0.41831362 -0.4049101 0.2114294
000080 60 c3 a8 be 7c e4 2f 3d 89 ad a3 bd b2 cb 9c 3e
       -0.3296156 0.04294251 -0.079920836 0.30624157
000090 c4 6b 04 be 4f dc 2f 3e d8 97 48 bd 0f b8 77 3e
       -0.12931734 0.17173885 -0.048972934 0.24191307
0000a0 8a 5e 81 bd be cf 18 3d a9 01 75 bd 55 86 aa be
       -0.0631686 0.037307493 -0.059816036 -0.33305612
0000b0 7b a2 ab 3e a4 32 3d be 20 6b 9f 3d 34 29 ae 3d
       0.335224 -0.18476349 0.07784104 0.085039526
0000c0 22 af bd 3e d0 bb 24 be ea 37 5f be be 0a 63 bd
       0.37047678 -0.1608727 -0.21798673 -0.055430166
0000d0 5d c1 3c 3e 5b b0 34 3e 47 96 50 3e 59 34 24 be
       0.18433137 0.176454 0.20369826 -0.16035594
0000e0 84 ff 00 3e 91 df ce be ed 14 4b 3e dc cb 46 3e
       0.12597471 -0.40404943 0.19832201 0.19413704
0000f0 35 ab 3c 3e fa 63 88 bd cc 60 39 be 04 e8 f8 3d
       0.18424685 -0.06659694 -0.18103331 0.121536285
000100 da cc 84 be 5c 41 43 be 86 52 e4 be da b2 a0 3d
       -0.2593754 -0.19067901 -0.4459421 0.07846613
000110 fc 4e 61 3e 2a 28 27 3e a6 53 af bd 74 0c 26 3e
       0.22002786 0.16323915 -0.085608765 0.16215688
000120 6a 7f 9f be 18 f4 76 bd 14 a0 8b 3d c8 6e 88 be
       -0.31151897 -0.06029138 0.06817642 -0.2664702
000130 56 02 a9 3e 18 28 48 be fa d5 45 3e c6 d3 39 be
       0.33009595 -0.19546545 0.19319907 -0.18147191
000140 de 01 8e 3c 17 de 79 be 76 db 2f 3e d2 ca 22 be
       0.017334875 -0.24401127 0.17173561 -0.15897682
000150 6c ff 6c 3e 3d 19 7a be 23 13 f3 3d 37 46 b7 be
       0.2314431 -0.2442369 0.118688844 -0.35795757
000160 6e 45 17 3e 53 c2 63 be bc 4b 87 3d c2 3e e5 bc
       0.14772579 -0.22242098 0.06606242 -0.027984027
000170 f6 2b 3c 3e bb 8b 83 3e f1 2d ce be 68 a5 96 3d
       0.18376145 0.25692543 -0.40269426 0.073557675
000180 86 ce 83 be 3f 39 b4 3e 9b 06 3d bd 9f 72 0c bd
       -0.25743502 0.35199925 -0.046148878 -0.034289
000190 ce 59 38 be f3 7d 46 3e 8a 7d a1 be a0 8a 4c 3e
       -0.18003008 0.19383983 -0.3154109 0.19974756
0001a0 f6 65 d9 3d dd 7a f4 3d 4e ec 7c 3e 74 dc cb be
       0.10615151 0.11937497 0.24699518 -0.3981663
0001b0 c4 95 8b 3e 48 04 1a bd 30 62 11 3d d9 e6 b7 3d
       0.272627 -0.03760174 0.03549403 0.089795776
0001c0 d2 1f 90 3e 28 b5 40 3e b8 55 d9 3d 7f 75 4e 3e
       0.28149277 0.18819106 0.10612053 0.20162009
0001d0 d1 9a a8 be 60 58 16 3d 60 a5 ce be 2a 2b fb 3c
       -0.32930616 0.036705375 -0.40360546 0.03066023
0001e0 c0 6e 95 be 0d cf 48 be f1 b8 9d 3e 60 82 bc 3e
       -0.29186058 -0.19610234 0.30805162 0.36818218
0001f0 7c 40 83 be de 8b 69 bd ca 18 37 bd d8 d8 31 3e
       -0.25635135 -0.057018153 -0.044701375 0.17367876
000200 a9 a4 8b bd 6d 5b f0 bc 75 3f a8 be 15 bd 4f 3e
       -0.06818516 -0.02934047 -0.32860914 0.20286973
000210 57 47 af 3e e8 0a da bd 18 f4 87 3d b4 85 52 3e
       0.34234115 -0.106466115 0.06638354 0.20558816
000220 38 b9 51 3e 02 e6 06 be 90 ab 22 3e 45 e3 34 3e
       0.20480812 -0.13173679 0.15885758 0.17664821
000230 33 88 78 3e b8 73 d6 3e 1c d9 fe 3c 7e 8a 85 3e
       0.24270706 0.4188516 0.031109385 0.26082224
000240 fe b6 8a 3e cf c7 a4 be 6b 99 f3 3d e8 f0 3e bd
       0.27092737 -0.32183692 0.118944965 -0.046616465
000250 9d 47 6b 3e 6a 80 00 be e3 21 73 bd 15 11 03 3e
       0.22976537 -0.12548986 -0.05935849 0.12799485
000260 b0 e5 b9 be 47 41 bc be 1f 06 fb bd c6 af 83 3e
       -0.3630805 -0.36768553 -0.12257027 0.25720042
000270 03 7c 47 3e 7e f4 e4 bd dd 74 71 bc 31 75 1c be
       0.194809 -0.11179446 -0.014737335 -0.1527908
000280 c4 1a 36 be 52 20 cc 3e 0c fd 7d 3d ec 4b 15 bd
       -0.17783648 0.39868408 0.062008902 -0.036449358
000290 b2 78 64 3d af ef 15 3e c1 d9 d0 bc e5 5d b2 bd
       0.055779167 0.14642213 -0.025494458 -0.08709315
0002a0 6d f6 99 be 29 86 08 3e 82 0c 57 3e fa 6f 5d 3d
       -0.3007082 0.13332428 0.21000865 0.054061867
0002b0 3e bc e8 bd b8 bf 7d 3e d7 fb ce 3e dc 18 b4 3e
       -0.11364029 0.24780166 0.40426514 0.35175216
0002c0 64 14 f7 3d 83 35 85 3e 38 e5 5c 3d e5 5e e3 3d
       0.12064436 0.2601739 0.053929538 0.11102084
0002d0 8e 18 ac 3e ee ad c4 3e 0f 8e 7b be 5c ca 64 3e
       0.33612484 0.38413948 -0.2456591 0.22342819
0002e0 a6 07 b5 3d 3a 0a e8 bd 61 6a bf 3e 60 49 1a be
       0.088393494 -0.113300756 0.37385848 -0.15067053
0002f0 02 01 3c 3e 67 9b fe 3e 70 ed ac be 12 aa 2f be
       0.1835976 0.49727938 -0.337749 -0.1715472
000300 55 3e 9e be 0d b3 41 3d c3 5b e2 be f3 56 4f bd
       -0.3090693 0.047289897 -0.44210634 -0.05062003
000310 2f be df 3d e6 a2 aa 3e a2 ab 90 3d ee b3 94 3e
       0.109249465 0.33327407 0.07063986 0.29043525
000320 b6 06 2d 3d 55 f2 ab be 20 a0 eb bd 34 3f c2 bd
       0.04224273 -0.33583322 -0.11505151 -0.09484711
000330 e9 06 de 3e 3a 2f 0d 3e 26 a7 f5 3d 79 9b c0 bd
       0.43364647 0.13787547 0.11994772 -0.09404654
000340 91 7b b7 bd e5 f8 c4 be 26 63 ba 3e 27 04 42 3d
       -0.08959115 -0.3847114 0.3640377 0.04736724
000350 05 64 85 be 9d ec 28 3e 2b 8c ab bd f1 c3 1c be
       -0.2605287 0.16496511 -0.08376344 -0.1530912
000360 1d 8e 8e 3d d5 1d b1 3d 03 e2 5d be 1d 65 33 be
       0.069607 0.08648268 -0.21668248 -0.1751904
000370 29 1d 9a bd 4d 46 33 be 19 a8 db be b7 84 d1 3e
       -0.07525093 -0.17507286 -0.42901686 0.40921566
000380 1f 5b 9c bd 64 05 88 be 8c 30 d4 bc 04 bf ae be
       -0.076345675 -0.26566613 -0.025902055 -0.34130108
000390 93 c3 92 3e 40 06 16 be 7e 40 b9 bd fe 7c b7 be
       0.28664836 -0.14650822 -0.09045504 -0.3583755
0003a0 9d 6c 97 3e ac 3d 4b 3d 24 75 20 be 1d b8 8a 3b
       0.29575053 0.04961936 -0.15669686 0.004233374
0003b0 4b 0b 88 be 4f 50 07 bd 19 91 22 3e 5e a7 9a be
       -0.26571116 -0.033035573 0.15875663 -0.30205816
0003c0 89 8d 8a bd 47 93 23 be 67 12 77 be 08 0f 5f 3e
       -0.06765277 -0.1597415 -0.24128114 0.21783078
0003d0 cc 53 54 bd fd 22 78 3e 41 bd f9 3c e6 42 c8 bd
       -0.051837727 0.24232097 0.030485751 -0.09778385
0003e0 d0 a8 25 be 7d fc d5 3e 0a ec bb be 9c c1 ca 3d
       -0.16177678 0.41794196 -0.3670352 0.09900209
0003f0 7c 3d 12 3e a4 01 29 bb a4 16 96 3e ed 8d 38 be
       0.14281267 -0.0025788331 0.29314148 -0.1802289

bias f4 [2]
000000 ff e0 8c 3d cd fa a0 3d
       0.06878852 0.078603365

weight f4 [2, 16]
000000 0e 49 0f 3f 2b ea 37 3e ab 2c 09 3f f9 cf e5 3e
       0.5597085 0.17960422 0.5358378 0.44885233
000010 e9 fb 41 3e ae 0e a5 3e 6f 93 99 3e 9a fc b9 bc
       0.18943752 0.32237762 0.29995295 -0.022703458
000020 a4 96 f8 3e 28 38 29 3f 42 8c 97 3e 37 c1 0c bd
       0.4855243 0.6610131 0.29599196 -0.03436395
000030 58 f0 27 3f 97 87 08 bf cc 67 08 3f 08 23 c7 3e
       0.6560111 -0.53331894 0.5328338 0.38893914
000040 53 86 f9 3e b4 e4 5a bb 4b 73 91 be fa e7 fd 3e
       0.48735294 -0.0033400478 -0.28408274 0.49591047
000050 71 db 62 be 26 92 93 3e 20 61 e9 3e 35 06 22 bf
       -0.22154023 0.2882244 0.45581913 -0.6329072
000060 20 ab 25 3d e6 01 7c bd fa 57 04 3f cb a9 c1 be
       0.0404464 -0.061525248 0.5169674 -0.37824854
000070 42 d9 00 3f 5f ea 87 3e 77 af e1 3e 1f c0 25 3f
       0.5033151 0.26545998 0.44079182 0.6474628

weight f4 [1, 2]
000000 9a 42 90 3f 52 e6 84 3e
       1.1270325 0.2595697

pout f4 [50, 5]
000000 b9 2b 38 3d 8b e0 f4 3b 5a 2a 68 3a 92 74 a5 38
       0.044963572 0.0074730567 0.00088564085 7.889526e-05
000010 82 41 bc 36 48 39 b8 3d 1f e5 03 3c ab ef 3a 3a
       5.6104627e-06 0.089953005 0.008050232 0.000713105
000020 0f 90 85 38 9a 30 c0 36 90 71 66 3d a5 f9 4d 3b
       6.368767e-05 5.727704e-06 0.056260645 0.0031429317
000030 b7 9a 38 39 f8 22 26 37 72 ae 15 35 4e dc d7 3d
       0.00017605243 9.902513e-06 5.5760677e-07 0.10540067
000040 dd ff 35 3c 8d 76 99 3a b3 66 01 39 40 39 5a 37
       0.011108366 0.0011708305 0.00012340657 1.3007142e-05
000050 a4 e1 89 3d 7b 18 94 3b 4d 2f 9c 39 9c 0c a6 37
       0.06732491 0.00451952 0.0002978988 1.9794614e-05
000060 2b 4f b2 35 a4 e1 89 3d 00 83 93 3b 46 1e 9e 39
       1.3285074e-06 0.06732491 0.0045017004 0.00030158664
000070 ed 40 aa 37 f7 92 b7 35 68 2b 0c 3d 8f 10 c7 3a
       2.0295813e-05 1.3677335e-06 0.034221083 0.001518743
000080 5d d3 67 38 f0 8c ed 35 7e 68 62 33 50 dc d7 3d
       5.527154e-05 1.7698894e-06 5.271476e-08 0.10540068
000090 d2 cd 34 3c b4 ba 96 3a 8e 36 fd 38 78 b0 55 37
       0.0110353995 0.0011499734 0.00012074142 1.2736877e-05
0000a0 50 dc d7 3d e3 02 36 3c 14 79 99 3a c4 68 01 39
       0.10540068 0.011109087 0.0011709058 0.00012341427
0000b0 b3 3c 5a 37 92 71 66 3d 21 7e 5d 3b cb e8 40 39
       1.3007945e-05 0.056260653 0.0033797103 0.00018397269
0000c0 dd 1e 22 37 71 41 08 35 a4 e1 89 3d 90 86 94 3b
       9.663138e-06 5.075918e-07 0.06732491 0.0045326427
0000d0 da fd 9f 39 bc 57 ac 37 b7 a5 b9 35 a4 e1 89 3d
       0.00030515977 2.0544852e-05 1.3831803e-06 0.06732491
0000e0 c9 76 93 3b 86 e9 9d 39 1a f9 a9 37 ac 49 b7 35
       0.0045002443 0.00030119362 2.0262367e-05 1.3656004e-06
0000f0 46 39 b8 3d 80 1f 4a 3c 59 b9 af 3a e1 44 01 39
       0.08995299 0.012336612 0.0013406678 0.00012328058
000100 9f 74 2a 37 2e dd 9f 3d ec b2 0c 3c 16 e5 47 3a
       1.0159943e-05 0.078058586 0.00858758 0.0007625384
000110 f5 2d 75 38 d4 53 89 36 a5 e1 89 3d 94 86 94 3b
       5.8455353e-05 4.092677e-06 0.067324914 0.0045326445
000120 da fd 9f 39 bb 57 ac 37 b6 a5 b9 35 2e dd 9f 3d
       0.00030515977 2.054485e-05 1.3831802e-06 0.078058586
000130 09 ff da 3b 5a f2 05 3a 30 15 1c 38 b4 4b 34 36
       0.0066832346 0.00051096606 3.721303e-05 2.6866155e-06
000140 2e dd 9f 3d a0 45 c7 3b 71 cf f8 39 b1 64 1b 38
       0.078058586 0.006081298 0.00047456802 3.7048656e-05
000150 1b 18 42 36 a5 e1 89 3d e4 c3 b3 3b 4c a6 c6 39
       2.8922284e-06 0.067324914 0.0054859985 0.00037889404
000160 39 5a c7 37 21 26 bf 35 90 71 66 3d 3a 70 4f 3b
       2.3764662e-05 1.4241706e-06 0.056260645 0.0031652586
000170 d8 ba 3a 39 ae 16 28 37 f1 4e 17 35 90 71 66 3d
       0.00017807947 1.0018861e-05 5.636676e-07 0.056260645
000180 9d a2 4e 3b 89 d0 39 39 10 4d 27 37 15 a4 16 35
       0.003153003 0.0001772066 9.971918e-06 5.6118125e-07
000190 46 39 b8 3d 25 89 04 3c 55 c0 3e 3a 2d 45 89 38
       0.08995299 0.008089338 0.00072765845 6.545554e-05
0001a0 fd 90 c5 36 50 dc d7 3d cc 03 36 3c d4 79 99 3a
       5.8879364e-06 0.10540068 0.011109304 0.0011709281
0001b0 66 69 01 39 c7 3d 5a 37 90 71 66 3d f3 b6 4e 3b
       0.00012341663 1.3008196e-05 0.056260645 0.0031542152
0001c0 a7 ec 39 39 ca 65 27 37 6b b8 16 35 c4 a5 01 3e
       0.00017731135 9.977675e-06 5.614772e-07 0.12660891
0001d0 70 7d 82 3c 78 97 03 3b 94 3f 85 39 d2 15 07 38
       0.015928954 0.0020079296 0.00025415106 3.220683e-05
0001e0 68 2b 0c 3d 39 de 98 3a e2 3c 27 38 ac 2c b7 35
       0.034221083 0.0011662907 3.9872604e-05 1.3647564e-06
0001f0 59 a3 48 33 50 dc d7 3d ca 2f a3 3c a3 b2 3d 3b
       4.6714693e-08 0.10540068 0.019920249 0.0028945587
000200 cf 6a b4 39 6b e4 14 38 c4 a5 01 3e d4 91 82 3c
       0.00034411854 3.549868e-05 0.12660891 0.015938677
000210 d5 d4 03 3b 00 88 85 39 24 59 07 38 68 2b 0c 3d
       0.0020115871 0.00025469065 3.2269527e-05 0.034221083
000220 fb 52 9a 3a ea c2 22 38 10 f0 ab 35 07 73 38 33
       0.0011773998 3.8805338e-05 1.281036e-06 4.2945455e-08
000230 a3 e1 89 3d 1e 64 94 3b 8f d6 9f 39 4d 2f ac 37
       0.0673249 0.0045285365 0.00030486702 2.0526024e-05
000240 25 7b b9 35 50 dc d7 3d be 03 36 3c c8 79 99 3a
       1.3819414e-06 0.10540068 0.011109291 0.0011709267
000250 57 69 01 39 b0 3d 5a 37 50 dc d7 3d a3 1f 64 3c
       0.00012341641 1.3008175e-05 0.10540068 0.013923558
000260 ac 06 ca 3a 11 88 20 39 77 2c 71 37 c4 a5 01 3e
       0.0015413365 0.00015309478 1.4375072e-05 0.12660891
000270 e3 4a 83 3c 7e fb 04 3b d4 b1 86 39 b0 6d 08 38
       0.01602692 0.0020291503 0.00025690964 3.252708e-05
000280 46 39 b8 3d f9 8c 04 3c e8 c5 3e 3a 14 49 89 38
       0.08995299 0.008090251 0.0007277415 6.546281e-05
000290 85 96 c5 36 68 2b 0c 3d 2a da 98 3a ff 65 22 38
       5.8885803e-06 0.034221083 0.0011661698 3.87188e-05
0002a0 78 eb ad 35 a6 cc 3c 33 69 2b 0c 3d 32 3d 98 3a
       1.2958035e-06 4.3958288e-08 0.034221087 0.0011614917
0002b0 8b b5 22 38 19 a1 af 35 7e a6 3f 33 90 71 66 3d
       3.8792885e-05 1.3085402e-06 4.4622077e-08 0.056260645
0002c0 ee aa 67 3c a1 e4 24 3b 60 ce ae 39 72 7e 12 38
       0.014139874 0.0025160688 0.00033341628 3.4926874e-05
0002d0 a4 e1 89 3d 76 86 94 3b bd fd 9f 39 98 57 ac 37
       0.06732491 0.0045326306 0.00030515893 2.0544787e-05
0002e0 8e a5 b9 35 a4 e1 89 3d b0 ca 97 3b 7e 19 9e 39
       1.3831757e-06 0.06732491 0.0046323165 0.00030155102
0002f0 18 a3 a3 37 88 91 ab 35 90 71 66 3d 3c 70 4f 3b
       1.950706e-05 1.2782848e-06 0.056260645 0.003165259
000300 de ba 3a 39 b9 16 28 37 fb 4e 17 35 a4 e1 89 3d
       0.00017807956 1.0018871e-05 5.6366815e-07 0.06732491
000310 63 85 94 3b 94 fc 9f 39 62 56 ac 37 46 a4 b9 35
       0.0045325025 0.0003051503 2.0544223e-05 1.3831384e-06
000320 50 dc d7 3d cc 03 36 3c d5 79 99 3a 62 69 01 39
       0.10540068 0.011109304 0.0011709282 0.00012341657
000330 c0 3d 5a 37 b9 2b 38 3d 8d 58 04 3d c3 8c 82 3c
       1.300819e-05 0.044963572 0.03231101 0.015936261
000340 4b e3 b8 3b ef 67 c7 3a 30 dd 9f 3d fb b2 ee 3b
       0.00564233 0.001521347 0.0780586 0.0072845197
000350 ac 13 18 3a ba 15 31 38 aa 06 46 36 b9 2b 38 3d
       0.0005801271 4.2220323e-05 2.9508178e-06 0.044963572
000360 45 b4 03 3b a3 09 bd 38 65 04 88 36 53 d0 43 34
       0.0020096463 9.014017e-05 4.0536274e-06 1.8236578e-07
000370 c4 a5 01 3e 19 05 86 3c 4c 8e 03 3b 19 85 80 39
       0.12660891 0.016359853 0.002007383 0.00024513228
000380 bf 51 fe 37 68 2b 0c 3d 25 3b 99 3a 12 c5 27 38
       3.0317226e-05 0.034221083 0.00116906 3.999944e-05
000390 36 bc b7 35 c1 36 49 33 90 71 66 3d d3 da bc 3b
       1.3689339e-06 4.6848758e-08 0.056260645 0.0057633906
0003a0 40 52 ec 39 93 70 f0 37 e7 1d d3 35 50 dc d7 3d
       0.0004507471 2.8662651e-05 1.5729428e-06 0.10540068
0003b0 14 3f 35 3c 33 9a 98 3a 63 b4 00 39 9d 22 59 37
       0.011062402 0.0011642635 0.0001227423 1.2942267e-05
0003c0 68 2b 0c 3d 79 38 c4 3a 0e 58 62 38 6b e2 e6 35
       0.034221083 0.0014970443 5.3964606e-05 1.7202232e-06
0003d0 23 0b 5c 33 48 39 b8 3d cf 35 04 3c 0f 2d 3e 3a
       5.123287e-08 0.089953005 0.00806947 0.0007254639
0003e0 5d e1 88 38 f0 09 c5 36
       6.5269625e-05 5.8722144e-06

throughput f4 [50, 1]
000000 5f 05 f3 3f fd fb e8 3f 56 9a f1 3f 85 04 e5 3f
       1.8986014 1.8201901 1.8875225 1.7892004
000010 01 c5 ee 3f c8 c5 ee 3f 17 27 f7 3f 98 09 e5 3f
       1.8653871 1.8654108 1.9308804 1.7893553
000020 7a 04 e5 3f 11 8c f1 3f cc c3 ee 3f e2 c5 ee 3f
       1.7891991 1.887087 1.8653502 1.8654139
000030 f9 ee e7 3f 8f 68 eb 3f cc c3 ee 3f 8b e1 eb 3f
       1.8119804 1.8391284 1.8653502 1.8428205
000040 13 05 ec 3f 1c 89 ee 3f e8 98 f1 3f ac 99 f1 3f
       1.8439049 1.8635592 1.8874788 1.8875022
000050 f8 f8 e8 3f 77 04 e5 3f 99 99 f1 3f d7 9c df 3f
       1.8200979 1.7891988 1.8874999 1.7469739
000060 97 3d f7 3f 6b d4 e2 3f 24 9c df 3f fc 3c f7 3f
       1.9315671 1.7721075 1.7469525 1.9315486
000070 0c c4 ee 3f 77 04 e5 3f 46 5c e4 3f b9 96 df 3f
       1.8653579 1.7891988 1.784066 1.7467872
000080 eb f8 e8 3f ad 3d f7 3f f4 3d f7 3f fd 84 ee 3f
       1.8200964 1.9315697 1.9315782 1.8634335
000090 cc c3 ee 3f 63 be ee 3f e8 98 f1 3f cd c3 ee 3f
       1.8653502 1.8651851 1.8874788 1.8653504
0000a0 77 04 e5 3f a0 9d e8 3f f6 bb eb 3f 0a 7e f4 3f
       1.7891988 1.8173103 1.8416736 1.9100964
0000b0 e3 87 df 3f 6a 3d f7 3f a5 f0 f0 3f 50 07 e5 3f
       1.7463344 1.9315617 1.8823439 1.7892857
0000c0 80 28 f7 3f 2e fa e8 3f
       1.9309235 1.8201349

delay f4 [50, 1]
000000 dd bc 57 3d 0c 08 61 3d 0a 01 59 3d d8 ed 64 3d
       0.05267035 0.054939315 0.052979507 0.055890888
000010 3f 94 5b 3d 88 93 5b 3d 96 21 54 3d c6 e8 64 3d
       0.053608175 0.053607494 0.051789843 0.055886053
000020 e4 ed 64 3d da 0d 59 3d 5c 95 5b 3d 71 93 5b 3d
       0.055890933 0.052991726 0.053609237 0.053607408
000030 0f 0d 62 3d d6 b6 5e 3d 5c 95 5b 3d 9b 44 5e 3d
       0.055188235 0.054373585 0.053609237 0.054264646
000040 25 23 5e 3d 63 cb 5b 3d 51 02 59 3d a1 01 59 3d
       0.054232735 0.05366076 0.052980725 0.05298007
000050 f8 0a 61 3d e6 ed 64 3d b2 01 59 3d 6b 76 6a 3d
       0.0549421 0.05589094 0.052980132 0.05724184
000060 49 0e 54 3d 21 23 67 3d 27 77 6a 3d cd 0e 54 3d
       0.051771436 0.056429986 0.05724254 0.051771928
000070 20 95 5b 3d e6 ed 64 3d 83 96 65 3d d6 7c 6a 3d
       0.053609014 0.05589094 0.056051742 0.05724796
000080 05 0b 61 3d 36 0e 54 3d f9 0d 54 3d 2e cf 5b 3d
       0.05494215 0.051771365 0.051771138 0.05366438
000090 5c 95 5b 3d 55 9a 5b 3d 51 02 59 3d 5b 95 5b 3d
       0.053609237 0.05361398 0.052980725 0.053609233
0000a0 e6 ed 64 3d 56 63 61 3d 0a 68 5e 3d 7e 70 56 3d
       0.05589094 0.055026375 0.054298438 0.052353375
0000b0 67 8c 6a 3d 6f 0e 54 3d de 99 59 3d 0e eb 64 3d
       0.057262804 0.051771577 0.053125255 0.055888228
0000c0 60 20 54 3d cc 09 61 3d
       0.051788688 0.054940984

ef1 f4 [50]
000000 67 3b ab c0 d3 f1 aa c0 48 51 cb c0 d2 8b 9f c0
       -5.3510013 -5.3420196 -6.353672 -4.985818
000010 9a 40 bf c0 13 d9 be c0 21 19 ec c0 86 d6 9f c0
       -5.976636 -5.9639983 -7.3780675 -4.994937
000020 9a 8b 9f c0 a0 9f cc c0 1f b1 be c0 a1 de be c0
       -4.985791 -6.3944855 -5.959121 -5.9646764
000030 bf fa a2 c0 a2 9d af c0 1f b1 be c0 26 77 b5 c0
       -5.0931087 -5.4879923 -5.959121 -5.6707945
000040 c8 70 b4 c0 38 49 be c0 d1 2a cb c0 8c 3a cb c0
       -5.6387672 -5.946438 -6.3489766 -6.350897
000050 a9 8f aa c0 88 8b 9f c0 ac 38 cb c0 17 f2 92 c0
       -5.3300366 -4.9857826 -6.350668 -4.592052
000060 09 c7 ed c0 dc 97 91 c0 2c eb 92 c0 57 f2 ee c0
       -7.4305463 -4.5497875 -4.5912075 -7.4670825
000070 4f b4 be c0 8a 8b 9f c0 0f 28 9e c0 e3 ce 92 c0
       -5.9595103 -4.9857836 -4.94239 -4.5877547
000080 46 8f aa c0 69 9f ee c0 16 6a ee c0 a3 d1 91 c0
       -5.3299894 -7.4569592 -7.45045 -4.5568404
000090 22 b1 be c0 b5 c9 bf c0 d1 2a cb c0 3a b1 be c0
       -5.9591227 -5.9933724 -6.3489766 -5.959134
0000a0 89 8b 9f c0 c5 bc 3a c0 6e 29 b4 c0 8d d9 da c0
       -4.985783 -2.9177716 -5.6300573 -6.8390565
0000b0 33 c9 93 c0 d7 bc ed c0 ba e7 bc c0 9c 9d 9f c0
       -4.6183105 -7.4293017 -5.903287 -4.9879894
0000c0 94 7e ec c0 2d 99 aa c0
       -7.3904514 -5.331198

ef2 f4 [50, 1]
000000 d7 ac ad c2 14 0f 3b 41 7b b8 2d c2 91 7a 7f 41
       -86.83758 11.691181 -43.430157 15.967423
000010 54 d7 71 c1 cc eb 73 c1 29 a3 1f c3 22 c8 80 41
       -15.11507 -15.245068 -159.63734 16.097721
000020 ff 78 7f 41 a6 0b 2c c2 78 1b 75 c1 08 c7 73 c1
       15.96704 -43.011375 -15.319206 -15.236092
000030 70 ff 49 41 e0 db 34 40 78 1b 75 c1 80 08 1b 40
       12.624863 2.82592 -15.319206 2.4223938
000040 a0 e3 f1 3f 84 97 69 c1 e5 fd 2d c2 58 e0 2d c2
       1.8897591 -14.599491 -43.497944 -43.469086
000050 70 7a 38 41 85 78 7f 41 e3 e3 2d c2 cc 95 89 41
       11.529892 15.966924 -43.472546 17.198143
000060 c4 63 20 c3 10 1b 8b 41 d5 7b 89 41 e0 1b 20 c3
       -160.38971 17.388214 17.185465 -160.10889
000070 7c 03 75 c1 8b 78 7f 41 c4 75 86 41 6b 0a 89 41
       -15.313351 15.966929 16.807503 17.130087
000080 84 77 38 41 89 2b 20 c3 11 36 20 c3 1d ad 24 c2
       11.529179 -160.17006 -160.2112 -41.169056
000090 64 1b 75 c1 a0 91 6f c1 e5 fd 2d c2 b8 1a 75 c1
       -15.319187 -14.973053 -43.497944 -15.319023
0000a0 85 78 7f 41 65 ac a2 c2 30 86 25 40 18 29 b1 c2
       15.966924 -81.33671 2.5863152 -88.58026
0000b0 ef d4 8b 41 20 68 20 c3 e3 54 29 c2 aa 05 80 41
       17.478971 -160.40674 -42.332897 16.002766
0000c0 1f a7 1f c3 94 c8 38 41
       -159.65282 11.548969
