train/models/HARQ-CC-NumK=3-PDB=23_model_pd_satisfy.pt (torch, 31630 bytes, 14 tensors)

bias f4 [16]
-3.425699e-05 0.08406312 -0.00015529171 0.044241603 0.0033595755 0.09751874 -7.355624e-10 -0.0003273001
0.019312635 1.3882041e-07 0.14023891 -1.1423131e-13 0.07106879 -4.4707158e-11 0.020924069 0.056055225
00000000: 2aaf 0fb8 4929 ac3d cdd5 22b9 af36 353d
00000010: 532c 5c3b e8b7 c73d 9a30 4ab0 7a99 abb9
00000020: 8835 9e3c aa0e 1534 ca9a 0f3e ef9c 00aa
00000030: 848c 913d c99f 44ae f468 ab3c 2a9a 653d

weight f4 [16, 1]
-0.27942228 0.23532149 -0.28229403 -0.025663726 -0.19984233 0.49139735 -0.46895579 -0.29040402
-0.13884495 -0.35719994 0.19589849 -0.58676887 0.6075121 -0.50465935 0.4801586 0.15550348
00000000: 7010 8fbe 1ef8 703e d888 90be bc3c d2bc
00000010: 78a3 4cbe 6f98 fb3e f91a f0be d6af 94be
00000020: 5f2d 0ebe e9e2 b6be 9d99 483e 7c36 16bf
00000030: ea85 1b3f 5b31 01bf 59d7 f53e 4e3c 1f3e

bias f4 [32]
-0.06648397 -0.02559332 -0.041562255 0.072158076 0.1158745 5.075684e-05 0.04599798 0.09026746
-2.1849712e-06 0.10479596 0.108928 -0.0122553 0.06470372 0.020718204 -0.019782774 -0.012243276
0.0496104 -0.0283886 -0.04609582 -0.021341706 0.10631935 0.055998992 -0.025934586 -0.012998581
1.4750505e-06 -0.0036976566 0.066667594 0.058646344 2.4393417e-05 0.027391631 -0.006682991 -0.044082925
00000000: bf28 88bd 15a9 d1bc 2f3d 2abd 9dc7 933d
00000010: 9c4f ed3d bee3 5438 6168 3c3d 25de b83d
00000020: 85a1 12b6 449f d63d a515 df3d 74ca 48bc
00000030: 6283 843d 39b9 a93c 7c0f a2bc 0698 48bc
00000040: 4634 4b3d 368f e8bc f8ce 3cbd cdd4 aebc
00000050: f6bd d93d 335f 653d c574 d4bc 00f8 54bc
00000060: 59fa c535 6254 72bb 0589 883d 2637 703d
00000070: 77a0 cc37 6a64 e03c fefc dabb 4c90 34bd

weight f4 [32, 16]
0.271011 0.19758192 0.35167313 -0.059690204 -0.012829051 0.09947714 -0.030227542 0.23180203
-0.011011784 -0.17355277 0.05223568 0.1204518 0.089061 0.4174959 0.17542109 0.26970997
0.044930797 -0.33157873 -0.22202054 -0.19368859 -0.2855715 -0.20395006 -0.299473 -0.3001969
-0.18526119 -0.32254803 -0.24770932 0.16081977 0.2684291 -0.07916074 -0.12905519 0.16388203
-0.13314667 -0.21407458 0.25912195 -0.26761281 0.08451721 0.26881978 0.10191626 0.13743293
-0.16462594 0.036408775 -0.037904758 0.12806037 0.095148645 0.3484998 -0.3108881 -0.027228905
-0.24912632 -0.19508134 -0.100790165 -0.37708563 0.17426644 0.11902553 -0.2630285 0.112281166
-0.4070703 -0.20923254 0.0362654 -0.37291035 -0.14943554 -0.1301849 0.3409397 0.41491297
0.10875074 -0.064158976 -0.34750402 0.19569635 0.008856095 0.16494179 -0.06835487 -0.4003518
-0.23424506 0.2241348 0.056307822 -0.13393758 -0.1362204 -0.31398216 0.14886016 -0.08336918
-0.04387488 0.1515472 -0.34586874 0.10496209 -0.23380329 -0.15762861 0.13570166 0.28108662
-0.09666023 -0.14518899 -0.31799367 -0.18234342 -0.2926949 -0.08094888 0.088638835 -0.3226889
0.2618316 0.28163093 -0.39297026 -0.20969096 0.06845305 -0.019847 -0.08538944 -0.20649552
0.23713934 -0.24449636 0.3685801 -0.024048379 0.121309295 0.2289575 -0.011200812 -0.15438637
-0.14749902 0.3871847 -0.35264918 -0.0030914457 -0.43778604 0.28057772 0.04030925 -0.07532929
0.061446603 -0.08991955 0.3111392 -0.37019718 0.040960263 0.06652417 0.44247508 0.27314246
-0.2570929 0.2718753 -0.07883955 -0.0754869 -0.321346 -0.05573252 0.25007984 0.049303368
-0.20592645 0.108830236 -0.113402344 0.32279423 -0.3069602 -0.11167664 -0.341449 -0.13924952
0.0062736985 0.4555608 -0.04580513 0.25009325 -0.03600942 0.31438905 0.178247 0.19036016
-0.3030575 0.2198701 0.3427066 -0.27049708 -0.060758863 -0.40172464 0.19423799 -0.17858827
0.039914034 0.23016545 -0.41660336 -0.004561458 -0.13819002 0.2755321 0.09342954 -0.46091875
0.21482436 0.18706934 0.26854602 -0.43256944 -0.014191468 -0.21189849 0.018748699 0.31184214
0.14071915 0.26572123 -0.12022875 0.13107003 0.13797008 -0.30767003 -0.33077613 -0.17127746
0.25420102 -0.32067856 -0.32764146 0.21023831 0.17785953 0.3029374 -0.27951103 -0.269607
0.11699272 0.38251352 0.1471693 -0.004793369 0.052146934 0.4045566 -0.29248998 -0.22489284
0.18294063 -0.306291 -0.10565144 0.19371538 0.1782155 0.049846932 -0.08590579 0.05851035
0.30200592 -0.18069701 -0.018797526 0.15264924 -0.265655 0.37000766 -0.19821617 -0.10647801
-0.1172173 -0.2519736 -0.3073746 0.17777446 0.11862508 -0.35271612 -0.20543389 0.37671292
0.15517777 0.11891135 -0.19149305 -0.13527374 -0.033331815 -0.08600378 -0.22223459 0.049166087
0.05517511 -0.024728745 0.022606323 -0.12009251 0.071236074 0.1533765 -0.20636293 -0.36916402
0.19750546 0.06820103 -0.16736956 0.35232043 -0.14745045 0.2248771 0.19181113 -0.2839786
0.24046011 -0.31263936 -0.21783152 -0.046499103 -0.25165284 0.35783324 -0.08342081 0.12827374
00000000: f4c1 8a3e ea52 4a3e 800e b43e b77d 74bd
00000010: f130 52bc acba cb3d c09f f7bc 835d 6d3e
00000020: c56a 34bc d1b7 31be 15f5 553d 6faf f63d
00000030: 9d65 b63d 06c2 d53e 96a1 333e 6d17 8a3e
00000040: 5b09 383d b0c4 a9be 5a59 63be 4d56 46be
00000050: 6d36 92be 49d8 50be 8654 99be 68b3 99be
00000060: 1cb5 3dbe 0425 a5be 83a7 7dbe f0ad 243e
00000070: 8a6f 893e 071f a2bd 0b27 04be b1d0 273e
00000080: 9a57 08be 5e36 5bbe a2ab 843e 8c04 89be
00000090: 5c17 ad3d bfa2 893e 79b9 d03d 38bb 0c3e
000000a0: b493 28be 5e21 153d 0542 1bbd 4222 033e
000000b0: 4bdd c23d 916e b23e ba2c 9fbe 270f dfbc
000000c0: f81a 7fbe 67c3 47be 136b cebd 5e11 c1be
000000d0: e772 323e a8c3 f33d acab 86be abf3 e53d
000000e0: 856b d0be 0e41 56be 078b 143d 1bee bebe
000000f0: a105 19be 314f 05be a68f ae3e 796f d43e
00000100: b5b8 de3d c865 83bd 0cec b1be a064 483e
00000110: 2819 113c 80e6 283e a3fd 8bbd e9fa ccbe
00000120: f0dd 6fbe 9883 653e 08a3 663d ef26 09be
00000130: 5c7d 0bbe 45c2 a0be cc6e 183e 76bd aabd
00000140: 25b6 33bd 302f 1b3e b515 b1be 5df6 d63d
00000150: 216a 6fbe 6569 21be 60f5 0a3e 96ea 8f3e
00000160: ccf5 c5bd 6cac 14be 11d0 a2be 3cb8 3abe
00000170: 1bdc 95be 87c8 a5bd 4788 b53d 7b37 a5be
00000180: cb0e 863e ee31 903e 6633 c9be 3ab9 56be
00000190: 1d31 8c3d 2d96 a2bc a9e0 aebd 9073 53be
000001a0: a8d4 723e 415d 7abe 88b6 bc3e 1b01 c5bc
000001b0: 0271 f83d d673 6a3e 9c83 37bc 7617 1ebe
000001c0: fc09 17be 133d c63e 6f8e b4be da99 4abb
000001d0: 7e25 e0be e2a7 8f3e 501b 253d 3e46 9abd
000001e0: 6faf 7b3d be27 b8bd a34d 9f3e 7c8a bdbe
000001f0: f3c5 273d d33d 883d 188c e23e 54d9 8b3e
00000200: aea1 83be 3d33 8b3e a176 a1bd e098 9abd
00000210: 7787 a4be c847 64bd 770a 803e 54f2 493d
00000220: 62de 52be 63e2 de3d 7d3f e8bd 4945 a53e
00000230: e329 9dbe b9b6 e4bd 67d2 aebe 6d97 0ebe
00000240: 9993 cd3b 443f e93e 299e 3bbd 390c 803e
00000250: 9d7e 13bd 9af7 a03e 6286 363e c6ed 423e
00000260: 5a2a 9bbe a125 613e 3d77 af3e 987e 8abe
00000270: 49de 78bd daae cdbe 53e6 463e d8df 36be
00000280: e67c 233d 7eb0 6b3e 094d d5be 4878 95bb
00000290: af81 0dbe 8b12 8d3e fd57 bf3d 8bfd ebbe
000002a0: ebfa 5b3e 1b8f 3f3e dd7e 893e be79 ddbe
000002b0: 5583 68bc ebfb 58be df96 993c c6a9 9f3e
000002c0: ae18 103e 9d0c 883e 7e3a f6bd 3937 063e
000002d0: 0748 0d3e ed86 9dbe 7d5b a9be 5c63 2fbe
000002e0: a326 823e fb2f a4be 9fc0 a7be b648 573e
000002f0: cf20 363e 9c1a 9b3e 121c 8fbe ee09 8abe
00000300: e199 ef3d d0d8 c33e 8db3 163e b211 9dbb
00000310: 0698 553d 0b22 cf3e 3fc1 95be 4f4a 66be
00000320: ca54 3b3e 2dd2 9cbe c85f d8bd 535d 463e
00000330: 207e 363e 4c2c 4c3d 60ef afbd 8ca8 6f3d
00000340: 85a0 9a3e a308 39be 45fd 99bc 1550 1c3e
00000350: ef03 88be a571 bd3e 2ef9 4abe 2511 dabd
00000360: a00f f0bd af02 81be 3460 9dbe 820a 363e
00000370: b5f1 f23d 3597 b4be 435d 52be 84e0 c03e
00000380: ece6 1e3e cb87 f33d c116 44be 3385 0abe
00000390: f186 08bd c022 b0bd 7791 63be 6162 493d
000003a0: 4cff 613d f093 cabc e530 b93c 10f3 f5bd
000003b0: 38e4 913d bb0e 1d3e ce50 53be 1103 bdbe
000003c0: df3e 4a3e fbac 8b3d ed62 2bbe 5863 b43e
000003d0: 40fd 16be 2f46 663e 236a 443e a565 91be
000003e0: 2d3b 763e 4412 a0be 3a0f 5fbe d875 3ebd
000003f0: a4d8 80be eb35 b73e 88d8 aabd 315a 033e

bias f4 [16]
-0.0054465835 0.045467522 0.07118613 0.040621847 0.043627195 0.04418825 -0.002711419 0.13434537
0.039957717 0.11701983 0.003845302 -0.017282754 0.11888222 -0.0051523154 0.05656693 0.040444203
00000000: 4179 b2bb 273c 3a3d 09ca 913d 1863 263d
00000010: 6eb2 323d bdfe 343d 10b2 31bb d591 093e
00000020: b4aa 233d 18a8 ef3d 7601 7c3b 9094 8dbc
00000030: 8578 f33d c1d4 a8bb bab2 673d d2a8 253d

weight f4 [16, 32]
0.038745522 0.11844433 -0.11367552 -0.21492785 0.0891301 -0.036144532 -0.1633938 0.14245005
0.008924542 -0.05550258 -0.16980322 -0.040797576 -0.3066613 0.0730104 0.011464847 0.2202466
0.016842032 0.034016162 0.090027176 0.26261345 -0.17278183 0.20379137 0.09161552 -0.23013757
0.12882078 -0.20632814 -0.11723836 -0.17404808 -0.23480925 0.28414232 -0.31029522 0.16979437
-0.2790265 -0.099943966 0.028429441 0.31291786 -0.17631185 0.05680761 0.13788359 0.2659743
-0.023935493 0.21193263 -0.10413948 -0.29064643 0.38219622 -0.2368596 -0.10590068 -0.08772233
0.39918485 -0.121991076 -0.24727398 -0.04776653 0.24076942 0.23142736 0.24479774 -0.11733897
0.12158504 -0.37817448 0.2113544 0.23791233 0.18311788 -0.24762209 -0.13934653 0.119862825
-0.18494454 -0.35261405 -0.31757167 0.11938957 0.14681247 0.019716775 0.13656892 0.20741807
-0.29327145 0.14303443 0.056040797 -0.2461588 0.39399478 -0.22457714 -0.020366054 -0.38204965
0.06742583 -0.22852315 0.1626742 -0.1322435 0.30996257 -0.18330991 0.13889658 -0.3366834
0.11826119 -0.22018734 0.09484974 0.02949556 0.15837005 0.044783182 -0.3826501 0.09239458
-0.20907599 0.21388787 0.065244295 -0.035942774 -0.22426231 0.08227718 -0.13529557 0.21953359
0.15282756 0.28978595 0.19598603 -0.34959066 0.31507295 -0.0918149 -0.1452303 -0.07810797
0.3062518 0.23118159 0.07426662 0.20589688 -0.2770713 0.08549851 -0.35551152 0.08022954
-0.2919866 -0.16658321 0.31498593 0.40695873 -0.25236452 -0.23626319 0.0036879263 0.16931476
-0.020082274 -0.16663666 -0.2246658 0.20924228 0.29971927 -0.21423012 0.24635877 0.22806616
0.2411028 0.035871383 0.11702353 0.21666951 0.28800595 0.36865586 -0.14512198 0.096799426
0.29800853 -0.28369233 0.091491714 -0.038954508 0.28317013 -0.06987334 -0.020899259 0.16844699
-0.36697817 -0.34210947 -0.109412044 0.29953605 0.193985 -0.28446972 0.024335572 -0.1543449
-0.12608685 0.2503308 0.17780352 -0.03638492 0.004858047 0.024811879 0.1648846 -0.064448774
-0.25189427 0.31248802 0.15629198 0.10428443 -0.068151996 0.19130561 0.21289855 0.17129545
0.14822868 0.3035452 0.020323904 0.11586676 0.3929699 0.43351525 -0.19573748 0.27478498
0.08679097 -0.0837747 0.38188642 -0.10899 0.1860296 0.30672646 -0.2875389 -0.17549075
-0.35176614 -0.07122582 -0.32293686 -0.11727972 0.11006908 0.25265095 0.19815415 0.19444367
0.1494084 -0.21918921 -0.27538845 0.017388023 0.333253 0.017239114 -0.027464395 -0.23728295
-0.177069 -0.2697684 0.28157195 -0.060141917 -0.31378788 0.03317968 0.02805742 -0.040946316
0.12929124 0.19288716 -0.33515242 -0.27327466 -0.014252749 -0.32509235 -0.31842175 0.30929178
0.1051651 -0.30211726 -0.098636225 -0.12023516 0.15049723 -0.21120064 -0.042167135 -0.124460205
0.07211178 0.10686676 0.13356276 -0.22668512 -0.027152037 0.22281022 0.1380824 -0.3396442
0.15730086 -0.40342593 -0.060819283 0.44459596 0.14546067 0.4899021 -0.19753031 -0.32723007
-0.3457809 0.17878525 -0.12360311 0.33025908 -0.04664969 -0.030181099 0.0649523 0.03410946
00000000: a0b3 1e3d f192 f23d b6ce e8bd 0c16 5cbe
00000010: d889 b63d 4a0c 14bd b450 27be 6dde 113e
00000020: 3e38 123c ac56 63bd e5e0 2dbe 5c1b 27bd
00000030: b602 9dbe 7a86 953d 0ed7 3b3c 5388 613e
00000040: 4df8 893c 8854 0b3d 2b60 b83d 4575 863e
00000050: b8ed 30be afae 503e eba0 bb3d 2fa9 6bbe
00000060: 98e9 033e af47 53be aa1a f0bd a939 32be
00000070: d671 70be 1a7b 913e 04df 9ebe 93de 2d3e
00000080: 90dc 8ebe 6caf ccbd dce4 e83c c536 a03e
00000090: 188b 34be 19af 683d 5b31 0d3e c92d 883e
000000a0: 5e14 c4bc de04 593e 1447 d5bd 9ccf 94be
000000b0: 39af c33e 538b 72be 75e2 d8bd c4a7 b3bd
000000c0: f561 cc3e 75d6 f9bd 6435 7dbe d6a6 43bd
000000d0: 428c 763e 4bfb 6c3e 42ac 7a3e 6a4f f0bd
000000e0: 9401 f93d 16a0 c1be 4a6d 583e 4a9f 733e
000000f0: 4183 3b3e a590 7dbe dbb0 0ebe a47a f53d
00000100: 1a62 3dbe d489 b4be c198 a2be 8582 f43d
00000110: 0256 163e 1385 a13c b9d8 0b3e 6765 543e
00000120: ad27 96be 9e77 123e 098b 653d 0d11 7cbe
00000130: afb9 c93e 8df7 65be b6d6 a6bc 039c c3be
00000140: 8e16 8a3d f901 6abe 1194 263e d76a 07be
00000150: 6ab3 9e3e 98b5 3bbe e83a 0e3e c461 acbe
00000160: ec32 f23d ca78 61be 9540 c23d aca0 f13c
00000170: c22b 223e 926e 373d b7ea c3be 5f39 bd3d
00000180: 0418 56be 6c05 5b3e cd9e 853d bb38 13bd
00000190: 05a5 65be f080 a83d ec8a 0abe 6acd 603e
000001a0: d47e 1c3e d35e 943e 90b0 483e 8cfd b2be
000001b0: 3e51 a13e 7309 bcbd 40b7 14be 12f7 9fbd
000001c0: 09cd 9c3e deba 6c3e 1919 983d a2d6 523e
000001d0: 4adc 8dbe d819 af3d 9b05 b6be 634f a43d
000001e0: 457f 95be ca94 2abe d645 a13e e55c d03e
000001f0: ec35 81be faee 71be 23b1 713b d960 2d3e
00000200: 9583 a4bc cda2 2abe cb0e 66be 9c43 563e
00000210: ce74 993e 245f 5bbe 7945 7c3e 2d8a 693e
00000220: a7e3 763e dfed 123d 08aa ef3d 9dde 5d3e
00000230: 8475 933e 76c0 bc3e db9a 14be c73e c63d
00000240: 9394 983e 1f40 91be 0260 bb3d c38e 1fbd
00000250: adfb 903e c119 8fbd ec34 abbc 5e7d 2c3e
00000260: 90e4 bbbe f928 afbe 6c13 e0bd ca5c 993e
00000270: 01a4 463e 04a6 91be 655b c73c 970c 1ebe
00000280: e91c 01be 5c2b 803e 2012 363e 5b08 15bd
00000290: 4030 9f3b 4842 cb3c 82d7 283e b8fd 83bd
000002a0: 49f8 80be 6efe 9f3e 010b 203e 1393 d53d
000002b0: 4693 8bbd 9ee5 433e 1402 5a3e 1368 2f3e
000002c0: 42c9 173e 476a 9b3e 517e a63c 8d4b ed3d
000002d0: 5a33 c93e b6f5 dd3e 686f 48be 9eb0 8c3e
000002e0: 77bf b13d 1292 abbd 9e86 c33e 2636 dfbd
000002f0: 8b7e 3e3e 400b 9d3e 4c38 93be d9b3 33be
00000300: b11a b4be d8de 91bd fb57 a5be 5a30 f0bd
00000310: e66b e13d 775b 813e ece8 4a3e 3e1c 473e
00000320: 84fe 183e 2373 60be b7ff 8cbe 5471 8e3c
00000330: 23a0 aa3e 0b39 8d3c 03fd e0bc 4dfa 72be
00000340: 9351 35be 151f 8abe 332a 903e 5f57 76bd
00000350: cea8 a0be 6be7 073d add8 e53c 53b7 27bd
00000360: ec64 043e 3684 453e 1999 abbe a8ea 8bbe
00000370: 5d84 69bc 8172 a6be 2d08 a3be 7e5b 9e3e
00000380: cd60 d73d 1daf 9abe ca01 cabd da3d f6bd
00000390: f21b 1a3e fb44 58be 72b7 2cbd fee4 febd
000003a0: 57af 933d f6dc da3d adc4 083e 2520 68be
000003b0: f36d debc 5d28 643e 7965 0d3e d8e5 adbe
000003c0: 7a13 213e d88d cebe a41d 79bd 15a2 e33e
000003d0: a4f3 143e 73d4 fa3e 6345 4abe b38a a7be
000003e0: 320a b1be 7b13 373e a123 fdbd b817 a93e
000003f0: bf13 3fbd 5a3e f7bc b605 853d 5cb6 0b3d

bias f4 [2]
0.03813069 0.0016204651
00000000: ed2e 1c3d c965 d43a

weight f4 [2, 16]
0.3893609 0.22234961 0.5162608 0.46268213 0.22854525 0.30498266 0.14883344 0.14149167
0.57434154 0.59876657 0.16806178 0.00473643 0.5900022 -0.48683202 0.51907426 0.367967
0.35695043 -0.018912135 -0.31624797 0.43864176 -0.23050916 0.19056769 0.32503906 -0.47217393
0.06807221 -0.13578539 0.4077215 -0.36481473 0.4195034 0.35796234 0.373921 0.5664509
00000000: 505a c73e 9eaf 633e ab29 043f ace4 ec3e
00000010: c407 6a3e b026 9c3e cb67 183e 31e3 103e
00000020: 0c08 133f c448 193f 6318 2c3e 0e34 9b3b
00000030: 620a 173f 0c42 f9be 0de2 043f 2c66 bc3e
00000040: 35c2 b63e 9fed 9abc 41eb a1be a795 e03e
00000050: 980a 6cbe 2d24 433e 856b a63e c8c0 f1be
00000060: 7169 8b3d 530b 0bbe dfc0 d03e ffc8 babe
00000070: 26c9 d63e d746 b73e 9372 bf3e ed02 113f

weight f4 [1, 2]
1.1168193 0.09064928
00000000: eff3 8e3f 54a6 b93d

pout f4 [50, 3]
0.01639042 0.00013427476 7.3360076e-07 0.01639042 0.0001529332 8.1782696e-07 0.016390419 0.00013432291
7.338697e-07 0.01639042 0.00013431867 7.338468e-07 0.01639042 0.00013323168 7.253887e-07 0.01639042
0.00013438037 7.0303173e-07 0.01639042 0.00013270833 7.050377e-07 0.01639042 0.00013409866 7.3253545e-07
0.01639042 0.00013359362 7.0228185e-07 0.01639042 0.00013431694 7.338367e-07 0.01639042 0.0026164525
0.00018947238 0.01639042 0.00013424338 7.3342073e-07 0.01639042 0.00013336935 7.0242396e-07 0.01639042
0.00013431863 7.3384615e-07 0.01639042 0.00013419637 7.331418e-07 0.016390424 0.00014059423 7.3075364e-07
0.01639042 0.00027610184 2.3049222e-06 0.01639042 0.00017055683 9.712875e-07 0.016390424 0.0001329789
7.224341e-07 0.016390424 0.00013432254 7.3386747e-07 0.01639042 0.00013432263 7.33868e-07 0.01639042
0.00013377635 7.302777e-07 0.01639042 0.0006112084 1.0652578e-05 0.01639042 0.00017109326 9.763447e-07
0.01639042 0.00013374697 7.300518e-07 0.016390424 0.00013265607 7.055787e-07 0.01639042 0.0001325671
7.151469e-07 0.01639042 0.0001645939 9.1650355e-07 0.01639042 0.00013388586 7.310902e-07 0.016390424
0.00015796321 8.588882e-07 0.01639042 0.00013432294 7.3386974e-07 0.01639042 0.00014639138 7.68655e-07
0.016390424 0.000134323 7.3386974e-07 0.01639042 0.0001336048 7.2890253e-07 0.01639042 0.00013249334
7.121965e-07 0.016390424 0.00013330593 7.2615535e-07 0.01639042 0.00013383008 7.3068253e-07 0.016390424
0.00013296837 7.034039e-07 0.01639042 0.00013248867 7.0946106e-07 0.01639042 0.00016044459 8.800155e-07
0.01639042 0.00013432272 7.338683e-07 0.01639042 0.00013415111 7.328656e-07 0.01639042 0.00013431902
7.338487e-07 0.01639042 0.00014636538 7.684713e-07 0.01639042 0.00016546014 9.242949e-07 0.01639042
0.00013426351 7.3353704e-07 0.01639042 0.00014414592 7.5318485e-07 0.01639042 0.00013417339 7.330027e-07
0.01639042 0.00013432013 7.33855e-07 0.01639042 0.00025864082 2.0400378e-06
00000000: 3445 863c 1bcc 0c39 a9ec 4435 3445 863c
00000010: b15c 2039 a488 5b35 3345 863c 08d9 0c39
00000020: 24ff 4435 3445 863c e5d7 0c39 91fd 4435
00000030: 3445 863c 1bb4 0b39 55b8 4235 3445 863c
00000040: 75e8 0c39 f9b7 3c35 3445 863c 9f27 0b39
00000050: d241 3d35 3445 863c d69c 0c39 74a3 4435
00000060: 3445 863c 4415 0c39 7184 3c35 3445 863c
00000070: 6ed7 0c39 e0fc 4435 3445 863c ca78 2b3b
00000080: 1bad 4639 3445 863c afc3 0c39 4ae0 4435
00000090: 3445 863c 10d9 0b39 358e 3c35 3445 863c
000000a0: e2d7 0c39 86fd 4435 3445 863c 10b7 0c39
000000b0: 1fcd 4435 3645 863c 7a6c 1339 0229 4435
000000c0: 3445 863c c3c1 9039 43ae 1a36 3445 863c
000000d0: 80d7 3239 2f5d 8235 3645 863c 4070 0b39
000000e0: 4bed 4135 3645 863c efd8 0c39 fdfe 4435
000000f0: 3445 863c f5d8 0c39 06ff 4435 3445 863c
00000100: 5146 0c39 4d08 4435 3445 863c 8039 203a
00000110: 79b8 3237 3445 863c 7f67 3339 f30a 8335
00000120: 3445 863c 6e3e 0c39 c7f8 4335 3645 863c
00000130: 9819 0b39 0067 3d35 3445 863c b601 0b39
00000140: 85f8 3f35 3445 863c d796 2c39 a505 7635
00000150: 3445 863c b663 0c39 2340 4435 3645 863c
00000160: eda2 2539 598e 6635 3445 863c 0ad9 0c39
00000170: 25ff 4435 3445 863c a380 1939 9255 4e35
00000180: 3645 863c 0ed9 0c39 25ff 4435 3445 863c
00000190: 4418 0c39 cda9 4335 3445 863c e9ed 0a39
000001a0: c52d 3f35 3645 863c 0ac8 0b39 04ed 4235
000001b0: 3445 863c bd54 0c39 1f24 4435 3645 863c
000001c0: 6d6d 0b39 8cd1 3c35 3445 863c a8ec 0a39
000001d0: cb71 3e35 3445 863c 043d 2839 343a 6c35
000001e0: 3445 863c fbd8 0c39 0cff 4435 3445 863c
000001f0: eaaa 0c39 24ba 4435 3445 863c fdd7 0c39
00000200: b3fd 4435 3445 863c a879 1939 f248 4e35
00000210: 3445 863c 5e7f 2d39 101d 7835 3445 863c
00000220: 16c9 0c39 48e8 4435 3445 863c e025 1739
00000230: 782e 4a35 3445 863c e5b0 0c39 90c3 4435
00000240: 3445 863c 49d8 0c39 22fe 4435 3445 863c
00000250: 2f9a 8739 95e7 0836

throughput f4 [50, 1]
1.9674865 1.96745 1.9674863 1.9674863 1.9674885 1.9674863 1.9674895 1.9674867
1.9674879 1.9674863 1.9623234 1.9674865 1.9674882 1.9674863 1.9674865 1.9674742
1.9672089 1.9674157 1.967489 1.9674863 1.9674863 1.9674875 1.9665442 1.9674147
1.9674875 1.9674895 1.9674897 1.9674273 1.9674872 1.9674404 1.9674863 1.9674629
1.9674863 1.9674877 1.96749 1.9674883 1.9674875 1.967489 1.96749 1.9674354
1.9674863 1.9674867 1.9674863 1.9674629 1.9674256 1.9674865 1.9674672 1.9674867
1.9674863 1.9672433
00000000: 99d6 fb3f 67d5 fb3f 97d6 fb3f 97d6 fb3f
00000010: aad6 fb3f 97d6 fb3f b2d6 fb3f 9bd6 fb3f
00000020: a5d6 fb3f 97d6 fb3f 6a2d fb3f 99d6 fb3f
00000030: a7d6 fb3f 97d6 fb3f 99d6 fb3f 32d6 fb3f
00000040: 80cd fb3f 47d4 fb3f aed6 fb3f 97d6 fb3f
00000050: 97d6 fb3f a1d6 fb3f b8b7 fb3f 3fd4 fb3f
00000060: a1d6 fb3f b2d6 fb3f b4d6 fb3f a8d4 fb3f
00000070: 9fd6 fb3f 16d5 fb3f 97d6 fb3f d3d5 fb3f
00000080: 97d6 fb3f a3d6 fb3f b6d6 fb3f a8d6 fb3f
00000090: a1d6 fb3f aed6 fb3f b6d6 fb3f ecd4 fb3f
000000a0: 97d6 fb3f 9bd6 fb3f 97d6 fb3f d3d5 fb3f
000000b0: 9ad4 fb3f 99d6 fb3f f7d5 fb3f 9bd6 fb3f
000000c0: 97d6 fb3f a1ce fb3f

delay f4 [50, 1]
0.050826266 0.05082721 0.050826278 0.050826278 0.050826218 0.050826278 0.050826192 0.050826263
0.050826233 0.050826278 0.05096 0.050826266 0.05082623 0.050826278 0.050826266 0.050826587
0.050833445 0.050828103 0.050826207 0.050826278 0.050826278 0.050826244 0.050850626 0.050828125
0.050826244 0.050826192 0.05082619 0.0508278 0.05082625 0.050827462 0.050826278 0.05082688
0.050826278 0.05082624 0.050826184 0.05082622 0.050826244 0.050826207 0.050826184 0.050827593
0.050826278 0.050826263 0.050826278 0.05082688 0.050827846 0.050826266 0.05082677 0.050826263
0.050826278 0.05083255
00000000: 342f 503d 3130 503d 372f 503d 372f 503d
00000010: 272f 503d 372f 503d 202f 503d 332f 503d
00000020: 2b2f 503d 372f 503d 6fbb 503d 342f 503d
00000030: 2a2f 503d 372f 503d 342f 503d 8a2f 503d
00000040: bb36 503d 2131 503d 242f 503d 372f 503d
00000050: 372f 503d 2e2f 503d bf48 503d 2731 503d
00000060: 2e2f 503d 202f 503d 1f2f 503d d030 503d
00000070: 302f 503d 7530 503d 372f 503d d92f 503d
00000080: 372f 503d 2d2f 503d 1e2f 503d 282f 503d
00000090: 2e2f 503d 242f 503d 1e2f 503d 9830 503d
000000a0: 372f 503d 332f 503d 372f 503d d92f 503d
000000b0: dc30 503d 342f 503d bb2f 503d 332f 503d
000000c0: 372f 503d cb35 503d

ef1 f4 [50]
-4.13454 -4.0873384 -4.134381 -4.1343946 -4.139429 -4.153025 -4.1517878 -4.1351714
-4.1534886 -4.1344004 -1.7224541 -4.134647 -4.153401 -4.134395 -4.134812 -4.136229
-3.637344 -4.0126524 -4.141202 -4.1343822 -4.1343822 -4.136512 -2.9725451 -4.010397
-4.1366463 -4.1514544 -4.1456046 -4.0378656 -4.1360292 -4.0660634 -4.134381 -4.1142683
-4.134381 -4.1373305 -4.1474004 -4.1389704 -4.1362715 -4.1527953 -4.149071 -4.0555096
-4.134382 -4.1349754 -4.1343937 -4.1143723 -4.034189 -4.1345778 -4.1230984 -4.1348944
-4.13439 -3.690362
00000000: 274e 84c0 7acb 82c0 d94c 84c0 f64c 84c0
00000010: 3476 84c0 95e5 84c0 72db 84c0 5353 84c0
00000020: 61e9 84c0 024d 84c0 6079 dcbf 074f 84c0
00000030: a9e8 84c0 f74c 84c0 6150 84c0 fd5b 84c0
00000040: 3eca 68c0 a667 80c0 ba84 84c0 dc4c 84c0
00000050: dc4c 84c0 4e5e 84c0 2e3e 3ec0 2c55 80c0
00000060: 685f 84c0 b7d8 84c0 cba8 84c0 3236 81c0
00000070: 5a5a 84c0 311d 82c0 d94c 84c0 16a8 83c0
00000080: d94c 84c0 0365 84c0 81b7 84c0 7272 84c0
00000090: 565c 84c0 b3e3 84c0 31c5 84c0 bcc6 81c0
000000a0: db4c 84c0 b851 84c0 f44c 84c0 f0a8 83c0
000000b0: 1418 81c0 764e 84c0 6cf0 83c0 0e51 84c0
000000c0: ec4c 84c0 e42e 6cc0

ef2 f4 [50, 1]
-13.466019 -12.854416 -13.467911 -13.467743 -13.411453 -13.151016 -13.252518 -13.458618
-13.186707 -13.467682 -11.516464 -13.464752 -13.199295 -13.467743 -13.462814 -13.000565
-12.461929 -12.735672 -13.392303 -13.4678955 -13.4678955 -13.443375 -12.21344 -12.732849
-13.441864 -13.259293 -13.342957 -12.769485 -13.448807 -12.81398 -13.467911 -12.920288
-13.467911 -13.434296 -13.320953 -13.416412 -13.44606 -13.22702 -13.298431 -12.796326
-13.4678955 -13.460892 -13.467758 -12.920578 -12.764267 -13.465576 -12.948044 -13.461838
-13.467804 -12.4882965
00000000: d074 57c1 b0ab 4dc1 907c 57c1 e07b 57c1
00000010: 5095 56c1 906a 52c1 500a 54c1 8056 57c1
00000020: c0fc 52c1 a07b 57c1 7043 38c1 a06f 57c1
00000030: 5030 53c1 e07b 57c1 b067 57c1 5002 50c1
00000040: 1064 47c1 50c5 4bc1 e046 56c1 807c 57c1
00000050: 807c 57c1 1018 57c1 406a 43c1 c0b9 4bc1
00000060: e011 57c1 1026 54c1 c07c 55c1 d04f 4cc1
00000070: 502e 57c1 1006 4dc1 907c 57c1 80b9 4ec1
00000080: 907c 57c1 e0f2 56c1 a022 55c1 a0a9 56c1
00000090: 1023 57c1 e0a1 53c1 60c6 54c1 c0bd 4cc1
000000a0: 807c 57c1 d05f 57c1 f07b 57c1 b0ba 4ec1
000000b0: 703a 4cc1 0073 57c1 302b 4fc1 b063 57c1
000000c0: 207c 57c1 10d0 47c1
