train/models/HARQ-NumK=5_avg.pt (torch, 45299 bytes, 14 tensors)

bias f4 [16]
-0.10283009 0.036710676 -0.11532015 0.0810142 -0.119302735 0.103035174 -0.11806806 -0.11272446
0.048592083 -0.116488144 -0.10012395 -0.12398267 0.08196352 -0.10110694 0.0816596 0.12204577
00000000: 9598 d2bd ef5d 163d f92c ecbd c6ea a53d
00000010: fe54 f4bd 1b04 d33d abcd f1bd 15dc e6bd
00000020: 7e08 473d 5691 eebd c90d cdbd a0ea fdbd
00000030: 7ddc a73d 2811 cfbd 263d a73d 22f3 f93d

weight f4 [16, 1]
-0.38088804 0.13680579 -0.39013156 -0.005056289 -0.36234343 0.4660753 -0.58997756 -0.38716713
-0.12295196 -0.47169167 0.014598443 -0.7142114 0.5304287 -0.6092769 0.5337733 0.13187344
00000000: c203 c3be d116 0c3e 53bf c7be 3aaf a5bb
00000010: 1485 b9be 6ca1 ee3e c508 17bf c53a c6be
00000020: 3dce fbbd 9281 f1be 4f2e 6f3c 8fd6 36bf
00000030: 2dca 073f 92f9 1bbf 5ea5 083f d509 073e

bias f4 [32]
-0.08964066 0.10280588 -0.08777647 -0.050005775 0.09783616 0.12655069 -0.08813396 0.09035833
-0.10920894 -0.09977673 0.13163963 -0.08237922 0.08329101 0.1008575 0.13845591 0.122415826
0.08503347 -0.08957486 -0.05213026 0.10111287 -0.09304241 0.09187764 -0.083397545 -0.08050826
0.05481078 -0.09061285 0.09463248 0.082307294 0.07988649 0.10168473 -0.07606583 0.104871914
00000000: 8695 b7bd e48b d23d 26c4 b3bd dbd2 4cbd
00000010: 535e c83d 8196 013e 947f b4bd ca0d b93d
00000020: f0a8 dfbd be57 ccbd 8acc 063e 70b6 a8bd
00000030: 7a94 aa3d 618e ce3d 63c7 0d3e 26b5 fa3d
00000040: 0726 ae3d 0673 b7bd 8a86 55bd 4414 cf3d
00000050: 058d bebd 582a bc3d 55cc aabd 84e1 a4bd
00000060: 4581 603d 3b93 b9bd acce c13d ba90 a83d
00000070: 879b a33d 1540 d03d 67c8 9bbd 16c7 d63d

weight f4 [32, 16]
0.29108134 0.24921675 0.37392053 -0.09654125 0.0092589045 0.14341192 -0.006623038 0.2539549
-0.01238666 -0.15148948 0.14103808 0.1444601 0.13201648 0.440889 0.21649581 0.29820743
-0.08299725 -0.26865223 -0.35155416 -0.24805558 -0.41513908 -0.13884866 -0.4296774 -0.42959204
-0.289341 -0.45199242 -0.21378797 0.030264497 0.33123425 -0.20905195 -0.06726973 0.24123448
-0.095948495 -0.1782345 0.29933423 -0.28948277 0.123829424 0.30040824 0.14608224 0.17757733
-0.1505698 0.07730069 0.02560262 0.17327131 0.12626584 0.39271286 -0.2797177 -0.01016903
-0.1285117 -0.2996083 0.021757256 -0.28942063 0.29689237 0.02091996 -0.14026067 0.23479809
-0.2968275 -0.08755314 -0.07648239 -0.25021833 -0.2442976 -0.0075840754 0.24907792 0.31828538
0.12082829 -0.12021189 -0.33592448 0.26710656 0.019435296 0.10870576 -0.054304555 -0.3886186
-0.20338462 0.2368794 -0.04574221 -0.11947126 -0.1985528 -0.29929543 0.09082931 -0.10680359
-0.16461536 0.23405023 -0.46859348 0.068242446 -0.35633636 -0.07538011 0.010610656 0.15850286
-0.19061679 -0.26823643 -0.28496286 -0.30836797 -0.2159559 -0.20588155 0.16633955 -0.21428056
0.40078112 0.14792609 -0.25357106 -0.1282229 0.20867851 -0.15198833 0.052225895 -0.06723985
0.3579912 -0.105918504 0.25743726 0.11339846 -0.0048752986 0.36605793 -0.13803777 -0.2868339
-0.14973268 0.32278425 -0.3560671 0.05193558 -0.4416395 0.22480556 0.037638813 -0.07861626
0.08005111 -0.092744425 0.20240209 -0.37282452 -0.014717679 0.064302385 0.3892312 0.23145163
-0.14142077 0.17022122 0.035691053 -0.020306906 -0.20575838 -0.16484798 0.36208257 0.1636394
-0.10895055 0.22310004 -0.17288105 0.43473 -0.4119222 -0.00024854898 -0.4523701 -0.2536461
0.19819456 0.33480445 0.14948109 0.36116195 0.1579753 0.19791916 0.37915125 0.3855775
-0.13842708 0.41653425 0.22957106 -0.0679883 -0.17411616 -0.20061459 0.08470245 -0.3023764
0.030679164 0.1455471 -0.42750812 0.08301372 -0.14785686 0.20004596 0.076541014 -0.47168592
0.23799048 0.17361592 0.1270054 -0.4516662 -0.09056955 -0.22907762 -0.056130357 0.2582741
0.21612778 0.20387366 -0.044267006 0.15891606 0.21504213 -0.37675902 -0.25748172 -0.09545521
0.3120783 -0.24611211 -0.34809288 0.2830679 0.112215616 0.37562418 -0.35102728 -0.34433547
0.09673187 0.32743132 0.12558983 0.031783525 0.030230708 0.35728508 -0.3136086 -0.24635671
0.1827145 -0.32732108 -0.19668745 0.17259738 0.13184844 0.02912051 -0.1303009 0.026884213
0.22217855 -0.16409267 -0.09993889 0.1358536 -0.3470043 0.39593598 -0.2794534 -0.18748537
-0.17453067 -0.33290824 -0.3329426 0.09632472 0.14389943 -0.4335708 -0.17748673 0.41578218
0.0012252331 0.21189246 -0.34649903 -0.19964232 -0.18782501 0.010001869 -0.38017195 -0.10569199
-0.07093028 -0.1811492 0.07110391 -0.2792033 0.1637994 -0.0044736415 -0.115015075 -0.25605175
0.06635474 0.14268601 -0.30055165 0.30715576 -0.28043026 0.30207947 0.05677467 -0.4170247
0.13664083 -0.44604725 -0.18081489 -0.18219747 -0.17796902 0.22303039 -0.011414814 0.22298132
00000000: 9d08 953e ad32 7f3e 8372 bf3e 6bb7 c5bd
00000010: a9b2 173c 93da 123e 1206 d9bb 6006 823e
00000020: 6bf1 4abc 0f20 1bbe 496c 103e 59ed 133e
00000030: 542f 073e 34bc e13e 14b1 5d3e a5ae 983e
00000040: 76fa a9bd c98c 89be e8fe b3be 4802 7ebe
00000050: 1c8d d4be 582e 0ebe adfe dbbe 7df3 dbbe
00000060: 8124 94be 8d6b e7be 3ceb 5abe 40ed f73c
00000070: 8997 a93e b711 56be b6c4 89bd 2c06 773e
00000080: a580 c4bd 1b83 36be 5642 993e 1637 94be
00000090: 489a fd3d 1ccf 993e 9596 153e d5d6 353e
000000a0: f82e 1abe d34f 9e3d 96bc d13c 096e 313e
000000b0: d54b 013e a911 c93e 2937 8fbe 019c 26bc
000000c0: 9298 03be 4266 99be 463c b23c f12e 94be
000000d0: 4702 983e 5660 ab3c 7ea0 0fbe e96e 703e
000000e0: c6f9 97be 104f b3bd cda2 9cbd 9e1c 80be
000000f0: 2629 7abe d683 f8bb 480e 7f3e 4df6 a23e
00000100: d374 f73d a731 f6bd 4bfe abbe 31c2 883e
00000110: c536 9f3c 20a1 de3d 746e 5ebd 04f9 c6be
00000120: 0f44 50be 8390 723e 2f5c 3bbd 59ad f4bd
00000130: 6d51 4bbe 403d 99be b804 ba3d d7bb dabd
00000140: ee90 28be ddaa 6f3e 7ceb efbe b2c2 8b3d
00000150: b871 b6be e360 9abd 51d8 2d3c 934e 223e
00000160: 0c31 43be 4956 89be a7e6 91be 68e2 9dbe
00000170: 8b23 5dbe 9dd2 52be ea54 2a3e 5d6c 5bbe
00000180: 2f33 cd3e f079 173e 11d4 81be dd4c 03be
00000190: d2af 553e d4a2 1bbe d2ea 553d 0cb5 89bd
000001a0: 9f4a b73e cdeb d8bd d1ce 833e 743d e83d
000001b0: f8c0 9fbb f26b bb3e c659 0dbe e5db 92be
000001c0: 8653 19be fa43 a53e 6d4e b6be 67ba 543d
000001d0: 931e e2be 6e33 663e 282b 1a3d 9001 a1bd
000001e0: d6f1 a33d caf0 bdbd 7e42 4f3e dbe2 bebe
000001f0: 6b22 71bc f8b0 833d 5049 c73e a801 6d3e
00000200: 9bd0 10be 794e 2e3e c830 123d ab5a a6bc
00000210: 53b2 52be e9cd 28be e362 b93e 1691 273e
00000220: 7721 dfbd 5674 643e bb07 31be ee94 de3e
00000230: 77e7 d2be ae4f 82b9 0e9d e7be e7dd 81be
00000240: 84f3 4a3e 7d6b ab3e 9211 193e 38ea b83e
00000250: 47c4 213e 52ab 4a3e 1d20 c23e 6a6a c53e
00000260: d4bf 0dbe fa43 d53e ad14 6b3e 733d 8bbd
00000270: 824b 32be e96d 4dbe 7a78 ad3d 14d1 9abe
00000280: df52 fb3c 4d0a 153e 58e2 dabe 1903 aa3d
00000290: ca67 17be d9d8 4c3e 89c1 9c3d d180 f1be
000002a0: c7b3 733e 5fc8 313e b40d 023e cb40 e7be
000002b0: 877c b9bd 5393 6abe f2e8 65bd 813c 843e
000002c0: 9a50 5d3e 42c4 503e 5251 35bd e4ba 223e
000002d0: 0134 5c3e 8fe6 c0be a5d4 83be 057e c3bd
000002e0: bac8 9f3e d004 7cbe 3b39 b2be 47ee 903e
000002f0: 4dd1 e53d d051 c03e d9b9 b3be bd4c b0be
00000300: 5c1b c63d 14a5 a73e 9f9a 003e 712f 023d
00000310: 64a6 f73c 12ee b63e 4e91 a0be ef44 7cbe
00000320: 8319 3b3e a196 a7be 6f68 49be 5ebd 303e
00000330: 4703 073e 238e ee3c 996d 05be 483c dc3c
00000340: c682 633e e907 28be c3ac ccbd 351d 0b3e
00000350: 8caa b1be 1fb8 ca3e 8414 8fbe 2afc 3fbe
00000360: 2bb8 32be f372 aabe 7477 aabe e545 c53d
00000370: 5f5a 133e fefc ddbe 15bf 35be 67e1 d43e
00000380: 0098 a03a 56fa 583e 5268 b1be 096f 4cbe
00000390: 3355 40be e1de 233c e6a5 c2be 0b75 d8bd
000003a0: e543 91bd 2d7f 39be ed9e 913d bcf3 8ebe
000003b0: 08bb 273e a097 92bb 068d ebbd 3719 83be
000003c0: fee4 873d 481c 123e e8e1 99be 8543 9d3e
000003d0: 8e94 8fbe 29aa 9a3e 8e8c 683d 4384 d5be
000003e0: 93eb 0b3e 4e60 e4be 8a27 39be f991 3abe
000003f0: 833d 36be 1462 643e 3305 3bbc 3755 643e

bias f4 [16]
0.08019046 0.07616521 0.08160439 0.07966769 0.070963964 0.08511429 0.09213078 -0.08164955
0.08209159 0.085050784 0.09461042 -0.06728466 0.08308583 -0.045317106 0.08020239 0.08124935
00000000: e53a a43d 81fc 9b3d 3420 a73d d028 a33d
00000010: 8e55 913d 6750 ae3d 10af bc3d e137 a7bd
00000020: a31f a83d 1b2f ae3d 1cc3 c13d 8acc 89bd
00000030: e728 aa3d 6e9e 39bd 2741 a43d 0f66 a63d

weight f4 [16, 32]
0.028871143 0.22141774 -0.20906536 -0.14830199 0.085381225 0.029625995 -0.26660177 0.18109415
-0.08551636 -0.14641541 -0.022394506 -0.13749175 -0.2842727 0.1558346 0.13987745 0.3399022
0.045889765 -0.05726562 0.15109612 0.3017972 -0.1686836 0.24699657 -0.00641337 -0.32766712
0.09060087 -0.2830544 -0.04739128 -0.1376335 -0.28320193 0.41442952 -0.40669274 0.21302108
-0.33198962 0.04414542 -0.07625416 0.31117195 -0.12828709 0.17073642 -0.0510127 0.24199899
-0.064132184 0.041019328 -0.06666084 -0.33459708 0.3328347 -0.18220378 0.071498394 0.08183459
0.37020063 -0.16244383 -0.21528243 -0.056068774 0.18248005 0.17583829 0.20257895 -0.16166186
0.1332673 -0.40472358 0.2006616 0.19435878 0.18585391 -0.07095081 -0.18236983 0.122666724
-0.2644061 -0.18983568 -0.44083875 0.08320084 0.22121394 0.16229849 -0.08652246 0.15848535
-0.31238604 -0.055180885 0.06150763 -0.26748794 0.32388464 -0.19562688 0.1870765 -0.18531315
0.013587524 -0.2442102 0.17286195 -0.16303593 0.22713825 -0.24807231 0.11792828 -0.35885045
0.15604384 -0.22153223 0.06547935 -0.031255025 0.18588434 0.25274053 -0.40368932 0.071234286
-0.25957096 0.35365427 -0.04334722 -0.02869447 -0.17870228 0.19351858 -0.318011 0.20050669
0.10468087 0.122215554 0.24074778 -0.40016156 0.27089575 -0.03431846 0.02956833 0.08717285
0.2817661 0.18636271 0.10929087 0.20156667 -0.33091366 0.036669627 -0.4052526 0.028884675
-0.2844657 -0.1970478 0.31101003 0.3689501 -0.25488475 -0.060878817 -0.046515875 0.17536324
-0.070892304 -0.028994806 -0.32378834 0.20662461 0.34291148 -0.10819362 0.06527851 0.20453589
0.20458873 -0.12700291 0.1508246 0.17590255 0.23929076 0.4200263 0.023793127 0.2561313
0.26965284 -0.3226736 0.12070383 -0.04828388 0.22752167 -0.12745093 -0.059671 0.12747419
-0.3562983 -0.36764553 -0.12154174 0.25634974 0.19652753 -0.11734213 -0.015298163 -0.15279737
-0.18045573 0.40031016 0.06461474 -0.030459188 0.057318605 0.1458731 -0.027890587 -0.08671046
-0.3020814 0.13598847 0.20373565 0.052210186 -0.11586403 0.25111473 0.39833057 0.3491284
0.12051743 0.25859752 0.056986872 0.11053456 0.3340687 0.38391748 -0.24717242 0.2217918
0.09690985 -0.113954164 0.37666732 -0.150349 0.18539153 0.49350664 -0.3394348 -0.17020543
-0.31502962 0.04368176 -0.4409651 -0.04646271 0.11653869 0.33735302 0.07487647 0.28701
0.044722196 -0.33868176 -0.11841713 -0.09173699 0.4299629 0.134255 0.115960866 -0.093318544
-0.09245084 -0.38108552 0.3631593 0.042585623 -0.2647601 0.1624013 -0.08069787 -0.15001051
0.084678866 0.090680934 -0.22032735 -0.1781251 -0.068439476 -0.17824157 -0.42614305 0.40706477
-0.07606518 -0.26583788 -0.025574984 -0.34401077 0.28672567 -0.15496531 -0.08968153 -0.35839203
0.2965278 0.049884226 -0.15761855 0.0051328084 -0.26505584 -0.032457966 0.1578626 -0.30529204
-0.06796796 -0.1588111 -0.24275663 0.21836904 -0.052713964 0.24289314 0.03118343 -0.096960396
-0.16792953 0.41890112 -0.36675262 0.098693125 0.14185111 -0.0031645077 0.29405305 -0.18096285
00000000: 2d83 ec3c 55bb 623e 3b15 56be 7adc 17be
00000010: 5adc ae3d 37b2 f23c 0780 88be bf70 393e
00000020: 3423 afbd eced 15be af74 b7bc a3ca 0cbe
00000030: 318c 91be 1b93 1f3e 093c 0f3e a907 ae3e
00000040: e8f6 3b3d 5b8f 6abd f1b8 1a3e 2a85 9a3e
00000050: 65bb 2cbe abec 7c3e 3f27 d2bb fcc3 a7be
00000060: f38c b93d 82ec 90be 5c1d 42bd ccef 0cbe
00000070: d8ff 90be 1b30 d43e 083a d0be 3322 5a3e
00000080: 8bfa a9be d4d1 343d 242b 9cbd ee51 9f3e
00000090: b15d 03be 87d5 2e3e b1f2 50bd 95ce 773e
000000a0: bc57 83bd e203 283d 7a85 88bd 4f50 abbe
000000b0: 4f69 aa3e a193 3abe c06d 923d e598 a73d
000000c0: f08a bd3e ad57 26be ff72 5cbe 5fa8 65bd
000000d0: 0ddc 3a3e f40e 343e db70 4f3e b08a 25be
000000e0: 3977 083e ee37 cfbe 3c7a 4d3e fd05 473e
000000f0: 7d50 3e3e a94e 91bd 28bf 3abe b138 fb3d
00000100: 3d60 87be 4964 42be 9eb5 e1be 3465 aa3d
00000110: e885 623e 9331 263e b032 b1bd fc49 223e
00000120: 10f1 9fbe 5a05 62bd 6def 7b3d 2ef4 88be
00000130: 35d4 a53e 6a52 48be fb90 3f3e bbc2 3dbe
00000140: 359e 5e3c 3d12 7abe b902 313e e4f2 26be
00000150: ee96 683e ab06 7ebe 6284 f13d 3fbb b7be
00000160: f5c9 1f3e 58d9 62be 0a1a 863d 4505 00bd
00000170: 7758 3e3e 3567 813e 5eb0 cebe 48e3 913d
00000180: 7ce6 84be 2c12 b53e db8c 31bd aa10 ebbc
00000190: bbfd 36be bc29 463e 56d2 a2be a051 4d3e
000001a0: ed62 d63d 264c fa3d 9686 763e fae1 ccbe
000001b0: d9b2 8a3e 8391 0cbd 4839 f23c ae87 b23d
000001c0: a543 903e ded5 3e3e e4d3 df3d 7e67 4e3e
000001d0: 846d a9be e432 163d 457d cfbe 8e9f ec3c
000001e0: 7da5 91be e6c6 49be b53c 9f3e 07e7 bc3e
000001f0: 4180 82be 115c 79bd 6e87 3ebd 6c92 333e
00000200: fc2f 91bd 8486 edbc 96c7 a5be 6795 533e
00000210: 1892 af3e 9e94 ddbd bdb0 853d db71 513e
00000220: b57f 513e 0d0d 02be c471 1a3e cc1f 343e
00000230: a308 753e b00d d73e cee9 c23c a423 833e
00000240: f00f 8a3e 7935 a5be 9233 f73d 51c5 45bd
00000250: 71fb 683e 7f82 02be 9469 74bd 9888 023e
00000260: bb6c b6be 093c bcbe e0ea f8bd 4640 833e
00000270: 833e 493e 1251 f0bd 25a5 7abc ea76 1cbe
00000280: 63c9 38be 74f5 cc3e bc54 843d 8c85 f9bc
00000290: eac6 6a3d c25f 153e cd7a e4bc 4195 b1bd
000002a0: 6aaa 9abe 9040 0b3e 14a0 503e 59da 553d
000002b0: 1f4a edbd 1c92 803e fcf1 cb3e f5c0 b23e
000002c0: d8d1 f63d e566 843e 116b 693d f25f e23d
000002d0: 0d0b ab3e d590 c43e c41a 7dbe 641d 633e
000002e0: ac78 c63d cd60 e9bd 8ada c03e 17f5 19be
000002f0: 47d7 3d3e e7ac fc3e 66ca adbe 554a 2ebe
00000300: 904b a1be a5eb 323d 2dc6 e1be af4f 3ebd
00000310: d6ab ee3d 89b9 ac3e d658 993d faf2 923e
00000320: 9f2e 373d b267 adbe ae84 f2bd 9ae0 bbbd
00000330: 1924 dc3e 257a 093e e47c ed3d cb1d bfbd
00000340: de56 bdbd a41d c3be 04f0 b93e 436e 2e3d
00000350: a38e 87be 874c 263e ed44 a5bd 5b9c 19be
00000360: 1d6c ad3d edb6 b93d 7e9d 61be 6d66 36be
00000370: ff29 8cbd f584 36be 6c2f dabe cb6a d03e
00000380: 10c8 9bbd e71b 88be a182 d1bc 2e22 b0be
00000390: b5cd 923e 3aaf 1ebe f3aa b7bd 297f b7be
000003a0: 7ed2 973e 6753 4c3d c266 21be 1e31 a83b
000003b0: 66b5 87be a5f2 04bd bca6 213e 3d4f 9cbe
000003c0: c932 8bbd 619f 22be 3295 78be 229c 5f3e
000003d0: 99ea 57bd fbb8 783e 6574 ff3c 2c93 c6bd
000003e0: b8f5 2bbe 357a d63e 00c7 bbbe 9f1f ca3d
000003f0: 6b41 113e a163 4fbb 1f8e 963e 534e 39be

bias f4 [2]
0.07036689 0.08063546
00000000: 841c 903d 3424 a53d

weight f4 [2, 16]
0.56200415 0.1788644 0.5353421 0.45129606 0.18629222 0.32409886 0.29808494 -0.024432387
0.48664895 0.65622956 0.29188338 -0.035809778 0.6514229 -0.5347242 0.5347203 0.3919464
0.4901805 -0.0017678213 -0.28473124 0.49976254 -0.22254086 0.29041117 0.45371392 -0.6350594
0.044745576 -0.06636219 0.5129474 -0.3801518 0.49891397 0.26367608 0.4428278 0.65168774
00000000: 81df 0f3f 3b28 373e 2e0c 093f 4710 e73e
00000010: 63c3 3e3e 49f0 a53e 979e 983e 6e26 c8bc
00000020: 0d2a f93e a9fe 273f bd71 953e 46ad 12bd
00000030: a7c3 263f afe3 08bf 6ee3 083f 33ad c83e
00000040: f0f8 fa3e 3db6 e7ba 4bc8 91be e0e0 ff3e
00000050: c0e1 63be c6b0 943e 314d e83e 4193 22bf
00000060: 2347 373d e6e8 87bd 8550 033f 42a3 c2be
00000070: a771 ff3e 8d00 873e 53ba e23e 02d5 263f

weight f4 [1, 2]
1.1287645 0.2610435
00000000: 5b7b 903f 7ea7 853e

pout f4 [50, 5]
0.035656463 0.0012666713 4.512888e-05 1.6094361e-06 5.7398328e-08 0.07982063 0.006371321 0.00050856324
4.059386e-05 3.240229e-06 0.069199875 0.004788459 0.00033136096 2.293015e-05 1.5867644e-06 0.069199875
0.015661348 0.0025570483 0.0003176519 3.186995e-05 0.09157171 0.00838516 0.0007678437 7.031279e-05
6.4386627e-06 0.04678625 0.0148762725 0.003295321 0.0005335405 6.701344e-05 0.05816567 0.003383233
0.00019678808 1.1446313e-05 6.6578264e-07 0.04678625 0.0022547757 0.00010138103 4.495255e-06 2.0161569e-07
0.07982063 0.0063713016 0.00050856156 4.059373e-05 3.2402183e-06 0.091571696 0.00835447 0.00076418434
6.999389e-05 6.411489e-06 0.035656463 0.0016304025 6.136249e-05 2.03993e-06 6.329525e-08 0.035656463
0.0012660304 4.379624e-05 1.5271692e-06 5.3979047e-08 0.05816567 0.0033832258 0.00019678762 1.1446291e-05
6.6578144e-07 0.069199875 0.0047886088 0.00033137103 2.2930852e-05 1.586813e-06 0.046786256 0.0021748997
9.947581e-05 4.5922116e-06 2.1419271e-07 0.058165677 0.0034819385 0.00019523762 1.0817696e-05 6.0644953e-07
0.091571696 0.008385307 0.00076785724 7.031404e-05 6.4387796e-06 0.035656463 0.0012609976 4.3878666e-05
1.5420129e-06 5.4785914e-08 0.091571696 0.008385379 0.0007678633 7.031454e-05 6.438822e-06 0.06919988
0.004788425 0.00033135866 2.2929986e-05 1.5867521e-06 0.04678625 0.0021887084 0.000102401464 4.790989e-06
2.2415276e-07 0.091571696 0.008363859 0.00076550944 7.0111215e-05 6.4212086e-06 0.07982063 0.0064999224
0.0005028272 3.8727107e-05 3.0213464e-06 0.04678625 0.0033960277 0.00019334178 9.22861e-06 3.9166335e-07
0.06919986 0.0047845966 0.0003310781 2.2911441e-05 1.5854988e-06 0.091571696 0.008349218 0.00076332776
6.991525e-05 6.4050296e-06 0.035656463 0.0012699933 4.5280245e-05 1.6146031e-06 5.7572322e-08 0.10688014
0.01142024 0.0012205923 0.00013045808 1.3943416e-05 0.07982065 0.0063682594 0.00050831184 4.0574527e-05
3.2387104e-06 0.07982065 0.0063329833 0.00050354085 4.0187704e-05 3.2105556e-06 0.07982063 0.0063409437
0.0004981039 3.945081e-05 3.147567e-06 0.05816567 0.0035407091 0.00019863526 1.0890966e-05 6.013827e-07
0.1279621 0.01636994 0.0020947265 0.0002680477 3.4300057e-05 0.03565646 0.0013315815 4.550638e-05
1.5136793e-06 5.0641425e-08 0.035656463 0.0012667518 4.5133e-05 1.6095802e-06 5.7403096e-08 0.069199875
0.0059976885 0.00043486216 2.8259596e-05 1.7349623e-06 0.1279621 0.016739735 0.0020759564 0.00025596627
3.195709e-05 0.091571696 0.009419692 0.00085361075 7.280094e-05 6.10154e-06 0.069199875 0.0062865443
0.00047006112 3.0983952e-05 1.9013385e-06 0.058165677 0.0036137453 0.00020347099 1.1054782e-05 6.0064156e-07
0.07982063 0.006352054 0.0004976198 3.929727e-05 3.1309228e-06 0.07982063 0.006370145 0.00050846866
4.0586492e-05 3.2396458e-06 0.05816567 0.0033830462 0.00019677712 1.1445684e-05 6.6574626e-07 0.04678625
0.0021683131 0.00010026848 4.6744485e-06 2.1889842e-07 0.07982063 0.0063703256 0.0005084831 4.0587598e-05
3.2397334e-06 0.07982062 0.0065581747 0.00050677906 3.876637e-05 2.9999953e-06 0.091571696 0.0083489
0.00076327287 6.991011e-05 6.4046103e-06 0.04678625 0.0021913415 9.93912e-05 4.532704e-06 2.0960798e-07
0.046786256 0.002169708 9.981643e-05 4.6352648e-06 2.1681589e-07 0.10688016 0.011423366 0.001220931
0.00013049327 1.3947139e-05
00000000: 830c 123d 7006 a63a c448 3d38 ce03 d835
00000010: 2186 7633 0079 a33d 84c6 d03b 1a51 053a
00000020: 5343 2a38 b672 5936 aab8 8d3d 81e8 9c3b
00000030: 84ba ad39 1f5a c037 cff8 d435 aab8 8d3d
00000040: 3a4c 803c 2794 273b 848a a639 19ac 0538
00000050: f389 bb3d e961 093c 1e49 493a e474 9338
00000060: b10b d836 f0a2 3f3d 9cbb 733c 50f6 573b
00000070: 4cdd 0b3a 9189 8c38 203f 6e3d 3bb9 5d3b
00000080: e658 4e39 8a09 4037 3cb8 3235 f0a2 3f3d
00000090: dcc4 133b 879c d438 f2d5 9636 b37b 5834
000000a0: 0079 a33d 5ac6 d03b fd50 053a 3043 2a38
000000b0: 8772 5936 f189 bb3d 30e1 083c 8b53 483a
000000c0: afc9 9238 4522 d736 830c 123d 3bb3 d53a
000000d0: bcaf 8038 bbe5 0836 efec 8733 830c 123d
000000e0: eef0 a53a dbb1 3738 22f9 cc35 97d6 6733
000000f0: 203f 6e3d 1cb9 5d3b c658 4e39 7209 4037
00000100: 27b8 3235 aab8 8d3d c3e9 9c3b debb ad39
00000110: a15b c037 7bfa d435 f2a2 3f3d c388 0e3b
00000120: ab9d d038 cc16 9a36 d8fc 6534 223f 6e3d
00000130: 3c31 643b b3b8 4c39 a77d 3537 e5ca 2235
00000140: f189 bb3d 8762 093c 074a 493a 9075 9338
00000150: b20c d836 830c 123d 0f48 a53a 5c0a 3838
00000160: 29f7 ce35 c04d 6b33 f189 bb3d d462 093c
00000170: 6f4a 493a d575 9338 0f0d d836 abb8 8d3d
00000180: 38e8 9c3b 35ba ad39 c559 c037 63f8 d435
00000190: f0a2 3f3d 6f70 0f3b 5ec0 d638 48c2 a036
000001a0: a4ae 7034 f189 bb3d 9108 093c 78ac 483a
000001b0: ac08 9338 c375 d736 0079 a33d 4dfd d43b
000001c0: 2ad0 033a ea6e 2238 56c2 4a36 f0a2 3f3d
000001d0: e48f 5e3b cabb 4a39 94d4 1a37 cd45 d234
000001e0: a8b8 8d3d 1bc8 9c3b 8d94 ad39 f231 c037
000001f0: 53cd d435 f189 bb3d 29cb 083c 0f1a 483a
00000200: 779f 9238 c9ea d636 830c 123d e775 a63a
00000210: 4beb 3d38 57b5 d835 7045 7733 fae3 da3d
00000220: f51b 3b3c 48fc 9f3a 93cb 0839 84ee 6937
00000230: 0279 a33d d5ac d03b 3b40 053a 912e 2a38
00000240: 9f58 5936 0279 a33d ea84 cf3b 0e00 043a
00000250: 388f 2838 ed74 5736 0079 a33d b1c7 cf3b
00000260: 3093 023a fc77 2538 ca3a 5336 203f 6e3d
00000270: 3e0b 683b bf48 5039 58b8 3637 b46e 2135
00000280: 7f08 033e 411a 863c ae47 093b c188 8c39
00000290: 68dd 0f38 820c 123d 7688 ae3a 1ade 3e38
000002a0: a029 cb35 d680 5933 830c 123d 2309 a63a
000002b0: 314d 3d38 c108 d835 5f8b 7633 aab8 8d3d
000002c0: 4288 c43b 36fe e339 050f ed37 dadc e835
000002d0: 7f08 033e c521 893c c50c 083b 3633 8639
000002e0: aa09 0638 f189 bb3d 0d55 1a3c d9c4 5f3a
000002f0: b5ac 9838 d4bb cc36 aab8 8d3d 5bff cd3b
00000300: 8972 f639 c4f4 0138 7e31 ff35 223f 6e3d
00000310: 96d4 6c3b d45a 5539 ed77 3937 c63b 2135
00000320: 0079 a33d e424 d03b b372 023a 1fd3 2438
00000330: d81c 5236 0079 a33d a6bc d03b c14a 053a
00000340: 6a3b 2a38 b168 5936 203f 6e3d 19b6 5d3b
00000350: f555 4e39 d706 4037 bcb5 3235 f0a2 3f3d
00000360: 421a 0e3b 3b47 d238 35d9 9c36 570a 6b34
00000370: 0079 a33d 2abe d03b b94b 053a 9a3c 2a38
00000380: 326a 5936 fe78 a33d f5e5 d63b 5ed9 043a
00000390: 1399 2238 8753 4936 f189 bb3d d3c9 083c
000003a0: 6016 483a b49c 9238 2fe7 d636 f0a2 3f3d
000003b0: 9c9c 0f3b 3f70 d038 a217 9836 9a10 6134
000003c0: f2a2 3f3d a931 0e3b 8a54 d138 9f88 9b36
000003d0: e6cd 6834 fce3 da3d 1229 3b3c a507 a03a
000003e0: 05d5 0839 82fe 6937

throughput f4 [50, 1]
1.9286962 1.8403589 1.8616005 1.838623 1.816857 1.8769424 1.8836688 1.9063104
1.8403589 1.8169142 1.9279889 1.9287002 1.8836688 1.8616003 1.9064587 1.8834976
1.8168567 1.9287093 1.8168566 1.8616005 1.906428 1.8168963 1.8401543 1.9040632
1.8616078 1.8169246 1.9286897 1.7862453 1.8403645 1.8404329 1.84043 1.8833872
1.7440835 1.9285749 1.9286962 1.8593191 1.7435721 1.8150065 1.8587542 1.8832488
1.8404123 1.840361 1.883669 1.9064691 1.8403606 1.840049 1.8169252 1.906429
1.9064673 1.7862397
00000000: 84df f63f e190 eb3f ed48 ee3f 0058 eb3f
00000010: c58e e83f a63f f03f 0f1c f13f fb01 f43f
00000020: e190 eb3f a590 e83f 57c8 f63f a6df f63f
00000030: 0f1c f13f eb48 ee3f d706 f43f 7316 f13f
00000040: c38e e83f f2df f63f c28e e83f ed48 ee3f
00000050: d505 f43f 0f90 e83f 2d8a eb3f 58b8 f33f
00000060: 2a49 ee3f fc90 e83f 4edf f63f b0a3 e43f
00000070: 1091 eb3f 4e93 eb3f 3693 eb3f d512 f13f
00000080: 213e df3f 8bdb f63f 84df f63f 2bfe ed3f
00000090: 5f2d df3f 2252 e83f a8eb ed3f 4c0e f13f
000000a0: a192 eb3f f390 eb3f 111c f13f 2e07 f43f
000000b0: f090 eb3f ba86 eb3f 0191 e83f de05 f43f
000000c0: 1f07 f43f 81a3 e43f

delay f4 [50, 1]
0.051848497 0.05433723 0.05371722 0.05438853 0.055040106 0.05327814 0.05308789 0.052457355
0.05433723 0.05503837 0.051867515 0.051848393 0.05308789 0.053717222 0.052453272 0.05309271
0.05504011 0.051848147 0.055040114 0.05371722 0.052454118 0.055038914 0.054343272 0.052519266
0.053717006 0.055038054 0.051848672 0.05598335 0.054337062 0.05433504 0.05433513 0.053095825
0.057336703 0.051851757 0.051848497 0.05378313 0.05735352 0.05509622 0.05379948 0.05309973
0.05433565 0.054337166 0.053087886 0.05245299 0.054337174 0.05434638 0.055038042 0.052454084
0.052453037 0.05598353
00000000: 175f 543d b790 5e3d 9606 5c3d 82c6 5e3d
00000010: bc71 613d 2e3a 5a3d b072 593d 86dd 563d
00000020: b790 5e3d ea6f 613d 0873 543d fb5e 543d
00000030: b072 593d 9706 5c3d 3ed9 563d be77 593d
00000040: bd71 613d b95e 543d be71 613d 9606 5c3d
00000050: 21da 563d 7c70 613d 0d97 5e3d 711e 573d
00000060: 5d06 5c3d 956f 613d 465f 543d cc4e 653d
00000070: 8a90 5e3d 6b8e 5e3d 838e 5e3d 027b 593d
00000080: e4d9 6a3d 8262 543d 175f 543d b34b 5c3d
00000090: 86eb 6a3d 93ac 613d d85c 5c3d 1a7f 593d
000000a0: 0f8f 5e3d a690 5e3d af72 593d f2d8 563d
000000b0: a890 5e3d 4f9a 5e3d 926f 613d 18da 563d
000000c0: ffd8 563d fc4e 653d

ef1 f4 [50]
-7.3411007 -5.5894246 -5.8994875 -4.5966187 -5.2912045 -4.273838 -6.2766676 -6.795476
-5.5894256 -5.293041 -7.298629 -7.367775 -6.2766685 -5.899474 -6.7691956 -6.3172054
-5.2911963 -7.3613315 -5.2911935 -5.8994913 -6.749456 -5.292383 -5.6197996 -6.507087
-5.899834 -5.293479 -7.339786 -4.955631 -5.5896277 -5.59342 -5.602025 -6.3208494
-4.564705 -7.3954945 -7.341065 -5.8607097 -4.5954328 -5.3145604 -5.8209405 -6.321385
-5.6043277 -5.5895023 -6.276691 -6.759757 -5.589491 -5.6228795 -5.293507 -6.778592
-6.763909 -4.955515
00000000: 4cea eac0 91dc b2c0 9ac8 bcc0 8017 93c0
00000010: 8c51 a9c0 48c3 88c0 76da c8c0 8a74 d9c0
00000020: 93dc b2c0 9860 a9c0 5e8e e9c0 d0c4 ebc0
00000030: 78da c8c0 7ec8 bcc0 409d d8c0 8c26 cac0
00000040: 7b51 a9c0 0790 ebc0 7551 a9c0 a2c8 bcc0
00000050: 8bfb d7c0 345b a9c0 66d5 b3c0 0f3a d0c0
00000060: 71cb bcc0 2e64 a9c0 87df eac0 8794 9ec0
00000070: 3bde b2c0 4cfd b2c0 ca43 b3c0 6644 cac0
00000080: 1012 92c0 e4a7 ecc0 01ea eac0 ef8a bbc0
00000090: c90d 93c0 e110 aac0 2545 bac0 c948 cac0
000000a0: a756 b3c0 34dd b2c0 a7da c8c0 ee4f d8c0
000000b0: 1cdd b2c0 a1ee b3c0 6964 a9c0 3aea d8c0
000000c0: f171 d8c0 9493 9ec0

ef2 f4 [50, 1]
-163.91718 1.0336609 -16.519886 -14.491581 10.944683 -88.28348 -45.237926 -90.82761
1.03368 10.975151 -163.17058 -163.69417 -45.237915 -16.52007 -91.018875 -44.857742
10.944576 -163.73491 10.944527 -16.51984 -91.22006 10.96397 1.3662567 -90.24232
-16.514648 10.982487 -163.93518 15.580138 1.0367355 1.0984306 1.2012749 -44.804863
16.885336 -163.48898 -163.91766 -15.747868 17.240402 11.552929 -15.6826935 -44.751053
1.2235909 1.0348015 -45.23761 -91.09554 1.0346222 1.4019127 10.982964 -90.95413
-91.05937 15.578465
00000000: ccea 23c3 004f 843f ba28 84c1 84dd 67c1
00000010: 6c1d 2f41 2491 b0c2 a3f3 34c2 bca7 b5c2
00000020: a04f 843f 389a 2f41 ab2b 23c3 b5b1 23c3
00000030: a0f3 34c2 1a29 84c1 aa09 b6c2 546e 33c2
00000040: fc1c 2f41 23bc 23c3 c81c 2f41 a228 84c1
00000050: ac70 b6c2 6c6c 2f41 80e1 ae3f 117c b4c2
00000060: 001e 84c1 44b8 2f41 68ef 23c3 3f48 7941
00000070: c0b3 843f 6099 8c3f 60c3 993f 2e38 33c2
00000080: 2b15 8741 2e7d 23c3 ecea 23c3 44f7 7bc1
00000090: 58ec 8941 ccd8 3841 50ec 7ac1 1401 33c2
000000a0: a09e 9c3f 6074 843f 50f3 34c2 eb30 b6c2
000000b0: 806e 843f e071 b33f 38ba 2f41 84e8 b5c2
000000c0: 661e b6c2 6541 7941
