train/models/HARQ-NumK=3-PDB=15_model_pd_satisfy.pt (torch, 38199 bytes, 14 tensors)

bias f4 [16]
00000000: 0000 0000 e495 763d 0000 0000 0000 0000
00000010: 0000 0000 0c94 853d 0000 0000 0000 0000
00000020: 0000 0000 0000 0000 57a1 8b3d 0000 0000
00000030: 7c4e 713d 0000 0000 d67a 28bd efcb 983d
0.0 0.06020154 0.0 0.0 0.0 0.06522378 0.0 0.0
0.0 0.0 0.068178825 0.0 0.05891274 0.0 -0.04113277 0.07460772

weight f4 [16, 1]
00000000: 1100 8ebe 8bc0 613e d024 8cbe 60af 8ebd
00000010: c815 77be 01fa f03e f91a f0be 203a 8cbe
00000020: 20c8 2bbe 1ce4 b6be c8c1 2e3e 7c36 16bf
00000030: 712a 1a3f 5b31 01bf b05a d83e a14c 433e
-0.27734426 0.22046106 -0.27371836 -0.06967044 -0.24129403 0.47065738 -0.46895579 -0.27388096
-0.1677556 -0.3572091 0.17066109 -0.58676887 0.6022101 -0.50465935 0.4225669 0.190722

bias f4 [32]
00000000: 11f6 2fbd e9b9 493d 87e1 413d a173 f1bb
00000010: 0000 0000 0000 0000 4f9d 92bc 94b2 4d3d
00000020: 0000 0000 12e0 17bd 0411 3c3d 0000 0000
00000030: d3c9 463d b99d 533d 0000 0000 0000 0000
00000040: b312 4a3d 0000 0000 e361 3cbd d045 4a3d
00000050: f9ba 013d 7633 473d 0000 0000 0000 0000
00000060: 0000 0000 0000 0000 5ca7 473d 2764 493d
00000070: 0000 0000 0000 0000 0000 0000 aead 553d
-0.042959277 0.049249563 0.04733422 -0.0073685204 0.0 0.0 -0.017897276 0.050219133
0.0 -0.037078924 0.045914665 0.0 0.04853232 0.051664088 0.0 0.0
0.04933424 0.0 -0.04599179 0.049382985 0.03167245 0.04863306 0.0 0.0
0.0 0.0 0.04874359 0.04916778 0.0 0.0 0.0 0.052167587

weight f4 [32, 16]
00000000: 06ae 513e eb2d 5b3e 9123 923e a80f fabd
00000010: d8f1 a1bd 55bc e73d cc93 c5bd 9a87 293e
00000020: 0030 9ebd b78d 75be 7344 733d 3807 5e3d
00000030: 3758 cf3d 17d7 b33e 4b8b 403e 7973 8a3e
00000040: c004 9b3c db99 6cbe e0fa 7dbe 90e3 60be
00000050: e385 9fbe 53d9 dbbd fca3 a6be de02 a7be
00000060: 7e56 58be 7a74 b2be 246d e8bd 6a0c 0a3e
00000070: fb47 ba3e d662 d7bd d789 17bd 9370 883e
00000080: 8d9e 32be 68a9 90bd 0e10 5f3e f2b8 9dbe
00000090: a012 313d 4954 cf3e c856 783d 88e8 c43d
000000a0: 1ed9 52be 40d6 9fbb 5337 203e a0b6 b13d
000000b0: 0630 6a3e f14a 9d3e 8cc4 3abe bc06 e83d
000000c0: 3de3 34be 42fa 92be 00ee e7bc 0357 9fbe
000000d0: 9eaa 7c3e 487f 093d a81f 43be 9e31 3d3e
000000e0: 5e52 abbe 4909 0cbe 5820 9cbd 3cd2 99be
000000f0: 41c5 6dbe a85d 6cbd 8093 853e 3e05 ab3e
00000100: 025a 663e 962e 58be 76da 6cbe 6ff9 9d3e
00000110: 340f 003e 80e5 193c 58fb 433d 127c 91be
00000120: 46c2 f1bd a340 ae3e b094 b2bd 704a 91bc
00000130: 554e 96be ea86 4abe c090 ecbb 3ce2 60be
00000140: c895 33bd c055 133e aa11 b1be 480f d73d
00000150: 0762 6fbe 80b1 30be 7afd 0a3e a1ee 8f3e
00000160: 88e5 c5bd 52a4 14be 26af a3be 22b0 3abe
00000170: d981 9ebe 50b8 a5bd 7cc0 933d b697 a9be
00000180: e90c 9e3e 40e9 4b3e 4835 b1be efeb 2cbe
00000190: 5c29 ec3d 0077 bfbd 98d0 1dbd 5477 23be
000001a0: f565 913e 0461 4abe 4cc3 863e 60e0 ba3c
000001b0: 7282 4f3d 0d38 8d3e bdec 9dbd 4911 68be
000001c0: 5837 6abd baf6 ba3e 6650 86be f459 a43d
000001d0: 7de7 b1be cd4a 853e f8c2 053e e08f 753c
000001e0: 6e62 1b3e 007c d039 c972 9d3e 724c 8fbe
000001f0: 917b b43c 0a9b 203e 756a d83e e1f3 863e
00000200: f4a1 83be ad38 8b3e cc77 a1bd d899 9abd
00000210: bd87 a4be d8f5 63bd 310a 803e 08f0 493d
00000220: f0de 52be 38e1 de3d dc2b e8bd 0345 a53e
00000230: d71d 9dbe e4b7 e4bd 98c9 aebe ee94 0ebe
00000240: 8043 e43d 5a63 d03e 5836 733d bf76 b13e
00000250: d4aa 8d3d 9cf2 863e c91d 913e 7b51 973e
00000260: 42a4 4abe 676d a63e 005c a13e 1c48 29be
00000270: 7037 e4bd 4bd4 97be 9707 0e3e 9846 57be
00000280: 1eef 183e 72c4 8d3e 1e45 9dbe cc4f c53d
00000290: f08e ebbc c7d3 a63e eabb 4f3e a0f5 b3be
000002a0: 3b03 a63e 77cf 973e 575d a63e d371 a5be
000002b0: e010 193d 14d8 d1bd 8f60 933d 303c bc3e
000002c0: 6aa0 033e 5566 8f3e 8597 07be 48ae f33d
000002d0: c4cf 003e 0cb7 96be a497 afbe a0db 3bbe
000002e0: 2ed5 773e 226c aabe bb90 9dbe 72d0 4a3e
000002f0: 9254 433e 75de 943e 94a8 88be ee7c 84be
00000300: 92b8 393e 1e1e be3e 2e9f 583e 40db 623d
00000310: 38a3 ee3d 5221 cb3e c396 69be ad5e 24be
00000320: ee3b 7d3e a0b8 77be 6c24 dbbd 7b24 843e
00000330: 471d 303e 7ced e93d cf77 bcbd 7a70 803d
00000340: c1ac a53e 8bad f3bd 002c 363b 762f 2c3e
00000350: 87ef 79be 7782 dd3e dbe0 34be 88e0 adbd
00000360: f0e9 c3bd fcec 6bbe e34d 5cbe d622 4c3e
00000370: eb55 3a3e f88a a9be 6dd4 12be 1db7 e53e
00000380: 4662 0a3e 1e44 113e 679b 58be 62b7 1ebe
00000390: e09a 5abd 506b 84bd 1f16 78be c09c ee3c
000003a0: e0ed 0f3d e85d 37bd a8c2 483d 877e 0fbe
000003b0: 4871 bc3d 168a 083e 2cb3 3ebe b77e b3be
000003c0: e680 3d3e 14b8 ac3d e620 38be dd72 ae3e
000003d0: 33bb 23be 7ea5 743e 2aac 373e a1c4 97be
000003e0: 627e 693e 4071 a6be 2293 48be d06d 71bd
000003f0: e907 74be efd6 b03e 343c 91bd 4ccc 0f3e
0.20476541 0.21404235 0.2854276 -0.122100174 -0.07907456 0.11315218 -0.09647331 0.16555634
-0.07723999 -0.23979841 0.05939145 0.054206103 0.101242475 0.35125038 0.18803136 0.27041224
0.018923163 -0.23105566 -0.24802732 -0.21961808 -0.31156835 -0.10734811 -0.32546985 -0.32619375
-0.21126744 -0.3485449 -0.11348942 0.13481298 0.36383042 -0.10516898 -0.03699669 0.26648387
-0.17443295 -0.07063562 0.21783468 -0.30805165 0.043230653 0.40493992 0.060629636 0.09614664
-0.20590636 -0.0048778355 0.15646105 0.08677411 0.22869882 0.30721238 -0.18239039 0.113294095
-0.1766481 -0.28706557 -0.02831173 -0.31121072 0.2467446 0.03356865 -0.19055045 0.18475959
-0.3346128 -0.13675417 -0.076233566 -0.3004321 -0.23219778 -0.057706505 0.26089096 0.33402437
0.22495273 -0.21111521 -0.23130211 0.30854365 0.125058 0.009393096 0.047847122 -0.2841497
-0.11804633 0.3403369 -0.08719766 -0.01773569 -0.29356638 -0.19778028 -0.007219404 -0.21961302
-0.043844014 0.1438818 -0.3458379 0.105009615 -0.23377238 -0.17255211 0.13573256 0.28111747
-0.0966292 -0.14515808 -0.31969565 -0.18231252 -0.3095844 -0.080917954 0.07214448 -0.3312356
0.30869225 0.19913197 -0.34610963 -0.16886877 0.11531326 -0.09348869 -0.03852901 -0.15963489
0.283981 -0.19763571 0.26320875 0.022812068 0.05066151 0.27581826 -0.0771117 -0.22662844
-0.057181686 0.36516362 -0.26233214 0.0802497 -0.34746924 0.2603363 0.13062656 0.014987916
0.15174267 0.0003976524 0.30751637 -0.2798801 0.022031577 0.15684143 0.4226872 0.2635794
-0.25709498 0.27191678 -0.078841776 -0.075488746 -0.3213481 -0.055654377 0.25007775 0.049301177
-0.20592856 0.10882801 -0.113364905 0.32279214 -0.30686828 -0.11167887 -0.3413818 -0.13924
0.11145687 0.407008 0.059377998 0.3466091 0.069173485 0.2635697 0.28343037 0.29554352
-0.19789222 0.32505342 0.31515503 -0.16531414 -0.11143386 -0.29654154 0.13870083 -0.21023023
0.14934966 0.27688938 -0.30716795 0.09634361 -0.028754681 0.32583448 0.20286527 -0.35148335
0.3242434 0.2965047 0.32493088 -0.32313403 0.03736961 -0.10246292 0.071961515 0.3676467
0.12854162 0.2800776 -0.13241394 0.11898476 0.12579256 -0.2943653 -0.3429538 -0.18345499
0.24202415 -0.33285624 -0.30774483 0.19806078 0.1907523 0.2907597 -0.26691115 -0.25876564
0.18136814 0.37132353 0.21154472 0.055384874 0.11652225 0.3967386 -0.22811417 -0.16051741
0.24729893 -0.24191523 -0.10700306 0.25809082 0.17198668 0.1142225 -0.09202539 0.06271453
0.32358363 -0.11898335 0.0027797222 0.1681498 -0.24407779 0.432636 -0.176639 -0.084900916
-0.095661044 -0.23039621 -0.21514086 0.19935164 0.18196838 -0.33113837 -0.14338847 0.44866267
0.13514051 0.14186141 -0.21153031 -0.15499642 -0.053370357 -0.06465781 -0.24227189 0.029127479
0.035138965 -0.04476729 0.049013764 -0.1401311 0.09201294 0.13333926 -0.18623036 -0.35057613
0.18506202 0.084335476 -0.179813 0.3407201 -0.1598938 0.23891255 0.17936769 -0.29642203
0.22802117 -0.32508278 -0.19587377 -0.058942616 -0.23831142 0.3453898 -0.07091561 0.14042777

bias f4 [16]
00000000: c6d3 323d f9d3 313d 0000 0000 0370 323d
00000010: 0e37 323d d02f 303d 0000 0000 0000 0000
00000020: e853 333d 5afc 86bd 0000 0000 7df8 4abd
00000030: 0000 0000 0000 0000 ddd9 313d b6b1 323d
0.043658994 0.043415044 0.0 0.043563854 0.043509535 0.043014348 0.0 0.0
0.04378119 -0.06591101 0.0 -0.049553383 0.0 0.0 0.04342066 0.04362651

weight f4 [16, 32]
00000000: dba0 c33d de10 543e b1be 08bd 7673 51be
00000010: e0d3 aa3d 3878 2bbd 777e 1abe b6f8 523e
00000020: 8022 523b fae6 b63c aea2 1f3d 2087 3ebd
00000030: 4f75 77be 6680 153e 00db ad3b c2b2 5b3e
00000040: 5f50 a23d 0091 e73c d7f3 063e eb72 a83e
00000050: b3f6 dfbd 4faa 8c3e dc14 b13d a685 71be
00000060: 3c1d fc3d 7020 59be 444b 43bd 15b2 dabd
00000070: d04c 76be cf90 8e3e 82cc a1be b380 6f3e
00000080: 57bb 87be 99f8 113d 9500 ca3d a3e8 833e
00000090: fb04 03be cc68 d03d 214a 833d 5468 893e
000000a0: b030 ac3c 0b5a 593e 85af e6ba ac95 7bbe
000000b0: 52e7 c03e 8183 41be 9088 76bd 980d 2fbd
000000c0: d546 cf3e a07b 9cbd 3c1b 6ebe fe5a dbbc
000000d0: 57d6 783e 28ab 533e 81c1 953e 1c3b 94bd
000000e0: 6689 2a3e b058 aabe 3c59 503e 0397 683e
000000f0: e28b 693e b79b 4fbe 2050 c1bd 85c8 143e
00000100: 8fa2 80be 58ff 8fbe fa25 aebe 20ae a13c
00000110: 56d2 603e 88fc b93d c092 b03c 8c49 fc3d
00000120: b081 63be 50ac 183d bce0 b3bd db42 33be
00000130: 311b 9c3e cc0b 8cbe 8039 543d 6010 9fbe
00000140: 4086 44bc 51e0 20be 0454 ee3d 684c 4bbe
00000150: 16b8 673e 26e4 92be 0e74 593e 5efa 87be
00000160: 12e7 413e 3c71 18be 00ea 57ba 8825 84bd
00000170: 56f9 6a3e d44c ed3d d983 9fbe e024 053d
00000180: a77d 45be 7c2b ae3e e0a7 073e 6b5a adbd
00000190: 78b3 38be c89f fa3d 9d4c 4fbe d502 673e
000001a0: 3a8e 453e 164d 953e e80a 9b3e 6c75 9ebe
000001b0: ee97 a03e 6afb 32bd 2e10 d6bd 9096 1bbd
000001c0: be6b a13e cb30 8b3e dec0 b83d c08c 6a3e
000001d0: b4f5 8abe 72e6 843d 1425 a0be 7c70 f63d
000001e0: 95f7 80be 4308 01be 4151 9f3e 64d0 cc3e
000001f0: 665c 59be 77ef 48be 2859 333d 0828 493e
00000200: c7f8 a6bb 28a1 05bd 5e65 1fbe fffb 203e
00000210: 175b b13e 5f41 2fbe 7150 343e c2dc 6d3e
00000220: b780 913e e3d9 1b3d 46de 633e a5fe 843e
00000230: b5a7 913e 2e85 d53e b87f cfbd fc40 0f3e
00000240: e54d 9c3e f4c1 75be da4d da3d d56a 8bbc
00000250: aa04 933e 5068 bebd a024 cb3c 929c 583e
00000260: bbd5 a5be 8bd8 98be 7dfe ebbd 49d5 943e
00000270: cac1 723e f642 77be 8412 8a3d d15a 03be
00000280: 98a0 e4bd 730e c43e c07a 7d3e 3926 b9bd
00000290: b02b 553d 844b 8c3d 0fb3 bc3d 7055 7bbd
000002a0: 0833 55be f9fe 9f3e 0fd6 843e fa87 173e
000002b0: 8a33 95bd 70f0 743e 5bbd 833e ae2e 5c3e
000002c0: fa44 1e3e 111a b23e 773d 113d 50b8 0c3e
000002d0: 4baa ca3e c7ad d13e 29dc 18be 1510 a33e
000002e0: 309d 053e 601a 22bd 68d2 bf3e 4d0b f4bd
000002f0: ee3b 6b3e 4b61 b33e e8b2 79be bc1e 19be
00000300: e65f b3be 844e 82bd 0467 a4be 6882 f2bd
00000310: 90d3 db3d c6ea 7f3e 16ab 493e f2f5 483e
00000320: 5e32 163e 668c 60be 7aba 8fbe 2020 703c
00000330: 91e4 ab3e 3014 a33c 701c f9bc acba 75be
00000340: 3c83 33be 8e8a 8bbe bbef 903e 88f2 6bbd
00000350: ffe9 9fbe b059 1b3d 102e d23c e0ea 32bd
00000360: c698 013e 66b2 423e 803b aabe 6bad 8abe
00000370: 7023 8bbc 71d4 a7be 416e a4be e9d2 9f3e
00000380: b04a dcbc 0afd 32be e85e f8bd 6c53 8dbe
00000390: e342 8d3e 1002 9dbd 488d 4bbe 9249 89be
000003a0: a69b 533e 302e 48bd a023 18bd f8b7 bcbd
000003b0: acc3 2ebe 6cce 803d 5b45 8b3e 98d4 51be
000003c0: 20c5 8a3c e8aa 89be 46c2 29be b1e4 9e3e
000003d0: 80f1 723b 1f61 ae3e 08b9 7dbd bb53 45be
000003e0: 5950 58be a970 a03e 9633 8bbe eefe 3d3e
000003f0: 28fe b33d 34ae d53d d646 4c3e 6c6f bdbd
0.09552165 0.2070956 -0.033384982 -0.20454201 0.08341193 -0.041862696 -0.15087305 0.20602688
0.003206402 0.022326935 0.038973503 -0.046515584 -0.24165843 0.14599761 0.005305648 0.2145491
0.07925486 0.028267384 0.13178955 0.32900175 -0.10935726 0.27473685 0.08646557 -0.23586139
0.123102635 -0.2120378 -0.0476792 -0.10678498 -0.24052739 0.27844855 -0.3160134 0.23388939
-0.26510116 0.03563747 0.09863392 0.25763425 -0.12794869 0.101762384 0.06410623 0.2683741
0.02101931 0.21225755 -0.0017599916 -0.24568814 0.37676483 -0.18897821 -0.06018883 -0.042737573
0.40483728 -0.07640767 -0.23252577 -0.026776787 0.24300514 0.2067076 0.29249194 -0.07237837
0.16653976 -0.33270788 0.2034654 0.22713856 0.22807267 -0.20274244 -0.09439111 0.14529617
-0.25124022 -0.281245 -0.3401335 0.01973635 0.21955237 0.0908137 0.02155435 0.123187155
-0.2221744 0.037273705 -0.08783099 -0.17505972 0.30489495 -0.2735275 0.05181265 -0.3106718
-0.011994898 -0.1571057 0.116371185 -0.19853365 0.22628817 -0.28689688 0.21235678 -0.26558203
0.18935803 -0.14886945 -0.0008236468 -0.06452471 0.22946677 0.115869194 -0.3115528 0.03250587
-0.19286214 0.3401755 0.13247633 -0.084645115 -0.18037212 0.12237507 -0.2024407 0.22559674
0.19292536 0.29160374 0.30281758 -0.3094896 0.31365913 -0.0436968 -0.10452305 -0.037985384
0.31527513 0.27185664 0.090211615 0.22905254 -0.27140582 0.064892665 -0.31278288 0.120331734
-0.2518889 -0.12600808 0.3111668 0.4000274 -0.21226653 -0.19622599 0.043786198 0.19644177
-0.0050955745 -0.032624394 -0.15566012 0.15721129 0.3463981 -0.17114781 0.17608811 0.23228744
0.28418514 0.03804959 0.2225276 0.25975528 0.28448263 0.4170317 -0.10131782 0.13989633
0.3052818 -0.23999768 0.1065938 -0.017018715 0.28714496 -0.0929724 0.024797738 0.21153477
-0.32389626 -0.2985271 -0.11523149 0.29068974 0.23706737 -0.24146637 0.06741813 -0.12827612
-0.11163443 0.38292274 0.24753857 -0.090404935 0.052043617 0.06850341 0.0921384 -0.061360776
-0.20820248 0.31249216 0.25944564 0.14797965 -0.07285221 0.23919845 0.25730404 0.21502182
0.15456 0.34785512 0.035459008 0.13742185 0.39583048 0.40952894 -0.14927734 0.31848207
0.13048244 -0.039575934 0.37465215 -0.11916218 0.2297208 0.35035166 -0.24384654 -0.1495313
-0.35034102 -0.06362632 -0.32109845 -0.11841279 0.10733712 0.24991903 0.1969417 0.1962507
0.14667651 -0.21928558 -0.28071958 0.014656097 0.3357282 0.019907087 -0.030409068 -0.23996991
-0.1753053 -0.27254146 0.283079 -0.057604343 -0.31233212 0.03792733 0.02565673 -0.043681026
0.12655935 0.19013366 -0.3324852 -0.27085432 -0.016984671 -0.32779267 -0.32115367 0.312156
-0.026891083 -0.17479339 -0.12127477 -0.27602708 0.27590093 -0.07666409 -0.19878113 -0.26813942
0.20664844 -0.048872173 -0.03714335 -0.09214777 -0.1706683 0.06289372 0.27201352 -0.20491254
0.0169397 -0.26888204 -0.16578016 0.31033853 0.0037070215 0.34058473 -0.061944038 -0.19270222
-0.211244 0.31335953 -0.27187794 0.18554279 0.08788711 0.10433617 0.19948897 -0.09249768

bias f4 [2]
00000000: 4044 1b3d 9382 093d
0.037906885 0.03357179

weight f4 [2, 16]
00000000: 3be2 063f b970 553e 7ed5 cd3e 66c4 e33e
00000010: cbf8 673e 5ff2 8d3e e4c5 3e3e b04b 753d
00000020: 7f51 0e3f a566 373f 7c76 523e c692 693b
00000030: a284 043f fc12 e6be da95 013f 03cb bd3e
00000040: de80 e53e cb2f d23c 8e8c dcbe 8748 fa3e
00000050: 68d2 3bbe c720 713e fe78 a73e db1f 0abf
00000060: c534 df3d 04a9 9ebc 58ce d13e 8fe4 aabe
00000070: 3e7b b33e 5054 b83e 3c9d d03e b6e3 1f3f
0.5268895 0.20843782 0.40201944 0.44485778 0.226535 0.27723977 0.18630177 0.059886634
0.55593103 0.71641 0.2055301 0.0035640462 0.5176488 -0.4493636 0.5061928 0.37068948
0.4482488 0.025657555 -0.43075985 0.4888346 -0.18341982 0.2354766 0.32709497 -0.5395486
0.10898737 -0.019367702 0.4097774 -0.333775 0.35054964 0.36001825 0.4074496 0.62456834

weight f4 [1, 2]
00000000: 3ad0 8a3f 9119 563e
1.0844796 0.2090819

pout f4 [50, 3]
00000000: 365f e03d 7968 cb3c 236a 893b 365f e03d
00000010: 8bd4 793c 4a0b e53a 365f e03d caa4 443c
00000020: 5359 ac3a 365f e03d edf7 613c c158 c33a
00000030: 385f e03d a9a6 443c f35a ac3a 365f e03d
00000040: 9f20 433c 7271 aa3a 365f e03d 9646 453c
00000050: 35e1 a53a 385f e03d 2437 443c 8ced ab3a
00000060: 375f e03d 2069 6d3c 18dc d23a 365f e03d
00000070: e939 713e 4e0b b13e 365f e03d 5bee 433c
00000080: 599a ab3a 365f e03d 0d0a 443c 22bb ab3a
00000090: 365f e03d 2148 433c 47b3 aa3a 385f e03d
000000a0: e563 443c 171c ac3a 365f e03d d055 423c
000000b0: 587c a63a 365f e03d b8a6 443c fe5a ac3a
000000c0: 365f e03d d88f 443c 7846 ac3a 385f e03d
000000d0: b1c4 423c 29bf a93a 365f e03d 22a6 443c
000000e0: 7f5a ac3a 385f e03d 1c04 433c 1eba a53a
000000f0: 385f e03d 1f26 473c fbcf a63a 365f e03d
00000100: ae58 433c 61cd aa3a 385f e03d 62da 433c
00000110: d781 ab3a 365f e03d 7dd0 533c 564e b23a
00000120: 385f e03d b994 443c ef4a ac3a 365f e03d
00000130: 5f48 553c 2fee b33a 365f e03d 6ce2 973c
00000140: 2d9e 203b 365f e03d 1c08 943c 426d 193b
00000150: 385f e03d abca 4a3c 9477 a93a 365f e03d
00000160: e33b 423c f8d5 a63a 365f e03d 7d9e 443c
00000170: c853 ac3a 365f e03d 5318 5a3c 4883 b93a
00000180: 365f e03d c1f9 693c 5911 ce3a 375f e03d
00000190: d16b 443c f923 ac3a 365f e03d fbf2 433c
000001a0: 0f92 a53a 365f e03d 6e84 893d 6c51 eb3c
000001b0: 365f e03d 8313 443e 3966 6a3e 365f e03d
000001c0: 6ebe 7b3c 3af5 e73a 385f e03d f5e9 423c
000001d0: 720c aa3a 385f e03d f957 443c 0910 ac3a
000001e0: 385f e03d 7371 9d3c 1155 2b3b 385f e03d
000001f0: 4cbf 423c 2be6 a53a 365f e03d c3a6 443c
00000200: 0a5b ac3a 365f e03d 0f8b 423c a01c a63a
00000210: 385f e03d cc3c 433c eca0 aa3a 365f e03d
00000220: 9c00 433c dd37 aa3a 365f e03d 9cc4 653c
00000230: 0f5a c83a 365f e03d e52e 423c c278 a73a
00000240: 365f e03d 3807 e23d 3ef6 9c3d 365f e03d
00000250: 2ca5 443c a859 ac3a
0.1095566 0.02483009 0.0041935607 0.1095566 0.015248428 0.0017474678 0.1095566 0.012002179
0.0013149179 0.1095566 0.01379202 0.001490377 0.109556615 0.0120026255 0.0013149664 0.1095566
0.011909633 0.001300378 0.1095566 0.012040755 0.0012655618 0.109556615 0.011976037 0.0013117059
0.10955661 0.014490396 0.0016087322 0.1095566 0.23557247 0.34578937 0.1095566 0.011958684
0.0013092264 0.1095566 0.011965287 0.0013102035 0.1095566 0.011919052 0.00130234 0.109556615
0.011986707 0.001313093 0.1095566 0.01186128 0.0012701852 0.1095566 0.0120026395 0.0013149676
0.1095566 0.011997186 0.001314356 0.109556615 0.011887715 0.0012950647 0.1095566 0.0120025
0.0013149529 0.109556615 0.011902835 0.0012643968 0.109556615 0.012155085 0.0012726778 0.1095566
0.011922998 0.0013031178 0.109556615 0.011953922 0.001308496 0.1095566 0.012928125 0.0013603668
0.109556615 0.011998349 0.001314489 0.1095566 0.013017743 0.00137276 0.1095566 0.018540584
0.0024508343 0.1095566 0.018070273 0.002341107 0.109556615 0.012377421 0.0012929314 0.1095566
0.011855098 0.0012728563 0.1095566 0.012000677 0.0013147527 0.1095566 0.013311463 0.0014153505
0.1095566 0.014280737 0.0015721723 0.10955661 0.011988596 0.0013133279 0.1095566 0.0119597865
0.001263203 0.1095566 0.06714712 0.028725348 0.1095566 0.19148068 0.22890557 0.1095566
0.015365226 0.0017696985 0.109556615 0.0118966 0.001297368 0.109556615 0.011983865 0.0013127337
0.109556615 0.019219136 0.0026143233 0.109556615 0.011886429 0.0012657096 0.1095566 0.01200265
0.001314969 0.1095566 0.011873974 0.0012673326 0.109556615 0.011916351 0.0013017929 0.1095566
0.011902001 0.0012986619 0.1095566 0.014023926 0.0015285629 0.1095566 0.011852001 0.0012777077
0.1095566 0.11036533 0.076641545 0.1095566 0.012002271 0.0013149278

throughput f4 [50, 1]
00000000: ebb9 e03f 8232 e33f 20f4 e33f ea8c e33f
00000010: 1af4 e33f caf9 e33f 00f5 e33f acf5 e33f
00000020: d161 e33f 9003 793f b9f6 e33f 51f6 e33f
00000030: 2ff9 e33f 0af5 e33f 13fe e33f 1af4 e33f
00000040: 6cf4 e33f 3dfb e33f 1bf4 e33f 3ffc e33f
00000050: a3ee e33f eff8 e33f 03f7 e33f 56c1 e33f
00000060: 5af4 e33f f5bb e33f e85f e23f 747e e23f
00000070: e4e1 e33f 3dfe e33f 37f4 e33f 38aa e33f
00000080: cf6e e33f edf4 e33f 5bf9 e33f b84e d33f
00000090: a8b9 973f 2c2b e33f a6fa e33f 35f5 e33f
000000a0: 9433 e23f 06fd e33f 19f4 e33f 94fd e33f
000000b0: 5cf9 e33f 49fa e33f a87e e33f 1efe e33f
000000c0: 2cc4 c13f 1ef4 e33f
1.7556738 1.7749789 1.7808876 1.7777379 1.7808869 1.7810605 1.7809143 1.7809348
1.7764226 0.9727106 1.7809669 1.7809545 1.781042 1.7809155 1.7811912 1.7808869
1.7808967 1.7811047 1.780887 1.7811354 1.7807201 1.7810344 1.7809757 1.7793376
1.7808945 1.7791735 1.7685518 1.769484 1.7803311 1.7811962 1.7808903 1.7786322
1.7768191 1.780912 1.7810472 1.6508398 1.1853533 1.774755 1.7810867 1.7809206
1.767199 1.7811592 1.7808868 1.7811761 1.7810473 1.7810756 1.7773027 1.7811925
1.5137992 1.7808874

delay f4 [50, 1]
00000000: fe4c 693d 68c3 663d 67ff 653d b967 663d
00000010: 6eff 653d b0f9 653d 86fe 653d d7fd 653d
00000020: 6693 663d b08b d23d c9fc 653d 30fd 653d
00000030: 4dfa 653d 7bfe 653d 5ef5 653d 6eff 653d
00000040: 1aff 653d 3bf8 653d 6dff 653d 37f7 653d
00000050: f104 663d 8cfa 653d 7dfc 653d b132 663d
00000060: 2cff 653d 2238 663d 179a 673d dc7a 673d
00000070: ce11 663d 34f5 653d 50ff 653d 124a 663d
00000080: 3986 663d 98fe 653d 21fa 653d bb1d 783d
00000090: 86c6 ac3d dbca 663d d2f8 653d 50fe 653d
000000a0: 7bc7 673d 6df6 653d 6fff 653d ddf5 653d
000000b0: 1ffa 653d 31f9 653d 2b76 663d 53f5 653d
000000c0: eb49 873d 69ff 653d
0.05695819 0.056338698 0.056151774 0.05625126 0.0561518 0.056146324 0.056150936 0.056150284
0.056292914 0.102805495 0.056149278 0.05614966 0.05614691 0.056150895 0.056142204 0.0561518
0.056151487 0.056144934 0.056151796 0.056143966 0.056157056 0.056147143 0.056148995 0.056200687
0.056151554 0.056205876 0.056543436 0.056513652 0.056169324 0.056142047 0.056151688 0.056222983
0.05628035 0.056151003 0.056146745 0.06057523 0.08436303 0.0563458 0.056145497 0.056150734
0.056586724 0.056143213 0.056151804 0.056142677 0.056146737 0.05614585 0.056265038 0.056142163
0.066058956 0.05615178

ef1 f4 [50]
00000000: d03c c1be 78f1 41bf dc8f 61bf dca2 53bf
00000010: d08e 61bf 54cc 62bf c4d0 65bf 78d5 61bf
00000020: e023 4bbf c8f7 c43f 540b 62bf 18f6 61bf
00000030: 6ca1 62bf 64b7 61bf f868 65bf c88e 61bf
00000040: 089c 61bf dc40 63bf 1c8f 61bf f8ea 65bf
00000050: 2c31 65bf 6c90 62bf 341b 62bf b8c8 5dbf
00000060: 2499 61bf 98c6 5cbf ec55 1cbf 9c6d 21bf
00000070: cc6f 63bf 302d 65bf 7093 61bf fc60 59bf
00000080: 2cb2 4dbf 4cb2 61bf dc05 66bf c0a1 ea3e
00000090: 3809 ae3f ac89 40bf 4c0e 63bf 2cbf 61bf
000000a0: f027 15bf 70cd 65bf c08e 61bf f8a8 65bf
000000b0: 60ad 62bf ecf1 62bf d0d2 50bf e8c0 64bf
000000c0: 406c 623f a48f 61bf
-0.3774171 -0.7575908 -0.88110137 -0.8267038 -0.8810854 -0.8859303 -0.89771676 -0.8821635
-0.79351616 1.5388117 -0.88298535 -0.88266134 -0.8852756 -0.88170457 -0.89613295 -0.8810849
-0.8812871 -0.8877084 -0.8810899 -0.8981166 -0.89528155 -0.8850162 -0.8832276 -0.866344
-0.881243 -0.8624053 -0.61068606 -0.63057876 -0.88842463 -0.89522076 -0.88115597 -0.8491361
-0.80349994 -0.88162684 -0.8985269 0.4582653 1.3596563 -0.7521007 -0.8869369 -0.8818233
-0.58264065 -0.897666 -0.88108444 -0.8971095 -0.885458 -0.88650393 -0.81571674 -0.8935685
0.88446426 -0.88109803

ef2 f4 [50, 1]
00000000: c0fa 343f 0008 003c a02a 69bf 00ac 2dbe
00000010: c036 69bf 601f 5bbf 20a4 11bf 000c 66bf
00000020: 0050 9fbd e8c0 2941 a0a7 63bf c098 64bf
00000030: e006 5dbf c064 67bf 0013 37bf 2037 69bf
00000040: 009f 68bf 00e0 55bf 4033 69bf 80cd 28bf
00000050: 00d8 04bf 60c7 5dbf c0f3 62bf c0b4 a0be
00000060: 20c0 68bf 00ca 97be 40b2 973e 003b 853e
00000070: c09a e3be 0087 3bbf a001 69bf 00e6 79be
00000080: 0086 d4bd 209f 67bf 0066 1dbf 107c 3440
00000090: 204a 0941 0040 a43c 802b 58bf 400b 67bf
000000a0: 8059 b13e a039 2dbf 4037 69bf 005a 31bf
000000b0: 207f 5cbf c071 59bf 00a5 0cbe a06d 42bf
000000c0: 08c6 9a40 202d 69bf
0.70695114 0.007814407 -0.91080666 -0.16960144 -0.91099167 -0.8559475 -0.5689106 -0.8986206
-0.07778931 10.609596 -0.8892765 -0.8929558 -0.86338615 -0.9038811 -0.71513367 -0.9109974
-0.90867615 -0.8354492 -0.91093826 -0.6593857 -0.5189209 -0.8663235 -0.88653183 -0.313879
-0.9091816 -0.296463 0.2962818 0.26021576 -0.44454002 -0.7325287 -0.91018105 -0.24404144
-0.10377121 -0.9047718 -0.61483765 2.8200722 8.580597 0.020050049 -0.84441376 -0.9025154
0.34638596 -0.67666054 -0.9109993 -0.69277954 -0.8613148 -0.84939194 -0.13734818 -0.75948524
4.8366737 -0.9108448
