train/models/HARQ-IR-NumK=3-PDB=19_model_pd_satisfy.pt (torch, 31630 bytes, 14 tensors)

bias f4 [16]
00000000: 3456 6a3d 7d58 d93c 717f 9bbd 20f2 aa3d
00000010: 0055 01bd 27a9 7e3d 8ed7 23bd 66b4 51bd
00000020: 3404 5f3d 1cb3 fabc 70c3 97bd 1030 9d39
00000030: 1828 883d 7944 a7bc 9880 94bd c12d b43d
0.057211116 0.026531452 -0.07592667 0.08346963 -0.031575203 0.062173035 -0.04000049 -0.051197432
0.054447368 -0.030602984 -0.074103236 0.00029981183 0.06648272 -0.020418392 -0.0725109 0.08797789

weight f4 [16, 1]
00000000: e64a 5fbe e191 343e caa5 b3be 9ce7 4d3c
00000010: f064 8cbe 71e1 e83e bbe6 05bf 6c1d a6be
00000020: d19b eabd ba8b c7be 7bf7 86bc 5d3f 17bf
00000030: cbed 193f 4a16 14bf b104 c73e 05c0 413e
-0.21805915 0.17633773 -0.35087425 0.012567427 -0.2742076 0.45484498 -0.5230519 -0.32444322
-0.11455501 -0.3897379 -0.01647543 -0.5908106 0.6012847 -0.5784651 0.38870767 0.18920906

bias f4 [32]
00000000: 6666 10bd 0f5a ef3d 8b05 e7bc 1734 f9bc
00000010: f262 023e 12a5 b6bc 7614 aebc 312e 8d3d
00000020: 0ba3 16bd 0551 fabc 38e7 723d 3e68 2bbd
00000030: ca8b 023d 287b e83d d77d efbc fef9 b83d
00000040: 23e2 ed3c f9c5 f9bc 6254 0cbd 9f57 993d
00000050: 9887 b0bc 475d 503d 5037 4ebd ca04 debc
00000060: 8695 9a3c a4a9 c4bc 5019 3f3d 25d0 103d
00000070: ce5d d03d e24a 243d 06d2 ccbc 680e 843d
-0.035253905 0.11687099 -0.028200885 -0.030420346 0.12733057 -0.022295509 -0.02124999 0.06893576
-0.036776584 -0.030556211 0.05930254 -0.04184746 0.031871594 0.11351615 -0.02923481 0.09032057
0.029038494 -0.030489909 -0.03426016 0.074874155 -0.021549031 0.050870206 -0.05034572 -0.027101893
0.018870126 -0.024006672 0.046655 0.035354752 0.10174142 0.040110476 -0.02500249 0.0644806

weight f4 [32, 16]
00000000: d710 733e 4318 783e cbdf a23e 1a2a cbbd
00000010: cf13 3ebd 3764 0d3e 6aa6 82bd eafe 4a3e
00000020: e2b7 38bd 3b17 54be 266c 083e 0ff1 b13d
00000030: 609b 003e 7792 c43e d6c1 593e b49a 983e
00000040: 859e c3bd 2990 42be 22a9 b9be e251 a1be
00000050: ed2f dabe c83a 80bd a14e e1be fcad e1be
00000060: 6969 a6be 081f edbe 8e7f 26be f5b7 a53c
00000070: 2b85 d13e d806 61be 5ad8 e33b 9e0b 9e3e
00000080: 168b 18be b044 44be c42e 793e 94fd 93be
00000090: 3ebe 8c3d c457 933e b267 b03d 5724 f93d
000000a0: 6d12 39be bef8 a83c 2aa2 0a3c f0f2 e53d
000000b0: 6a76 e73d ec59 aa3e 6ba3 95be 60d8 89bc
000000c0: 4650 18be 2f2f 9dbe a3c4 b2b9 0c21 95be
000000d0: 6fa5 8c3e 5b36 5d3c a87c 26be 12d5 593e
000000e0: 833a 9dbe 01cd debd e235 a0bd ab80 8bbe
000000f0: cc08 81be dea2 f3bc 129d 793e bbbc 9e3e
00000100: 6632 ca3d 42fb a9bd 2816 b7be 8a7b 423e
00000110: d50e a0ba 7530 0c3e e4a0 a0bd 6024 d2be
00000120: 89dc 79be 0632 5b3e 3f3b 09bb 9678 13be
00000130: f17b 2abe 13eb a5be dbfc ed3d 6a3c b2bd
00000140: b099 b8bc 5289 f93d e91c a6be 6b77 ec3d
00000150: 4879 59be e26b 47be 77e5 203e 32e3 9a3e
00000160: b20e 9bbd b878 fdbd b75f a5be 24c8 24be
00000170: 07bd a9be b2d0 73bd 2e28 5b3d 23f8 b7be
00000180: fc9c a73e 03e9 503e e49d a7be 795e 20be
00000190: 0e40 093e 887f b9bd 412e a2bc 0d49 10be
000001a0: 33cb 9a3e ee32 37be a9f7 933e ab29 2a3d
000001b0: 1d6e 5a3d 33cf 963e f331 97bd 99e7 63be
000001c0: 6f2b fdbd 1df7 b43e 686a a8be 87b3 f43c
000001d0: e5fe d3be 9046 813e 0126 833d 9a63 53bd
000001e0: 434e b03d f08e 87bd 6d3a 5d3e 7464 b1be
000001f0: 15f7 723c 2dd6 b83d 9c7b d33e a844 823e
00000200: 1237 62be f0a1 703e 7e77 2ebd fe49 3ebd
00000210: fff9 91be b464 bebd 6398 923e a633 af3d
00000220: 1f2a 2ebe e48c 143e 7a25 0abe 39d3 b73e
00000230: 7317 b0be 127f 9abd 1ba3 c0be 4990 38be
00000240: 45a7 0e3e 7277 a03e 68ca b23d d188 bc3e
00000250: 33d1 c63d 0f51 353e 0469 9f3e cf9c a53e
00000260: ce83 2ebe 84b8 b43e d2e1 503e 9eb1 0cbe
00000270: 6954 48be 1289 89be 49e7 833d b255 a2be
00000280: 56c8 b13d 05ef 363e d861 bdbe 93ba 483d
00000290: 8955 bbbd f235 6a3e 8a8a 0f3e 2711 d4be
000002a0: cb54 863e 3a6d 6f3e 6e36 223e 6c8a c5be
000002b0: e692 73bd 631d 29be 512b f7bc 621a 8c3e
000002c0: 956d 2d3e 947b 743e 1468 bbbd b0da 193e
000002d0: a0af 2a3e 9f01 acbe 37a7 9abe c9f8 11be
000002e0: ad97 903e c07b 95be e9c3 a7be 69b1 743e
000002f0: 9e14 193e e2ce a93e 7730 9cbe fc33 9cbe
00000300: 2bc0 1b3e 231e ac3e 9b8b 3a3e 5ef7 0c3d
00000310: e884 b23d c3ab ba3e 2bd4 83be 1571 42be
00000320: 7dc9 5f3e fae4 8abe 142f 41be 3c37 6a3e
00000330: efb1 0f3e 5bca ad3d 503b ffbd 8699 ee3c
00000340: 9174 543e 4cdf bdbd bd68 e8bd 8766 8f3d
00000350: a37d b8be 8f24 ed3e 9cf3 95be cdfb 4dbe
00000360: fa3e 58be d479 b1be 6895 93be af38 aa3d
00000370: cf87 5a3e 280e e5be ba35 e7bd 64b9 f23e
00000380: ab62 263e 90fb ea3d 4c8a 3cbe e2e2 0abe
00000390: 58c9 d4bc 243e bcbd 6206 5cbe 8890 673d
000003a0: b973 7e3d a53f 8ebc 73a5 1e3d 74dd e6bd
000003b0: b623 853d d499 243e d6b9 57be 2e78 c3be
000003c0: fd92 c53d 87b0 313e 7081 89be aef5 893e
000003d0: 3899 7ebe fc2a a83e 1c9b b93d cb34 c5be
000003e0: ba88 0f3e 5de0 d3be 8b76 25be 173a 17be
000003f0: 79b5 18be be67 833e 8847 553c 99bc 713e
0.23736893 0.24228005 0.31811365 -0.099201396 -0.04640561 0.1380776 -0.06379397 0.19823804
-0.04509724 -0.20711987 0.13322505 0.086885564 0.12559271 0.38392994 0.21265349 0.2980553
-0.095517196 -0.19000305 -0.3626185 -0.31507784 -0.4261469 -0.06261212 -0.44005302 -0.44078052
-0.32502297 -0.46312737 -0.16259596 0.02022932 0.40921912 -0.21975267 0.0069532814 0.30868238
-0.14896807 -0.19166827 0.24334246 -0.28904402 0.06872223 0.28777897 0.08613528 0.121651344
-0.18073435 0.020626422 0.0084615145 0.11227977 0.113018826 0.3327173 -0.2922624 -0.016826808
-0.14874372 -0.3070006 -0.0003409731 -0.29126775 0.27469966 0.013501729 -0.1625849 0.21272686
-0.30708703 -0.10878945 -0.07822777 -0.27246603 -0.25202024 -0.029740747 0.24376324 0.31003365
0.09872894 -0.08299877 -0.3575909 0.18992439 -0.0012211452 0.1369036 -0.078431875 -0.41043377
-0.24400534 0.21405801 -0.0020939854 -0.14401469 -0.16648842 -0.3240591 0.11620494 -0.08702929
-0.022534221 0.12184395 -0.32443932 0.11546215 -0.21237671 -0.19474748 0.15712534 0.3025146
-0.07571162 -0.12376541 -0.32299587 -0.16091973 -0.3315203 -0.0595252 0.053505115 -0.359315
0.32736957 0.20401387 -0.32737648 -0.15661038 0.13403341 -0.09057528 -0.019797446 -0.14090367
0.30233154 -0.17890522 0.28899887 0.041543644 0.05332767 0.29454955 -0.07382574 -0.22256316
-0.123618 0.35344782 -0.32893682 0.029870762 -0.41405407 0.25249147 0.06403733 -0.05160866
0.08608677 -0.0661906 0.21604319 -0.34646952 0.014829417 0.09025226 0.41305244 0.25443006
-0.2209132 0.23499274 -0.042594425 -0.046457283 -0.28511044 -0.09296551 0.28631887 0.08554773
-0.17008255 0.1450687 -0.13490859 0.35903338 -0.3439289 -0.07543768 -0.3762444 -0.1802379
0.13930996 0.3134113 0.08730012 0.36823133 0.0970787 0.17706703 0.31134808 0.32346198
-0.17042467 0.35297024 0.20398644 -0.1373963 -0.1956345 -0.2686239 0.064405985 -0.31706005
0.08680789 0.17864616 -0.3698871 0.049006056 -0.09147174 0.22872141 0.14017692 -0.41419336
0.26236567 0.2338151 0.15841076 -0.3858217 -0.059466265 -0.16515116 -0.030172022 0.27363878
0.16936333 0.23875266 -0.09150711 0.15024829 0.16668558 -0.33594987 -0.302057 -0.1425506
0.2824072 -0.29195976 -0.32766655 0.23895802 0.14949271 0.33165652 -0.30505726 -0.3050841
0.15210025 0.33616742 0.18217318 0.034415595 0.08716756 0.3645917 -0.2574781 -0.1898845
0.21854205 -0.2712782 -0.18865615 0.22872633 0.1403272 0.08485862 -0.12462485 0.02912594
0.20747592 -0.09271106 -0.11348102 0.070019774 -0.36033353 0.46316954 -0.29287422 -0.20115586
-0.21117774 -0.3466326 -0.28824925 0.08311593 0.2134087 -0.44737363 -0.112895444 0.47407067
0.16248576 0.11473763 -0.18412131 -0.13563111 -0.025974914 -0.0919154 -0.2148681 0.05653432
0.06212208 -0.017364332 0.038732003 -0.112727076 0.06500952 0.16074306 -0.21066985 -0.38177627
0.096471764 0.17352496 -0.26856565 0.2694525 -0.24863136 0.32845294 0.09062788 -0.3851684
0.14017001 -0.41382113 -0.16158502 -0.14768253 -0.14912976 0.25665087 0.013017543 0.236071

bias f4 [16]
00000000: 9a58 fb3c 28c3 e93c 3b67 5f3c 0ff6 fd3c
00000010: ed3e cc3c 8968 023d 78f4 293e db8d 863b
00000020: f874 e43c 1ccc 243e 8625 493e 9b45 0bbd
00000030: 593d 063e c75e 9abc e0bf fe3c 8fc0 053d
0.030681897 0.02853544 0.013635452 0.031001119 0.02493235 0.031837974 0.16597164 0.004106266
0.027887806 0.16093487 0.1964322 -0.034001928 0.1310934 -0.018844021 0.031097353 0.03265434

weight f4 [16, 32]
00000000: 6b8c 843d 5c4c 453e 0d41 c4bd f091 51be
00000010: bdd7 713d 63da 8cbd 7eeb 3dbe 2af3 323e
00000020: c286 c2bc 44ed 64bd 406e cebd 3087 96bd
00000030: dcb3 89be 2ab9 093e f374 c5bc 8168 743e
00000040: 500c 413d 19dd 7439 4c46 e93d 6717 9a3e
00000050: 102a 16be f1d9 893e 0d58 533d 5299 86be
00000060: 1895 c53d c98a 72be bd47 98bd 4167 10be
00000070: 7d4b 87be 01db 883e 2797 afbe 9766 523e
00000080: a2c9 99be 6c42 6d3c 13e3 fd3c bf58 833e
00000090: 4a10 1abe 7cce 9d3d d118 fc3c 2064 6d3e
000000a0: 3080 74bb 8da1 023e 0de7 15be 5a78 8abe
000000b0: a218 b03e 2d11 54be e766 b2bd 16a3 a3bc
000000c0: 5940 bc3e fc0c d1bd ddc2 81be b0ee 77bd
000000d0: 1b80 4d3e 5385 473e 6348 853e 8207 c7bd
000000e0: 1e82 113e b0ef b5be 40ce 2e3e cfe7 3f3e
000000f0: af47 533e f5bf 59be fff3 f3bd 3191 e43d
00000100: 7a7c 7cbe 5749 89be 69c6 acbe 8baa c63c
00000110: 3c62 573e e256 a63d e6ef a03c 4de9 033e
00000120: 7d65 6dbe 4777 1b3d 9440 9fbd 20f8 3cbe
00000130: 3a0f 9f3e cc94 86be 659b 313d 3c37 a1be
00000140: d4c0 d9bb beec 29be f1ff f83d 6e21 46be
00000150: 5689 6c3e acc8 8ebe 2fa3 4e3e aad8 8cbe
00000160: 3723 383e edc8 20be 2d69 b93b a31e 72bd
00000170: 8535 613e 8174 e23d 356a a4be b28a 1c3d
00000180: 8303 65be 7bca a63e 81e6 8e3d 102e adbd
00000190: e7e0 51be 4cd4 c23d 5ed9 72be 8afd 463e
000001a0: 469e 293e 69c7 593e 4809 273e 0372 acbe
000001b0: aea3 923e 4dcf 61bd bf85 09be a7ce 62bc
000001c0: 8cf9 903e ee4f 793e 4f75 943d fcd9 4d3e
000001d0: 7f14 9ebe fa5f 733d 9832 b2be df67 be3d
000001e0: 70c4 8ebe 8ecb 1abe f0aa 913e 1147 bb3e
000001f0: 37fb 71be cc8c 54be ac51 873c 6a17 2c3e
00000200: f8fc 30bd 472d 74bd ff1a 66be 9d82 1e3e
00000210: 0f7d a73e d7c4 44be 6e2a 153e 1cdd 443e
00000220: e3b8 863e 554e 39bd 656b 933d 1575 743e
00000230: b06b 7d3e 3e41 c93e 8ee4 fdbd 5220 233e
00000240: 6698 873e bcf6 85be 58da a93d a838 61bd
00000250: 06e2 773e 7cda e2bd 56f5 2dbb 5109 433e
00000260: 9b79 b0be be90 a2be 6044 1cbe 6248 7d3e
00000270: aace 5f3e 7779 7fbe 550e 3e3d e2c5 29be
00000280: 546d 12be 01ad bc3e 7855 3b3e 367c b9bd
00000290: bf65 d43c 3a2f 253d c639 633d 2aed bebd
000002a0: 4116 72be 196e 6a3e af60 f63d 302d f53d
000002b0: 2385 cdbd 096a 693e 94be 673e 893d 783e
000002c0: 0290 f93d 1703 a33e 9620 913c ac7d df3d
000002d0: a00c b73e 3c1f cf3e 715b 3ebe b591 943e
000002e0: 4723 d23d 4756 86bd 210d b23e cec3 1dbe
000002f0: ce16 523e b657 ad3e 164a 8bbe 3693 36be
00000300: 3451 46be db3d f83d 6ed3 32be b020 5dbc
00000310: 6a2d 02bd f6b1 b13d 241f 1d3e ed7b b83e
00000320: f11e 87bc 4b2e 35be 0779 bbbd 0111 18be
00000330: e12e 013f 41ea 4f3e 434e 48be fac9 81be
00000340: 1b20 5cbc c059 dfbe 9a7e de3e 2e87 ea3d
00000350: b651 1fbe fa00 603e 7366 11be 3bda 53be
00000360: 6515 15bd 74ca fb3c ca9d 22be 7a53 d9bd
00000370: dbe1 30be 6a47 e9be f0f3 f7be bc2c f53e
00000380: effb dbbc 0b34 56be 1c40 e9bd 67b3 85be
00000390: 119f 893e 3778 9fbd 7eff 21be 7637 8cbe
000003a0: 3750 523e 86bb e7bc 5c8c a4bd 698c bebd
000003b0: cdf2 3abe 6677 093d 973d 8d3e 8c68 7ebe
000003c0: 5cb2 553c 1ae3 88be ff27 26be 13a6 983e
000003d0: f87b 3d3b 489c 983e dd3f 5bbd 443f 46be
000003e0: f5ef 59be c81f a03e 9db8 93be 09c3 353e
000003f0: 7405 ad3d 583d bc3d 7e21 4b3e ca7e cebd
0.06472095 0.1926741 -0.0958272 -0.20465827 0.059043635 -0.068775915 -0.18546864 0.17475572
-0.023745898 -0.055890337 -0.10079622 -0.07350004 -0.26895034 0.1344954 -0.024103617 0.2386799
0.047130883 0.00023352019 0.11390361 0.3009598 -0.14664483 0.2692409 0.051597644 -0.2628885
0.09647578 -0.23685755 -0.07435558 -0.14101888 -0.2642478 0.26729587 -0.34295008 0.20546947
-0.30036646 0.014481168 0.030992066 0.25653645 -0.15045276 0.077053994 0.030773552 0.23182726
-0.003730785 0.12756939 -0.1463892 -0.27044946 0.34393793 -0.20709677 -0.08711033 -0.019975226
0.36767843 -0.10207555 -0.2534398 -0.060530365 0.200684 0.19484453 0.2603179 -0.09718229
0.14209792 -0.3553443 0.17070866 0.18740772 0.20632814 -0.21264632 -0.11911773 0.111605056
-0.24656859 -0.26813766 -0.33745125 0.024251243 0.21033567 0.0812204 0.019645642 0.12881966
-0.23183246 0.03795555 -0.07775989 -0.18454027 0.31066304 -0.26285398 0.043361086 -0.31487453
-0.0066453014 -0.16594216 0.12158192 -0.1934869 0.23099265 -0.27887475 0.20179437 -0.27509052
0.17982183 -0.15701647 0.00565829 -0.05911125 0.21993072 0.110573776 -0.3211228 0.038218208
-0.22364621 0.32576355 0.06977559 -0.08456051 -0.2049595 0.09513149 -0.23715732 0.19432655
0.16564283 0.21267475 0.16312134 -0.33680734 0.28640503 -0.055129338 -0.13429926 -0.013843215
0.2831539 0.24346897 0.07248937 0.20102686 -0.30875012 0.059417702 -0.34804225 0.092971556
-0.27884245 -0.15116712 0.28450727 0.36577657 -0.23630987 -0.20756835 0.016518436 0.16805807
-0.04321 -0.059613492 -0.22471236 0.15479513 0.327126 -0.19215713 0.14566967 0.19224972
0.26312932 -0.04524072 0.07198218 0.23872788 0.24748111 0.39307588 -0.12397109 0.15930298
0.26483458 -0.26164806 0.08293599 -0.054985672 0.24207315 -0.11076829 -0.0026543937 0.19046523
-0.34467778 -0.31751055 -0.15260458 0.24734643 0.2185618 -0.24948679 0.046400387 -0.16579393
-0.14299518 0.36850742 0.18294322 -0.090568945 0.025927423 0.040328242 0.05547502 -0.09322579
-0.23641302 0.22893561 0.1203016 0.119715095 -0.100351594 0.22794355 0.22631294 0.24242224
0.121856704 0.31838295 0.017715733 0.10912642 0.3575182 0.40453517 -0.1858957 0.29017416
0.10260635 -0.06559425 0.34775642 -0.15406725 0.20516512 0.3385598 -0.2720496 -0.17829594
-0.19366914 0.12121173 -0.17463467 -0.013496563 -0.03178159 0.086765215 0.1534391 0.36032048
-0.016494246 -0.1769344 -0.091539435 -0.14850236 0.50462157 0.20304205 -0.19561104 -0.25349408
-0.013435389 -0.4362316 0.43455964 0.11451565 -0.15558514 0.21875373 -0.14199238 -0.20688717
-0.036397357 0.030736186 -0.15880504 -0.10611625 -0.17273657 -0.45562297 -0.48428297 0.47885692
-0.02685353 -0.2091829 -0.11389181 -0.26113436 0.2687917 -0.07786601 -0.15820119 -0.27386063
0.20538412 -0.02828766 -0.08034584 -0.09304125 -0.18256684 0.033561133 0.27586052 -0.24844569
0.0130430125 -0.26735765 -0.16226195 0.29814205 0.0028913002 0.29806733 -0.0535277 -0.19360071
-0.21282943 0.31274247 -0.28851786 0.17750181 0.08448306 0.09191388 0.19836995 -0.10082777

bias f4 [2]
00000000: 9bea 043d 7be9 8c3d
0.0324503 0.0688047

weight f4 [2, 16]
00000000: 60fd 073f a72c 2a3e a122 ab3e 284a d63e
00000010: 964e 413e e62b 8d3e 6af6 813e 07b4 0c3d
00000020: 0621 023f 9710 1d3f 35d4 8d3e abbd bbbc
00000030: 2fcc 183f a90d f4be 788c 033f 8709 b13e
00000040: 91ca f63e db57 973c 2a74 0abf 9c76 003f
00000050: f14f 3abe 008a 853e 0b84 d73e 985c 1abf
00000060: 9019 c53d d83e d8bd 6f82 003f 137b afbe
00000070: 2862 e93e 99f7 963e 2364 df3e 76fc 233f
0.53120995 0.16618596 0.33424857 0.41853452 0.18877634 0.27572554 0.25383312 0.034351375
0.5083164 0.6135344 0.27700964 -0.02291759 0.5968656 -0.47666672 0.51386213 0.3457758
0.4820142 0.01847451 -0.540835 0.50180984 -0.18194558 0.26081848 0.42092928 -0.60297537
0.09624016 -0.105588615 0.50199026 -0.34273586 0.455827 0.29485777 0.43631086 0.640571

weight f4 [1, 2]
00000000: f7e6 8a3f 8828 703e
1.0851735 0.23452961

pout f4 [50, 3]
00000000: 33b9 2c3d 28c8 033a 1beb 7136 33b9 2c3d
00000010: d4c2 163a 1f53 8836 32b9 2c3d 36d3 033a
00000020: ceff 7136 33b9 2c3d 3ed2 033a 09fe 7136
00000030: 33b9 2c3d f9db 023a 9477 6f36 33b9 2c3d
00000040: 7a4d 043a db67 6936 33b9 2c3d 4c8f 023a
00000050: bb94 6936 33b9 2c3d d19f 033a 4999 7136
00000060: 33b9 2c3d 2b7f 033a 22fe 6836 33b9 2c3d
00000070: d8d1 033a 47fd 7136 33b9 2c3d 2a4d 213c
00000080: 3a5b 773a 33b9 2c3d f5c0 033a 44dd 7136
00000090: 33b9 2c3d a743 033a d9fa 6836 33b9 2c3d
000000a0: 3cd2 033a 00fe 7136 33b9 2c3d 30b6 033a
000000b0: d8c7 7136 35b9 2c3d 6887 0a3a 4336 7336
000000c0: 33b9 2c3d ca29 883a 0680 4037 33b9 2c3d
000000d0: 862d 283a 260e a236 35b9 2c3d 67a4 023a
000000e0: 3897 6e36 35b9 2c3d 24d3 033a aaff 7136
000000f0: 33b9 2c3d 2ad3 033a b5ff 7136 33b9 2c3d
00000100: 6756 033a 6bec 7036 33b9 2c3d 71b8 163b
00000110: 2c7d 5e38 33b9 2c3d 28b5 283a eae6 a236
00000120: 33b9 2c3d bf4f 033a 26db 7036 35b9 2c3d
00000130: 3e80 023a b0b9 6936 33b9 2c3d 6d4f 023a
00000140: 3f72 6c36 33b9 2c3d b349 223a 34e1 9836
00000150: 33b9 2c3d 4a6f 033a 972a 7136 35b9 2c3d
00000160: 39bc 1b3a 5238 8f36 33b9 2c3d 39d3 033a
00000170: cdff 7136 33b9 2c3d b548 103a b40a 8036
00000180: 35b9 2c3d 3dd3 033a d0ff 7136 33b9 2c3d
00000190: 932f 033a 5983 7036 33b9 2c3d 6144 023a
000001a0: d696 6b36 35b9 2c3d 80ec 023a edb1 6f36
000001b0: 33b9 2c3d 9a62 033a 620b 7136 35b9 2c3d
000001c0: a9d7 023a 392b 6936 33b9 2c3d 774a 023a
000001d0: 13ce 6a36 33b9 2c3d 1930 1e3a 80c3 9236
000001e0: 33b9 2c3d 2ed3 033a bdff 7136 33b9 2c3d
000001f0: d3ab 033a a4b2 7136 33b9 2c3d 51d2 033a
00000200: 31fe 7136 33b9 2c3d 1c42 103a c102 8036
00000210: 33b9 2c3d c524 233a 5e2f 9a36 33b9 2c3d
00000220: 93c5 033a 34e6 7136 33b9 2c3d ae0e 0e3a
00000230: 2dd9 7a36 33b9 2c3d edb0 033a 28bd 7136
00000240: 33b9 2c3d 96d2 033a b2fe 7136 33b9 2c3d
00000250: d319 7f3a ea5d 2a37
0.042168807 0.0005027079 3.6048648e-06 0.042168807 0.00057510776 4.0627924e-06 0.042168804 0.00050287263
3.6060696e-06 0.042168807 0.0005028582 3.6059666e-06 0.042168807 0.0004991885 3.568338e-06 0.042168807
0.00050469453 3.4780157e-06 0.042168807 0.00049804593 3.4806278e-06 0.042168807 0.0005021068 3.6001022e-06
0.042168807 0.0005016203 3.4718619e-06 0.042168807 0.00050285226 3.6059225e-06 0.042168807 0.0098450575
0.0009435896 0.042168807 0.0005026006 3.6040592e-06 0.042168807 0.00050073344 3.4716707e-06 0.042168807
0.0005028581 3.6059646e-06 0.042168807 0.00050244015 3.6028123e-06 0.042168815 0.00052844593 3.6241406e-06
0.042168807 0.0010388431 1.14739e-05 0.042168807 0.0006415475 4.8296233e-06 0.042168815 0.00049836043
3.5552785e-06 0.042168815 0.0005028716 3.6060615e-06 0.042168807 0.00050287193 3.606064e-06 0.042168807
0.00050101284 3.59004e-06 0.042168807 0.002299812 5.30455e-05 0.042168807 0.0006435686 4.854858e-06
0.042168807 0.00050091365 3.5890348e-06 0.042168815 0.0004978216 3.482779e-06 0.042168807 0.0004970942
3.523324e-06 0.042168807 0.00061907916 4.55617e-06 0.042168807 0.0005013837 3.593659e-06 0.042168815
0.0005940828 4.2682886e-06 0.042168807 0.0005028728 3.6060694e-06 0.042168807 0.0005503998 3.8159433e-06
0.042168815 0.00050287304 3.60607e-06 0.042168807 0.00050043425 3.5839241e-06 0.042168807 0.00049692957
3.5105527e-06 0.042168815 0.00049943477 3.5717342e-06 0.042168807 0.0005011946 3.5918424e-06 0.042168815
0.00049912423 3.4744864e-06 0.042168807 0.00049702026 3.4988668e-06 0.042168807 0.0006034389 4.3738983e-06
0.042168807 0.00050287216 3.6060658e-06 0.042168807 0.0005022857 3.601578e-06 0.042168807 0.0005028593
3.6059757e-06 0.042168807 0.0005503015 3.815018e-06 0.042168807 0.00062234356 4.595072e-06 0.042168807
0.0005026694 3.6045794e-06 0.042168807 0.00054190576 3.7379316e-06 0.042168807 0.00050236174 3.6021902e-06
0.042168807 0.0005028633 3.606005e-06 0.042168807 0.0009731326 1.0154656e-05

throughput f4 [50, 1]
00000000: b385 f53f 4f81 f53f b185 f53f b185 f53f
00000010: ea85 f53f 9885 f53f fd85 f53f bc85 f53f
00000020: c685 f53f b185 f53f f91c f33f b585 f53f
00000030: d485 f53f b185 f53f b985 f53f 2584 f53f
00000040: e764 f53f 427d f53f f785 f53f b185 f53f
00000050: b185 f53f cf85 f53f 7416 f53f 237d f53f
00000060: cf85 f53f 0186 f53f 0b86 f53f a17e f53f
00000070: c785 f53f 2780 f53f b185 f53f d082 f53f
00000080: b185 f53f d685 f53f 0e86 f53f e785 f53f
00000090: cb85 f53f ec85 f53f 0c86 f53f 947f f53f
000000a0: b185 f53f bb85 f53f b185 f53f d182 f53f
000000b0: 6e7e f53f b585 f53f 5583 f53f b985 f53f
000000c0: b185 f53f f268 f53f
1.9181427 1.9180087 1.9181424 1.9181424 1.9181492 1.9181395 1.9181515 1.9181437
1.918145 1.9181424 1.8993217 1.9181429 1.9181466 1.9181424 1.9181434 1.9180952
1.9171418 1.9178851 1.9181508 1.9181424 1.9181424 1.918146 1.9147477 1.9178814
1.918146 1.918152 1.9181532 1.9179269 1.9181451 1.9179734 1.9181424 1.9180546
1.9181424 1.9181468 1.9181535 1.9181489 1.9181455 1.9181495 1.9181533 1.9179559
1.9181424 1.9181436 1.9181424 1.9180547 1.9179208 1.9181429 1.9180704 1.9181434
1.9181424 1.9172652

delay f4 [50, 1]
00000000: 378a 553d 098e 553d 398a 553d 398a 553d
00000010: 078a 553d 4f8a 553d f689 553d 308a 553d
00000020: 268a 553d 398a 553d eca7 573d 368a 553d
00000030: 1b8a 553d 398a 553d 328a 553d 928b 553d
00000040: c1a6 553d 8f91 553d fc89 553d 398a 553d
00000050: 398a 553d 1e8a 553d 24eb 553d a991 553d
00000060: 1e8a 553d f389 553d ea89 553d 5d90 553d
00000070: 258a 553d 0a8f 553d 398a 553d ba8c 553d
00000080: 398a 553d 198a 553d e789 553d 0b8a 553d
00000090: 218a 553d 068a 553d e989 553d 8a8f 553d
000000a0: 398a 553d 308a 553d 398a 553d b98c 553d
000000b0: 8a90 553d 368a 553d 478c 553d 328a 553d
000000c0: 398a 553d 3da3 553d
0.052133765 0.05213741 0.052133773 0.052133773 0.052133586 0.052133854 0.052133523 0.05213374
0.0521337 0.052133773 0.052650377 0.05213376 0.05213366 0.052133773 0.052133746 0.052135058
0.052160982 0.05214077 0.052133545 0.052133773 0.052133773 0.052133672 0.0522262 0.052140865
0.052133672 0.05213351 0.05213348 0.05213963 0.052133698 0.052138366 0.052133773 0.05213616
0.052133773 0.052133653 0.052133467 0.0521336 0.052133683 0.052133583 0.052133474 0.052138843
0.052133773 0.05213374 0.052133773 0.052136157 0.052139796 0.05213376 0.052135732 0.052133746
0.052133773 0.05215763

ef1 f4 [50]
00000000: ed8b 84c0 78e2 82c0 bd8a 84c0 d78a 84c0
00000010: 29b0 84c0 5f0b 85c0 b408 85c0 a190 84c0
00000020: ac11 85c0 e28a 84c0 27b2 dcbf b98c 84c0
00000030: df11 85c0 d78a 84c0 f48d 84c0 f478 84c0
00000040: 9ee9 68c0 587b 80c0 34bd 84c0 bf8a 84c0
00000050: be8a 84c0 969a 84c0 485b 3ec0 cd68 80c0
00000060: 959b 84c0 8106 85c0 53dd 84c0 b64a 81c0
00000070: 0197 84c0 ec32 82c0 bd8a 84c0 7ac1 83c0
00000080: bd8a 84c0 a7a0 84c0 3fea 84c0 c6ac 84c0
00000090: cd98 84c0 fc0e 85c0 1cf6 84c0 f7db 81c0
000000a0: be8a 84c0 2c8f 84c0 d58a 84c0 57c2 83c0
000000b0: 762c 81c0 358c 84c0 f70a 84c0 918e 84c0
000000c0: cd8a 84c0 b84e 6cc0
-4.142081 -4.090145 -4.141936 -4.141948 -4.146504 -4.157638 -4.1573124 -4.142655
-4.158407 -4.1419535 -1.7241868 -4.142178 -4.1584315 -4.141948 -4.1423283 -4.139765
-3.6392589 -4.0150566 -4.148096 -4.141937 -4.1419363 -4.1438704 -2.9743214 -4.012793
-4.143992 -4.157044 -4.152017 -4.04037 -4.143433 -4.068716 -4.141936 -4.1173677
-4.141936 -4.144611 -4.1535945 -4.1460905 -4.1436524 -4.158079 -4.1550426 -4.058101
-4.1419363 -4.142477 -4.1419473 -4.117473 -4.0366774 -4.142115 -4.1263385 -4.142403
-4.1419435 -3.6923046

ef2 f4 [50, 1]
00000000: 8015 a8c0 70de 94c0 3024 a8c0 f022 a8c0
00000010: e069 a6c0 904d 9ec0 407c a1c0 c0db a7c0
00000020: b06c 9fc0 7022 a8c0 804a 3ec0 a00b a8c0
00000030: d0d1 9fc0 e022 a8c0 80fc a7c0 408b 99c0
00000040: c0d6 87c0 1006 91c0 e0d2 a5c0 1024 a8c0
00000050: 2024 a8c0 9064 a7c0 c0cf 7cc0 90ee 90c0
00000060: c058 a7c0 70b2 a1c0 804c a4c0 d01f 92c0
00000070: 108f a7c0 9090 93c0 3024 a8c0 80fb 96c0
00000080: 3024 a8c0 601d a7c0 c09d a3c0 f090 a6c0
00000090: a079 a7c0 30b0 a0c0 a0ea a2c0 70fe 92c0
000000a0: 2024 a8c0 90ed a7c0 0023 a8c0 00fe 96c0
000000b0: 40f4 91c0 0012 a8c0 c0de 97c0 f0f4 a7c0
000000c0: 6023 a8c0 00c2 88c0
-5.2526245 -4.652153 -5.2544174 -5.254265 -5.200424 -4.946968 -5.046417 -5.245575
-4.9820175 -5.254204 -2.973297 -5.251419 -4.994362 -5.254257 -5.2495728 -4.7982483
-4.2449646 -4.53199 -5.1819916 -5.254402 -5.25441 -5.2310257 -3.95018 -4.5291214
-5.2295837 -5.053032 -5.1343384 -4.5663834 -5.2362137 -4.611397 -5.2544174 -4.7182007
-5.2544174 -5.222336 -5.1130066 -5.2051926 -5.233597 -5.0215073 -5.0911407 -4.5935593
-5.25441 -5.2477493 -5.2542725 -4.718506 -4.5610657 -5.2521973 -4.745941 -5.2486496
-5.254318 -4.2736816
