train/models/HARQ-IR-NumK=5_avg.pt (torch, 38666 bytes, 14 tensors)

bias f4 [16]
00000000: 932f 66bd 25b8 63bd 766e 94bd 4279 673d
00000010: adb7 99bd b07d 983d 23a0 a2bd 442c 94bd
00000020: 9ce5 413d 01f1 7fbd ca08 84bd 48c8 97bd
00000030: 9aee c13d 2e24 86bd fc90 56bc ca9e b43d
-0.056197714 -0.055595536 -0.07247631 0.056512125 -0.075057365 0.07445848 -0.079407 -0.072350055
0.047338113 -0.0624857 -0.06446989 -0.074112475 0.09469338 -0.065498695 -0.01309609 0.08819349

weight f4 [16, 1]
00000000: 713d aabe 2941 fb3d 0c44 b1be 13a3 2bbc
00000010: 307c a2be fc03 e83e 1b7b 0cbf 90b0 b0be
00000020: 04b9 f9bd aefe d5be ea79 383c 7490 29bf
00000030: 8c26 073f 1844 12bf b1fc f83e 4e17 4f3e
-0.3325 0.12268288 -0.34622228 -0.010475892 -0.31735373 0.4531554 -0.54875344 -0.34509706
-0.12193492 -0.41795868 0.011259535 -0.6623604 0.5279319 -0.5713515 0.48630288 0.20223734

bias f4 [32]
00000000: a632 77bd 03a6 8d3d ce6a 7ebd 0cdb 45bd
00000010: fb6e 803d 577d a73d d6ef 8bbd c94b 7c3d
00000020: 7d8c a5bd 5a5e 8fbd e77a cd3d a309 68bd
00000030: d9c1 713d 916b 8a3d 5e8c cb3d 5582 ac3d
00000040: d6c8 583d 3cca 69bd 9613 45bd 75f7 3bbd
00000050: 6d80 7abd 3cb8 823d 9d9d 6fbd 483d 6ebd
00000060: 2572 3d3d d343 e7bc cee3 843d fd7e 4e3d
00000070: 1f49 5f3d 823b 893d 0c6a 5ebd 0d1d 743d
-0.060351036 0.0691643 -0.062113576 -0.048304603 0.06271168 0.081782036 -0.068328544 0.06159571
-0.08083437 -0.07000418 0.100332074 -0.056649815 0.05902276 0.06758798 0.09938882 0.08423296
0.052925907 -0.05707763 -0.04811438 -0.04589029 -0.061157633 0.06382796 -0.05849992 -0.05816391
0.046251435 -0.028230583 0.06488763 0.050414074 0.054513093 0.06700803 -0.054300353 0.059598017

weight f4 [32, 16]
00000000: 675b 863e bd46 813e 5939 b03e 1dd4 bdbd
00000010: d3b9 a5bc 27f9 113e c824 18bd 85a1 653e
00000020: 0dc3 e9bc 201e 3abe 57c0 083e 0f8b e83d
00000030: bf70 063e c52d d23e 2f12 5d3e b95d 983e
00000040: 5324 48bd bdaa 88be a32a a2be b1b0 82be
00000050: 36d3 c2be 8bda 06be a8db c9be 3c26 cabe
00000060: d0e3 89be b136 d5be c71f 4abe 8763 873d
00000070: 8924 ad3e f8f7 31be e2a8 78bd 7fe4 803e
00000080: 8c77 edbd b156 42be 0417 8e3e 6695 8ebe
00000090: 27b2 d23d ef65 913e 1f6a f83d b380 1f3e
000000a0: b38c 20be f42d 5e3d 9932 0a3c e716 173e
000000b0: 4972 e23d d255 bc3e 1975 97be d2e4 ebbc
000000c0: 3936 05be c6b4 9abe 4aa1 9e3c 98a5 91be
000000d0: 7bd6 963e c543 573c cd2b 12be 83f4 6d3e
000000e0: f6de 96be 4262 b8bd b98b a7bd c86a 81be
000000f0: 67b6 80be eea1 23bc 4c11 783e d7d7 9d3e
00000100: 2e65 233e 0ddb 1fbe f54b 98be cd7b 8a3e
00000110: 0e58 6e3d 9798 993d 56f4 88bc b04f b3be
00000120: 2dd9 32be df30 8d3e e6c6 4cbd df60 a7bd
00000130: 3bd2 6bbe 1625 86be 0412 683d c096 17be
00000140: 58dc 01be fb38 5b3e b8d3 dbbe 7d58 6d3d
00000150: 1eb4 a2be ada9 b9bd 194c 593d 596d 4a3e
00000160: 3677 2dbe 782a 69be 1242 8dbe 1787 87be
00000170: 8425 6cbe 603b 27be e2e7 193e 6f36 65be
00000180: 5703 bf3e ac49 5b3e 1396 8fbe 65ad 12be
00000190: c41a 393e b629 aebd af27 ea3c 699a c0bd
000001a0: e1ee ab3e 766d 07be 22a5 963e d18b b83d
000001b0: a28d 743d 048f af3e c2bc 8cbd c9ae 60be
000001c0: 0f45 f3bd 8432 a53e dd52 a6be caae 3e3d
000001d0: 7b24 d2be ec4c 6b3e cfba 8c3d ab60 42bd
000001e0: cf01 ca3d 868e 79bd 2385 5b3e dfd9 aebe
000001f0: 10a9 1fbc 46dd c23d ad63 c93e 03bb 753e
00000200: f3d2 35be d379 553e 298c 8e3a 5af9 f4bc
00000210: 18d6 76be ba09 05be 67ee a83e 463e 043e
00000220: c7bc 0cbe 8abd 403e f732 21be 633b ce3e
00000230: 7e20 c2be b500 03bd 1ff2 d3be c7d2 5fbe
00000240: ab89 323e e3f8 a73e c03d fd3d ffe4 be3e
00000250: c624 083e af29 3f3e f35c b33e 7131 b83e
00000260: 0f5b 16be 436d c73e dc9d 593e a566 c8bd
00000270: f050 3dbe 6608 6bbe b599 963d 7483 a0be
00000280: b354 463d 2eb0 493e f7c3 d0be 5177 263d
00000290: 01d3 04be 446e 863e 8803 d23d 356c e7be
000002a0: 50b9 6f3e f382 483e 1ab2 3d3e 7eed d8be
000002b0: bead f6bc 3c6a 4fbe 0000 463b 5ec4 b53e
000002c0: 84a1 3d3e e33d 713e 6bfc 98bd f631 1b3e
000002d0: e972 3c3e 892a b2be 496c 92be 4fd8 00be
000002e0: 305e 943e b598 8dbe 06df adbe 8568 823e
000002f0: bd3c 0e3e a2eb b13e 1fa7 a3be 3138 9fbe
00000300: 28cd fa3d 6b65 9f3e 4925 1b3e 533e 113d
00000310: 33ef 653d ffad b03e 3944 93be 0cc4 61be
00000320: 80ac 4b3e 2ef9 99be 913b 4ebe 6fb3 4b3e
00000330: 73dd f43d ec08 613d 0eca 11be f8ce 563c
00000340: c041 833e 719a 20be d797 85bd 0295 033e
00000350: d7fc 9fbe e927 d13e 3127 7abe e080 1cbe
00000360: 10bb 1dbe 8b48 98be e262 9fbe 1d0a 073e
00000370: 771e 203e 0e14 ccbe 9e72 29be 1229 dd3e
00000380: 0084 123d 994e 693e 5a37 9fbe 04fa 5dbe
00000390: c7ba 1cbe 0955 093d f8f8 aebe 02db 8fbd
000003a0: 14c9 5cbd 478d 13be 9953 d63d 4d77 75be
000003b0: 020f 3f3e 2f8b 0b3d 1f39 bfbd bc5b 59be
000003c0: 069a c53d c31e 203e 02ac 89be 5164 963e
000003d0: 50e9 7fbe 60ce a63e b0a6 bd3d 8654 c5be
000003e0: 24de 193e 3a31 d3be 95a2 21be b577 14be
000003f0: 1fa7 1fbe 35ab 843e fda5 233c 230b 893e
0.2624161 0.25249282 0.34418753 -0.09268973 -0.02023021 0.142552 -0.037144452 0.22424896
-0.02853539 -0.18175554 0.13354622 0.11354648 0.13128947 0.41050544 0.21588968 0.29759005
-0.048862766 -0.26692763 -0.31673154 -0.2552543 -0.38051766 -0.13169305 -0.39425397 -0.39482296
-0.2693162 -0.4164329 -0.19738685 0.0661078 0.33816937 -0.17379749 -0.060707934 0.2517433
-0.115950674 -0.18978383 0.27751935 -0.27848357 0.10287886 0.28398082 0.12129616 0.15576439
-0.15678672 0.054243043 0.008434915 0.1475483 0.110569544 0.36784226 -0.29581526 -0.028795633
-0.13008966 -0.30216044 0.019364018 -0.2844665 0.2946051 0.013138716 -0.14274521 0.23237805
-0.2946698 -0.09003116 -0.08180947 -0.2527678 -0.25139162 -0.0099873375 0.24225348 0.30828735
0.15956566 -0.15610905 -0.2974545 0.27047578 0.058189444 0.07499807 -0.016718071 -0.35021734
-0.17465658 0.27576348 -0.04999437 -0.081727736 -0.23029415 -0.2620017 0.056657806 -0.148036
-0.1268171 0.21408455 -0.42934966 0.057945717 -0.31778044 -0.09065566 0.053051088 0.19768275
-0.16940007 -0.22770107 -0.2758947 -0.26470253 -0.23061186 -0.16331244 0.15029863 -0.22384046
0.37307236 0.21414822 -0.28044185 -0.14323957 0.18076617 -0.085040495 0.028583376 -0.094044514
0.33580688 -0.1322535 0.2942286 0.09011043 0.059705384 0.342888 -0.0687194 -0.21941675
-0.11878406 0.32265103 -0.32485095 0.04655341 -0.41043457 0.22978562 0.068715684 -0.04745547
0.09863626 -0.060926937 0.21437506 -0.34150597 -0.0097448975 0.09514861 0.3933386 0.2399712
-0.17756252 0.20847254 0.0010875511 -0.029904056 -0.24105108 -0.12991992 0.32994387 0.1291438
-0.13743888 0.18822303 -0.15742098 0.40279683 -0.37915415 -0.031983096 -0.4139566 -0.21857749
0.17435329 0.32807073 0.123652935 0.37284085 0.13295278 0.18668245 0.35031852 0.3597522
-0.14683174 0.38950548 0.21251625 -0.09785203 -0.18487906 -0.22952422 0.07353536 -0.3135029
0.04842062 0.19696113 -0.4077451 0.040641133 -0.12971117 0.26256 0.1025458 -0.45199743
0.23410535 0.19581203 0.18524972 -0.42368692 -0.030112144 -0.20255369 0.0030212402 0.3550138
0.18518645 0.23558764 -0.0747002 0.15155777 0.1840321 -0.34798077 -0.2859824 -0.12582515
0.2897811 -0.2765557 -0.33959216 0.25470367 0.13890357 0.34750086 -0.3196344 -0.31097558
0.12246162 0.31132063 0.15150942 0.035459828 0.05613632 0.34507748 -0.28762987 -0.22047442
0.19890022 -0.30072922 -0.2013991 0.19892667 0.119563006 0.05494015 -0.14237234 0.013110869
0.256361 -0.15683915 -0.06523102 0.1284981 -0.3124759 0.40850762 -0.24429013 -0.15283537
-0.1540339 -0.29742846 -0.3113013 0.13187452 0.15636621 -0.3985905 -0.16547629 0.43195397
0.035770416 0.22783889 -0.31096917 -0.21677405 -0.15305625 0.03352836 -0.34174323 -0.07024194
-0.0539027 -0.14409362 0.10465164 -0.23971291 0.18658069 0.034068283 -0.09337067 -0.212264
0.09648518 0.15636735 -0.26889044 0.2937341 -0.24991345 0.32579327 0.09260309 -0.3854105
0.15026146 -0.41248494 -0.15784676 -0.1449879 -0.15591095 0.2591187 0.009988305 0.2676631

bias f4 [16]
00000000: d7b1 6a3d ef6d 533d e677 6f3d b916 693d
00000010: b383 463d 5119 773d 08b0 843d 6aea 8abd
00000020: aff3 783d 7e4f 823d f4c6 8b3d 801d 66bd
00000030: 5624 6e3d 9370 24bd 4c09 6b3d 6caf 6c3d
0.057298508 0.051618513 0.058463953 0.056906436 0.048465442 0.060326878 0.06478888 -0.06782992
0.06077927 0.06362818 0.06825057 -0.056180477 0.05814012 -0.04014642 0.057381913 0.057784483

weight f4 [16, 32]
00000000: ed60 063d b68d 453e e66f 29be 41b8 2fbe
00000010: 4c29 7a3d 004f 87bc a70d 7fbe 0430 273e
00000020: 63e4 66bd dba8 d5bd 69dd 8dbd 6856 d7bd
00000030: 9bcf 99be 5f0c 023e 85cc ca3d 9e29 a23e
00000040: 2dd8 f53c 1d25 8d3b abc2 063e 0cb7 853e
00000050: 1dc7 2fbe 9e58 5c3e cf3a c13c 734d 97be
00000060: b3a4 be3d 75d7 50be ef40 96bd 20aa 25be
00000070: ef21 8fbe f7a0 bd3e eef9 bfbe 7026 443e
00000080: 668d a9be d1c8 5e3c 11e8 04bd 95be 923e
00000090: 9b81 18be 37ea fd3d 5e6c e9bc 3e7d 613e
000000a0: 704b 09bd a922 aa3d ca13 ecbd 3ee2 99be
000000b0: af22 a03e bfc4 5bbe af7f f13c 19e7 4e3d
000000c0: 558b b33e 1500 cabd 01a3 72be fb0c cabd
000000d0: f0a0 343e 7b1d 0f3e dac5 6f3e ae2a 03be
000000e0: f8db 0d3e 94e6 a5be 83b6 2e3e a5b7 2a3e
000000f0: d1f9 443e 2e55 eebd b4cc 18be 6fdd c73d
00000100: f0ee 82be c7c9 5dbe 5ab8 cbbe b1d2 7b3d
00000110: 6324 473e b1d3 ea3d 40be 8bbd 50d2 173e
00000120: 5339 91be 043d 6dbc 0066 af3c a2b8 72be
00000130: 6af3 a03e b26c 5dbe 55d9 153e 9d55 50be
00000140: 57b8 933b d622 40be 462b 223e 3302 4cbe
00000150: 624d 6b3e 0793 8cbe db2f 163e 3c1a a8be
00000160: 7753 203e 62e4 15be 6c9d 413d 14fc 47bd
00000170: c68d 403e 728a 553e 041c bfbe 95d9 6a3d
00000180: a0e1 82be c19c a63e e5be 1739 4ea9 54bd
00000190: b588 4fbe a428 173e a5e7 99be ac39 3b3e
000001a0: 6ed8 083e e41e 283e 1a69 473e b36b bcbe
000001b0: 8579 823e dd5e 80bd a7ad 34bc 63fb 833d
000001c0: 9c2e 883e 38a5 7d3e cb4c b83d dde2 243e
000001d0: c5ec aabe da9c a13b d13d c0be 2e1b 793d
000001e0: 3c4e 90be 64cf f1bd f016 923e 9b93 b03e
000001f0: 6b94 80be f63f d6bd 3c7f 75bc dcca 1d3e
00000200: e548 95bd 82bb 6dbd dbd9 90be 194e 3c3e
00000210: ab19 a73e 2b28 1bbe 48bd b73d 4281 383e
00000220: baa9 6e3e ae43 b2bd 3b17 ce3d 248e 553e
00000230: 624f 5e3e 7271 c53e e989 83bc 33a5 623e
00000240: c1d3 7d3e b12b 84be 8662 ca3d 7414 b9bd
00000250: f1cd 5f3e 8eb5 27be ebb6 f3bc ea48 233e
00000260: 5b54 b3be 145c 93be 2a2e 1dbe 7cb0 683e
00000270: 2178 503e b317 24be 85d0 833c 0539 38be
00000280: 750c 33be cc98 bd3e 5734 e13d d454 63bd
00000290: 9add ec3c 24cd c43d d9b4 41bc c610 d4bd
000002a0: 45cd 8abe ba62 373e 7a4a 213e cdd2 af3d
000002b0: 390f 06be ad88 633e 5aa3 b63e 1577 a83e
000002c0: 1860 d83d 99fc a33e 340a 173d 9cba 8c3d
000002d0: ab62 aa3e 384e b43e 7ae0 5cbe 07bc 823e
000002e0: b077 ca3d 4d3b 08bd c7d4 b33e 293a 32be
000002f0: 5a0c 413e 356e e53e 54bf 9cbe 48be 43be
00000300: a887 9abe c156 3b3c 326d cfbe c085 8ebd
00000310: a4d0 9d3d 7046 913e 5cac bf3d b6b9 893e
00000320: 40b8 9e3d 2ba0 9ebe ddb9 20be 6807 6dbd
00000330: 6bfe d73e 3e43 da3d d7f4 9a3d 6f2c dfbd
00000340: ab45 ddbd ab42 b1be f348 ae3e 7d07 1cbc
00000350: 5ee0 84be 4330 5e3e 334a 45bd 5174 eebd
00000360: b576 b03d d9cd 203e 567f 7bbe 072b 4fbe
00000370: a846 87bd d909 61be c5c5 c8be 0e0d c53e
00000380: 2106 89bd ec43 7ebe ed74 27bd a161 a9be
00000390: c3aa 9b3e f2ad fbbd c5dd dfbd 4183 adbe
000003a0: 4faf 8e3e 55ea 123d ce03 0abe 51e0 8abc
000003b0: 614c 7ebe 2a8d 80bc 8d20 373e 2cf3 8fbe
000003c0: beb3 45bd a6d2 40be 0ca3 68be a29f 8a3e
000003d0: 2482 3ebd f749 6b3e 0a4c 563c 4ddc efbd
000003e0: d3e3 30be ad45 ab3e 4a33 b3be 16e0 f53d
000003f0: 586f 0e3e 2044 713c a014 8c3e ca52 27be
0.03280728 0.1929234 -0.16546592 -0.17160131 0.06107454 -0.016517162 -0.24907552 0.1632691
-0.05637015 -0.10432597 -0.06926996 -0.105145276 -0.30041203 0.12700032 0.0990229 0.31672376
0.030010307 0.0043074028 0.13160197 0.26116216 -0.171658 0.2151818 0.023587612 -0.29551277
0.09308758 -0.2039469 -0.07336604 -0.16178179 -0.27955577 0.3703687 -0.3749537 0.19155288
-0.3311569 0.013597683 -0.03244788 0.28661028 -0.1489319 0.123981886 -0.028494056 0.22020432
-0.03351921 0.08307392 -0.11527212 -0.30055422 0.3127646 -0.21461771 0.02947983 0.05051336
0.3506724 -0.09863297 -0.23694994 -0.09865757 0.17639518 0.1397609 0.23415318 -0.1280925
0.13853443 -0.3240248 0.1706181 0.16671617 0.19235922 -0.116373405 -0.14921838 0.09759032
-0.2557292 -0.21659003 -0.39789087 0.061480228 0.19447474 0.11466158 -0.06823397 0.14826322
-0.28364047 -0.014479879 0.021410942 -0.23703244 0.3143571 -0.21623495 0.14633687 -0.20345159
0.004508059 -0.18763289 0.1583682 -0.19922714 0.22978738 -0.27455923 0.14666693 -0.32832515
0.1565684 -0.14637902 0.04726927 -0.048824385 0.18804082 0.20853594 -0.37326062 0.05733641
-0.25562763 0.3254147 0.00014471596 -0.051919274 -0.20266993 0.14761597 -0.30059543 0.18283719
0.13363811 0.16418034 0.19473687 -0.36800918 0.25483337 -0.06268094 -0.01102773 0.064444326
0.2659806 0.24770057 0.08999022 0.16102166 -0.33383766 0.0049320282 -0.37547162 0.060816936
-0.28184688 -0.11807135 0.28533125 0.34487614 -0.25113234 -0.10461418 -0.014983948 0.15409416
-0.07289294 -0.05804015 -0.2829121 0.18389167 0.3263677 -0.15152042 0.089716494 0.18018058
0.23306933 -0.08704315 0.100630246 0.20855004 0.2170997 0.38563114 -0.016056972 0.22133331
0.24787809 -0.25814584 0.09882073 -0.09037104 0.21855904 -0.16377851 -0.029750308 0.15945783
-0.35025296 -0.28781188 -0.15349641 0.22723573 0.20358326 -0.16024666 0.01609064 -0.17990501
-0.1748522 0.37030637 0.10996311 -0.05550082 0.028914262 0.0960944 -0.011822903 -0.10354762
-0.27109733 0.17908755 0.15751067 0.08585129 -0.13091744 0.22220106 0.35671502 0.32903352
0.105652034 0.32028654 0.036874965 0.068715304 0.33278403 0.35215926 -0.21570006 0.25534078
0.0988611 -0.03325968 0.35123274 -0.17404999 0.18852368 0.44810644 -0.30614722 -0.19115555
-0.30181623 0.011434258 -0.40512997 -0.069591045 0.07705811 0.28374052 0.09359047 0.268995
0.07749987 -0.30981573 -0.15695901 -0.05786839 0.42186293 0.10657357 0.07566231 -0.10897147
-0.10804304 -0.34621176 0.3404003 -0.00952327 -0.2595243 0.21698098 -0.048166465 -0.11643279
0.086163916 0.15703525 -0.24560294 -0.20231257 -0.066052735 -0.21976413 -0.39213386 0.38486522
-0.06690622 -0.24830598 -0.040882993 -0.33082297 0.30403718 -0.12289037 -0.10930971 -0.338892
0.27868125 0.035868008 -0.13478014 -0.016952666 -0.24833824 -0.015692312 0.17883511 -0.28115213
-0.04826712 -0.18830356 -0.22718447 0.27074915 -0.04651083 0.22977434 0.013079653 -0.11711941
-0.17274408 0.33451596 -0.35000068 0.120056316 0.13909662 0.014725715 0.27359486 -0.16340175

bias f4 [2]
00000000: 9f46 5d3d 083c 7d3d
0.054022428 0.06182483

weight f4 [2, 16]
00000000: 49a8 083f 8d7c 133e 5afd fc3e da36 db3e
00000010: 368d 233e 6f68 973e 71f3 7b3e 49bd 713a
00000020: 1f36 ee3e 108d 213f a51e 843e c9b3 edbc
00000030: 47ae 1e3f e648 02bf 3f89 023f 0add b93e
00000040: 842d ec3e dbe9 f6bc 3d49 a8be 183f f63e
00000050: 0801 77be 89a4 873e 560e cd3e fe6a 1bbf
00000060: 9fe5 823c de5d b4bd f3c0 f73e 6f82 b9be
00000070: 3c41 ee3e 556a 953e d3fc d53e fe8b 203f
0.5338178 0.14402981 0.49412042 0.42815286 0.15971836 0.29571864 0.24604584 0.0009221626
0.46525666 0.6310587 0.2580463 -0.029016392 0.61984676 -0.50892484 0.5099067 0.36301452
0.46128476 -0.030140808 -0.32868376 0.48095012 -0.24121487 0.26492718 0.4005 -0.6071013
0.015978632 -0.08806966 0.48389396 -0.36232325 0.46534145 0.29182687 0.41794452 0.6271361

weight f4 [1, 2]
00000000: 1409 8c3f 9d3f 703e
1.094027 0.23461767

pout f4 [50, 5]
00000000: 2535 403d ea9b 223a cdf3 a536 9484 f432
00000010: 5055 0d2f dd03 053e 3c5c 9c3b 0c0d dd38
00000020: 325b e135 f73f b432 16b0 dc3d 8832 573b
00000030: 9e60 7c38 8f70 5535 059f 0d32 16b0 dc3d
00000040: 7b3a 303c d135 f439 d2a0 3937 17be 3234
00000050: c3ae 1e3e a685 de3b 2da5 3b39 e336 6436
00000060: 67c2 5933 425c 853d 1076 053c 1999 df39
00000070: c241 4537 1ba1 5334 2f33 b03d 452f 093b
00000080: 1d74 0038 b378 ad34 05cc 3731 425c 853d
00000090: e2a8 a13a c6b9 5b37 a058 d433 f3e4 2230
000000a0: dd03 053e 1c5c 9c3b da0c dd38 fe5a e135
000000b0: cd3f b432 c1ae 1e3e 03b4 dd3b 73be 3a39
000000c0: 832b 6336 d2d4 5833 2535 403d fc19 513a
000000d0: eef9 e036 9412 1a33 4c72 1a2f 2535 403d
000000e0: a662 223a 1cba a036 7a56 e732 7473 042f
000000f0: 2f33 b03d 302f 093b 0974 0038 9f78 ad34
00000100: f2cb 3731 16b0 dc3d 4e34 573b a662 7c38
00000110: 4d72 5535 2ca0 0d32 435c 853d 5afb 9b3a
00000120: a9df 5737 5589 d933 68d7 2d30 3133 b03d
00000130: 0e0d 0d3b 583d fe37 1e3e a334 976d 2631
00000140: c1ae 1e3e a586 de3b 03a6 3b39 ee37 6436
00000150: 6ac3 5933 2535 403d 40c1 213a 3314 a136
00000160: 64b8 e932 d489 062f c1ae 1e3e 2b87 de3b
00000170: 6fa6 3b39 6838 6436 d6c3 5933 19b0 dc3d
00000180: 1b32 573b 1e60 7c38 2070 5535 b59e 0d32
00000190: 425c 853d a127 9d3a 30c0 5e37 d0ad e333
000001a0: a294 3630 c1ae 1e3e e2f3 dd3b d311 3b39
000001b0: bc8d 6336 b329 5933 dd03 053e 7c89 9f3b
000001c0: 9b86 da38 20d7 d635 fdd8 a732 425c 853d
000001d0: d395 f33a fa99 d137 5fe0 5934 f4da 9d30
000001e0: 14b0 dc3d 5c04 573b 3727 7c38 1842 5535
000001f0: dd80 0d32 c1ae 1e3e 6f90 dd3b a588 3a39
00000200: b7e9 6236 6a9c 5833 2535 403d 870e 233a
00000210: 7e89 a636 4258 f532 0fc9 0d2f 149a 3f3e
00000220: 232c 223c ba1f a539 c77c f236 93b0 0b34
00000230: df03 053e 7c48 9c3b 4af0 dc38 f03e e135
00000240: b429 b432 df03 053e d765 9b3b 9ed0 da38
00000250: 1d0a df35 798c b232 dd03 053e 3798 9b3b
00000260: f169 d838 1ddd da35 f6f3 ae32 2f33 b03d
00000270: 516f 0f3b 3c53 0138 8c4d a434 fded 2431
00000280: a8da 6b3e 93bc 753c abff 193a cb30 8b37
00000290: cb67 c534 2335 403d b8c1 2a3a b4d8 a636
000002a0: 4acb e432 ef96 f72e 2535 403d b69e 223a
000002b0: e5f7 a536 828a f432 7d58 0d2f 16b0 dc3d
000002c0: fbd2 863b cca8 a538 567b 8335 519b 1a32
000002d0: a8da 6b3e 2bcf 7b3c e633 193a 248f 8537
000002e0: 18e0 b834 c1ae 1e3e a35c fa3b 4138 5139
000002f0: 3f31 6d36 b432 4f33 16b0 dc3d 8355 8d3b
00000300: 651e b338 6639 9035 e58a 2932 3133 b03d
00000310: 3166 123b 5c79 0438 61bf a634 8aa5 2431
00000320: dd03 053e e4de 9b3b 0834 d838 d2ff d935
00000330: 1502 ae32 dd03 053e a454 9c3b 3a02 dd38
00000340: 6d50 e135 6b37 b432 2f33 b03d 382d 093b
00000350: 2e72 0038 1f76 ad34 4dc9 3731 425c 853d
00000360: 0e8e 9b3a 7dc6 5937 83bb dd33 c6f5 3130
00000370: dd03 053e cf55 9c3b e303 dd38 1152 e135
00000380: b838 b432 dc03 053e a8fa a03b b945 dc38
00000390: 7915 d735 92aa a632 c1ae 1e3e 448e dd3b
000003a0: 3385 3a39 6ce5 6236 c498 5833 425c 853d
000003b0: c222 9d3a 7191 5737 347b d633 d0d9 2930
000003c0: 435c 853d 8aa1 9b3a 34b4 5837 e1bb db33
000003d0: 4222 3030 169a 3f3e 6e37 223c 5e2b a539
000003e0: 648d f236 0aba 0b34
0.046925683 0.00062030426 4.9457653e-06 2.8465628e-08 1.2854184e-10 0.12989755 0.0047717374 0.000105405314
1.6790348e-06 2.0983846e-08 0.10775773 0.0032836515 6.0171464e-05 7.951248e-07 8.243437e-09 0.10775773
0.01075613 0.00046579403 1.1064303e-05 1.6646696e-07 0.15496354 0.0067908345 0.00017895242 3.4006596e-06
5.0701058e-08 0.065117374 0.008145824 0.0004264794 1.1757425e-05 1.9709516e-07 0.086035125 0.0020932716
3.0625717e-05 3.231158e-07 2.6745977e-09 0.065117374 0.0012333656 1.3096671e-05 9.88814e-08 5.9260613e-10
0.12989755 0.0047717225 0.00010540495 1.6790289e-06 2.0983771e-08 0.15496351 0.006765844 0.0001780929
3.3850963e-06 5.0484978e-08 0.046925683 0.0007976589 6.704816e-06 3.5872816e-08 1.4046825e-10 0.046925683
0.00061945093 4.7900376e-06 2.6931264e-08 1.2046347e-10 0.086035125 0.0020932667 3.0625644e-05 3.2311524e-07
2.6745934e-09 0.10775773 0.0032837573 6.0173355e-05 7.9515013e-07 8.243699e-09 0.06511738 0.001190047
1.2867074e-05 1.01298305e-07 6.3243144e-10 0.08603514 0.0021522674 3.0307725e-05 3.0406312e-07 2.4218474e-09
0.15496351 0.006790953 0.00017895554 3.4007203e-06 5.0701978e-08 0.046925683 0.0006170459 4.8005254e-06
2.7208621e-08 1.2236195e-10 0.15496351 0.0067910156 0.00017895711 3.400748e-06 5.070236e-08 0.107757755
0.0032836262 6.0170998e-05 7.9511847e-07 8.243366e-09 0.065117374 0.001198996 1.3276978e-05 1.06021275e-07
6.6422434e-10 0.15496351 0.006773458 0.0001784035 3.3908136e-06 5.0562175e-08 0.12989755 0.0048686843
0.00010420122 1.6006852e-06 1.9540034e-08 0.065117374 0.001858408 2.4986442e-05 2.0291326e-07 1.1485484e-09
0.10775772 0.0032808995 6.0118004e-05 7.944486e-07 8.23658e-09 0.15496351 0.0067616026 0.00017789246
3.3812664e-06 5.0433677e-08 0.046925683 0.0006220121 4.9631917e-06 2.8561889e-08 1.2895306e-10 0.1871112
0.009898218 0.0003149489 7.226688e-06 1.3009621e-07 0.12989758 0.004769383 0.00010535175 1.6782124e-06
2.0973722e-08 0.12989758 0.004742365 0.00010433908 1.6617738e-06 2.0785807e-08 0.12989755 0.00474837
0.00010319416 1.6306618e-06 2.0367207e-08 0.086035125 0.0021886418 3.0833515e-05 3.0603803e-07 2.4000422e-09
0.2303263 0.014998573 0.00058745843 1.6592812e-05 3.676963e-07 0.046925675 0.00065138517 4.972413e-06
2.6635139e-08 1.1259071e-10 0.046925683 0.00062034593 4.946242e-06 2.8468325e-08 1.2855313e-10 0.10775773
0.0041145063 7.899254e-05 9.796156e-07 8.999295e-09 0.2303263 0.015369217 0.000584422 1.592149e-05
3.443572e-07 0.15496351 0.0076404377 0.0001995275 3.5344417e-06 4.8242057e-08 0.10775773 0.0043131723
8.5410466e-05 1.0745541e-06 9.868676e-09 0.08603514 0.0022338743 3.1584277e-05 3.1059156e-07 2.395924e-09
0.12989755 0.0047567952 0.00010309374 1.6242213e-06 2.0257213e-08 0.12989755 0.004770832 0.00010538516
1.6787213e-06 2.0979959e-08 0.086035125 0.0020931493 3.0623916e-05 3.2309705e-07 2.6744431e-09 0.065117374
0.0011867897 1.2980422e-05 1.03252226e-07 6.474149e-10 0.12989755 0.0047709714 0.00010538825 1.6787691e-06
2.098055e-08 0.12989753 0.004912693 0.00010503404 1.6024998e-06 1.940251e-08 0.15496351 0.006761344
0.00017787963 3.3810165e-06 5.043036e-08 0.065117374 0.0011988508 1.2848862e-05 9.987562e-08 6.179137e-10
0.06511738 0.0011873704 1.291656e-05 1.0232157e-07 6.407711e-10 0.18711123 0.009900911 0.00031503564
7.228622e-06 1.3013064e-07

throughput f4 [50, 1]
00000000: 2961 f43f 5998 e13f de66 e63f 0ec7 e43f
00000010: 6152 dc3f 726d ee3f 7a42 eb3f 7111 f03f
00000020: 5998 e13f a453 dc3f 7656 f43f 3761 f43f
00000030: 7a42 eb3f dc66 e63f f313 f03f 3b3f eb3f
00000040: 6152 dc3f 5c61 f43f 5f52 dc3f de66 e63f
00000050: 6a13 f03f 4053 dc3f 7a93 e13f c0ec ef3f
00000060: 0467 e63f da53 dc3f 0d61 f43f 0bcf d53f
00000070: 7898 e13f e599 e13f a799 e13f 2f3d eb3f
00000080: 1878 cd3f 4d5f f43f 2761 f43f c939 e63f
00000090: 9c68 cd3f 2b28 dc3f ea2e e63f a33a eb3f
000000a0: 3b99 e13f 6698 e13f 7b42 eb3f 2314 f03f
000000b0: 6398 e13f 3291 e13f dd53 dc3f 7313 f03f
000000c0: 1a14 f03f e9ce d53f
1.9092151 1.7624618 1.8000143 1.7873247 1.721264 1.862715 1.8379662 1.8755323
1.7624618 1.7213025 1.9088886 1.9092168 1.8379662 1.800014 1.8756088 1.8378671
1.721264 1.9092212 1.7212638 1.8000143 1.8755925 1.7212906 1.7623131 1.8744125
1.8000188 1.721309 1.9092118 1.670381 1.7624655 1.762509 1.7625016 1.8378047
1.6052275 1.9091583 1.9092149 1.7986385 1.6047549 1.7199758 1.7983067 1.837727
1.7624887 1.7624633 1.8379663 1.8756145 1.762463 1.7622435 1.7213093 1.8755935
1.8756135 1.6703769

delay f4 [50, 1]
00000000: d789 563d f766 683d c38d 633d 592b 653d
00000010: f3f6 6d3d e3e4 5b3d e2da 5e3d 2e64 5a3d
00000020: f766 683d 96f5 6d3d 3b93 563d ca89 563d
00000030: e2da 5e3d c48d 633d e761 5a3d f5dd 5e3d
00000040: f3f6 6d3d a989 563d f6f6 6d3d c38d 633d
00000050: 6362 5a3d 04f6 6d3d fc6b 683d 9585 5a3d
00000060: 9e8d 633d 5df5 6d3d f089 563d a936 753d
00000070: d866 683d 5f65 683d 9f65 683d e6df 5e3d
00000080: 942a 7f3d 788b 563d d889 563d 52ba 633d
00000090: d13d 7f3d 9324 6e3d 13c5 633d 51e2 5e3d
000000a0: 0d66 683d e966 683d e1da 5e3d bb61 5a3d
000000b0: ec66 683d 566e 683d 59f5 6d3d 5b62 5a3d
000000c0: c361 5a3d d036 753d
0.052377548 0.05673882 0.055555116 0.055949543 0.058096837 0.05368508 0.05440796 0.053318195
0.05673882 0.058095537 0.052386504 0.0523775 0.05440796 0.05555512 0.053316023 0.054410893
0.058096837 0.052377377 0.05809685 0.055555116 0.053316485 0.058095947 0.056743607 0.05335005
0.05555498 0.058095325 0.05237764 0.05986658 0.056738704 0.0567373 0.05673754 0.054412745
0.062296465 0.0523791 0.05237755 0.05559761 0.062314812 0.05814035 0.055607866 0.05441505
0.05673795 0.056738768 0.054407958 0.05331586 0.05673878 0.05674585 0.05809531 0.053316455
0.05331589 0.059866726

ef1 f4 [50]
00000000: f5da 1fc1 52e6 f8c0 39f1 02c1 151e dcc0
00000010: b4a3 ecc0 37c5 d9c0 8ec3 0ac1 5a3c 15c1
00000020: 54e6 f8c0 e5b2 ecc0 1f3d 1fc1 6b4e 20c1
00000030: 8ec3 0ac1 2bf1 02c1 a7c8 14c1 2374 0bc1
00000040: a2a3 ecc0 9a32 20c1 9ba3 ecc0 3df1 02c1
00000050: 6671 14c1 76ad ecc0 f1e3 f9c0 3ba3 10c1
00000060: b4f2 02c1 83b6 ecc0 46d5 1fc1 258b dfc0
00000070: 0ae8 f8c0 0e08 f9c0 6f50 f9c0 3a84 0bc1
00000080: b61a d1c0 a6c6 20c1 cdda 1fc1 2a55 02c1
00000090: 0504 d2c0 9354 edc0 1fb1 01c1 4887 0bc1
000000a0: b263 f9c0 fbe6 f8c0 a8c3 0ac1 ff9e 14c1
000000b0: e1e6 f8c0 12fd f9c0 c0b6 ecc0 f6f1 14c1
000000c0: 59b1 14c1 348a dfc0
-9.990956 -7.7781153 -8.183892 -6.878672 -7.3949833 -6.805324 -8.672743 -9.327234
-7.778116 -7.3968377 -9.952422 -10.019145 -8.672743 -8.183879 -9.298987 -8.715854
-7.3949747 -10.012354 -7.3949714 -8.183896 -9.277685 -7.3961744 -7.809075 -9.039851
-8.184254 -7.3972793 -9.989569 -6.9857354 -7.778325 -7.782233 -7.7910686 -8.719782
-6.5345106 -10.048498 -9.990918 -8.145792 -6.5629907 -7.416574 -8.105742 -8.720528
-7.79342 -7.778196 -8.672768 -9.288817 -7.7781835 -7.8121424 -7.3973083 -9.3090725
-9.293298 -6.9856205

ef2 f4 [50, 1]
00000000: 4e31 38c3 80a5 59c1 10a6 00c2 484c f6c1
00000010: a0f4 27c0 115d d7c2 c939 78c2 5cf5 d9c2
00000020: 6ca5 59c1 d8fb 25c0 1a7e 37c3 96f8 37c3
00000030: c539 78c2 42a6 00c2 4f52 dac2 00c2 76c2
00000040: 68f6 27c0 c002 38c3 48f7 27c0 04a6 00c2
00000050: 6cb9 dac2 68b3 26c0 1298 54c1 b6fb d8c2
00000060: 84a0 00c2 3884 25c0 0a36 38c3 7465 5640
00000070: 7e98 59c1 f29a 58c1 1405 57c1 fa90 76c2
00000080: 7c5b c740 9ec6 37c3 6f31 38c3 b0c8 fbc1
00000090: 50ab d140 0826 05c0 2664 fbc1 e25f 76c2
000000a0: 14af 56c1 aaa0 59c1 7139 78c2 d278 dac2
000000b0: 6ca1 59c1 2816 54c1 807c 25c0 5d32 dac2
000000c0: 8e66 dac2 5449 5640
-184.1926 -13.602905 -32.16217 -30.787247 -2.6243057 -107.68177 -62.05643 -108.97922
-13.602886 -2.5934963 -183.49258 -183.97104 -62.056416 -32.16236 -109.16076 -61.689453
-2.6244144 -184.01074 -2.6244678 -32.162125 -109.36215 -2.6047 -13.287127 -108.49162
-32.156754 -2.586195 -184.21109 3.3499422 -13.59973 -13.537828 -13.43874 -61.64158
6.2299175 -183.77585 -184.1931 -31.472992 6.552162 -2.0804462 -31.4239 -61.593636
-13.417744 -13.601725 -62.056095 -109.23598 -13.60191 -13.255409 -2.5857239 -109.098366
-109.2003 3.3482256
