train/models/HARQ-IR-NumK=3-PDB=15_model_pd_satisfy.pt (torch, 31630 bytes, 14 tensors)

bias f4 [16]
000000 00 00 00 00 43 ab 85 3d 00 00 00 00 00 00 00 00
       0.0 0.06526806 0.0 0.0
000010 00 00 00 00 1d 00 99 3d 00 00 00 00 00 00 00 00
       0.0 0.07470725 0.0 0.0
000020 00 00 00 00 00 00 00 00 e3 01 f6 3d 00 00 00 00
       0.0 0.0 0.120120786 0.0
000030 10 bf 92 3d 00 00 00 00 85 4e 2c bc ed 8a 1a 3e
       0.071653485 0.0 -0.010516767 0.15092058

weight f4 [16, 1]
000000 11 00 8e be d6 7e 5a 3e d0 24 8c be 60 af 8e bd
       -0.27734426 0.21337447 -0.27371836 -0.06967044
000010 c8 15 77 be 55 08 ef 3e f9 1a f0 be 20 3a 8c be
       -0.24129403 0.46686044 -0.46895579 -0.27388096
000020 20 c8 2b be 1c e4 b6 be 18 fc 41 3e 7c 36 16 bf
       -0.1677556 -0.3572091 0.18943822 -0.58676887
000030 93 2c 1b 3f 5b 31 01 bf 8f 3f e7 3e 11 b1 82 3e
       0.6061489 -0.50465935 0.4516568 0.25525716

bias f4 [32]
000000 ee 91 4c bd bc ac c2 3d 8f c1 36 bd 01 03 2b bc
       -0.049943857 0.09505603 -0.044618186 -0.010437728
000010 00 00 00 00 00 00 00 00 21 87 b5 bc 2f 14 90 3d
       0.0 0.0 -0.022159161 0.070351
000020 00 00 00 00 55 f6 49 3a 54 02 5a bd 00 00 00 00
       0.0 0.0007704248 -0.053224877 0.0
000030 a7 18 77 3d 42 ff e2 3b 00 00 00 00 00 00 00 00
       0.060326245 0.0069274018 0.0 0.0
000040 ee eb 70 3d 00 00 00 00 4b cd e5 bc 7a 99 90 3d
       0.05881875 0.0 -0.028051993 0.07060523
000050 f9 e7 a3 3d da d9 71 3d 00 00 00 00 00 00 00 00
       0.0800323 0.05904565 0.0 0.0
000060 00 00 00 00 00 00 00 00 ee 43 7e 3d 31 85 7b 3d
       0.0 0.0 0.0620765 0.061406318
000070 00 00 00 00 00 00 00 00 00 00 00 00 2e 04 a2 3d
       0.0 0.0 0.0 0.079109535

weight f4 [32, 16]
000000 06 ae 51 3e c5 9d 6b 3e 91 23 92 3e a8 0f fa bd
       0.20476541 0.23009403 0.2854276 -0.122100174
000010 d8 f1 a1 bd 97 f9 03 3e cc 93 c5 bd 9a 87 29 3e
       -0.07907456 0.1288818 -0.09647331 0.16555634
000020 00 30 9e bd b7 8d 75 be 33 c0 a8 3d 38 07 5e 3d
       -0.07723999 -0.23979841 0.08239784 0.054206103
000030 5e 22 ef 3d 17 d7 b3 3e 5c 58 4f 3e 2a 20 8f 3e
       0.11676477 0.35125038 0.2024855 0.27954227
000040 c0 04 9b 3c a1 51 42 be e0 fa 7d be 90 e3 60 be
       0.018923163 -0.18976451 -0.24802732 -0.21961808
000050 e3 85 9f be b9 9b 92 bd fc a3 a6 be de 02 a7 be
       -0.31156835 -0.07158608 -0.32546985 -0.32619375
000060 7e 56 58 be 7a 74 b2 be ef a3 52 bd 6a 0c 0a 3e
       -0.21126744 -0.3485449 -0.05142587 0.13481298
000070 c5 fa cb 3e d6 62 d7 bd 1b ef b7 bb 83 22 ac 3e
       0.3983976 -0.10516898 -0.0056132204 0.3362008
000080 8d 9e 32 be b9 14 4c be 0e 10 5f 3e f2 b8 9d be
       -0.17443295 -0.1992978 0.21783468 -0.30805165
000090 a0 12 31 3d dd ca 8f 3e c8 56 78 3d 88 e8 c4 3d
       0.043230653 0.2808446 0.060629636 0.09614664
0000a0 1e d9 52 be 40 d6 9f bb 2b ea 4f bc a0 b6 b1 3d
       -0.20590636 -0.0048778355 -0.012690107 0.08677411
0000b0 a3 22 d9 3d f1 4a 9d 3e c9 f6 99 be a7 69 b7 bc
       0.106023096 0.30721238 -0.30071095 -0.022389246
0000c0 3d e3 34 be 31 7b 93 be 00 ee e7 bc 03 57 9f be
       -0.1766481 -0.28804925 -0.02831173 -0.31121072
0000d0 9e aa 7c 3e 50 d7 08 3d a8 1f 43 be 9e 31 3d 3e
       0.2467446 0.033408463 -0.19055045 0.18475959
0000e0 5e 52 ab be 49 09 0c be 98 31 aa bd 3c d2 99 be
       -0.3346128 -0.13675417 -0.083102405 -0.3004321
0000f0 ef bd 6d be a8 5d 6c bd 37 db 85 3e b8 af a8 3e
       -0.23216985 -0.057706505 0.2614381 0.32946563
000100 02 5a 66 3e 96 2e 58 be 76 da 6c be 6f f9 9d 3e
       0.22495273 -0.21111521 -0.23130211 0.30854365
000110 34 0f 00 3e 80 e5 19 3c 58 fb 43 3d 12 7c 91 be
       0.125058 0.009393096 0.047847122 -0.2841497
000120 46 c2 f1 bd a3 40 ae 3e b0 94 b2 bd 70 4a 91 bc
       -0.11804633 0.3403369 -0.08719766 -0.01773569
000130 55 4e 96 be ea 86 4a be c0 90 ec bb 3c e2 60 be
       -0.29356638 -0.19778028 -0.007219404 -0.21961302
000140 c8 95 33 bd c0 55 13 3e aa 11 b1 be 48 0f d7 3d
       -0.043844014 0.1438818 -0.3458379 0.105009615
000150 07 62 6f be 80 b1 30 be 7a fd 0a 3e a1 ee 8f 3e
       -0.23377238 -0.17255211 0.13573256 0.28111747
000160 88 e5 c5 bd 52 a4 14 be 26 af a3 be 22 b0 3a be
       -0.0966292 -0.14515808 -0.31969565 -0.18231252
000170 d9 81 9e be 50 b8 a5 bd 7c c0 93 3d b6 97 a9 be
       -0.3095844 -0.080917954 0.07214448 -0.3312356
000180 e9 0c 9e 3e c2 51 53 3e 48 35 b1 be ef eb 2c be
       0.30869225 0.20636657 -0.34610963 -0.16886877
000190 5c 29 ec 3d 5b 9b b2 bd 98 d0 1d bd 54 77 23 be
       0.11531326 -0.08721038 -0.03852901 -0.15963489
0001a0 f5 65 91 3e 04 61 4a be 15 18 8b 3e 60 e0 ba 3c
       0.283981 -0.19763571 0.2716681 0.022812068
0001b0 40 3f 68 3d 0d 38 8d 3e 0e 8e 93 bd f2 b9 61 be
       0.056700945 0.27581826 -0.07204829 -0.22043589
0001c0 58 37 6a bd ce e6 b7 3e 66 50 86 be f4 59 a4 3d
       -0.057181686 0.35918278 -0.26233214 0.0802497
0001d0 7d e7 b1 be e2 4d 81 3e f8 c2 05 3e e0 8f 75 3c
       -0.34746924 0.25254732 0.13062656 0.014987916
0001e0 6e 62 1b 3e 00 7c d0 39 50 93 9a 3e 72 4c 8f be
       0.15174267 0.0003976524 0.30190516 -0.2798801
0001f0 dc cb 65 3c 0a 9b 20 3e 84 21 d4 3e 63 6c 8c 3e
       0.014025655 0.15684143 0.4143182 0.27426443
000200 f4 a1 83 be ad 38 8b 3e cc 77 a1 bd d8 99 9a bd
       -0.25709498 0.27191678 -0.078841776 -0.075488746
000210 bd 87 a4 be d8 f5 63 bd 31 0a 80 3e 08 f0 49 3d
       -0.3213481 -0.055654377 0.25007775 0.049301177
000220 f0 de 52 be 38 e1 de 3d dc 2b e8 bd 03 45 a5 3e
       -0.20592856 0.10882801 -0.113364905 0.32279214
000230 d7 1d 9d be e4 b7 e4 bd 98 c9 ae be ee 94 0e be
       -0.30686828 -0.11167887 -0.3413818 -0.13924
000240 80 43 e4 3d 66 09 bc 3e 58 36 73 3d bf 76 b1 3e
       0.11145687 0.3672592 0.059377998 0.3466091
000250 d4 aa 8d 3d 4a df 67 3e c9 1d 91 3e 7b 51 97 3e
       0.069173485 0.22643772 0.28343037 0.29554352
000260 42 a4 4a be 67 6d a6 3e 9b 8f 8c 3e 1c 48 29 be
       -0.19789222 0.32505342 0.27453312 -0.16531414
000270 52 17 17 be 4b d4 97 be e1 d7 da 3d f2 0c 74 be
       -0.1475499 -0.29654154 0.10685707 -0.23833063
000280 1e ef 18 3e 2e f8 44 3e 1e 45 9d be cc 4f c5 3d
       0.14934966 0.19235298 -0.30716795 0.09634361
000290 f0 8e eb bc 35 25 71 3e ea bb 4f 3e a0 f5 b3 be
       -0.028754681 0.2354935 0.20286527 -0.35148335
0002a0 3b 03 a6 3e 77 cf 97 3e 3b 3f 87 3e d3 71 a5 be
       0.3242434 0.2965047 0.2641543 -0.32313403
0002b0 2b 42 5e bd 14 d8 d1 bd d4 4f c4 bc 70 76 9e 3e
       -0.05426232 -0.10246292 -0.023963846 0.30949736
0002c0 6a a0 03 3e 55 66 8f 3e 85 97 07 be 48 ae f3 3d
       0.12854162 0.2800776 -0.13241394 0.11898476
0002d0 c4 cf 00 3e 0c b7 96 be a4 97 af be a0 db 3b be
       0.12579256 -0.2943653 -0.3429538 -0.18345499
0002e0 2e d5 77 3e 22 6c aa be bb 90 9d be 72 d0 4a 3e
       0.24202415 -0.33285624 -0.30774483 0.19806078
0002f0 92 54 43 3e 75 de 94 3e 94 a8 88 be ee 7c 84 be
       0.1907523 0.2907597 -0.26691115 -0.25876564
000300 92 b8 39 3e 23 16 bb 3e 2e 9f 58 3e 40 db 62 3d
       0.18136814 0.36540326 0.21154472 0.055384874
000310 38 a3 ee 3d f8 67 c7 3e c3 96 69 be ad 5e 24 be
       0.11652225 0.3894651 -0.22811417 -0.16051741
000320 ee 3b 7d 3e a0 b8 77 be 96 9d e5 bd 7b 24 84 3e
       0.24729893 -0.24191523 -0.11211698 0.25809082
000330 ae 78 28 3e 7c ed e9 3d 0c 36 cc bd 46 fd 8d 3d
       0.16452286 0.1142225 -0.09971246 0.06933074
000340 c1 ac a5 3e 5e 45 33 be 00 2c 36 3b 76 2f 2c 3e
       0.32358363 -0.1750693 0.0027797222 0.1681498
000350 87 ef 79 be 96 cb bf 3e db e0 34 be 88 e0 ad bd
       -0.24407779 0.3746001 -0.176639 -0.084900916
000360 f0 e9 c3 bd fc ec 6b be bf a0 87 be d6 22 4c 3e
       -0.095661044 -0.23039621 -0.26489827 0.19935164
000370 ef 7f fd 3d f8 8a a9 be 1a 75 4e be f1 60 d4 3e
       0.12377917 -0.33113837 -0.20161858 0.4148021
000380 46 62 0a 3e 1e 44 11 3e 67 9b 58 be 62 b7 1e be
       0.13514051 0.14186141 -0.21153031 -0.15499642
000390 e0 9a 5a bd 50 6b 84 bd 1f 16 78 be c0 9c ee 3c
       -0.053370357 -0.06465781 -0.24227189 0.029127479
0003a0 e0 ed 0f 3d e8 5d 37 bd a8 c2 48 3d 87 7e 0f be
       0.035138965 -0.04476729 0.049013764 -0.1401311
0003b0 48 71 bc 3d 16 8a 08 3e 2c b3 3e be b7 7e b3 be
       0.09201294 0.13333926 -0.18623036 -0.35057613
0003c0 e6 80 3d 3e 14 b8 ac 3d e6 20 38 be dd 72 ae 3e
       0.18506202 0.084335476 -0.179813 0.3407201
0003d0 33 bb 23 be 7e a5 74 3e 2a ac 37 3e a1 c4 97 be
       -0.1598938 0.23891255 0.17936769 -0.29642203
0003e0 62 7e 69 3e 40 71 a6 be 22 93 48 be d0 6d 71 bd
       0.22802117 -0.32508278 -0.19587377 -0.058942616
0003f0 e9 07 74 be ef d6 b0 3e 34 3c 91 bd 4c cc 0f 3e
       -0.23831142 0.3453898 -0.07091561 0.14042777

bias f4 [16]
000000 6c aa 7c 3d 61 09 83 3d 39 42 83 3d df 75 7d 3d
       0.061685964 0.06398273 0.06409115 0.06187999
000010 ac da 7f 3d ed ec 81 3d 00 00 00 00 00 00 00 00
       0.0624644 0.06344018 0.0 0.0
000020 3c 27 78 3d 82 8d f2 bc 00 00 00 00 3a 47 6d bd
       0.06058429 -0.029608492 0.0 -0.057929255
000030 00 00 00 00 00 00 00 00 e5 be 7e 3d ee 84 7f 3d
       0.0 0.0 0.06219377 0.06238263

weight f4 [16, 32]
000000 33 ae b4 3d f5 21 9d 3e 60 e3 bb bd 39 d4 50 be
       0.08822288 0.3068997 -0.09174228 -0.20393457
000010 e0 d3 aa 3d 38 78 2b bd 34 c4 1a be 6e 79 4e 3e
       0.08341193 -0.041862696 -0.15113908 0.20163509
000020 80 22 52 3b 43 4f c0 bb 2d 00 34 bc 20 87 3e bd
       0.003206402 -0.0058688237 -0.01098637 -0.046515584
000030 df 20 7b be 71 12 06 3e 00 db ad 3b c2 b2 5b 3e
       -0.24524258 0.13092972 0.005305648 0.2145491
000040 03 71 98 3d 00 91 e7 3c de b0 0a 3e 6c 1e a8 3e
       0.0744343 0.028267384 0.13544032 0.3283571
000050 85 2a ea bd 62 76 8d 3e dc 14 b1 3d a6 85 71 be
       -0.11433891 0.2762938 0.08646557 -0.23586139
000060 3c 1d fc 3d 70 20 59 be 80 d0 36 bd 12 1e e0 bd
       0.123102635 -0.2120378 -0.044632435 -0.109432355
000070 d0 4c 76 be cf 90 8e 3e 82 cc a1 be c5 92 6b 3e
       -0.24052739 0.27844855 -0.3160134 0.23005207
000080 8e 4a 8b be d5 15 0e 3e f4 46 17 3d 20 42 84 3e
       -0.27205318 0.13875516 0.0369329 0.258317
000090 fb 04 03 be cc 68 d0 3d 2b b3 82 3d 43 88 87 3e
       -0.12794869 0.101762384 0.0638183 0.26471147
0000a0 b0 30 ac 3c e1 8a 39 3e 28 13 39 bd ac 95 7b be
       0.02101931 0.18119384 -0.045184284 -0.24568814
0000b0 80 85 bf 3e 7d 4e 50 be 90 88 76 bd 98 0d 2f bd
       0.3740654 -0.20342441 -0.06018883 -0.042737573
0000c0 d4 2b cd 3e a0 7b 9c bd 81 03 69 be e0 16 d7 bc
       0.400725 -0.07640767 -0.22755243 -0.026256025
0000d0 cd 53 74 3e 70 b0 56 3e 81 c1 95 3e 1c 3b 94 bd
       0.23860092 0.20965743 0.29249194 -0.07237837
0000e0 66 89 2a 3e b0 58 aa be 87 fb 54 3e 3b e2 66 3e
       0.16653976 -0.33270788 0.20799075 0.22547238
0000f0 e2 8b 69 3e b7 9b 4f be 20 50 c1 bd e0 b9 11 3e
       0.22807267 -0.20274244 -0.09439111 0.14231062
000100 23 17 52 be 7a 4f d4 bd 16 e3 a4 be 29 f8 de 3c
       -0.20516638 -0.103667215 -0.32204503 0.027217941
000110 56 d2 60 3e 88 fc b9 3d 1b 7c 00 3d 5e 65 37 3e
       0.21955237 0.0908137 0.031368356 0.17909762
000120 b0 81 63 be ba 68 af 3d 43 de 8f 3d db 42 33 be
       -0.2221744 0.08564897 0.07024815 -0.17505972
000130 a5 d6 b9 3e b1 9c 60 be 80 39 54 3d 60 10 9f be
       0.36296573 -0.21934773 0.05181265 -0.3106718
000140 57 75 2d 3d 51 e0 20 be b1 f2 21 3e ce 87 0b be
       0.042348232 -0.1571057 0.15815236 -0.13626024
000150 8b 3b 90 3e b7 37 60 be 0e 74 59 3e 5e fa 87 be
       0.28170428 -0.21896254 0.21235678 -0.26558203
000160 12 e7 41 3e 3c 71 18 be 4f c8 8c 3d 34 cc 32 bb
       0.18935803 -0.14886945 0.06874143 -0.002728236
000170 56 f9 6a 3e d4 4c ed 3d d9 83 9f be 17 34 b5 3d
       0.22946677 0.115869194 -0.3115528 0.08847826
000180 20 18 4d be b1 17 e1 3e 19 d7 96 3d b8 1b ac bd
       -0.20028734 0.43963388 0.07365245 -0.084037244
000190 78 b3 38 be c8 9f fa 3d 7c 93 4f be 2c 5c 62 3e
       -0.18037212 0.12237507 -0.20271105 0.22105473
0001a0 3a 8e 45 3e fa 88 86 3e 1a 40 81 3e 6c 75 9e be
       0.19292536 0.2627638 0.25244218 -0.3094896
0001b0 08 b0 9e 3e fa 83 71 bd 2e 10 d6 bd 90 96 1b bd
       0.30993676 -0.058963753 -0.10452305 -0.037985384
0001c0 04 e2 9e 3e cb 30 8b 3e 23 47 c0 3d 0d bf 69 3e
       0.3103181 0.27185664 0.09388568 0.22826786
0001d0 9f 98 8d be 42 ce 87 3d 14 25 a0 be 7c 70 f6 3d
       -0.27655503 0.066311374 -0.31278288 0.120331734
0001e0 95 f7 80 be 43 08 01 be 8a cd a0 3e 0d 61 cb 3e
       -0.2518889 -0.12600808 0.31406814 0.3972248
0001f0 66 5c 59 be 77 ef 48 be 28 59 33 3d 68 18 45 3e
       -0.21226653 -0.19622599 0.043786198 0.19247591
000200 af 77 5d bc 9d 54 84 3d 49 b9 5d be 98 9a 21 3e
       -0.013517304 0.06461451 -0.21652712 0.15781629
000210 17 5b b1 3e 5f 41 2f be 14 03 34 3e 90 ff 67 3e
       0.3463981 -0.17114781 0.17579299 0.22656083
000220 b7 80 91 3e 65 ee c2 3b 39 48 2e 3e a5 fe 84 3e
       0.28418514 0.005948829 0.17019738 0.25975528
000230 52 2a 8f 3e ac 04 cd 3e b8 7f cf bd fc 40 0f 3e
       0.27961975 0.40042627 -0.10131782 0.13989633
000240 03 31 99 3e f4 c1 75 be ea 28 e1 3d 47 a4 9b bc
       0.29920205 -0.23999768 0.10994132 -0.018999232
000250 5c bc 8f 3e 9d 00 be bd a0 24 cb 3c 92 9c 58 3e
       0.28073394 -0.09277461 0.024797738 0.21153477
000260 bb d5 a5 be 8b d8 98 be 96 a9 e8 bd 53 c2 92 3e
       -0.32389626 -0.2985271 -0.11360471 0.28663883
000270 ca c1 72 3e f6 42 77 be 84 12 8a 3d 44 8b 08 be
       0.23706737 -0.24146637 0.06741813 -0.13334376
000280 9a 77 f2 bd da 65 f9 3e 8a f8 3e 3e e6 bb b7 bd
       -0.118392184 0.4871052 0.18649498 -0.08971386
000290 b0 2b 55 3d 84 4b 8c 3d 67 25 bc 3d fe c0 84 bd
       0.052043617 0.06850341 0.091868214 -0.06482123
0002a0 08 33 55 be bd 9e 90 3e 3c 3e 5e 3e fa 87 17 3e
       -0.20820248 0.28246108 0.21703428 0.14797965
0002b0 d9 62 9a bd f0 60 66 3e 5b bd 83 3e ae 2e 5c 3e
       -0.07538385 0.22497916 0.25730404 0.21502182
0002c0 cf 3f 1a 3e 11 1a b2 3e eb a6 25 3d 28 6f 0d 3e
       0.15063404 0.34785512 0.04044239 0.13811934
0002d0 c3 87 c8 3e 36 45 d3 3e 29 dc 18 be 15 10 a3 3e
       0.39166078 0.4126374 -0.14927734 0.31848207
0002e0 30 9d 05 3e 60 1a 22 bd b1 3a c2 3e 5e 11 f7 bd
       0.13048244 -0.039575934 0.37935403 -0.120638594
0002f0 ee 3b 6b 3e 4b 61 b3 3e e8 b2 79 be fd 00 1c be
       0.2297208 0.35035166 -0.24384654 -0.15234752
000300 e6 5f b3 be 84 4e 82 bd 04 67 a4 be 68 82 f2 bd
       -0.35034102 -0.06362632 -0.32109845 -0.11841279
000310 90 d3 db 3d c6 ea 7f 3e 16 ab 49 3e f2 f5 48 3e
       0.10733712 0.24991903 0.1969417 0.1962507
000320 5e 32 16 3e 66 8c 60 be 7a ba 8f be 20 20 70 3c
       0.14667651 -0.21928558 -0.28071958 0.014656097
000330 91 e4 ab 3e 30 14 a3 3c 70 1c f9 bc ac ba 75 be
       0.3357282 0.019907087 -0.030409068 -0.23996991
000340 3c 83 33 be 8e 8a 8b be bb ef 90 3e 88 f2 6b bd
       -0.1753053 -0.27254146 0.283079 -0.057604343
000350 ff e9 9f be b0 59 1b 3d 10 2e d2 3c e0 ea 32 bd
       -0.31233212 0.03792733 0.02565673 -0.043681026
000360 c6 98 01 3e 66 b2 42 3e 80 3b aa be 6b ad 8a be
       0.12655935 0.19013366 -0.3324852 -0.27085432
000370 70 23 8b bc 71 d4 a7 be 41 6e a4 be e9 d2 9f 3e
       -0.016984671 -0.32779267 -0.32115367 0.312156
000380 b0 4a dc bc 0a fd 32 be e8 5e f8 bd 6c 53 8d be
       -0.026891083 -0.17479339 -0.12127477 -0.27602708
000390 e3 42 8d 3e 10 02 9d bd 48 8d 4b be 92 49 89 be
       0.27590093 -0.07666409 -0.19878113 -0.26813942
0003a0 a6 9b 53 3e 30 2e 48 bd a0 23 18 bd f8 b7 bc bd
       0.20664844 -0.048872173 -0.03714335 -0.09214777
0003b0 ac c3 2e be 6c ce 80 3d 5b 45 8b 3e 98 d4 51 be
       -0.1706683 0.06289372 0.27201352 -0.20491254
0003c0 20 c5 8a 3c e8 aa 89 be 46 c2 29 be b1 e4 9e 3e
       0.0169397 -0.26888204 -0.16578016 0.31033853
0003d0 80 f1 72 3b 1f 61 ae 3e 08 b9 7d bd bb 53 45 be
       0.0037070215 0.34058473 -0.061944038 -0.19270222
0003e0 59 50 58 be a9 70 a0 3e 96 33 8b be ee fe 3d 3e
       -0.211244 0.31335953 -0.27187794 0.18554279
0003f0 28 fe b3 3d 34 ae d5 3d d6 46 4c 3e 6c 6f bd bd
       0.08788711 0.10433617 0.19948897 -0.09249768

bias f4 [2]
000000 42 41 91 3d 10 60 9c 3d
       0.07092525 0.0763551

weight f4 [2, 16]
000000 91 63 0e 3f 53 48 55 3e 87 1a 04 3f 85 c2 e7 3e
       0.55620676 0.20828371 0.5160298 0.45265594
000010 36 cd 62 3e 01 cf 91 3e e4 c5 3e 3e b0 4b 75 3d
       0.22148594 0.28478244 0.18630177 0.059886634
000020 e4 55 0d 3f cd f6 3b 3f 7c 76 52 3e 09 9b 1f 3a
       0.55209184 0.73423463 0.2055301 0.00060884707
000030 a2 84 04 3f fc 12 e6 be da f3 0a 3f 1f 4c bf 3e
       0.5176488 -0.4493636 0.5427834 0.37362763
000040 bf b5 fe 3e 46 7e 17 3d 6d b0 95 be e4 f1 02 3f
       0.49748036 0.036985658 -0.29236165 0.51150346
000050 d5 d1 36 be ec c4 84 3e fe 78 a7 3e db 1f 0a bf
       -0.17853482 0.2593149 0.32709497 -0.5395486
000060 6e f7 eb 3d a1 1e 04 bb 58 ce d1 3e c8 bb aa be
       0.11521803 -0.0020159858 0.4097774 -0.3334639
000070 3e 7b b3 3e 50 54 b8 3e b6 53 ed 3e b0 e8 23 3f
       0.35054964 0.36001825 0.4635293 0.6402693

weight f4 [1, 2]
000000 06 8c 8b 3f 8f bb 85 3e
       1.0902107 0.26119658

pout f4 [50, 3]
000000 f5 4f d7 3d 89 23 d4 3b 66 6e 3b 39 f5 4f d7 3d
       0.105132975 0.0064739627 0.00017874836 0.105132975
000010 ce 41 82 3b e5 21 9c 38 f5 4f d7 3d 42 d7 4c 3b
       0.0039751297 7.444973e-05 0.105132975 0.0031256233
000020 40 61 6a 38 f5 4f d7 3d b2 9c 6b 3b 9d 20 85 38
       5.588052e-05 0.105132975 0.0035951552 6.348009e-05
000030 f7 4f d7 3d 32 d9 4c 3b 71 63 6a 38 f5 4f d7 3d
       0.10513299 0.0031257388 5.588256e-05 0.105132975
000040 2c 4a 4b 3b ff d4 67 38 f5 4f d7 3d 25 a0 4d 3b
       0.0031019552 5.527306e-05 0.105132975 0.003137597
000050 1c de 61 38 f7 4f d7 3d d3 66 4c 3b fd d0 69 38
       5.3851036e-05 0.10513299 0.0031189218 5.5746164e-05
000060 f4 4f d7 3d dd 8d 77 3b 60 b8 8f 38 f5 4f d7 3d
       0.10513297 0.0037773766 6.853114e-05 0.105132975
000070 91 9a 7b 3d ea 8e 71 3c f5 4f d7 3d 48 1c 4c 3b
       0.061426703 0.014743546 0.105132975 0.0031144787
000080 ba 61 69 38 f5 4f d7 3d a2 38 4c 3b 8e 8d 69 38
       5.5642544e-05 0.105132975 0.0031161685 5.5683362e-05
000090 f5 4f d7 3d 6c 72 4b 3b eb 2c 68 38 f7 4f d7 3d
       0.105132975 0.0031043543 5.5354943e-05 0.10513299
0000a0 b0 94 4c 3b 41 0f 6a 38 f5 4f d7 3d e3 84 4a 3b
       0.0031216554 5.5804154e-05 0.105132975 0.003090196
0000b0 a1 92 62 38 f5 4f d7 3d 3e d9 4c 3b 79 63 6a 38
       5.4019158e-05 0.105132975 0.0031257416 5.588259e-05
0000c0 f5 4f d7 3d c7 c1 4c 3b ff 47 6a 38 f7 4f d7 3d
       0.105132975 0.003124343 5.5857e-05 0.10513299
0000d0 c5 ec 4a 3b 14 e7 66 38 f5 4f d7 3d a5 d8 4c 3b
       0.003096388 5.505148e-05 0.105132975 0.003125706
0000e0 d4 62 6a 38 f7 4f d7 3d f9 3e 4b 3b 7b 96 61 38
       5.588199e-05 0.10513299 0.0031012876 5.3784326e-05
0000f0 f7 4f d7 3d 05 97 4f 3b 9a 2c 63 38 f5 4f d7 3d
       0.10513299 0.0031675708 5.4162556e-05 0.105132975
000100 4e 83 4b 3b c8 4f 68 38 f7 4f d7 3d d8 07 4c 3b
       0.0031053605 5.5387412e-05 0.10513299 0.0031132605
000110 f2 40 69 38 f5 4f d7 3d 55 d5 5c 3b a4 f5 72 38
       5.5612014e-05 0.105132975 0.0033696492 5.7926067e-05
000120 f7 4f d7 3d c7 c6 4c 3b f9 4d 6a 38 f5 4f d7 3d
       0.10513299 0.003124641 5.5862565e-05 0.105132975
000130 f3 5d 5e 3b b2 2e 75 38 f5 4f d7 3d c0 64 9e 3b
       0.003393051 5.845604e-05 0.105132975 0.0048337877
000140 38 09 db 38 f5 4f d7 3d d6 5f 9a 3b 58 39 d1 38
       0.00010444451 0.105132975 0.0047111316 9.976578e-05
000150 f7 4f d7 3d 37 67 53 3b 14 d7 66 38 f5 4f d7 3d
       0.10513299 0.0032257566 5.503658e-05 0.105132975
000160 64 68 4a 3b b6 08 63 38 f5 4f d7 3d cd d0 4c 3b
       0.0030884976 5.412913e-05 0.105132975 0.0031252385
000170 d3 59 6a 38 f5 4f d7 3d 74 64 63 3b 13 d1 7c 38
       5.5873603e-05 0.105132975 0.0034697326 6.0276197e-05
000180 f5 4f d7 3d 2b f8 73 3b dd 72 8c 38 f4 4f d7 3d
       0.105132975 0.0037226777 6.697115e-05 0.10513297
000190 ce 9c 4c 3b c9 19 6a 38 f5 4f d7 3d 20 3b 4c 3b
       0.0031221393 5.581396e-05 0.105132975 0.003116317
0001a0 3a 69 61 38 f5 4f d7 3d 24 6e 8f 3c b8 85 a0 3a
       5.374218e-05 0.105132975 0.017508574 0.0012246883
0001b0 f5 4f d7 3d d2 82 4c 3d de e7 1f 3c f5 4f d7 3d
       0.105132975 0.049929447 0.009759871 0.105132975
0001c0 63 41 83 3b f8 1e 9e 38 f7 4f d7 3d 91 12 4b 3b
       0.0040055974 7.5397955e-05 0.10513299 0.0030986408
0001d0 2e 4e 67 38 f7 4f d7 3d 79 88 4c 3b 21 ff 69 38
       5.5147502e-05 0.10513299 0.0031209274 5.5789136e-05
0001e0 f7 4f d7 3d 36 31 a4 3b ba a7 e9 38 f7 4f d7 3d
       0.10513299 0.005010749 0.00011141547 0.10513299
0001f0 ee f5 4a 3b b9 ce 61 38 f5 4f d7 3d 47 d9 4c 3b
       0.003096934 5.3836706e-05 0.105132975 0.0031257437
000200 86 63 6a 38 f5 4f d7 3d 38 be 4a 3b 51 15 62 38
       5.5882636e-05 0.105132975 0.0030936133 5.390245e-05
000210 f7 4f d7 3d e3 66 4b 3b 6a 14 68 38 f5 4f d7 3d
       0.10513299 0.0031036667 5.5332122e-05 0.105132975
000220 97 29 4b 3b 21 88 67 38 f5 4f d7 3d f4 93 6f 3b
       0.0031000131 5.520147e-05 0.105132975 0.0036556693
000230 b3 8b 88 38 f5 4f d7 3d 6d 58 4a 3b 14 e0 63 38
       6.511006e-05 0.105132975 0.003087546 5.4329706e-05
000240 f5 4f d7 3d ef bf eb 3c d3 26 56 3b f5 4f d7 3d
       0.105132975 0.028778045 0.003267695 0.105132975
000250 a8 d7 4c 3b af 61 6a 38
       0.003125647 5.5880922e-05

throughput f4 [50, 1]
000000 8d 41 e6 3f 86 cc e6 3f e8 fa e6 3f 6b e1 e6 3f
       1.7988755 1.8031166 1.804532 1.8037542
000010 e6 fa e6 3f 36 fc e6 3f 65 fa e6 3f 46 fb e6 3f
       1.8045318 1.8045719 1.8045164 1.8045433
000020 68 d7 e6 3f 97 36 d8 3f 85 fb e6 3f 6c fb e6 3f
       1.8034487 1.689166 1.8045508 1.8045478
000030 14 fc e6 3f 20 fb e6 3f e9 fc e6 3f e6 fa e6 3f
       1.8045678 1.8045387 1.8045932 1.8045318
000040 fb fa e6 3f 84 fc e6 3f e6 fa e6 3f 55 fc e6 3f
       1.8045343 1.8045812 1.8045318 1.8045756
000050 c5 f8 e6 3f 05 fc e6 3f 96 fb e6 3f c5 ed e6 3f
       1.8044668 1.804566 1.8045528 1.8041312
000060 f6 fa e6 3f 7e ec e6 3f 0b 9d e6 3f d8 a3 e6 3f
       1.8045337 1.8040922 1.8016676 1.8018751
000070 9e f5 e6 3f fe fc e6 3f ee fa e6 3f 4b e8 e6 3f
       1.8043706 1.8045957 1.8045328 1.803964
000080 6a da e6 3f 19 fb e6 3f 88 fb e6 3f 1c c1 e3 3f
       1.8035405 1.8045379 1.8045511 1.7793307
000090 4e 78 db 3f d7 ca e6 3f 64 fc e6 3f 29 fb e6 3f
       1.7146089 1.8030652 1.8045774 1.8045398
0000a0 38 93 e6 3f 90 fc e6 3f e6 fa e6 3f bd fc e6 3f
       1.8013678 1.8045826 1.8045318 1.804588
0000b0 1d fc e6 3f 51 fc e6 3f 19 de e6 3f 07 fd e6 3f
       1.8045689 1.8045751 1.8036529 1.8045968
0000c0 90 07 e1 3f e8 fa e6 3f
       1.7580433 1.804532

delay f4 [50, 1]
000000 a3 b2 63 3d 89 29 63 3d ec fb 62 3d f9 14 63 3d
       0.055590283 0.055459533 0.055416033 0.055439923
000010 ed fb 62 3d a3 fa 62 3d 6b fc 62 3d 8f fb 62 3d
       0.055416036 0.055414807 0.055416506 0.055415686
000020 d4 1e 63 3d 8e 7c 72 3d 51 fb 62 3d 69 fb 62 3d
       0.055449322 0.059200816 0.055415455 0.055415545
000030 c4 fa 62 3d b4 fb 62 3d f2 f9 62 3d ed fb 62 3d
       0.05541493 0.055415824 0.055414148 0.055416036
000040 d9 fb 62 3d 56 fa 62 3d ed fb 62 3d 85 fa 62 3d
       0.055415962 0.05541452 0.055416036 0.055414695
000050 04 fe 62 3d d2 fa 62 3d 40 fb 62 3d d4 08 63 3d
       0.05541803 0.055414982 0.055415392 0.05542834
000060 dd fb 62 3d 16 0a 63 3d 4e 58 63 3d 9a 51 63 3d
       0.055415977 0.05542954 0.055504136 0.055497743
000070 1d 01 63 3d de f9 62 3d e5 fb 62 3d 37 0e 63 3d
       0.055420984 0.055414073 0.055416007 0.05543348
000080 de 1b 63 3d bb fb 62 3d 4d fb 62 3d ec 32 66 3d
       0.055446498 0.05541585 0.05541544 0.056200907
000090 67 e3 6e 3d 32 2b 63 3d 77 fa 62 3d aa fb 62 3d
       0.058322337 0.055461116 0.055414643 0.055415787
0000a0 fe 61 63 3d 4b fa 62 3d ed fb 62 3d 1d fa 62 3d
       0.055513375 0.05541448 0.055416036 0.055414308
0000b0 bb fa 62 3d 89 fa 62 3d 3d 18 63 3d d6 f9 62 3d
       0.055414896 0.05541471 0.055443037 0.055414043
0000c0 7e fc 68 3d ec fb 62 3d
       0.05688142 0.055416033

ef1 f4 [50]
000000 88 b6 df bf 64 33 08 c0 e2 2c 10 c0 96 a1 0c c0
       -1.7477579 -2.1281366 -2.2527394 -2.1973624
000010 a0 2c 10 c0 a8 7a 10 c0 1e 34 11 c0 04 3e 10 c0
       -2.2527237 -2.2574863 -2.268806 -2.2537851
000020 d0 80 0a c0 00 a6 2c 3e 40 4b 10 c0 08 46 10 c0
       -2.164112 0.16860199 -2.254593 -2.2542744
000030 20 70 10 c0 9e 36 10 c0 f0 1d 11 c0 a0 2c 10 c0
       -2.2568436 -2.2533336 -2.2674522 -2.2527237
000040 e2 2f 10 c0 3e 97 10 c0 b2 2c 10 c0 f0 3c 11 c0
       -2.2529225 -2.259231 -2.252728 -2.2693443
000050 12 0b 11 c0 f4 6b 10 c0 28 4f 10 c0 12 2d 0f c0
       -2.2663007 -2.256589 -2.2548313 -2.2371259
000060 2c 2f 10 c0 44 ec 0e c0 28 95 fd bf b0 10 00 c0
       -2.2528791 -2.2331705 -1.9811144 -2.0010185
000070 2a 99 10 c0 78 0f 11 c0 c4 2d 10 c0 18 12 0e c0
       -2.2593484 -2.2665691 -2.2527933 -2.2198544
000080 a8 24 0b c0 5e 35 10 c0 84 42 11 c0 28 77 69 bf
       -2.1741123 -2.2532573 -2.2696848 -0.91197443
000090 00 f3 2c bc 58 d9 07 c0 d8 8a 10 c0 88 38 10 c0
       -0.010555983 -2.1226406 -2.2584743 -2.2534504
0000a0 b0 fd f9 bf 02 36 11 c0 9e 2c 10 c0 54 2d 11 c0
       -1.9530544 -2.2689214 -2.2527232 -2.2683916
0000b0 10 73 10 c0 e2 83 10 c0 30 ed 0b c0 26 f5 10 c0
       -2.2570229 -2.2580495 -2.1863518 -2.2649627
0000c0 58 b5 f8 be d6 2c 10 c0
       -0.48575854 -2.2527366

ef2 f4 [50, 1]
000000 a0 71 8e 3f c0 80 40 3f 00 80 fa 3a c0 b6 21 3f
       1.1128426 0.75196457 0.0019111633 0.6316948
000010 00 40 e1 3a 00 84 68 3d 40 8c a2 3e 00 b0 6b 3c
       0.0017185211 0.05676651 0.31747627 0.014385223
000020 80 0e 32 3f 10 ef 7c 40 00 0c c3 3c 00 c0 a4 3c
       0.69553375 3.9520912 0.023809433 0.020111084
000030 00 b4 4a 3d 00 00 14 3c 00 54 41 3e 00 80 e0 3a
       0.049488068 0.009033203 0.188797 0.0017127991
000040 00 d0 86 3b 00 f1 9c 3d 00 80 e8 3a 00 77 74 3e
       0.004114151 0.076631546 0.0017738342 0.2387352
000050 00 3a b8 3e 00 e4 3e 3d 00 98 d9 3c 40 54 06 3f
       0.3598175 0.046604156 0.026561737 0.52472305
000060 00 60 6b 3b c0 bd 09 3f 80 a9 6b 3f c0 b5 66 3f
       0.0035915375 0.5380516 0.9205551 0.9012108
000070 00 b4 d7 3e 80 20 31 3e 00 c0 27 3b 80 d6 13 3f
       0.42129517 0.17297554 0.0025596619 0.57749176
000080 00 85 2d 3f 00 20 05 3c 40 42 8e 3e a0 6c e6 3f
       0.67781067 0.008125305 0.2778492 1.80019
000090 40 7f 59 40 80 81 42 3f 00 37 8b 3d 00 d0 2a 3c
       3.3983917 0.7597885 0.067976 0.010425568
0000a0 40 59 72 3f 80 be 64 3e 00 40 e0 3a 80 f9 55 3e
       0.94667435 0.22338295 0.0017108917 0.20895958
0000b0 00 06 53 3d 00 54 81 3d c0 8d 27 3f 00 c6 17 3e
       0.051519394 0.0631485 0.6545067 0.14821625
0000c0 a0 a0 17 40 00 40 f5 3a
       2.3691788 0.001871109
