train/models/HARQ-IR-NumK=3-PDB=15_model_pd_satisfy.pt (torch, 32454 bytes, 14 tensors)

bias f4 [16]
00000000: 89cb 8f3e 8ee3 7fbd a5e4 4fbe 1627 733d
00000010: e877 4abe b8df a0bc c53a 54be c649 19be
00000020: 3d04 a63d d2eb 4bbe df86 34bd 97e5 64be
00000030: 0b66 a4bd 1ba2 7fbe 6de2 d2bb b3b3 9dbd
0.28084973 -0.062472872 -0.20302065 0.059363447 -0.19772303 -0.019637927 -0.20725544 -0.14969549
0.08106277 -0.19914177 -0.044073936 -0.22353207 -0.08027276 -0.24964182 -0.0064356835 -0.077002905

weight f4 [16, 1]
00000000: ef04 33bd 460e 0f3e fc53 e1be a8b1 78bd
00000010: 7aba cebe 5ef0 d93e cd35 26bf a9a9 c7be
00000020: eea0 06be 2438 06bf dd5e 8b3d 2fce 4abf
00000030: 3e87 fe3e 3993 3abf 03bf 003f d6ef 943d
-0.043705877 0.13970289 -0.44009387 -0.0607163 -0.40376645 0.42566198 -0.64925843 -0.38996628
-0.13147327 -0.52429414 0.06805203 -0.7922086 0.49712557 -0.72880894 0.5029146 0.072723076

bias f4 [32]
00000000: 6c1f b2bd 3b8d b73d bf1e e5bd 4fa4 a4bd
00000010: 716b 483e 90ab 463e 3e50 b2bd 9f1c 9c3d
00000020: 9c0c 50be 5aec cbbd 2ac0 c93d 7a3d 38be
00000030: 6221 833d d298 e43d b7cf 043e 959f 023e
00000040: 02d7 04bd e8a4 1bbe a0ab bbbd 9ac3 06be
00000050: 38c0 13be 3f65 103d 9d65 2fbe 2724 4abe
00000060: 9a86 7c3e 4864 e63d 6d6c 863d f19e a8bd
00000070: 985e 773e e1d6 d73d 4051 36be 7d6f dfbd
-0.086973995 0.089624844 -0.11187505 -0.08039152 0.19572236 0.19401383 -0.08706711 0.076226465
-0.2031731 -0.0995719 0.098511055 -0.17992201 0.06402852 0.11161961 0.12969862 0.12756188
-0.03243161 -0.15199625 -0.09163594 -0.13160554 -0.14428794 0.035252806 -0.17128606 -0.19740354
0.24660721 0.11249596 0.06563649 -0.08233441 0.24157178 0.10539032 -0.17804432 -0.109099366

weight f4 [32, 16]
00000000: 29a1 413e 6f13 9c3e 2da7 983e 435c 0dbe
00000010: 2a25 8abd a2b0 4e3e dc8c a5bd e997 353e
00000020: 3859 a4bd 9ffd 66be abfe 313e bbba 8f3d
00000030: 5a3b 413e c6fb bb3e fdbb 8b3e 9f03 bb3e
00000040: 001f f03c caaf a8be 1fb8 87be 1374 55be
00000050: a0b3 a7be 5e66 50be bcd3 b0be be44 afbe
00000060: d3f6 59be 4fee bbbe 54be 77be 3aac ea3d
00000070: f7b7 893e 0a55 00be fc4a 04be 222e 273e
00000080: e714 49be bb6c 0abe b5dd 743e c3dd a4be
00000090: ee7b 813d 7b94 b03e e0e8 ae3d a41b ee3d
000000a0: baf2 50be ea12 953c 58fa 4c3d 3e44 e53d
000000b0: 0701 2e3e 7b24 aa3e bded 72be 2c07 2f3d
000000c0: dd05 47be b401 79be adfb b3bc 5fac aabe
000000d0: ee01 813e f71e a13d fc9e 39be 8bbb 423e
000000e0: c1fd afbe b1ff 03be dacf 03bd dbe5 94be
000000f0: d744 40be 0544 45bd 2cb3 9c3e f87a c13e
00000100: 2187 343e 80de 23be 8cef acbe 27f7 733e
00000110: a399 a13c 61c9 7c3d 9e56 7dbd 4859 c7be
00000120: bce5 50be 13d4 6d3e 2685 03bd 44de 02be
00000130: 2448 78be 6a97 9dbe 4326 393d e4f7 2ebe
00000140: 3522 b5bd 7d21 3d3e 9241 e3be f85c 383d
00000150: c42b a9be 751a 07be d65e 0b3d eeca 3c3e
00000160: 26c3 31be 00eb 7abe c3ae 8dbe 8ba2 91be
00000170: 2ff0 89be d35c 3bbe cedf e63d f057 95be
00000180: 74fb 9f3e 2bb6 693e 45e9 a2be 03c8 27be
00000190: 21d7 113e 0f40 86bd 603e 09bc 07a2 07be
000001a0: 0330 993e 74a0 2cbe d8e2 983e 5700 5a3d
000001b0: 6feb 9f3d 74c3 9c3e 7d6f 51bd 8680 47be
000001c0: ccb0 4cbd c471 863e dcbb 8cbe 61a9 bc3d
000001d0: f9d3 b7be fbdd 233e ce8a ec3d 21da 543b
000001e0: d61c 1c3e ef80 5cbc 7fc9 2f3e 0332 97be
000001f0: 4a2a 9dbd eadf 103e ba42 a73e 8ec9 1f3e
00000200: 0125 1cbe 3d36 dc3d 4f0f e13d f968 cb3d
00000210: 4e8d 06be 6359 70be 19d9 df3e 9d21 733e
00000220: db38 f3bc 04db 973e 6db4 9abe fd80 023f
00000230: d919 f3be ac77 9a3d 0b91 05bf 40d0 94be
00000240: 37f2 bc3d 35fa c03e 9c56 953d c186 a73e
00000250: 31bb a63d 1c51 773e 1dd2 993e efb2 9d3e
00000260: 571c 4fbe ae43 ae3e 53ac 7f3e 1b77 17be
00000270: fdc1 06be a8f6 8ebe 462a 013e c665 7fbe
00000280: 671f 053e 2917 fd3d a08c b4be c4a2 963d
00000290: 05f2 96bd e349 323e 758f 1f3e b6ce cabe
000002a0: 5957 953e 792b 803e 26ba 1c3e df9d bdbe
000002b0: 1479 e9bd fd45 19be 9024 a0bd 49bb 543e
000002c0: 49a0 583e 7780 163e 1a58 cc3c 39f7 853e
000002d0: 0e52 913e 561d e0be 21c4 3ebe 8271 dabc
000002e0: 9d5f c63e a52c 34be ab6c ebbe 3f99 b53e
000002f0: 00fe 643d 5e17 e53e 9372 d2be f753 c4be
00000300: 36b2 463e 03f8 8d3e 8994 543e d7e5 973d
00000310: 336e e83d cf8d 9b3e f31d 70be 6ea5 27be
00000320: 22ea 823e 180b 7dbe 3417 67be d9bc 803e
00000330: 081e a53d 396c dc3d 8211 3abe 683e 0bbd
00000340: d16b a13e 1794 5bbe 8c85 19bd 09bc 1f3e
00000350: c90e 91be e079 ae3e f8eb 60be 866e febd
00000360: 866a f6bd 2e4b 8bbe dd08 b2be b2c2 1f3e
00000370: 76e2 ba3d 64b2 bfbe acaf 6bbe ef60 b13e
00000380: 2514 153e 7335 073e 7b7c 82be bf25 26be
00000390: a003 c4bd 97c7 97bd 8dad 93be 0034 53bc
000003a0: a269 473c 9f39 b7bd 329f 243d 4813 3fbe
000003b0: 6c5d a83d 0ef2 b13d 156b 48be 2ec4 b9be
000003c0: 1c12 463e 382c 9e3d d3fc 64be 1576 a93e
000003d0: f67f 4fbe 037c 6d3e 98d5 073e a59c adbe
000003e0: 9a6a 503e 0aa5 bdbe 28ef 4dbe 6a17 d9bd
000003f0: ca91 7bbe d8c6 983e f69b 9fbd be02 083e
0.18909134 0.30483577 0.29815045 -0.13804726 -0.0674537 0.20184568 -0.080835074 0.1773373
-0.080248296 -0.22557686 0.17382304 0.07018038 0.18870297 0.36715525 0.2729186 0.365262
0.029311657 -0.32946616 -0.2650766 -0.2084506 -0.3275423 -0.2035155 -0.3453654 -0.34232134
-0.21285562 -0.36705253 -0.24193698 0.11458631 0.26898167 -0.1253244 -0.1291923 0.16326192
-0.1963688 -0.1351804 0.239127 -0.3220044 0.06322466 0.34488282 0.08540511 0.11626366
-0.20405093 0.018197495 0.050043434 0.11194657 0.1699258 0.33230957 -0.23723502 0.04273145
-0.1943583 -0.24317056 -0.021970594 -0.33334634 0.25196785 0.07867234 -0.18127054 0.19016854
-0.34373286 -0.12890507 -0.032180645 -0.29081616 -0.1877626 -0.04816057 0.30605447 0.3778913
0.17629673 -0.16002846 -0.3377651 0.2382475 0.01972658 0.061715487 -0.061850183 -0.38935304
-0.20400137 0.23225431 -0.032109402 -0.127801 -0.2424627 -0.30779582 0.045202505 -0.1708675
-0.08844415 0.18469806 -0.44385964 0.045010537 -0.33041203 -0.13193686 0.03402599 0.18436787
-0.173596 -0.24503708 -0.27672395 -0.28444323 -0.26941058 -0.18297128 0.11273156 -0.29168653
0.3124653 0.22823398 -0.31818596 -0.16384892 0.14242221 -0.06555187 -0.008376688 -0.13245402
0.29919443 -0.16858083 0.29860568 0.05322298 0.07808577 0.3061787 -0.051131714 -0.19482622
-0.049973294 0.2625867 -0.27487075 0.09211994 -0.3590391 0.16002648 0.115499124 0.0032478648
0.15245375 -0.013458475 0.17166708 -0.29530343 -0.076740816 0.14147916 0.32668096 0.15604231
-0.15248491 0.10752533 0.10989248 0.09932131 -0.13139841 -0.23471598 0.4372032 0.23743291
-0.029690197 0.29659283 -0.3021578 0.5097807 -0.47480658 0.07542357 -0.52174443 -0.29065132
0.09225886 0.37690893 0.0729191 0.32719997 0.08141173 0.24152035 0.30043116 0.30800578
-0.20225655 0.3403601 0.2496808 -0.14791529 -0.13159938 -0.2792256 0.12613782 -0.24941167
0.1300026 0.12357933 -0.35263538 0.07355264 -0.0737038 0.17410998 0.15582068 -0.39610833
0.29168203 0.25033167 0.15305385 -0.3703451 -0.11400047 -0.14968105 -0.07819474 0.20774569
0.21154894 0.14697443 0.024944354 0.26165178 0.28382915 -0.43772382 -0.18629505 -0.026665453
0.38744822 -0.17595156 -0.45981345 0.3546848 0.055906296 0.4474439 -0.41103038 -0.3834531
0.1940392 0.2772828 0.20759787 0.07416885 0.11349144 0.3038163 -0.23448925 -0.163717
0.25569254 -0.24711263 -0.22567445 0.2514408 0.08062369 0.10762829 -0.18170741 -0.033995062
0.3152757 -0.2144321 -0.037480876 0.15599073 -0.28331593 0.34077358 -0.21965015 -0.124234244
-0.120320365 -0.27205795 -0.34772387 0.15601614 0.09125225 -0.3744079 -0.23016232 0.34644267
0.14558466 0.13203983 -0.25485596 -0.16225336 -0.09571004 -0.074111156 -0.28843346 -0.012890816
0.012171181 -0.08946537 0.040190883 -0.18659699 0.08220944 0.086887464 -0.19572099 -0.36282486
0.19342846 0.07723278 -0.2236207 0.33097902 -0.20263657 0.23191838 0.13265073 -0.33908573
0.20353165 -0.37039977 -0.20110762 -0.10600169 -0.24567333 0.29839206 -0.07793419 0.13282296

bias f4 [16]
00000000: 32ee 183e a479 f23d e833 383e f70c 113e
00000010: 1f6d 333c 37cf 343e fa83 823e d31f 83be
00000020: 82b4 1f3e 4cfd 5f3e 4896 823e f987 34be
00000030: 5d2a 4d3e ae83 27be 4404 273e 9d3c 0e3e
0.14934614 0.11839607 0.1798855 0.14165102 0.010951309 0.17657171 0.25491315 -0.25610217
0.15596202 0.21873969 0.2550528 -0.17629994 0.20035692 -0.16358826 0.16310221 0.1389031

weight f4 [16, 32]
00000000: a739 cabb 8ef4 053e 556b d5be b048 72be
00000010: e766 353e 7ddb 4e3e 1baf 2abe 523c e53d
00000020: d625 59bd 1bda 92be 1bf0 37be dc43 c1bd
00000030: 87c2 b2be 8162 753d f56b 0c3e 30b4 a83e
00000040: cc75 9abc 0e8a 953b 7db6 943d 096a 603e
00000050: 4aa5 5cbe e2ac 2c3e 82f9 373d 572c 92be
00000060: c467 8a3e 9dd0 f1bd 1cd8 0abe 16f3 58be
00000070: d829 05be a699 d93e a723 bcbe 68e7 0c3e
00000080: d279 bebe 8e6e 58bd ece0 86be f49c 5f3e
00000090: 16b9 8cbd fa17 8b3e 2c8e 1b3d b7d3 2b3e
000000a0: 05b2 8cbc fdf5 ddbd aeb7 6ebe e73d 8dbe
000000b0: 020f 883e bc79 92be 7e21 e83c e542 173d
000000c0: ac8b 9b3e ec9d aabd 42a6 98be 6af4 0fbe
000000d0: 12ce 063e bbd9 e73d b151 893e 049a d5bd
000000e0: b368 853e f5a8 88be e39e ea3d 7adc f63d
000000f0: 37ac 973e ce90 c8bd f421 03be 3651 3f3d
00000100: 27be 99be 8d00 8cbe 23d5 30bf 2671 e637
00000110: be18 b93e 1f6f d93e 3259 8b3c aed1 b73d
00000120: 5a59 97be ce14 47be 44d4 afbd 0bbe 74be
00000130: 4548 833e f926 93be b41d 6a3e ec91 1dbe
00000140: 2d11 5abd ce80 46be 41f8 c73d 41d8 7dbe
00000150: 4757 373e 9ceb adbe 0f7a 1f3e 79c1 a9be
00000160: 62a6 d23e 6d1e fdbc 0e11 d3bc 5f2b debd
00000170: abbd ca3e 781e 9d3e f756 c2be ad0f e3bb
00000180: a5ee 91be 77ac 883e 06c1 65be cac9 dcbd
00000190: 7df4 dabd f78e a73e 5f24 56be 0f84 0e3e
000001a0: 87f2 0b3e 118a 65bb eca3 b83d c633 b7be
000001b0: 1c39 5b3e 3d9a fdbd 0ac6 b2ba b250 533d
000001c0: bd87 663e 7cef 7b3e b4bc 1d3d d016 043e
000001d0: 1e78 bcbe f9de 40bd 3c03 b6be ab03 903d
000001e0: 85ee 09be 2919 05bd 4f55 673e e015 9b3e
000001f0: eb03 03be b128 a2bd 9c25 02bc b84e de3d
00000200: a69f 25be e2e9 2ebe b7cf 06bf 6874 4b3d
00000210: 7e25 b43e 9b98 05be e49f 953d fa11 b13d
00000220: 00f3 a63e 8df7 c4be 97e5 b6bd 2667 a03e
00000230: 7fc0 0f3e 16e2 843e ca64 b4bd 15af 2f3e
00000240: d9fb 323e 8a47 19be 2cde 18bc 64fe 2fbe
00000250: d529 043e 09ea bdbd 3b1d b43d 103a 863e
00000260: 85bf a0be 636d b6be a841 55be cd36 263e
00000270: ab4f 783e 2f83 4dbe 5a4a ec3d 93db 82be
00000280: ef26 5ebe 5ce8 9e3e 456b 24be e3c4 f8bd
00000290: 1174 4c3e 9eeb c83e 4ca3 a03d 4b9e 21be
000002a0: f78a 8ebe f966 86bb a48a 333d bb50 b13d
000002b0: 67f4 3cbe 6fe2 1d3e f4e1 ea3e c71a c73e
000002c0: 3f57 533d b3e6 9f3e 2fd9 c0bc 2b43 b73c
000002d0: fa31 923e e8e8 963e 7a68 50be a1ad 823e
000002e0: c179 b33e f50a 8f3d caf4 903e 25f3 6bbe
000002f0: bde6 d03e fab4 0f3f 9135 9ebe a88c 80be
00000300: 662e b0be b80c 593b 2798 2dbf 07a7 9ebd
00000310: 0f51 853e 4dbb 323f a035 2d3e bca3 5f3e
00000320: cca5 cf3b 2d8e d4be 1cf4 55be 88b5 edbd
00000330: d22d ad3e cc30 873d afac 593e 524d aebd
00000340: a92a 29be 6c92 c0be 6c82 a43e 7355 63bd
00000350: 3431 9dbe 7024 36bd 5479 c8bd 26a7 34be
00000360: 6067 c23e 51e6 a13e f063 a1be c516 88be
00000370: df9e 293e b7df 0bbe 4b6f e9be bfb8 a43e
00000380: 985a 85be fbb9 c2be a167 9dbe 112e 0dbf
00000390: 3f86 bb3e a5f0 0fbe 3787 6cbe 63c8 f8be
000003a0: 2c1e e73e ed87 0cbf bc72 d8be b5ae 2c3e
000003b0: 6a4d b7be 8b4a 3bbe eae5 073e 7568 b0bd
000003c0: 5106 2cbe f39b 2d3d 1fa5 c4be 3d61 e53d
000003d0: 8cdf 51be b80b 073f 1f37 5a3e c392 823d
000003e0: bc10 10be 3b9b 8c3e 2031 c7be 6c85 903c
000003f0: a64c 403e e02e 633e 001d e73e 44ee 82be
-0.0061714235 0.13081571 -0.4168345 -0.2366054 0.17715035 0.20200916 -0.1666836 0.11193146
-0.0530146 -0.28682026 -0.17962687 -0.09436771 -0.34914038 0.059908394 0.13713057 0.32949972
-0.018854998 0.0045635765 0.072613694 0.21915449 -0.21547428 0.16862825 0.044915684 -0.28549454
0.27032292 -0.11807368 -0.13559002 -0.2118648 -0.13004243 0.42500037 -0.3674595 0.1376015
-0.37202317 -0.05283981 -0.26343477 0.21837217 -0.0687124 0.2716673 0.037977383 0.16779982
-0.01717473 -0.10837934 -0.23312256 -0.2758629 0.2657395 -0.286085 0.028336283 0.03692903
0.3038 -0.083309025 -0.29814345 -0.1405808 0.13164547 0.11320826 0.26820138 -0.10429767
0.26056442 -0.26691404 0.114560865 0.12053771 0.29623577 -0.09793244 -0.12805921 0.04670831
-0.30027887 -0.2734417 -0.6907522 2.7470825e-05 0.3615169 0.4246759 0.017010305 0.0897554
-0.29560357 -0.1944153 -0.08585408 -0.2390062 0.25641075 -0.2874067 0.22862893 -0.15387696
-0.053239036 -0.19385073 0.097641475 -0.24789526 0.17904387 -0.33968818 0.15573905 -0.3315542
0.41142565 -0.030898297 -0.025764968 -0.10848116 0.3959783 0.30687308 -0.37956974 -0.006929359
-0.28502384 0.2669408 -0.22436914 -0.10780676 -0.10691164 0.3272626 -0.20912312 0.13917564
0.13666736 -0.003502492 0.090156406 -0.35781687 0.21408504 -0.12382934 -0.0013639343 0.05159063
0.22512718 0.24603075 0.03851004 0.12899327 -0.36810392 -0.047087643 -0.35549343 0.070319496
-0.13469894 -0.032494698 0.22591136 0.30290127 -0.12794463 -0.079179175 -0.007943537 0.10854858
-0.16174182 -0.17081407 -0.526607 0.04967156 0.35184854 -0.13046496 0.07305887 0.08646007
0.3260727 -0.38470116 -0.089305095 0.31328696 0.14038275 0.2595374 -0.088082865 0.17156632
0.17478885 -0.14968696 -0.009330314 -0.17186886 0.12906583 -0.09273154 0.08794638 0.26216173
-0.31396118 -0.3563033 -0.20825827 0.16231842 0.24249141 -0.20069574 0.11537619 -0.25558147
-0.2169454 0.3103665 -0.16056545 -0.12146928 0.19966151 0.39242262 0.078436464 -0.1578304
-0.27840397 -0.0041016308 0.04383339 0.08657976 -0.18452607 0.15418409 0.45875514 0.38887617
0.051596876 0.31230697 -0.023541061 0.022370895 0.28553754 0.29474568 -0.20352355 0.25523093
0.35053828 0.06984512 0.2831176 -0.23041971 0.4080104 0.56135523 -0.30900243 -0.25107312
-0.344104 0.0033119153 -0.6781029 -0.07746702 0.26038405 0.6981705 0.16914988 0.21839803
0.006336903 -0.41514722 -0.20893902 -0.1160689 0.3382402 0.06601104 0.2125728 -0.085108414
-0.1652018 -0.3761171 0.32130754 -0.055501413 -0.30701602 -0.044468343 -0.097887665 -0.17641887
0.37969494 0.3162103 -0.3152156 -0.26579872 0.16564511 -0.13659559 -0.45592722 0.321722
-0.2604568 -0.38032517 -0.30743125 -0.55148417 0.3662586 -0.14056642 -0.23098455 -0.48590383
0.45140207 -0.54894906 -0.42275035 0.1686352 -0.3580125 -0.18290155 0.13271299 -0.086136736
-0.16799285 0.042385053 -0.38407227 0.11200187 -0.20495433 0.52752256 0.2131009 0.06375649
-0.14068884 0.2746218 -0.38904667 0.017641746 0.18779239 0.2218585 0.45139313 -0.25572407

bias f4 [2]
00000000: d455 693e 4cdb b13e
0.22786647 0.34737623

weight f4 [2, 16]
00000000: 136d 193f 43b7 273e 7dd8 8e3f 2ce9 c43e
00000010: 6051 d23d 5ba1 143f 8ff5 343f 09ac 0ebd
00000020: aaef 1f3f ca1c 6c3f 3d03 1f3f 9a84 14be
00000030: 0cf7 8c3f 4f4e 0bbf e65a 2e3f aeb5 b43e
00000040: 9564 223f 7983 e6bc 80f0 d23e 58cb d53e
00000050: 2d81 a4be 52db 2c3f 8f58 823f f046 3dbf
00000060: 89b3 583e 7f6a b13e 7ab3 7e3f 9ed5 e2be
00000070: 10fc 893f fe2e 243e 467d 3b3f 1c49 2e3f
0.5993206 0.16378503 1.1159817 0.38459146 0.10269427 0.5805871 0.7068719 -0.034832034
0.62475073 0.9223143 0.62114316 -0.14503708 1.1012893 -0.54416364 0.6810745 0.3529486
0.63434726 -0.028138863 0.41199112 0.417567 -0.32129803 0.67522156 1.0183276 -0.7393637
0.21162237 0.34651563 0.9949261 -0.44303602 1.0780048 0.16033551 0.7323803 0.68080306

weight f4 [1, 2]
00000000: 55f5 a53f b2db 193f
1.2965494 0.60100853

pout f4 [50, 3]
00000000: e4b2 763f 1c76 863e 1147 303d e6b2 763f
00000010: 18a8 283f d1bf bc3e e4b2 763f 1b05 893e
00000020: ba02 343d e4b2 763f ba4c 883e efe8 323d
00000030: e4b2 763f 105f 8e3e 2118 3d3d e4b2 763f
00000040: bbc8 943e ccc1 493d e4b2 763f 1a76 863e
00000050: 4947 303d e6b2 763f 161c b83e a1c6 973d
00000060: e6b2 763f 4376 863e 4447 303d e4b2 763f
00000070: 1384 863e b759 303d e4b2 763f e17c a23e
00000080: 0cb3 6a3d e6b2 763f 9d6d c73e 5d9c b73d
00000090: e4b2 763f a563 913e ded3 423d e4b2 763f
000000a0: 6a77 863e 0049 303d e1b2 763f bd78 863e
000000b0: a64a 303d e6b2 763f a106 b93f 7b01 d23f
000000c0: e6b2 763f 2476 863e 2d47 303d e4b2 763f
000000d0: a5e0 863e 42d8 303d e4b2 763f 7a8d a73e
000000e0: d2e6 783d e4b2 763f 2f7b dc3f eec1 1340
000000f0: e4b2 763f bd21 893f 39f1 6b3f e4b2 763f
00000100: 62ba 953e afc5 4b3d e6b2 763f 2bf2 783f
00000110: 3d57 443f e4b2 763f 1ebe fa3e f89c 303e
00000120: e4b2 763f 06cb d73e 7b5a e23d e4b2 763f
00000130: 66f4 f43e 419d 243e e4b2 763f 94a8 a43e
00000140: 0aa6 703d e4b2 763f 5420 933e 5a4f 463d
00000150: e4b2 763f 3176 863e 6647 303d e6b2 763f
00000160: c080 863e 4d55 303d e1b2 763f e9a7 863e
00000170: 2f8a 303d e4b2 763f 703f 133f 7604 8b3e
00000180: e4b2 763f 3cb8 353f 631f da3e e4b2 763f
00000190: f3ac 7b3f 9b6d 483f e6b2 763f 4865 953e
000001a0: ff0e 4b3d e4b2 763f 4e2f b93e 53c9 993d
000001b0: e4b2 763f 307c 863e 004f 303d e4b2 763f
000001c0: 6479 863e 714b 303d e4b2 763f 2576 863e
000001d0: 2047 303d e4b2 763f f4b3 1540 61b2 8640
000001e0: e6b2 763f 0b95 cb3e 8187 c13d e4b2 763f
000001f0: fdd6 b93e bf06 9b3d e4b2 763f b9cf a23e
00000200: d492 6b3d e4b2 763f 3d23 9a3e 58af 553d
00000210: e6b2 763f 9234 4e3f e906 0a3f e4b2 763f
00000220: 9c92 8d3e e4a5 3b3d e4b2 763f 7a68 393f
00000230: 4d87 e23e e4b2 763f 9f77 db3e e15f ed3d
00000240: e4b2 763f be76 863e fa47 303d e6b2 763f
00000250: e8ef 863e a6ed 303d
0.96366715 0.26261985 0.043036524 0.9636673 0.6588149 0.36865094 0.96366715 0.26761708
0.043947913 0.96366715 0.26621038 0.043679174 0.96366715 0.27806902 0.04616559 0.96366715
0.29059395 0.049257085 0.96366715 0.2626198 0.043036733 0.9636673 0.35958928 0.07410932
0.9636673 0.26262102 0.043036714 0.96366715 0.2627264 0.04305431 0.96366715 0.317359
0.05729966 0.9636673 0.38950816 0.08965371 0.96366715 0.28396335 0.047565334 0.96366715
0.2626298 0.04303837 0.963667 0.2626399 0.04303994 0.9636673 1.4455148 1.6406702
0.9636673 0.2626201 0.04303663 0.96366715 0.26343265 0.04317499 0.96366715 0.32725126
0.060767002 0.96366715 1.7225093 2.3087115 0.96366715 1.0713421 0.9216495 0.96366715
0.2924376 0.049749073 0.9636673 0.9724452 0.76695615 0.96366715 0.48973173 0.17247379
0.96366715 0.42147082 0.11052414 0.96366715 0.4784271 0.16075613 0.96366715 0.32159865
0.058752097 0.96366715 0.28735602 0.04841552 0.96366715 0.26262048 0.04303684 0.9636673
0.26270103 0.0430501 0.963667 0.2629998 0.043100532 0.96366715 0.5751867 0.2715184
0.96366715 0.70984244 0.4260207 0.96366715 0.98310775 0.78292245 0.9636673 0.29178834
0.04957485 0.96366715 0.36168903 0.07509103 0.96366715 0.26266623 0.04304409 0.96366715
0.2626449 0.043040697 0.96366715 0.26262012 0.04303658 0.96366715 2.3391085 4.209275
0.9636673 0.39762148 0.094496734 0.96366715 0.36296836 0.07569646 0.96366715 0.31799105
0.057513073 0.96366715 0.3010501 0.052169174 0.9636673 0.80548966 0.53916794 0.96366715
0.27650917 0.045812503 0.96366715 0.72425044 0.4424385 0.96366715 0.428647 0.11590553
0.96366715 0.26262468 0.043037392 0.9636673 0.2635491 0.04319539

throughput f4 [50, 1]
00000000: f314 5c3f d185 f63e 3a61 5b3f 7494 5b3f
00000010: b7d9 593f 19f0 573f ef14 5c3f 4f0c 4c3f
00000020: e714 5c3f 3311 5c3f 5099 533f 5612 463f
00000030: d4f5 583f 9614 5c3f 3e14 5c3f 626f c0be
00000040: ee14 5c3f 3cf8 5b3f 08e9 513f cac6 35bf
00000050: 2a7b 533d 58a6 573f 908d 223e 4eb2 2c3f
00000060: eeef 3e3f def3 2f3f 82e1 523f 9d70 583f
00000070: ea14 5c3f 1612 5c3f 9107 5c3f eae8 123f
00000080: 09d8 db3e 47de 163e 5cc0 573f cea5 4b3f
00000090: 5413 5c3f 1014 5c3f ef14 5c3f c9f0 bebf
000000a0: 4857 443f 0967 4b3f 0d7e 533f 5648 563f
000000b0: f668 aa3e 3615 5a3f 3069 d43e 7736 3d3f
000000c0: c514 5c3f 18f4 5b3f
0.85969466 0.4814897 0.8569523 0.85773396 0.8509783 0.84350735 0.8596944 0.7970628
0.85969394 0.85963744 0.8265581 0.7737173 0.84750104 0.8596891 0.8596839 -0.37584978
0.85969436 0.8592565 0.819962 -0.71006453 0.05163113 0.84238195 0.15874314 0.6745957
0.74584854 0.68731487 0.8237535 0.84546834 0.8596941 0.85965097 0.85949045 0.5738665
0.4293826 0.1473323 0.8427789 0.7954987 0.8596699 0.8596811 0.8596944 -1.4917232
0.7669568 0.79454094 0.82614213 0.83704126 0.33283204 0.85188615 0.41486502 0.7391123
0.8596919 0.8591933

delay f4 [50, 1]
00000000: 6139 ee3d 5dac 543e 88fc ee3d c7c4 ee3d
00000010: 07aa f03d b6cb f23d 6439 ee3d c078 003e
00000020: 6e39 ee3d 6f3d ee3d 44c6 f73d 1c59 043e
00000030: d0a6 f13d c539 ee3d 243a ee3d 8139 88be
00000040: 6439 ee3d 7958 ee3d 86c4 f93d 5536 10be
00000050: 96e9 f73f c01e f33d 4e44 213f 6dcb 173e
00000060: 154b 093e 4ffc 143e 3b9e f83d 8d3b f23d
00000070: 6939 ee3d 793c ee3d dc47 ee3d 5070 323e
00000080: 617b 6e3e c2c1 2d3f 6f01 f33d 6ab9 003e
00000090: 213b ee3d 563a ee3d 6439 ee3d 784a 89bd
000000a0: c383 053e 23e1 003e 34e6 f73d dcab f43d
000000b0: d3d4 993e 6068 f03d c8d3 763e 698b 0a3e
000000c0: 9139 ee3d f45c ee3d
0.11632038 0.20768876 0.1166926 0.11658626 0.1175118 0.11855261 0.1163204 0.12546062
0.116320476 0.11632811 0.12098363 0.12924618 0.11799395 0.116321124 0.11632183 -0.26606372
0.1163204 0.116379686 0.12195687 -0.14083226 1.936816 0.118710995 0.6299485 0.14823695
0.13407548 0.14549373 0.12139555 0.11827765 0.11632044 0.11632628 0.116348 0.17425656
0.23289253 0.67873776 0.11865508 0.1257073 0.11632372 0.116322204 0.1163204 -0.06703657
0.13038544 0.12585883 0.12104455 0.11946842 0.30045184 0.11738658 0.24104226 0.13529743
0.11632074 0.11638823

ef1 f4 [50]
00000000: b479 bbbe b40d 113f ccd0 b6be f42d b8be
00000010: 78de abbe c074 9dbe 6c79 bbbe 1040 05be
00000020: 7079 bbbe 2c62 bbbe 00a7 77be c047 42bd
00000030: 2c3a a5be 4077 bbbe 3075 bbbe d185 9b3f
00000040: 9079 bbbe d8c2 babe 3086 5dbe e682 ae3f
00000050: c9ed 763f 003f 9bbe 5280 623f 8c67 723e
00000060: 1000 323d 941d 533e 2885 6cbe b449 a1be
00000070: 4879 bbbe c067 bbbe 1825 bbbe f01a de3e
00000080: 5f22 213f c0ca 643f b406 9cbe b0cb febd
00000090: b06f bbbe 2c74 bbbe a079 bbbe 06e6 cf3f
000000a0: c062 c9bc 40a7 f7bd c0ff 75be 20af 90be
000000b0: 4452 3b3f 8493 adbe 9e56 253f 1049 833d
000000c0: 8c78 bbbe f8a7 babe
-0.3661629 0.56661534 -0.35706174 -0.3597256 -0.33568168 -0.30753136 -0.36616075 -0.13012719
-0.36616087 -0.36598337 -0.24184799 -0.047431707 -0.32270944 -0.36614418 -0.36612844 1.2150213
-0.36616182 -0.3647678 -0.2163322 1.3633697 0.9645658 -0.30321503 0.8847705 0.23672312
0.04345709 0.20616752 -0.2309767 -0.31501544 -0.36615968 -0.36602592 -0.36551738 0.43379927
0.6294307 0.8937187 -0.30473864 -0.12441194 -0.36608648 -0.3661207 -0.3661623 1.6242073
-0.02458322 -0.12092447 -0.24023342 -0.2825861 0.731724 -0.33901608 0.6458529 0.0641042
-0.36615407 -0.36456275

ef2 f4 [50, 1]
00000000: 6489 c5c1 6140 d0c1 7cd7 c5c1 97c1 c5c1
00000010: ee76 c6c1 162e c7c1 6689 c5c1 f79f cac1
00000020: 6889 c5c1 108b c5c1 3e9b c8c1 d4eb cbc1
00000030: 30ce c6c1 8e89 c5c1 b689 c5c1 62a9 c4c1
00000040: 6589 c5c1 2096 c5c1 3b1a c9c1 d20d c1c1
00000050: 57d1 c9c1 5948 c7c1 d948 cbc1 7875 cfc1
00000060: 2234 cdc1 2826 cfc1 26d2 c8c1 89ff c6c1
00000070: 6989 c5c1 aa8a c5c1 588f c5c1 02bd d0c1
00000080: b081 cfc1 8e1f cbc1 1e3f c7c1 12b8 cac1
00000090: 1d8a c5c1 c989 c5c1 6589 c5c1 a648 b9c1
000000a0: ba41 ccc1 b0c6 cac1 7aa3 c8c1 c0c0 c7c1
000000b0: 2eee cdc1 865f c6c1 5c46 cfc1 b679 cdc1
000000c0: 7889 c5c1 f597 c5c1
-24.692085 -26.031435 -24.730217 -24.719526 -24.808071 -24.897503 -24.69209 -25.328108
-24.692093 -24.692902 -25.075802 -25.49015 -24.850677 -24.692165 -24.692242 -24.582706
-24.692087 -24.698303 -25.137808 -24.131748 -25.227217 -24.910326 -25.41057 -25.932358
-25.650455 -25.893631 -25.102612 -24.874773 -24.692095 -24.692707 -24.694992 -26.092289
-25.938324 -25.390408 -24.905819 -25.339878 -24.692438 -24.692278 -24.692087 -23.160473
-25.532093 -25.347015 -25.079823 -24.969116 -25.741299 -24.796642 -25.909355 -25.68443
-24.692123 -24.699198
