train/models/HARQ-CC-NumN=4-NumK=3_model_pd_m.pt (torch, 145945 bytes, 63 tensors)

bias f4 [4]
0	0x00000000	0.0
1	0x00000000	0.0
2	0x00000000	0.0
3	0x00000000	0.0

weight f4 [4, 1]
0	0xbf0887db	-0.533323
1	0x3f24b1aa	0.64333594
2	0x3f7736f0	0.965682
3	0xbf4dbbf8	-0.8036494

bias f4 [8]
0	0x00000000	0.0
1	0x00000000	0.0
2	0x00000000	0.0
3	0x00000000	0.0
4	0x00000000	0.0
5	0x00000000	0.0
6	0x00000000	0.0
7	0x00000000	0.0

weight f4 [8, 4]
0	0x3e985de2	0.29759127
1	0x3f219e39	0.63132054
2	0x3ed147aa	0.40874988
3	0xbe9e45fb	-0.30912766
4	0x3ed0fdfe	0.4081878
5	0x3e018e70	0.12651992
6	0x3eb7db1e	0.3590936
7	0xbedcaa16	-0.43098515
8	0xbf33314c	-0.69997096
9	0xbe8be0a1	-0.27319816
10	0xbf0ad891	-0.54236704
11	0x3f14888d	0.5802086
12	0x3e508e94	0.20366889
13	0x3e95f618	0.29289317
14	0x3e64ff60	0.22363043
15	0xbc498940	-0.012300789
16	0x3f0daacf	0.5533876
17	0xbf009de0	-0.502409
18	0x3d365cc0	0.044522047
19	0xbef71b1e	-0.48262876
20	0x3e5f454c	0.21803778
21	0xbe795c02	-0.24351504
22	0x3e5dde7c	0.21666902
23	0xbe16daf8	-0.14731967
24	0x3f1622cf	0.58646864
25	0xbed694bd	-0.41910353
26	0xbed7eb4c	-0.42171705
27	0xbed7eea3	-0.42174253
28	0x3f22d109	0.6360021
29	0x3e714cb0	0.2356441
30	0x3f2e2f9d	0.680414
31	0xbf156416	-0.58355844

weight f4 [1, 8]
0	0x3eddce64	0.43321526
1	0xbea8f9e7	-0.3300316
2	0x3efdb8e4	0.49555123
3	0xbe4667c0	-0.19375515
4	0x3eef2444	0.46707356
5	0xbf22677f	-0.6343917
6	0xbed2f78a	-0.41204482
7	0x3e7ee7a8	0.24893057

bias f4 [16]
0	0xbd7b42cc	-0.061343
1	0xbd720e47	-0.059095647
2	0xbd8a060c	-0.067394346
3	0xbd27ed44	-0.04099776
4	0x3d232d6b	0.039838236
5	0xbd8645b5	-0.06556264
6	0x3c2e2e2a	0.010631124
7	0xbda2749e	-0.07932399
8	0xbc64eef0	-0.013972983
9	0xbd903d85	-0.07042984
10	0x3d3ffcfd	0.046872128
11	0xbd9ca45e	-0.07648538
12	0x3c8a368a	0.01687171
13	0x3d14c4b0	0.03632039
14	0xbdbe71ae	-0.092990264
15	0x3d49e834	0.04929371

weight f4 [16, 1]
0	0xbea51b3b	-0.32247338
1	0xbdf46647	-0.1193357
2	0xbe97e71b	-0.29668507
3	0x3eb7edbb	0.3592356
4	0xbed4b089	-0.41540936
5	0xbea79f2a	-0.3273862
6	0xbe26e827	-0.16299497
7	0xbed99605	-0.42497268
8	0x3d6ac2ee	0.057314806
9	0xbf24cf25	-0.6437858
10	0x3f11de85	0.5698016
11	0xbf11d7ae	-0.56969726
12	0x3efca8f6	0.49347657
13	0x3e094802	0.13406375
14	0xbe91680d	-0.28399697
15	0x3ecdc738	0.40191054

bias f4 [32]
0	0xbd7f0370	-0.062259138
1	0x3d735b30	0.059413135
2	0xbdd84654	-0.10560289
3	0xbcd5eac9	-0.02611293
4	0x3d792dac	0.06083457
5	0x3d618f4b	0.055068295
6	0x3d60ebb4	0.054912284
7	0xbd4b0b78	-0.049571484
8	0xbdd881aa	-0.105716065
9	0xbdb826b4	-0.08991757
10	0x3d6d8d50	0.057996094
11	0xbd88dcfa	-0.06682773
12	0xbda03dc7	-0.07824283
13	0xbc641ef2	-0.013923394
14	0x3d7188a6	0.05896821
15	0xbd5c238e	-0.053744845
16	0xbd514d4b	-0.051099103
17	0xbd882d91	-0.06649316
18	0x3d677588	0.05650857
19	0xbc87cbe7	-0.01657672
20	0x3d5bd35b	0.05366836
21	0xbda8306e	-0.08212362
22	0xbda4e99b	-0.08052369
23	0xbdafad60	-0.085779905
24	0x3d6cfe41	0.057859663
25	0x3d78ec47	0.060772207
26	0x3d7fd21e	0.062456243
27	0xbd86ccb4	-0.06582013
28	0x3db84470	0.089974284
29	0xbda4ca21	-0.080463655
30	0xbdc144d7	-0.09436958
31	0x3d8717f5	0.06596366

weight f4 [32, 16]
0	0x3ea2b88d	0.31781426
1	0xbdbdb13d	-0.09262321
2	0xbd40e553	-0.0470937
3	0x3e179a30	0.14804912
4	0xbd81c733	-0.06336822
5	0x3e4acf22	0.19805577
6	0xbd4f8d09	-0.05067161
7	0xbe52be94	-0.20580512
8	0x3dfaf4f6	0.12253754
9	0x3db947e5	0.09046916
10	0x3e098a1f	0.13431595
11	0x3ec61572	0.38688236
12	0x3e600e05	0.21880348
13	0x3ea07f6e	0.3134722
14	0x3d4f1c8a	0.050564326
15	0xbea7bf8e	-0.32763332
16	0xbe913cb5	-0.28366628
17	0xbe81c55d	-0.2534589
18	0xbeb19fee	-0.3469233
19	0xbe198812	-0.14993313
20	0xbeb91444	-0.36148274
21	0xbeb94f0e	-0.36193126
22	0xbe77a191	-0.24182726
23	0xbec557c7	-0.3854353
24	0xbe43ac98	-0.19108808
25	0x3dc4f9cc	0.096179575
26	0x3ea57cce	0.3232178
27	0xbe12bfdb	-0.14331
28	0xbd9a4278	-0.07532209
29	0x3e5cd2bb	0.21564762
30	0xbe569b5c	-0.20957702
31	0xbe0df416	-0.13862643
32	0x3e9d44dc	0.30716598
33	0xbe5d2334	-0.2159546
34	0x3e07f6b2	0.132777
35	0x3e6d30c6	0.23163137
36	0x3e17f4cc	0.14839476
37	0x3e3e2235	0.18567736
38	0xbdf93c2e	-0.121696815
39	0x3daea249	0.08527047
40	0xbd858e10	-0.06521237
41	0x3e35dec7	0.17760764
42	0x3d5c5420	0.053791165
43	0x3ecba6b5	0.39775625
44	0xbeb52dae	-0.35386413
45	0xbd9fb5f9	-0.077983804
46	0xbdaf312d	-0.085543014
47	0xbeba432b	-0.3637937
48	0xbba727d6	-0.0051011844
49	0xbe933564	-0.2875167
50	0x3e8a343f	0.26992986
51	0x3c9c860e	0.019106891
52	0xbe2b6ba6	-0.16740283
53	0x3e54f60a	0.20796981
54	0xbea018a5	-0.31268802
55	0xbde8679d	-0.11347888
56	0xbdb585e4	-0.08863428
57	0xbe8dd59c	-0.27702034
58	0xbe7d152a	-0.24715105
59	0xbd0c8f8d	-0.03431659
60	0x3e7c742a	0.24653688
61	0x3ea4537a	0.32094938
62	0x3e7de42b	0.2479407
63	0xbe6f25f4	-0.23354322
64	0xbe86724d	-0.2625908
65	0x3e8f7845	0.28021446
66	0x3dc0e4f2	0.09418668
67	0x3cfc9bcd	0.03083601
68	0x3c81199a	0.015759278
69	0xbea18e89	-0.31554058
70	0xbe130552	-0.14357498
71	0x3e9d6d58	0.30747485
72	0xbd89d9fa	-0.06731029
73	0xbd58889f	-0.052864667
74	0xbe8ad65f	-0.27116677
75	0xbe6dda21	-0.23227741
76	0x3c6a023b	0.014282758
77	0xbe4bec53	-0.1991437
78	0xbd9819da	-0.07426806
79	0x3e2a7753	0.16647081
80	0xbebd239c	-0.3694123
81	0x3db043bb	0.086066686
82	0xbe837d80	-0.25681686
83	0xbe227038	-0.1586312
84	0x3de32527	0.110910706
85	0x3e83cf3f	0.25744054
86	0xbdec2951	-0.11531318
87	0xbe2e9ab2	-0.17051199
88	0xbe9c76e7	-0.30559465
89	0xbe574293	-0.2102149
90	0xbe974c61	-0.2955046
91	0xbddd7614	-0.10813537
92	0x3db071e1	0.08615471
93	0xbea3410f	-0.31885573
94	0x3e927e2e	0.28611892
95	0x3e718d79	0.23589124
96	0xbec2cafb	-0.38045487
97	0xbe4e95c2	-0.20174316
98	0x3da64f8c	0.08120641
99	0xbd3acc33	-0.045604896
100	0xbd95cbe7	-0.07314282
101	0xbe46b965	-0.1940666
102	0x3e82187b	0.25409302
103	0xbe6ea7f2	-0.23306254
104	0x3ea34a18	0.31892467
105	0xbc67136b	-0.014103751
106	0x3dcad497	0.099038295
107	0x3e7510d8	0.23932207
108	0xbcfde44e	-0.030992653
109	0xbe32eb7b	-0.17472641
110	0xbdbaa9bb	-0.09114405
111	0x3ea13a79	0.31489924
112	0xbe72cc44	-0.23710734
113	0x3dd20ca7	0.102563195
114	0xbea52e49	-0.32261875
115	0x3e2c0bd4	0.16801387
116	0x3e205a3e	0.15659425
117	0x3d250b95	0.04029425
118	0x3e309910	0.17245889
119	0x3cdccd3a	0.026953328
120	0x3e37df42	0.1795626
121	0xbe80bb35	-0.25142828
122	0xbd8ec97a	-0.06972022
123	0x3e3d3669	0.18477787
124	0x3eab777b	0.33489594
125	0x3e2856b1	0.1643932
126	0xbe6e3d57	-0.23265587
127	0x3e8210be	0.25403398
128	0x3c290def	0.010318263
129	0x3c837a1a	0.016049433
130	0xbe6d953f	-0.23201464
131	0xbe0b965e	-0.1363158
132	0x3eacf959	0.33783987
133	0x3e0dfa26	0.13864955
134	0xbdf8fa10	-0.12157071
135	0x3e4b9b4b	0.19883458
136	0xbe4a5ce3	-0.19761996
137	0x3ed3bad6	0.41353482
138	0xbec7cae7	-0.3902199
139	0xbcadb5e4	-0.021204896
140	0xbed9c5fc	-0.42533863
141	0xbe68532d	-0.22687979
142	0x3e4f333b	0.20234387
143	0x3e835600	0.2565155
144	0x3e065c46	0.13121137
145	0x3ed6fbee	0.41989082
146	0x3e1075b9	0.14107408
147	0x3e102af9	0.14078893
148	0x3eb56232	0.3542648
149	0x3ebc2e74	0.3675419
150	0xbe062eab	-0.1310374
151	0x3ecbadfc	0.39781177
152	0x3e183689	0.14864554
153	0xbdbb988f	-0.091599576
154	0xbe701166	-0.23444137
155	0xbe648076	-0.22314629
156	0x3cbbcc05	0.022924433
157	0xbeb5c1ef	-0.35499522
158	0x3e63ad1b	0.22234003
159	0x3d3a6954	0.045510605
160	0xbeb259fb	-0.34834275
161	0x3d625bd3	0.05526335
162	0xbd8f04b9	-0.06983323
163	0x3e48a39f	0.19593666
164	0x3e25d255	0.16193517
165	0xbec91787	-0.39275762
166	0x3e931cb9	0.2873285
167	0x3e824a9a	0.2544754
168	0x3e32a4e4	0.17445713
169	0xbebb83a5	-0.36623874
170	0xbdb968ed	-0.09053216
171	0xbe14bbce	-0.14524767
172	0xbd63f39b	-0.055652242
173	0x3e707da8	0.23485434
174	0x3db2a818	0.087234676
175	0x3ea1d7ee	0.31610054
176	0xbda4b97f	-0.08043193
177	0x3e30a7da	0.1725153
178	0x3e361ad7	0.17783676
179	0xbeadb55a	-0.33927423
180	0xbe957062	-0.29187304
181	0xbe067ee8	-0.13134348
182	0x3e9429df	0.28938195
183	0xbe8f7101	-0.28015903
184	0xbeb4b271	-0.3529239
185	0x3e80c51e	0.25150388
186	0x3e1340af	0.14380144
187	0x3eb01a56	0.34395093
188	0xbea076ad	-0.31340542
189	0xbe9d2c73	-0.30697975
190	0x3e6fc206	0.23413858
191	0x3e852de1	0.26011565
192	0x3e8dabb7	0.2767007
193	0x3dfe2ed9	0.12411279
194	0x3e3a4c18	0.1819309
195	0x3e8e695d	0.2781476
196	0xbe289e55	-0.16466649
197	0xbdc2f293	-0.095189236
198	0x3e9d48d6	0.30719632
199	0xbe346931	-0.17618252
200	0xbe81eec8	-0.25377488
201	0x3ea5fda4	0.32420075
202	0x3d51929c	0.05116521
203	0x3e387bf2	0.18016031
204	0xbe56f9be	-0.20993707
205	0xbd8c08ef	-0.068376414
206	0x3ec7dcca	0.39035636
207	0xbe8bdc87	-0.27316687
208	0x3d3ef26a	0.046617903
209	0x3e608062	0.21923974
210	0xbe4c4db5	-0.19951518
211	0x3e95add5	0.29234186
212	0xbe0a5d7d	-0.13512225
213	0xbd285d38	-0.041104525
214	0xbd485d5c	-0.04891716
215	0xbe40dd29	-0.18834366
216	0xbecb4f2c	-0.3970884
217	0x3e7455de	0.2386088
218	0x3d29e848	0.041481286
219	0xbe950ccf	-0.29111335
220	0xbe8f422f	-0.27980182
221	0x3e971b2e	0.29512924
222	0x3e394abb	0.18094914
223	0x3db689f1	0.08913029
224	0xbe77114d	-0.24127693
225	0xbe3a0391	-0.18165423
226	0xbda9573f	-0.08268594
227	0xbd3665fd	-0.044530857
228	0xbe8bbad9	-0.2729099
229	0xba3ad95a	-0.0007127725
230	0x3c3621c9	0.011116453
231	0xbd9bc54d	-0.076059915
232	0x3d896283	0.06708243
233	0xbe31dcdc	-0.17369407
234	0x3de788b7	0.11305373
235	0x3dcda4cb	0.100411974
236	0xbe2a394c	-0.1662342
237	0xbea9db7b	-0.33175263
238	0x3e201121	0.15631534
239	0x3dd8312b	0.10556253
240	0xbe1321c9	-0.14368357
241	0x3ec09989	0.37617138
242	0xbdfdc6a5	-0.12391404
243	0x3e567f2e	0.20946953
244	0x3e5ca00e	0.21545431
245	0xbe85394a	-0.2602027
246	0x3e85222d	0.26002637
247	0xbe937968	-0.28803563
248	0xbe65e123	-0.22449164
249	0xbca99c16	-0.02070431
250	0xbe89a3c7	-0.26882765
251	0x3ec43e5c	0.38328826
252	0xbdcea00d	-0.10089121
253	0x3de2b716	0.11070077
254	0xbe8f29b6	-0.2796151
255	0x3e30f473	0.1728075

bias f4 [16]
0	0xbd8d91e8	-0.06912595
1	0x3da6097b	0.08107277
2	0xbda0c722	-0.078504816
3	0x3dae3359	0.085058875
4	0x3da64cee	0.08120142
5	0xbd90e9aa	-0.07075818
6	0x3da67c12	0.08129133
7	0xbdb19340	-0.08670664
8	0x3da5b1ff	0.08090591
9	0xbda0e03f	-0.078552715
10	0x3da7b0d8	0.08188027
11	0x3da7dd92	0.08196558
12	0x3de22614	0.11042419
13	0x3dbd682e	0.09248386
14	0x3daf64fb	0.08564182
15	0xbd9db35c	-0.07700226

weight f4 [16, 32]
0	0xbdfdd394	-0.12393871
1	0xbe8e9232	-0.27845913
2	0x3e299e09	0.16564192
3	0xbd230c1c	-0.03980647
4	0xbe15350b	-0.14571016
5	0x3e37f3b1	0.17964055
6	0xbd942395	-0.07233349
7	0xbdd3e44e	-0.1034628
8	0xbdd2703a	-0.10275312
9	0x3d432ff9	0.047653172
10	0xbec0b846	-0.3764059
11	0x3e28e92a	0.16495195
12	0x3dc6fdf8	0.097164094
13	0x3e30ca91	0.17264773
14	0xbd88aa8b	-0.066731535
15	0x3d18c968	0.03730145
16	0x3d38cf73	0.045119714
17	0x3ea7f341	0.32802776
18	0xbe7643ca	-0.24049297
19	0x3e3744d9	0.17897357
20	0x3cca8dbe	0.024725791
21	0xbe179830	-0.14804149
22	0x3e455b23	0.19273047
23	0xbe0e43ac	-0.13893002
24	0xbd7e23a8	-0.062045723
25	0xbe891044	-0.26770222
26	0xbe9ed555	-0.31022134
27	0x3ec65615	0.3873755
28	0xbe9035b5	-0.28165975
29	0x3e8a69a9	0.27033737
30	0xbe72d553	-0.23714189
31	0xbdf201f1	-0.118167765
32	0x3b3f6330	0.0029203407
33	0x3e8da590	0.27665377
34	0xbe315b9c	-0.17320102
35	0x3e073006	0.13201913
36	0x3d89c101	0.06726266
37	0x3e5f072a	0.21780077
38	0x3d380474	0.04492612
39	0x3e18f90a	0.14938751
40	0xbe84adc3	-0.2591382
41	0xbe950e3e	-0.29112428
42	0x3eae1b34	0.3400513
43	0xbe968048	-0.29394746
44	0xbdd4549c	-0.103677005
45	0xbcbe63f3	-0.023241019
46	0x3ec3d10a	0.38245422
47	0xbd4b4b64	-0.049632445
48	0xbe82f163	-0.25574788
49	0xbd8cb20a	-0.06869896
50	0x3e55e0fe	0.20886609
51	0x3e1a62d1	0.15076758
52	0x3e9f5092	0.31116158
53	0xbde9f54e	-0.11423741
54	0x3df8beed	0.12145791
55	0xbec03b8f	-0.3754544
56	0x3df6276e	0.12019239
57	0x3e4b86c7	0.19875632
58	0x3e7eaea9	0.24871315
59	0xbe7d1826	-0.24716243
60	0xbddeb01b	-0.10873433
61	0x3d399732	0.045310207
62	0xbe952eb3	-0.2913719
63	0xbe830abc	-0.25594127
64	0xbea78515	-0.3271872
65	0xbba0a210	-0.004902132
66	0x3e8722ff	0.26393887
67	0x3d7d6975	0.06186815
68	0x3c50e2ab	0.012749354
69	0x3dee4c9c	0.11635706
70	0xbe7b4b69	-0.24540485
71	0x3ca7e753	0.020496046
72	0xbd319755	-0.043357212
73	0xbe056d83	-0.13030057
74	0x3e8fa705	0.28057113
75	0xbe73a286	-0.23792467
76	0x3dc1ba76	0.09459393
77	0xbea8d52e	-0.32975143
78	0xbd457f12	-0.048216887
79	0xbe3aaad6	-0.18229231
80	0x3dd30226	0.10303144
81	0xbe60864c	-0.2192623
82	0x3e4d71c8	0.20062935
83	0xbe984e07	-0.2974703
84	0x3e46dae2	0.19419435
85	0xbe65dcbd	-0.22447486
86	0x3e6efa92	0.23337772
87	0xbddb3bf8	-0.107047975
88	0x3c808843	0.015689975
89	0xbdcdad2b	-0.10042795
90	0x3e568940	0.20950794
91	0x3e23d5e8	0.15999568
92	0xbe989fc3	-0.2980939
93	0x3d93b67f	0.07212543
94	0xbe517c3e	-0.20457551
95	0x3e7574fe	0.2397041
96	0x3cfeb1ad	0.031090582
97	0xbd85f1cb	-0.06540259
98	0xbe681f01	-0.22668077
99	0x3e1e4fd4	0.1546014
100	0xbe450600	-0.1924057
101	0x3e397e99	0.181147
102	0x3e5e1712	0.21688488
103	0x3e6f5859	0.23373546
104	0x3d3a0ec9	0.045424256
105	0xbeb61d91	-0.35569432
106	0x3e8f183b	0.27948174
107	0xbe162ae6	-0.14664802
108	0xbe185ae3	-0.1487842
109	0xbc9885e6	-0.018618535
110	0x3e97390e	0.29535717
111	0x3e99b7ae	0.3002295
112	0x3d8a2e9f	0.067471735
113	0x3e42969d	0.19002767
114	0xbe9af41a	-0.3026436
115	0x3c289d29	0.010291376
116	0xbe96a5b7	-0.29423305
117	0x3d9f2067	0.07769852
118	0xbe98b572	-0.29825932
119	0xbe2de72b	-0.16982715
120	0x3e6c6621	0.23085834
121	0x3ebf9f68	0.37426305
122	0xbe443f48	-0.19164765
123	0xbe76b5bb	-0.24092762
124	0x3cf5f417	0.030023618
125	0x3dc932f6	0.09824173
126	0xbdc9c5af	-0.09852158
127	0xbdae02b7	-0.084966116
128	0xbe805b05	-0.25069442
129	0x3e3484d3	0.17628793
130	0x3e9a284f	0.30108878
131	0xbe1039c6	-0.14084539
132	0x3e37c0c4	0.17944628
133	0x3e3afd70	0.18260741
134	0x3e9dc5b7	0.30814907
135	0xbcbe3843	-0.023220187
136	0xbd0d45f0	-0.034490526
137	0x3e5b69b5	0.21427043
138	0x3e7e8484	0.24855238
139	0x3ea02b26	0.3128292
140	0xbe145553	-0.14485674
141	0x3e234223	0.15943198
142	0x3e913992	0.28364235
143	0xbe5a446d	-0.21315165
144	0x3dab5de3	0.08367517
145	0xbd6e636c	-0.058200285
146	0x3e81f65a	0.25383264
147	0xbe17a8d2	-0.14810494
148	0x3d323e27	0.043516304
149	0x3e2db16e	0.16962215
150	0xbebcf368	-0.36904454
151	0xbeaec356	-0.34133404
152	0xbe4a76d7	-0.19771896
153	0x3e86b8b9	0.26312807
154	0x3e83f9f5	0.2577664
155	0xbe9263aa	-0.28591663
156	0x3d5917e5	0.053001303
157	0xbe691390	-0.22761369
158	0xbe513152	-0.2042897
159	0x3ea9196f	0.33027217
160	0x3e1e5925	0.15463693
161	0xbe22115c	-0.15826935
162	0x3e02a51b	0.12758295
163	0x3d8a4b90	0.06752694
164	0x3dc748b0	0.09730661
165	0xbdbb2c09	-0.091392584
166	0xbe8c875d	-0.27447024
167	0x3e3d2c1d	0.18473859
168	0x3de793a1	0.11307455
169	0x3e6cbc25	0.23118646
170	0xbe4dc383	-0.20094113
171	0x3e7ce63d	0.24697204
172	0x3ead8e9b	0.33897862
173	0x3e32d7b6	0.174651
174	0x3ca6fdb7	0.020384653
175	0x3eb54639	0.35405138
176	0xbd48b08e	-0.0489965
177	0x3df35b9d	0.11882708
178	0x3e8ab62d	0.27092114
179	0x3ea032f4	0.31288874
180	0xbe528614	-0.20558959
181	0x3ecb4025	0.39697376
182	0x3e49885c	0.19680923
183	0x3ced5dbb	0.028975358
184	0x3eb61f31	0.35570672
185	0xbe883a08	-0.26606774
186	0x3e2c2778	0.16811931
187	0x3ee25ff2	0.44213825
188	0xbe57f4a4	-0.21089417
189	0xbe022f26	-0.12713298
190	0xbe8daf81	-0.2767296
191	0xbe04f87d	-0.12985416
192	0xbeb43cc1	-0.35202602
193	0xbdc36df3	-0.095424555
194	0x3d83bc32	0.0643238
195	0x3e90eba0	0.28304768
196	0x3e5e2281	0.2169285
197	0x3e5c04a1	0.21486141
198	0x3e2c7f7a	0.16845503
199	0xbe524f01	-0.2053795
200	0xbea60e81	-0.3243294
201	0xbce9c52c	-0.028536402
202	0x3eb78be4	0.35848916
203	0xbc646913	-0.013941067
204	0xbd9290a3	-0.071564935
205	0xbe643134	-0.22284395
206	0xbe0f97ad	-0.14022703
207	0xbe77d3be	-0.24201867
208	0x3e961c95	0.2931868
209	0xbd0a53d0	-0.033771336
210	0xbe936852	-0.28790528
211	0x3d3e0fa8	0.04640165
212	0x3d2b26fa	0.041785218
213	0xbdaa8637	-0.08326381
214	0x3daac385	0.08338074
215	0x3e191779	0.1495036
216	0xbeb0faf0	-0.3456645
217	0xbe721afc	-0.23643106
218	0x3ac71316	0.0015188183
219	0xbebd70a3	-0.36999997
220	0xbeab515a	-0.33460504
221	0x3e8c6072	0.27417332
222	0xbd84aa01	-0.06477738
223	0xbe1b409b	-0.15161364
224	0xbe0d521e	-0.13800856
225	0xbebba014	-0.36645567
226	0x3ec4cc22	0.3843699
227	0xbd832a44	-0.06404546
228	0xbe3e926c	-0.18610543
229	0xbe6a5dd6	-0.22887358
230	0x3dd6d888	0.10490519
231	0xbdf078e8	-0.11741811
232	0x3d551bc5	0.052028436
233	0x3d0472c5	0.032336015
234	0xbe8b994b	-0.2726539
235	0x3e33f21a	0.17572823
236	0x3ec9a943	0.3938695
237	0xbe8422b1	-0.25807717
238	0xbdce7ff3	-0.10082998
239	0xbe7b2abd	-0.24528022
240	0xbe6f0ee6	-0.23345527
241	0x3eceba69	0.40376595
242	0xbdc10a80	-0.09425831
243	0x3e9a5553	0.30143222
244	0xbe142a57	-0.14469276
245	0xbd9c37fc	-0.07627866
246	0xbdf6612d	-0.120302536
247	0x3ed1a798	0.40948176
248	0xbe545aae	-0.20737717
249	0x3d5e32ed	0.054247785
250	0xbbc4735e	-0.005995198
251	0x3e7e1d8e	0.24815962
252	0x3e7714a5	0.24128969
253	0x3d025a76	0.03182455
254	0x3ea7016e	0.32618278
255	0xbec3eabb	-0.38265023

bias f4 [2]
0	0x3b17fe8e	0.0023192498
1	0x3df46d5b	0.119349204

weight f4 [2, 16]
0	0x3ec99b93	0.39376506
1	0x3eae6dc3	0.34068117
2	0x3e04e9b8	0.12979782
3	0x3e48ebb6	0.19621167
4	0x3e19d136	0.15021214
5	0x3d473e4f	0.048643406
6	0x3efe62c2	0.4968472
7	0x3f0bd74c	0.5462539
8	0x3e2f8e18	0.17144048
9	0xbc8ce271	-0.01719782
10	0x3ef7f1c1	0.4842663
11	0xbeea3e96	-0.45750874
12	0x3ee4362c	0.4457258
13	0x3ea56c6c	0.32309282
14	0x3ebc0243	0.36720476
15	0xbd0428ed	-0.032265592
16	0xbef7835b	-0.48342404
17	0x3ee374a8	0.4442494
18	0xbe6be34c	-0.23035926
19	0x3e4dd99f	0.20102547
20	0x3eb79894	0.35858595
21	0xbf12a50d	-0.572831
22	0x3cfc9ab0	0.03083548
23	0xbe91499f	-0.2837648
24	0x3ee11247	0.43959257
25	0xbee51377	-0.44741413
26	0x3ec80aa1	0.3907061
27	0x3ed015ed	0.40641728
28	0x3eabc224	0.33546555
29	0x3f132eda	0.57493365
30	0x3dc34613	0.0953485
31	0xbf1a4ca9	-0.60273224

weight f4 [1, 2]
0	0x39981100	0.00029004365
1	0xbfb35f8b	-1.4013532

pout f4 [16, 3]
0	0x3f0d8570	0.55281734
1	0x3e1d9613	0.1538928
2	0x3ce6d0fb	0.028175822
3	0x3f0daa50	0.55338
4	0x3f09c6c0	0.53818893
5	0x3e8470ea	0.25867397
6	0x3f0e98a6	0.55701673
7	0x3e1edb55	0.15513356
8	0x3cebf658	0.02880399
9	0x3f0dcbb6	0.55388963
10	0x3eb0b621	0.34513953
11	0x3de18a77	0.11012738
12	0x3f0e49c1	0.5558129
13	0x3e8e367e	0.2777595
14	0x3d95ea74	0.07320109
15	0x3f0da6cc	0.55332637
16	0x3e26892e	0.16263267
17	0x3cf48bc0	0.029851794
18	0x3f0e87b8	0.5567584
19	0x3e1eb325	0.15498026
20	0x3ceb9ed8	0.028762266
21	0x3f0f605b	0.560064
22	0x3e209991	0.15683581
23	0x3cefdb44	0.029279359
24	0x3f0f0ae4	0.5587599
25	0x3e1fda57	0.15610634
26	0x3cee2f5d	0.029075319
27	0x3f0e830c	0.5566871
28	0x3e1ea30c	0.15491885
29	0x3ceb7f47	0.028747214
30	0x3f0de1e2	0.55422795
31	0x3e1d756b	0.15376823
32	0x3ce7f2bf	0.028313993
33	0x3f0d9a4d	0.5531357
34	0x3e31bf7d	0.17358203
35	0x3d05bd7a	0.032651402
36	0x3f0e5039	0.5559116
37	0x3e1e1336	0.15437016
38	0x3cea3cf7	0.028593523
39	0x3f0e7204	0.55642724
40	0x3e1e6a7c	0.15470308
41	0x3ceabcd4	0.028654493
42	0x3f0eafa8	0.5573678
43	0x3e1ee9b3	0.15518837
44	0x3cec1edd	0.02882331
45	0x3f0e4efc	0.5558927
46	0x3e1e14f9	0.15437688
47	0x3cea49e8	0.028599694

throughput f4 [16, 1]
0	0x3f91c519	1.1388274
1	0x3f35788e	0.70887077
2	0x3f91367b	1.1344751
3	0x3f6feb7b	0.9371869
4	0x3f8165e1	1.0109216
5	0x3f90bbf4	1.1307359
6	0x3f914105	1.1347967
7	0x3f90bd80	1.1307831
8	0x3f90f13d	1.132362
9	0x3f91447a	1.1349022
10	0x3f91a3b3	1.1378082
11	0x3f8f6ad6	1.1204479
12	0x3f916729	1.1359607
13	0x3f91525e	1.1353261
14	0x3f912cef	1.1341838
15	0x3f916731	1.1359617

delay f4 [16, 1]
0	0x3db3d587	0.087809615
1	0x3e107481	0.14106943
2	0x3db48626	0.08814649
3	0x3dda86bc	0.1067023
4	0x3dca9661	0.09891964
5	0x3db51efa	0.08843799
6	0x3db4790d	0.08812151
7	0x3db51d0a	0.088434294
8	0x3db4dc64	0.08831099
9	0x3db474c1	0.088113315
10	0x3db3fec5	0.08788828
11	0x3db6c8b8	0.08925003
12	0x3db449b5	0.08803121
13	0x3db46381	0.08808041
14	0x3db49205	0.088169135
15	0x3db449ab	0.088031135

ef1 f4 [16]
0	0xbf0cd4e4	-0.55012345
1	0x3ed35454	0.41275275
2	0xbf0a6150	-0.5405474
3	0x3d2b9a70	0.04189533
4	0xbe0abbe8	-0.13548243
5	0xbf066856	-0.52502954
6	0xbf0a8a92	-0.5411769
7	0xbf088f6c	-0.53343844
8	0xbf095676	-0.53647554
9	0xbf0a9978	-0.54140425
10	0xbf0c49a8	-0.5479989
11	0xbef8e1dc	-0.48609817
12	0xbf0b320a	-0.5437323
13	0xbf0af56a	-0.5428072
14	0xbf0a4e3a	-0.54025614
15	0xbf0b2be6	-0.5436386

ef2 f4 [16, 1]
0	0xc33e2134	-190.1297
1	0xc33a3406	-186.20322
2	0xc33e4e0b	-190.30486
3	0xc33bdf70	-187.8728
4	0xc33c865e	-188.52487
5	0xc33de105	-189.87898
6	0xc33e4d57	-190.30211
7	0xc33e5461	-190.3296
8	0xc33e51ae	-190.31906
9	0xc33e4cc2	-190.29984
10	0xc33e3334	-190.20001
11	0xc33dab20	-189.66846
12	0xc33e45c9	-190.2726
13	0xc33e4107	-190.25401
14	0xc33e49a2	-190.28763
15	0xc33e4784	-190.27936

bias f4 [16]
0	0x00000000	0.0
1	0x3d7d4b2c	0.061839268
2	0x00000000	0.0
3	0x00000000	0.0
4	0x00000000	0.0
5	0x3d98c0b1	0.07458628
6	0x00000000	0.0
7	0x00000000	0.0
8	0x00000000	0.0
9	0x00000000	0.0
10	0x3dee721f	0.116428606
11	0x00000000	0.0
12	0x3d77e690	0.060522616
13	0x00000000	0.0
14	0xbd230571	-0.03980011
15	0x3dcf5b38	0.101248205

weight f4 [16, 1]
0	0xbe8e0011	-0.27734426
1	0x3e5b7ee9	0.21435131
2	0xbe8c24d0	-0.27371836
3	0xbd8eaf60	-0.06967044
4	0xbe7715c8	-0.24129403
5	0x3ef13a12	0.47114617
6	0xbef01af9	-0.46895579
7	0xbe8c3a20	-0.27388096
8	0xbe2bc820	-0.1677556
9	0xbeb6e41c	-0.3572091
10	0x3e4a9a52	0.19785431
11	0xbf16367c	-0.58676887
12	0x3f18fed2	0.59763825
13	0xbf01315b	-0.50465935
14	0x3ed7a735	0.42119756
15	0x3e5339d7	0.20627533

bias f4 [32]
0	0xbd549cfc	-0.051907524
1	0x3d81bfdb	0.06335422
2	0x3dd3ad21	0.10335756
3	0xbbf2028f	-0.007385559
4	0x00000000	0.0
5	0x00000000	0.0
6	0xbc94b4c7	-0.018152608
7	0x3d89f5ce	0.06736337
8	0x00000000	0.0
9	0xbb35bc9b	-0.0027730826
10	0x3df20850	0.11817992
11	0x00000000	0.0
12	0x3d5baad4	0.05362971
13	0x3dafff63	0.08593633
14	0x00000000	0.0
15	0x00000000	0.0
16	0x3d429c9c	0.047512636
17	0x00000000	0.0
18	0xbd3c7bf7	-0.04601666
19	0x3d72e1e8	0.059297472
20	0x3dccea0a	0.10005577
21	0x3d529c10	0.051418364
22	0x00000000	0.0
23	0x00000000	0.0
24	0x00000000	0.0
25	0x00000000	0.0
26	0x3d641782	0.05568648
27	0x3d4f51b0	0.050615013
28	0x00000000	0.0
29	0x00000000	0.0
30	0x00000000	0.0
31	0x3d62cdfc	0.055372223

weight f4 [32, 16]
0	0x3e51ae06	0.20476541
1	0x3e5e8efa	0.21734229
2	0x3e922391	0.2854276
3	0xbdfa0fa8	-0.122100174
4	0xbda1f1d8	-0.07907456
5	0x3dee5c7e	0.11638735
6	0xbdc593cc	-0.09647331
7	0x3e29879a	0.16555634
8	0xbd9e3000	-0.07723999
9	0xbe758db7	-0.23979841
10	0x3d7e6c3f	0.06211495
11	0x3d5e0738	0.054206103
12	0x3dd66644	0.10468724
13	0x3eb3d717	0.35125038
14	0x3e4455cf	0.19173358
15	0x3e8aa374	0.2707783
16	0x3c9b04c0	0.018923163
17	0xbe6c100e	-0.23053
18	0xbe7dfae0	-0.24802732
19	0xbe60e390	-0.21961808
20	0xbe9f85e3	-0.31156835
21	0xbddc7535	-0.10764543
22	0xbea6a3fc	-0.32546985
23	0xbea702de	-0.32619375
24	0xbe58567e	-0.21126744
25	0xbeb2747a	-0.3485449
26	0xbdd89285	-0.105748214
27	0x3e0a0c6a	0.13481298
28	0x3eb9d8b3	0.3629814
29	0xbdd762d6	-0.10516898
30	0xbd2043f1	-0.039127294
31	0x3e8b7833	0.27240142
32	0xbe329e8d	-0.17443295
33	0xbd0e0d3f	-0.0346806
34	0x3e5f100e	0.21783468
35	0xbe9db8f2	-0.30805165
36	0x3d3112a0	0.043230653
37	0x3ee0ff52	0.43944794
38	0x3d7856c8	0.060629636
39	0x3dc4e888	0.09614664
40	0xbe52d91e	-0.20590636
41	0xbb9fd640	-0.0048778355
42	0x3e5bcb9c	0.2146439
43	0x3db1b6a0	0.08677411
44	0x3e8621c1	0.26197627
45	0x3e9d4af1	0.30721238
46	0xbe1b90e0	-0.15191984
47	0x3e22340d	0.15840168
48	0xbe34e33d	-0.1766481
49	0xbe92f9fb	-0.28706345
50	0xbce7ee00	-0.02831173
51	0xbe9f5703	-0.31121072
52	0x3e7caa9e	0.2467446
53	0x3d098191	0.03357083
54	0xbe431fa8	-0.19055045
55	0x3e3d319e	0.18475959
56	0xbeab525e	-0.3346128
57	0xbe0c0949	-0.13675417
58	0xbd9c1f06	-0.07623105
59	0xbe99d23c	-0.3004321
60	0xbe6dc4b5	-0.23219569
61	0xbd6c5da8	-0.057706505
62	0x3e8593cf	0.26089332
63	0x3eab0585	0.3340265
64	0x3e665a02	0.22495273
65	0xbe582e96	-0.21111521
66	0xbe6cda76	-0.23130211
67	0x3e9df96f	0.30854365
68	0x3e000f34	0.125058
69	0x3c19e580	0.009393096
70	0x3d43fb58	0.047847122
71	0xbe917c12	-0.2841497
72	0xbdf1c246	-0.11804633
73	0x3eae40a3	0.3403369
74	0xbdb294b0	-0.08719766
75	0xbc914a70	-0.01773569
76	0xbe964e55	-0.29356638
77	0xbe4a86ea	-0.19778028
78	0xbbec90c0	-0.007219404
79	0xbe60e23c	-0.21961302
80	0xbd3395c8	-0.043844014
81	0x3e1355c0	0.1438818
82	0xbeb111aa	-0.3458379
83	0x3dd70f48	0.105009615
84	0xbe6f6207	-0.23377238
85	0xbe30b180	-0.17255211
86	0x3e0afd7a	0.13573256
87	0x3e8feea1	0.28111747
88	0xbdc5e588	-0.0966292
89	0xbe14a452	-0.14515808
90	0xbea3af26	-0.31969565
91	0xbe3ab022	-0.18231252
92	0xbe9e81d9	-0.3095844
93	0xbda5b850	-0.080917954
94	0x3d93c07c	0.07214448
95	0xbea997b6	-0.3312356
96	0x3e9e0ce9	0.30869225
97	0x3e4b5278	0.19855678
98	0xbeb13548	-0.34610963
99	0xbe2cebef	-0.16886877
100	0x3dec295c	0.11531326
101	0xbdc0f713	-0.09422126
102	0xbd1dd098	-0.03852901
103	0xbe237754	-0.15963489
104	0x3e9165f5	0.283981
105	0xbe4a6104	-0.19763571
106	0x3e845d7f	0.25852582
107	0x3cbae060	0.022812068
108	0x3d4d1385	0.050067443
109	0x3e8d380d	0.27581826
110	0xbd9ef15e	-0.07760881
111	0xbe6a78a0	-0.22897577
112	0xbd6a3758	-0.057181686
113	0x3ebb39b9	0.36567476
114	0xbe865066	-0.26233214
115	0x3da459f4	0.0802497
116	0xbeb1e77d	-0.34746924
117	0x3e852208	0.26002526
118	0x3e05c2f8	0.13062656
119	0x3c758fe0	0.014987916
120	0x3e1b626e	0.15174267
121	0x39d07c00	0.0003976524
122	0x3ea1809e	0.3154344
123	0xbe8f4c72	-0.2798801
124	0x3cad307a	0.02114128
125	0x3e209b0a	0.15684143
126	0x3ed74367	0.4204361
127	0x3e8a1ba3	0.2697421
128	0xbe83a1f4	-0.25709498
129	0x3e8b38ad	0.27191678
130	0xbda177cc	-0.078841776
131	0xbd9a99d8	-0.075488746
132	0xbea487bd	-0.3213481
133	0xbd63f5d8	-0.055654377
134	0x3e800a31	0.25007775
135	0x3d49f008	0.049301177
136	0xbe52def0	-0.20592856
137	0x3ddee138	0.10882801
138	0xbde82bdc	-0.113364905
139	0x3ea54503	0.32279214
140	0xbe9d1dd7	-0.30686828
141	0xbde4b7e4	-0.11167887
142	0xbeaec998	-0.3413818
143	0xbe0e94ee	-0.13924
144	0x3de44380	0.11145687
145	0x3ebc1f01	0.36742404
146	0x3d733658	0.059377998
147	0x3eb176bf	0.3466091
148	0x3d8daad4	0.069173485
149	0x3e6845ce	0.22682878
150	0x3e911dc9	0.28343037
151	0x3e97517b	0.29554352
152	0xbe4aa442	-0.19789222
153	0x3ea66d67	0.32505342
154	0x3e9461c0	0.28980827
155	0xbe29481c	-0.16531414
156	0xbe175ef9	-0.14782323
157	0xbe97d44b	-0.29654154
158	0x3dd701ea	0.10498412
159	0xbe7cd0ce	-0.24689028
160	0x3e18ef1e	0.14934966
161	0x3e8d91b9	0.2765024
162	0xbe9d451e	-0.30716795
163	0x3dc54fcc	0.09634361
164	0xbceb8ef0	-0.028754681
165	0x3ea58a55	0.323321
166	0x3e4fbbea	0.20286527
167	0xbeb3f5a0	-0.35148335
168	0x3ea6033b	0.3242434
169	0x3e97cf77	0.2965047
170	0x3eb87990	0.36030245
171	0xbea571d3	-0.32313403
172	0x3d090880	0.03345537
173	0xbdd1d814	-0.10246292
174	0x3d845999	0.06462402
175	0x3ec0b430	0.37637472
176	0x3e03a06a	0.12854162
177	0x3e8f6655	0.2800776
178	0xbe079785	-0.13241394
179	0x3df3ae48	0.11898476
180	0x3e00cfc4	0.12579256
181	0xbe96b70c	-0.2943653
182	0xbeaf97a4	-0.3429538
183	0xbe3bdba0	-0.18345499
184	0x3e77d52e	0.24202415
185	0xbeaa6c22	-0.33285624
186	0xbe9d90bb	-0.30774483
187	0x3e4ad072	0.19806078
188	0x3e435492	0.1907523
189	0x3e94de75	0.2907597
190	0xbe88a894	-0.26691115
191	0xbe847cee	-0.25876564
192	0x3e39b892	0.18136814
193	0x3ebb1987	0.36542913
194	0x3e589f2e	0.21154472
195	0x3d62db40	0.055384874
196	0x3deea338	0.11652225
197	0x3ec7f749	0.3905585
198	0xbe6996c3	-0.22811417
199	0xbe245ead	-0.16051741
200	0x3e7d3bee	0.24729893
201	0xbe77b8a0	-0.24191523
202	0xbde4663f	-0.111523144
203	0x3e84247b	0.25809082
204	0x3e297de1	0.16551925
205	0x3de9ed7c	0.1142225
206	0xbdcad763	-0.09904363
207	0x3d768bb3	0.06019182
208	0x3ea5acc1	0.32358363
209	0xbdda01f5	-0.106449045
210	0x3b362c00	0.0027797222
211	0x3e2c2f76	0.1681498
212	0xbe79ef87	-0.24407779
213	0x3ee35911	0.4440389
214	0xbe34e0db	-0.176639
215	0xbdade088	-0.084900916
216	0xbdc3e9f0	-0.095661044
217	0xbe6becfc	-0.23039621
218	0xbe4223db	-0.1895899
219	0x3e4c22d6	0.19935164
220	0x3e452274	0.19251424
221	0xbea98af8	-0.33113837
222	0xbe0a2823	-0.13491873
223	0x3eefd822	0.46844584
224	0x3e0a6246	0.13514051
225	0x3e11441e	0.14186141
226	0xbe589b67	-0.21153031
227	0xbe1eb762	-0.15499642
228	0xbd5a9ae0	-0.053370357
229	0xbd846b50	-0.06465781
230	0xbe78161f	-0.24227189
231	0x3cee9cc0	0.029127479
232	0x3d0fede0	0.035138965
233	0xbd375de8	-0.04476729
234	0x3d48c2a8	0.049013764
235	0xbe0f7e87	-0.1401311
236	0x3dbc7148	0.09201294
237	0x3e088a16	0.13333926
238	0xbe3eb32c	-0.18623036
239	0xbeb37eb7	-0.35057613
240	0x3e3d80e6	0.18506202
241	0x3dacb814	0.084335476
242	0xbe3820e6	-0.179813
243	0x3eae72dd	0.3407201
244	0xbe23bb33	-0.1598938
245	0x3e74a57e	0.23891255
246	0x3e37ac2a	0.17936769
247	0xbe97c4a1	-0.29642203
248	0x3e697e62	0.22802117
249	0xbea67140	-0.32508278
250	0xbe489322	-0.19587377
251	0xbd716dd0	-0.058942616
252	0xbe7407e9	-0.23831142
253	0x3eb0d6ef	0.3453898
254	0xbd913c34	-0.07091561
255	0x3e0fcc4c	0.14042777

bias f4 [16]
0	0x3d4cf586	0.050038837
1	0x3d53306a	0.051559843
2	0x00000000	0.0
3	0x3d4db75f	0.050223704
4	0x3d513e46	0.05108478
5	0x3d517577	0.051137414
6	0x00000000	0.0
7	0x00000000	0.0
8	0x3d4b910a	0.049698867
9	0x3d81ce75	0.06338207
10	0x00000000	0.0
11	0xbd360275	-0.044435937
12	0x00000000	0.0
13	0x00000000	0.0
14	0x3d4ddf2e	0.05026167
15	0x3d4ed9b1	0.050500575

weight f4 [16, 32]
0	0x3db2a4cc	0.08722839
1	0x3e5d5095	0.21612771
2	0xbcb2aaf1	-0.021810027
3	0xbe51767f	-0.20455359
4	0x3daad3e0	0.08341193
5	0xbd2b7838	-0.041862696
6	0xbe1ae2e9	-0.15125622
7	0x3e4b3feb	0.19848602
8	0x3b522280	0.003206402
9	0xbba72eff	-0.005102038
10	0x3d45c68a	0.048285045
11	0xbd3e8720	-0.046515584
12	0xbe7eeb09	-0.24894346
13	0x3e14b0ac	0.1452052
14	0x3baddb00	0.005305648
15	0x3e5bb2c2	0.2145491
16	0x3d91b568	0.071146786
17	0x3ce79100	0.028267384
18	0x3e013a0a	0.12619796
19	0x3ea4eed5	0.32213464
20	0xbdea2c6a	-0.114342526
21	0x3e8962a4	0.2683307
22	0x3db114dc	0.08646557
23	0xbe7185a6	-0.23586139
24	0x3dfc1d3c	0.123102635
25	0xbe592070	-0.2120378
26	0xbd5b39fc	-0.053522095
27	0xbdea3b6f	-0.11437117
28	0xbe764cd0	-0.24052739
29	0x3e8e90cf	0.27844855
30	0xbea1cc82	-0.3160134
31	0x3e6751f9	0.22589864
32	0xbe8c11cb	-0.27357325
33	0x3d3dfc95	0.04638346
34	0x3de5caa6	0.11220293
35	0x3e83e71f	0.2576227
36	0xbe0304fb	-0.12794869
37	0x3dd068cc	0.101762384
38	0x3d827bd3	0.06371274
39	0x3e85998a	0.26093704
40	0x3cac30b0	0.02101931
41	0x3e3a71e7	0.18207513
42	0x3c1d9b86	0.009619599
43	0xbe7b95ac	-0.24568814
44	0x3ebd4660	0.36967754
45	0xbe4152d5	-0.18879254
46	0xbd768890	-0.06018883
47	0xbd2f0d98	-0.042737573
48	0x3ecb232c	0.39675272
49	0xbd9c7ba0	-0.07640767
50	0xbe740f2a	-0.2383391
51	0xbd08bfb3	-0.033385944
52	0x3e740d88	0.23833287
53	0x3e4d887b	0.20071594
54	0x3e95c181	0.29249194
55	0xbd943b1c	-0.07237837
56	0x3e2a8966	0.16653976
57	0xbeaa58b0	-0.33270788
58	0x3e4ad5f5	0.1980818
59	0x3e610fbc	0.21978658
60	0x3e698be2	0.22807267
61	0xbe4f9bb7	-0.20274244
62	0xbdc15020	-0.09439111
63	0x3e0cabe6	0.13737449
64	0xbe80a28f	-0.25124022
65	0xbe8fff58	-0.281245
66	0xbeae25fa	-0.3401335
67	0x3ca1ae20	0.01973635
68	0x3e60d256	0.21955237
69	0x3db9fc88	0.0908137
70	0x3cb092c0	0.02155435
71	0x3dfc498c	0.123187155
72	0xbe6381b0	-0.2221744
73	0x3d18ac50	0.037273705
74	0xbdb3e0bc	-0.08783099
75	0xbe3342db	-0.17505972
76	0x3e9c1b31	0.30489495
77	0xbe8c0bcc	-0.2735275
78	0x3d543980	0.05181265
79	0xbe9f1060	-0.3106718
80	0xbc448640	-0.011994898
81	0xbe20e051	-0.1571057
82	0x3dee5404	0.116371185
83	0xbe4b4c68	-0.19853365
84	0x3e67b816	0.22628817
85	0xbe92e426	-0.28689688
86	0x3e59740e	0.21235678
87	0xbe87fa5e	-0.26558203
88	0x3e41e712	0.18935803
89	0xbe18713c	-0.14886945
90	0xba57ea00	-0.0008236468
91	0xbd842588	-0.06452471
92	0x3e6af956	0.22946677
93	0x3ded4cd4	0.115869194
94	0xbe9f83d9	-0.3115528
95	0x3d0524e0	0.03250587
96	0xbe4dff8d	-0.20117016
97	0x3eb2efd6	0.34948605
98	0x3e13d744	0.14437586
99	0xbdad607f	-0.08465671
100	0xbe38b378	-0.18037212
101	0x3dfa9fc8	0.12237507
102	0xbe4fb15c	-0.20282501
103	0x3e5f513f	0.21808337
104	0x3e458e3a	0.19292536
105	0x3e87129c	0.26381385
106	0x3ea00b0d	0.3125843
107	0xbe9e756c	-0.3094896
108	0x3e9ce243	0.30641374
109	0xbd359397	-0.044330206
110	0xbdd6102e	-0.10452305
111	0xbd1b9690	-0.037985384
112	0x3e9d473a	0.30718404
113	0x3e8b30cb	0.27185664
114	0x3dad3f56	0.08459346
115	0x3e6391f0	0.2222364
116	0xbe8d7b2b	-0.27633032
117	0x3d6fdb48	0.058558732
118	0xbea02514	-0.31278288
119	0x3df6707c	0.120331734
120	0xbe80f795	-0.2518889
121	0xbe010843	-0.12600808
122	0x3e9c5df1	0.30540422
123	0x3ec8f436	0.39248818
124	0xbe595c66	-0.21226653
125	0xbe48ef77	-0.19622599
126	0x3d335928	0.043786198
127	0x3e40ff22	0.18847325
128	0xbc60f747	-0.0137308305
129	0xbcbb5099	-0.02286558
130	0xbe12a224	-0.14319664
131	0x3e20f8f0	0.15719962
132	0x3eb15b17	0.3463981
133	0xbe2f415f	-0.17114781
134	0x3e33e9d5	0.17569669
135	0x3e65ed03	0.22453694
136	0x3e9180b7	0.28418514
137	0x3c0704be	0.008240877
138	0x3e6e87a6	0.23293933
139	0x3e84fea5	0.25975528
140	0x3e8dd9fc	0.2770537
141	0x3ed5457b	0.41654572
142	0xbdcf7fb8	-0.10131782
143	0x3e0f40fc	0.13989633
144	0x3e9806a9	0.2969258
145	0xbe75c1f4	-0.23999768
146	0x3dce58da	0.10075541
147	0xbcc4a8ca	-0.024006266
148	0x3e906b9f	0.28207108
149	0xbdcb96bd	-0.099408604
150	0x3ccb24a0	0.024797738
151	0x3e589c92	0.21153477
152	0xbea5d5bb	-0.32389626
153	0xbe98d88b	-0.2985271
154	0xbdf7fca6	-0.12108736
155	0x3e90e02b	0.28296027
156	0x3e72c1ca	0.23706737
157	0xbe7742f6	-0.24146637
158	0x3d8a1284	0.06741813
159	0xbe0bc21b	-0.13648264
160	0xbdf52862	-0.11970593
161	0x3ec9e8ea	0.39435512
162	0x3e861389	0.2618678
163	0xbdb92c4d	-0.09041653
164	0x3d552bb0	0.052043617
165	0x3d8c4b84	0.06850341
166	0x3dbbe72c	0.09174952
167	0xbd8bea03	-0.068317436
168	0xbe553308	-0.20820248
169	0x3e9134f2	0.28360707
170	0x3e8b76c0	0.27239037
171	0x3e1787fa	0.14797965
172	0xbda2c7ff	-0.079483025
173	0x3e75b0d9	0.23993243
174	0x3e83bd5b	0.25730404
175	0x3e5c2eae	0.21502182
176	0x3e1673b1	0.1469257
177	0x3eb21a11	0.34785512
178	0x3cf45013	0.029823339
179	0x3e0673f9	0.13130178
180	0x3ec8889b	0.39166722
181	0x3ecedc77	0.40402576
182	0xbe18dc29	-0.14927734
183	0x3ea31015	0.31848207
184	0x3e059d30	0.13048244
185	0xbd221a60	-0.039575934
186	0x3ebd5559	0.36979178
187	0xbe010adf	-0.12601803
188	0x3e6b3bee	0.2297208
189	0x3eb3614b	0.35035166
190	0xbe79b2e8	-0.24384654
191	0xbe20c94f	-0.15701793
192	0xbeb35fe6	-0.35034102
193	0xbd824e84	-0.06362632
194	0xbea46704	-0.32109845
195	0xbdf28268	-0.11841279
196	0x3ddbd390	0.10733712
197	0x3e7feac6	0.24991903
198	0x3e49ab16	0.1969417
199	0x3e48f5f2	0.1962507
200	0x3e16325e	0.14667651
201	0xbe608c66	-0.21928558
202	0xbe8fba7a	-0.28071958
203	0x3c702020	0.014656097
204	0x3eabe491	0.3357282
205	0x3ca31430	0.019907087
206	0xbcf91c70	-0.030409068
207	0xbe75baac	-0.23996991
208	0xbe33833c	-0.1753053
209	0xbe8b8a8e	-0.27254146
210	0x3e90efbb	0.283079
211	0xbd6bf288	-0.057604343
212	0xbe9fe9ff	-0.31233212
213	0x3d1b59b0	0.03792733
214	0x3cd22e10	0.02565673
215	0xbd32eae0	-0.043681026
216	0x3e0198c6	0.12655935
217	0x3e42b266	0.19013366
218	0xbeaa3b80	-0.3324852
219	0xbe8aad6b	-0.27085432
220	0xbc8b2370	-0.016984671
221	0xbea7d471	-0.32779267
222	0xbea46e41	-0.32115367
223	0x3e9fd2e9	0.312156
224	0xbcdc4ab0	-0.026891083
225	0xbe32fd0a	-0.17479339
226	0xbdf85ee8	-0.12127477
227	0xbe8d536c	-0.27602708
228	0x3e8d42e3	0.27590093
229	0xbd9d0210	-0.07666409
230	0xbe4b8d48	-0.19878113
231	0xbe894992	-0.26813942
232	0x3e539ba6	0.20664844
233	0xbd482e30	-0.048872173
234	0xbd1823a0	-0.03714335
235	0xbdbcb7f8	-0.09214777
236	0xbe2ec3ac	-0.1706683
237	0x3d80ce6c	0.06289372
238	0x3e8b455b	0.27201352
239	0xbe51d498	-0.20491254
240	0x3c8ac520	0.0169397
241	0xbe89aae8	-0.26888204
242	0xbe29c246	-0.16578016
243	0x3e9ee4b1	0.31033853
244	0x3b72f180	0.0037070215
245	0x3eae611f	0.34058473
246	0xbd7db908	-0.061944038
247	0xbe4553bb	-0.19270222
248	0xbe585059	-0.211244
249	0x3ea070a9	0.31335953
250	0xbe8b3396	-0.27187794
251	0x3e3dfeee	0.18554279
252	0x3db3fe28	0.08788711
253	0x3dd5ae34	0.10433617
254	0x3e4c46d6	0.19948897
255	0xbdbd6f6c	-0.09249768

bias f4 [2]
0	0x3d598965	0.053109545
1	0x3d5f7c1a	0.05456171

weight f4 [2, 16]
0	0x3f05fd83	0.52339953
1	0x3e4f49f1	0.2024305
2	0x3ecdd57e	0.40201944
3	0x3ee15cff	0.44016263
4	0x3e62066e	0.22072765
5	0x3e8fef56	0.28112286
6	0x3e3ec5e4	0.18630177
7	0x3d754bb0	0.059886634
8	0x3f0cab8e	0.5494927
9	0x3f3aa3dc	0.7290628
10	0x3e52767c	0.2055301
11	0xbace7949	-0.0015752699
12	0x3f0484a2	0.5176488
13	0xbee612fc	-0.4493636
14	0x3f054f92	0.5207454
15	0x3ebb69c4	0.3660413
16	0x3ee5a8ce	0.4485535
17	0x3cb6948e	0.022287633
18	0xbedc8c8e	-0.43075985
19	0x3ef9a365	0.48757473
20	0xbe3f2797	-0.18667446
21	0x3e7a9d19	0.2447399
22	0x3ea778fe	0.32709497
23	0xbf0a1fdb	-0.5395486
24	0x3dd73b8f	0.10509407
25	0x3a4537f6	0.00075232924
26	0x3ed1ce58	0.4097774
27	0xbead98ae	-0.33905548
28	0x3eb37b3e	0.35054964
29	0x3eb85450	0.36001825
30	0x3edb7d01	0.42868808
31	0x3f1f762e	0.622897

weight f4 [1, 2]
0	0x3f8aeba1	1.0853158
1	0x3e5cc914	0.2156108

pout f4 [16, 3]
0	0x3d9a24eb	0.07526573
1	0x3b39a022	0.0028324206
2	0x389506d3	7.106145e-05
3	0x3d97145a	0.07376929
4	0x3c55cda8	0.013049521
5	0x3a8d6b12	0.0010789356
6	0x3d94dd29	0.072687455
7	0x3b2d0138	0.0026398432
8	0x3880d556	6.1432525e-05
9	0x3d96820f	0.073490255
10	0x3b3a31a4	0.0028410936
11	0x388b3f88	6.63987e-05
12	0x3d990dfc	0.074733704
13	0x3bac2812	0.0052538
14	0x3942a4b6	0.00018562641
15	0x3d9d582c	0.07682833
16	0x3b416a80	0.0029512942
17	0x389e813f	7.558101e-05
18	0x3d9ae4a1	0.07563139
19	0x3b3b6f97	0.0028600448
20	0x38973602	7.210301e-05
21	0x3d99be0e	0.07506953
22	0x3b379e1b	0.0028017822
23	0x3892c905	6.999265e-05
24	0x3d958b37	0.07301944
25	0x3bd19594	0.006396005
26	0x398f684c	0.00027352793
27	0x3d95973c	0.07304236
28	0x3bcef662	0.006315992
29	0x398bfaf8	0.00026699132
30	0x3d972c1e	0.073814616
31	0x3b305d8f	0.0026911234
32	0x3889550c	6.54851e-05
33	0x3d990d64	0.07473257
34	0x3b35576d	0.0027670518
35	0x388fddcb	6.8600835e-05
36	0x3d9915f6	0.07474892
37	0x3cf42aba	0.02980553
38	0x3bb25294	0.005441973
39	0x3d9742a6	0.07385759
40	0x3b330a8c	0.002731952
41	0x388745bf	6.450293e-05
42	0x3d970fd6	0.07376067
43	0x3bb7af30	0.005605601
44	0x395dc7a5	0.00021150576
45	0x3d99078c	0.074721426
46	0x3b364255	0.0027810533
47	0x38912857	6.921653e-05

throughput f4 [16, 1]
0	0x3fed7035	1.8549868
1	0x3feb4bb2	1.8382475
2	0x3fee0d6c	1.8597846
3	0x3fedd445	1.8580405
4	0x3fecfeeb	1.8515295
5	0x3fed1147	1.8520898
6	0x3fed59fa	1.8543084
7	0x3fed7d11	1.8553792
8	0x3fed19bd	1.852348
9	0x3fed1d59	1.8524581
10	0x3fedca76	1.8577411
11	0x3fed921f	1.8560218
12	0x3fe681a3	1.8008312
13	0x3fedc5c8	1.8575983
14	0x3fed2044	1.8525472
15	0x3fed91ed	1.8560158

delay f4 [16, 1]
0	0x3d5ccf69	0.05390874
1	0x3d5ed228	0.05439964
2	0x3d5c3d96	0.05376967
3	0x3d5c7282	0.05382014
4	0x3d5d38f6	0.0540094
5	0x3d5d27d5	0.053993065
6	0x3d5ce418	0.053928465
7	0x3d5cc375	0.05389734
8	0x3d5d1ff0	0.053985536
9	0x3d5d1c93	0.05398233
10	0x3d5c7b9a	0.053828813
11	0x3d5cafe4	0.05387868
12	0x3d637356	0.055529915
13	0x3d5c7ff2	0.053832956
14	0x3d5d19da	0.053979732
15	0x3d5cb012	0.05387885

ef1 f4 [16]
0	0xc0497ed4	-3.148366
1	0xbffbc6ce	-1.9670045
2	0xc04d8ae2	-3.2116017
3	0xc04b61bc	-3.1778402
4	0xc02ece9b	-2.7313602
5	0xc047c816	-3.1215873
6	0xc049174a	-3.1420465
7	0xc049eaaa	-3.1549478
8	0xc024082a	-2.5629983
9	0xc024b445	-2.5735028
10	0xc04bc452	-3.1838574
11	0xc04a7994	-3.1636705
12	0xbfa1d2bc	-1.2642436
13	0xc04c2fda	-3.1904206
14	0xc02b2dec	-2.6746778
15	0xc04a3a00	-3.15979

ef2 f4 [16, 1]
0	0xc31c8df2	-156.55447
1	0xc319eb9d	-153.92036
2	0xc31ad6c0	-154.83887
3	0xc31b1b68	-155.10706
4	0xc31b2a16	-155.1644
5	0xc31d5ce6	-157.36288
6	0xc31cbf27	-156.74669
7	0xc31c6a07	-156.41417
8	0xc31a0fc6	-154.06161
9	0xc31a155d	-154.08345
10	0xc31ba86b	-155.65788
11	0xc31c33e5	-156.20271
12	0xc319486c	-153.2829
13	0xc31b7a51	-155.4778
14	0xc31a933b	-154.57512
15	0xc31c3dfd	-156.24214

bias f4 [16]
0	0xbb8abd1b	-0.004233969
1	0x3cdb50b9	0.02677189
2	0xbda688fa	-0.08131595
3	0x3daed782	0.085371986
4	0xbd03057f	-0.031987663
5	0x3d818738	0.06324619
6	0xbd313a27	-0.04326835
7	0xbd4aad96	-0.04948195
8	0x3d176125	0.03695788
9	0xbd18a5da	-0.037267543
10	0xbda29ca6	-0.079400346
11	0x3a646d1a	0.0008713767
12	0x3d89e6a8	0.06733447
13	0xbcb9697a	-0.022633303
14	0xbd8c7a9d	-0.06859324
15	0x3db5ed0f	0.08883106

weight f4 [16, 1]
0	0xbe8f9f82	-0.28051382
1	0x3e34ff8b	0.17675607
2	0xbeb61a3d	-0.35566893
3	0x3c6fe31b	0.0146415485
4	0xbe8c8bc9	-0.27450398
5	0x3ee98695	0.4561049
6	0xbf0700fa	-0.52735865
7	0xbea5440c	-0.32278478
8	0xbe072f01	-0.13201524
9	0xbecaf427	-0.39639398
10	0xbcb3d902	-0.021954063
11	0xbf15a51c	-0.5845506
12	0x3f1a329a	0.6023346
13	0xbf12b19e	-0.5730227
14	0x3ec91224	0.39271653
15	0x3e427c20	0.18992662

bias f4 [32]
0	0xbd21d57e	-0.039510243
1	0x3de1f4d2	0.11033024
2	0xbd054ad9	-0.032542083
3	0xbd0cdbd9	-0.03438935
4	0x3e00ed0f	0.1259043
5	0xbcbce112	-0.02305654
6	0xbcf330d0	-0.029686362
7	0x3d8ba7ba	0.06819101
8	0xbd13d57f	-0.036092278
9	0xbd0d4db5	-0.034497935
10	0xbc581116	-0.013187667
11	0xbd2c7e0b	-0.04211239
12	0x3d100c2c	0.035167858
13	0x3de05535	0.10953752
14	0xbcfce474	-0.030870654
15	0x3dca1585	0.09867386
16	0x3d089041	0.033340696
17	0xbd03d11c	-0.032181844
18	0xbd2b55c5	-0.041829843
19	0x3d9c4409	0.07630164
20	0xbc46b372	-0.012127744
21	0x3d5e0702	0.054205902
22	0xbd4aa09f	-0.049469586
23	0xbceb377a	-0.028712977
24	0x3ca4b0b1	0.020103784
25	0xbcdc139e	-0.026864823
26	0x3d4aa848	0.04947689
27	0x3d20facd	0.039301682
28	0x3dc76754	0.09736505
29	0x3d4f4844	0.050606027
30	0xbcde8f5c	-0.027167968
31	0x3d665f0e	0.056242995

weight f4 [32, 16]
0	0x3e77b880	0.24191475
1	0x3e7314a4	0.23738343
2	0x3ea52b8f	0.32259795
3	0xbdc43f82	-0.09582426
4	0xbd2bb4a1	-0.041920308
5	0x3e087cd3	0.13328867
6	0xbd72f04e	-0.059311204
7	0x3e4f963b	0.20272152
8	0xbd25ff18	-0.04052648
9	0xbe4f8009	-0.20263685
10	0x3e05d177	0.13068186
11	0x3dbb1f26	0.091368005
12	0x3df78a83	0.12086966
13	0x3ec6ddf2	0.38841206
14	0x3e54fcf7	0.20799623
15	0x3e95f333	0.2928711
16	0xbdb6ece6	-0.089319035
17	0xbe48d62e	-0.19612953
18	0xbeb66cc1	-0.35629848
19	0xbe9c3f65	-0.30517116
20	0xbed6f443	-0.41983232
21	0xbd8cd06d	-0.068756916
22	0xbede123d	-0.4337329
23	0xbede718f	-0.43446013
24	0xbea346bd	-0.31889907
25	0xbee9e2bb	-0.45680794
26	0xbe30858c	-0.17238444
27	0x3cd97e36	0.02654944
28	0x3ece6125	0.4030849
29	0xbe5a8e29	-0.21343292
30	0x3a1d371c	0.00059972866
31	0x3e9b395c	0.303172
32	0xbe13cda1	-0.1443391
33	0xbe496fa2	-0.19671491
34	0x3e7de4fc	0.24794382
35	0xbe92028a	-0.28517562
36	0x3d962a68	0.07332307
37	0x3e90cc05	0.28280655
38	0x3db9d292	0.09073366
39	0x3e0147fc	0.12625116
40	0xbe34597c	-0.1761226
41	0x3ccea538	0.025225267
42	0x3bca439a	0.0061726095
43	0x3def5dd3	0.116878174
44	0x3ddd6b6e	0.10811506
45	0x3eacb4c8	0.33731675
46	0xbe980562	-0.29691607
47	0xbcb60caa	-0.022222836
48	0xbe140d36	-0.14458165
49	0xbe9f7c80	-0.31149673
50	0x3b77549a	0.0037739635
51	0xbe9385e7	-0.28813097
52	0x3e8ec0a8	0.2788136
53	0x3c155823	0.009115252
54	0xbe224673	-0.15847187
55	0x3e5e0b57	0.21684013
56	0xbe9b18b9	-0.302923
57	0xbdd660a9	-0.10467655
58	0xbda488ab	-0.0803388
59	0xbe8965a8	-0.2683537
60	0xbe833f7e	-0.25634378
61	0xbcd1f1f3	-0.025628066
62	0x3e755299	0.2395729
63	0x3e9c462f	0.30522296
64	0x3dcc72ed	0.09982858
65	0xbdab94c2	-0.08377983
66	0xbeb67f4e	-0.35644
67	0x3e525943	0.20541863
68	0xb89d10cb	-7.489471e-05
69	0x3e0b5516	0.13606676
70	0xbd9e45b7	-0.07728141
71	0xbed18d8f	-0.40928313
72	0xbe78c3b1	-0.242934
73	0x3e5c5fa8	0.21520865
74	0xbca817b1	-0.02051911
75	0xbe124ade	-0.14286372
76	0xbe2b63cb	-0.16737287
77	0xbea55444	-0.32290852
78	0x3decb2da	0.11557551
79	0xbdb2faa5	-0.08739213
80	0xbcb20566	-0.02173109
81	0x3df7e1de	0.121036276
82	0xbea5bcea	-0.32370692
83	0x3de7fec4	0.113278896
84	0xbe58b7d7	-0.2116388
85	0xbe4840f8	-0.19556034
86	0x3e21a5b4	0.15785867
87	0x3e9b432b	0.30324683
88	0xbd9959e9	-0.07487852
89	0xbdfbf7f9	-0.123031564
90	0xbea42b83	-0.32064447
91	0xbe2407e7	-0.1601864
92	0xbeaa2606	-0.33232135
93	0xbd70cfb1	-0.05879182
94	0x3d582c41	0.05277658
95	0xbeb90661	-0.3613768
96	0x3eac0a8d	0.336018
97	0x3e478a13	0.19486265
98	0xbea3356c	-0.31876695
99	0xbe19b491	-0.15010287
100	0x3e12105a	0.1426405
101	0xbdcbff5c	-0.09960815
102	0xbc375f74	-0.011192191
103	0xbe0778d8	-0.13229692
104	0x3e9f35cb	0.31095728
105	0xbe2e630c	-0.17029971
106	0x3e919293	0.2843214
107	0x3d4d68f8	0.050148934
108	0x3d35d3d4	0.04439147
109	0x3e9b3729	0.3031552
110	0xbda8a83c	-0.08235213
111	0xbe6df282	-0.2323704
112	0xbdfc6cd6	-0.12325446
113	0x3eb4cf4e	0.3531441
114	0xbea82990	-0.3284421
115	0x3cf49aae	0.029858913
116	0xbed3be66	-0.413562
117	0x3e81151e	0.25211424
118	0x3d842969	0.06453211
119	0xbd515c19	-0.05111322
120	0x3db0e168	0.08636743
121	0xbd868be2	-0.06569649
122	0x3e5d5a52	0.21616486
123	0xbeb123a2	-0.34597498
124	0x3c6c27b5	0.014413764
125	0x3db9d98b	0.09074696
126	0x3ed36e07	0.41294882
127	0x3e822678	0.25419974
128	0xbe62c2e7	-0.22144662
129	0x3e711c95	0.2354606
130	0xbd30dbe3	-0.04317845
131	0xbd3eab9a	-0.04655037
132	0xbe9246ba	-0.28569585
133	0xbdbd1260	-0.092320204
134	0x3e924ba3	0.2857333
135	0x3dae0047	0.08496147
136	0xbe2ea61f	-0.17055558
137	0x3e13f33c	0.14448255
138	0xbe0a7a05	-0.1352311
139	0x3eb7867c	0.3584479
140	0xbeafc0db	-0.34326825
141	0xbd9bb23d	-0.07602356
142	0xbec0713e	-0.37586397
143	0xbe376b66	-0.17912063
144	0x3e12fb7c	0.14353746
145	0x3e9e1ca9	0.3088124
146	0x3dbb58a8	0.09147769
147	0x3ebe227a	0.3713568
148	0x3dcf5fb1	0.101256736
149	0x3e30b250	0.17255521
150	0x3ea18c5e	0.31552404
151	0x3ea7c043	0.32763872
152	0xbe2a2fcb	-0.16619794
153	0x3eb6dbe3	0.35714635
154	0x3e4eb311	0.20185496
155	0xbe086afc	-0.13322061
156	0xbe4ce378	-0.20008647
157	0xbe8765b4	-0.2644478
158	0x3d7663e5	0.06015386
159	0xbea4eb53	-0.32210788
160	0x3e239042	0.15972999
161	0x3dd06c42	0.101768985
162	0xbe97f51b	-0.29679188
163	0x3da81bff	0.08208465
164	0xbc969bc2	-0.018384818
165	0x3e1bb88a	0.15207115
166	0x3e5a5d0d	0.21324559
167	0xbeaea5ac	-0.34110773
168	0x3eab4d4c	0.3345741
169	0x3e9d1ff2	0.30688435
170	0x3e13aaeb	0.14420669
171	0xbea0213c	-0.31275356
172	0xbe0ac690	-0.13552308
173	0xbdbc95bc	-0.09208247
174	0xbdcb0fbe	-0.09915112
175	0x3e426174	0.18982488
176	0x3e2dd6fa	0.16976538
177	0x3e73db11	0.23814036
178	0xbdbab664	-0.091168195
179	0x3e199341	0.14997579
180	0x3e2b0839	0.16702355
181	0xbeac3ee4	-0.33641732
182	0xbe9a7b07	-0.30171987
183	0xbe11a0b7	-0.14221464
184	0x3e90d263	0.28285512
185	0xbe954f89	-0.29162243
186	0xbea7c342	-0.32766157
187	0x3e7509a9	0.23929466
188	0x3e18a4af	0.14906572
189	0x3ea9fb11	0.3319936
190	0xbe9c7554	-0.30558264
191	0xbe9c8a2c	-0.30574167
192	0x3e180c7e	0.14848515
193	0x3eae0cae	0.3399405
194	0x3e36ec75	0.17863639
195	0x3cfa1551	0.030527743
196	0x3dab46ad	0.0836309
197	0x3ebc926b	0.36830458
198	0xbe85a3a6	-0.26101416
199	0xbe460fc2	-0.19341949
200	0x3e5c0e62	0.21489862
201	0xbe8cb472	-0.2748142
202	0xbe3ea5f7	-0.18617998
203	0x3e669892	0.22519138
204	0x3e137365	0.14399488
205	0x3da68ce5	0.08132342
206	0xbdf78242	-0.120853916
207	0x3d0647fb	0.03278349
208	0x3e588538	0.21144569
209	0xbdc6cf48	-0.097075045
210	0xbde0085b	-0.10939094
211	0x3d9f7103	0.07785227
212	0xbeb665e9	-0.35624626
213	0x3eeaf43a	0.45889455
214	0xbe93dbcb	-0.28878626
215	0xbe49cb25	-0.197064
216	0xbe544239	-0.20728387
217	0xbeaf61fc	-0.34254444
218	0xbe980af0	-0.29695845
219	0x3db2983e	0.08720444
220	0x3e5624ec	0.20912522
221	0xbee2f655	-0.4432856
222	0xbdefb201	-0.117038734
223	0x3ef0cada	0.47029763
224	0x3e284b9a	0.1643509
225	0x3de6cab4	0.11269131
226	0xbe3aade4	-0.18230397
227	0xbe091460	-0.13386679
228	0xbcc5e63c	-0.024157636
229	0xbdc03c0d	-0.09386454
230	0xbe5a2a52	-0.21305206
231	0x3d6f0035	0.058349807
232	0x3d83251d	0.06403563
233	0xbc7ebcdd	-0.015547958
234	0x3d14de89	0.03634504
235	0xbde32553	-0.110911034
236	0x3d813470	0.0630883
237	0x3e2675e7	0.16255914
238	0xbe59f424	-0.21284539
239	0xbec4747e	-0.38370126
240	0x3db3c4de	0.08777784
241	0x3e3a6f7a	0.18206587
242	0xbe8de3ce	-0.27712864
243	0x3e8990e4	0.26868355
244	0xbe83af4d	-0.2571968
245	0x3eac8b7b	0.33700165
246	0x3da8113b	0.082064115
247	0xbec99713	-0.39373073
248	0x3e0685c2	0.13136962
249	0xbed842da	-0.42238504
250	0xbe254aaa	-0.16141763
251	0xbe1ffef1	-0.15624596
252	0xbe0ff0b3	-0.14056663
253	0x3e7e0a92	0.2480872
254	0x3cb32b3d	0.021871204
255	0x3e7a2ba5	0.24430712

bias f4 [16]
0	0x3d0cde36	0.034391604
1	0x3d08206c	0.033234045
2	0x3c9228a9	0.017841654
3	0x3d0dcd7e	0.0346198
4	0x3cf72630	0.030169576
5	0x3d12cecf	0.03584176
6	0x3e1f153f	0.15535448
7	0xbb9a995b	-0.0047179884
8	0x3d03e4d3	0.032200646
9	0x3e14fd98	0.14549863
10	0x3e3df998	0.18552244
11	0xbd1268b7	-0.035744395
12	0x3def756f	0.116923206
13	0xbcae0b5f	-0.021245657
14	0x3d0e1fcc	0.034698293
15	0x3d130e3a	0.03590224
