train/models/HARQ-CC-NumK=5_avg.pt (torch, 38282 bytes, 14 tensors)

bias f4 [16]
-0.068814375 -0.05883653 -0.08634283 0.06384587 -0.089429386 0.079482324 -0.09146289 -0.085476525
0.052926663 -0.07941763 -0.07545795 -0.09054644 0.07363241 -0.07560911 0.048381593 0.10473018
00000000: 8dee 8cbd 93fe 70bd 82d4 b0bd a0c1 823d
00000010: c126 b7bd a1c7 a23d e550 bbbd 510e afbd
00000020: a1c9 583d b6a5 a2bd b389 9abd 6970 b9bd
00000030: 97cc 963d f3d8 9abd c72b 463d c77c d63d

weight f4 [16, 1]
-0.3480363 0.11263755 -0.3615874 -0.0038037566 -0.3335372 0.4434304 -0.56192005 -0.35965917
-0.11304286 -0.4366834 0.010675455 -0.6810582 0.52045673 -0.5822449 0.50158477 0.14036994
00000000: d031 b2be 84ae e63d fc21 b9be 7248 79bb
00000010: 63c5 aabe 4f09 e33e fed9 0fbf 3f25 b8be
00000020: 0483 e7bd f794 dfbe 1be8 2e3c d559 2ebf
00000030: a73c 053f 000e 15bf dc67 003f 23bd 0f3e

bias f4 [32]
-0.06912387 0.08035975 -0.07165707 -0.051041696 0.07339786 0.10328534 -0.07175274 0.070132956
-0.090452805 -0.08251192 0.11360548 -0.064529955 0.06387467 0.07867646 0.11574125 0.098423295
0.058859188 -0.068990536 -0.050136507 0.06218043 -0.07694468 0.067191534 -0.06689707 -0.06545734
0.042324025 -0.056323122 0.07211971 0.054714885 0.059827942 0.07722263 -0.061238308 0.07021082
00000000: d190 8dbd a793 a43d f1c0 92bd 1911 51bd
00000010: 9e51 963d 4487 d33d 1af3 92bd dea1 8f3d
00000020: 523f b9bd 02fc a8bd fda9 e83d 4828 84bd
00000030: b9d0 823d 2021 a13d c009 ed3d 2792 c93d
00000040: 5516 713d e94a 8dbd f05b 4dbd e8b0 7e3d
00000050: 2c95 9dbd b79b 893d 5501 89bd 7f0e 86bd
00000060: f55b 2d3d 13b3 66bd 80b3 933d b71c 603d
00000070: 250e 753d e626 9e3d 05d5 7abd b1ca 8f3d

weight f4 [32, 16]
0.2715141 0.25494027 0.3537019 -0.09668821 -0.010753627 0.14478625 -0.02765691 0.23375821
-0.023927426 -0.17218775 0.13647793 0.12306882 0.13309532 0.41989598 0.2173174 0.30124602
-0.0607237 -0.27238026 -0.32889155 -0.25071535 -0.3926837 -0.13675433 -0.40628713 -0.406968
-0.27574492 -0.4286895 -0.20309906 0.054021474 0.33372244 -0.18570478 -0.064513996 0.241833
-0.108151734 -0.18161824 0.28597623 -0.2858346 0.11101514 0.29257464 0.13067712 0.1642194
-0.15441714 0.063104674 0.016286764 0.15719588 0.11859138 0.37722066 -0.2880199 -0.018123887
-0.12524548 -0.30300426 0.024435574 -0.28526276 0.29986632 0.011885215 -0.13856344 0.23745447
-0.29137594 -0.08527312 -0.082936615 -0.24880801 -0.2528568 -0.005954293 0.24008992 0.3083182
0.1460802 -0.1466892 -0.31082714 0.26855135 0.04449723 0.08922349 -0.02897303 -0.36357298
-0.18462163 0.2625754 -0.04414355 -0.09383274 -0.21680345 -0.27404526 0.07231645 -0.13346979
-0.14987573 0.23239626 -0.4523354 0.05499528 -0.34099534 -0.06750889 0.030632714 0.17472565
-0.1872454 -0.25068727 -0.26585606 -0.28715906 -0.20794882 -0.18554856 0.17460495 -0.20519009
0.3816027 0.1809459 -0.27220508 -0.13505064 0.18975645 -0.124318205 0.03442904 -0.08582474
0.34341735 -0.12480787 0.2685126 0.09554425 0.02117505 0.3484198 -0.1090342 -0.25835088
-0.1280802 0.3167736 -0.33437377 0.05137131 -0.41998023 0.22441547 0.059398234 -0.056967035
0.093982644 -0.07054419 0.20939416 -0.3508638 -0.014584988 0.08594875 0.3894132 0.22950338
-0.16482812 0.20216043 0.013355376 -0.032557733 -0.22843657 -0.14247133 0.34104154 0.14138299
-0.12935339 0.20051575 -0.15832506 0.41380325 -0.39088008 -0.021108264 -0.42820495 -0.2316475
0.18512939 0.33196443 0.13514501 0.36759463 0.14415498 0.19069143 0.36269236 0.3712405
-0.14175949 0.40135664 0.21766558 -0.08520017 -0.18131135 -0.21716143 0.0770119 -0.30933455
0.044561595 0.15695006 -0.41257843 0.064970694 -0.13367535 0.21942702 0.09421584 -0.4567936
0.2410892 0.18970259 0.15495497 -0.43312198 -0.0708537 -0.21119194 -0.036686838 0.28123045
0.19510977 0.23001878 -0.064693704 0.15220457 0.1943099 -0.35805115 -0.27691197 -0.1158298
0.29621866 -0.2667537 -0.34207213 0.2636562 0.12967639 0.35638443 -0.33106107 -0.32271424
0.1183679 0.31380865 0.14710134 0.038171392 0.051852833 0.34796125 -0.29244962 -0.22488047
0.19841518 -0.30545816 -0.19977991 0.19387993 0.12283786 0.050144233 -0.13888955 0.015750423
0.24419376 -0.16184229 -0.07758538 0.13049334 -0.32489574 0.4042436 -0.25631788 -0.16517435
-0.16151813 -0.30983576 -0.31559572 0.11983139 0.15270694 -0.41048 -0.1684363 0.42210716
0.021419134 0.2154978 -0.32568154 -0.20927714 -0.16750509 0.021383082 -0.35754535 -0.08492243
-0.06059821 -0.15937309 0.09423809 -0.25594112 0.17565136 0.018255712 -0.103359945 -0.24286208
0.086428225 0.14148606 -0.27960515 0.30224803 -0.26005387 0.30885988 0.07986311 -0.39610633
0.14784922 -0.42411676 -0.16658133 -0.15836221 -0.17097944 0.24626692 -0.0041334745 0.23130114
00000000: e503 8b3e 8887 823e 6a18 b53e 7804 c6bd
00000010: fb2f 30bc d942 143e be90 e2bc 505e 6f3e
00000020: 7303 c4bc fc51 30be dfc0 0b3e 810b fc3d
00000030: 244a 083e 9bfc d63e 7488 5e3e eb3c 9a3e
00000040: 6ab9 78bd 6d75 8bbe 7964 a8be c35d 80be
00000050: d70d c9be 5409 0cbe de04 d0be 1c5e d0be
00000060: 702e 8dbe 317d dbbe 33f9 4fbe 9f45 5d3d
00000070: abdd aa3e 6529 3ebe ea1f 84bd 12a3 773e
00000080: a87e ddbd 22fa 39be 7a6b 923e ea58 92be
00000090: e85b e33d 58cc 953e 39d0 053e 2129 283e
000000a0: 871f 1ebe 063d 813d d26b 853c f5f7 203e
000000b0: 0ae0 f23d 1123 c13e 5877 93be 8c78 94bc
000000c0: 5a40 00be 6023 9bbe 1d2d c83c f60d 92be
000000d0: 1488 993e 34ba 423c 93e3 0dbe 4427 733e
000000e0: 3a2f 95be aca3 aebd acda a9bd 87c7 7ebe
000000f0: 7276 81be 3b1c c3bb 22da 753e e2db 9d3e
00000100: 0c96 153e b235 16be bc24 9fbe 907f 893e
00000110: ba42 363d ceba b63d d958 edbc 3d26 babe
00000120: 740d 3dbe 4870 863e decf 34bd 612b c0bd
00000130: b901 5ebe a94f 8cbe a61a 943d 4eac 08be
00000140: 0679 19be 49f9 6d3e 8198 e7be bb42 613d
00000150: f196 aebe 1a42 8abd 75f1 fa3c 48eb 323e
00000160: 42bd 3fbe 155a 80be 491e 88be 8306 93be
00000170: 89f0 54be 7100 3ebe a4cb 323e 5a1d 52be
00000180: 6e61 c33e e249 393e 775e 8bbe b74a 0abe
00000190: 844f 423e 8b9a febd 7705 0d3d e2c4 afbd
000001a0: 66d4 af3e 459b ffbd 7c7a 893e b4ac c33d
000001b0: 4c77 ad3c 1464 b23e 534d dfbd 9146 84be
000001c0: 7527 03be 2630 a23e 0a33 abbe b96a 523d
000001d0: a607 d7be 2bcd 653e 904b 733d 4456 69bd
000001e0: f979 c03d 7979 90bd 6c6b 563e 6ca4 b3be
000001f0: e0f5 6ebc e605 b03d 2b61 c73e ef02 6b3e
00000200: b4c8 28be 2503 4f3e 82d0 5a3c 425b 05bd
00000210: 47eb 69be 01e4 11be ff9c ae3e b4c6 103e
00000220: 3775 04be 0054 4d3e f71f 22be 05de d33e
00000230: 6f21 c8be 3deb acbc ae3d dbbe 0135 6dbe
00000240: 8f92 3d3e 3ef7 a93e 7463 0a3e 5d35 bc3e
00000250: 5d9d 133e 9d44 433e d0b2 b93e 3c13 be3e
00000260: 6629 11be 9e7e cd3e bae3 5e3e 6d7d aebd
00000270: afa9 39be 915f 5ebe 6ab8 9d3d 1961 9ebe
00000280: 3886 363d 84b7 203e 7b3d d3be 5b0f 853d
00000290: 31e2 08be 7ab1 603e 3cf4 c03d dae0 e9be
000002a0: 16e0 763e 6541 423e 84ac 1e3e 2ac2 ddbe
000002b0: bf1b 91bd b342 58be f044 16bd 70fd 8f3e
000002c0: dbca 473e 0b8a 6b3e 227e 84bd 84db 1b3e
000002d0: 2df9 463e 7b52 b7be 68c7 8dbe 2d38 edbd
000002e0: f9a9 973e f193 88be 1424 afbe f2fd 863e
000002f0: e3c9 043e 0578 b63e d680 a9be cd3a a5be
00000300: df6a f23d 87ab a03e bca1 163e 9b59 1c3d
00000310: a363 543d fa27 b23e f5bb 95be 1147 66be
00000320: 592d 4b3e 0365 9cbe 1b93 4cbe 7688 463e
00000330: 6a92 fb3d 0a64 4d3d 1039 0ebe 0807 813c
00000340: ee0d 7a3e fcb9 25be 15e5 9ebd 0ca0 053e
00000350: bc58 a6be 04f9 ce3e 193c 83be 7723 29be
00000360: 0265 25be cba2 9ebe c395 a1be 296a f53d
00000370: 355f 1c3e 6f2a d2be 917a 2cbe 6e1e d83e
00000380: 2e77 af3c 75ab 5c3e bbbf a6be bf4c 56be
00000390: 7486 2bbe 932b af3c 2f10 b7be d0eb adbd
000003a0: d435 78bd b332 23be e6ff c03d b70a 83be
000003b0: f3dd 333e 018d 953c 61ae d3bd d6b0 78be
000003c0: 4801 b13d b9e1 103e 6828 8fbe 41c0 9a3e
000003d0: c825 85be e222 9e3e 458f a33d 73ce cabe
000003e0: c965 173e d525 d9be 4c94 2abe b429 22be
000003f0: 3c15 2fbe 652d 7c3e 1972 87bb 35da 6c3e

bias f4 [16]
0.06293388 0.056628533 0.06381579 0.062353946 0.05286841 0.06621933 0.076161794 -0.07304329
0.06437078 0.071457766 0.07982637 -0.059152633 0.06627761 -0.041041788 0.062779196 0.06351089
00000000: 7ae3 803d 52f3 673d dab1 823d da66 7f3d
00000010: 8c8c 583d 009e 873d b7fa 9b3d b897 95bd
00000020: d4d4 833d 7358 923d 027c a33d 084a 72bd
00000030: 8ebc 873d 6f1b 28bd 6192 803d ff11 823d

weight f4 [16, 32]
0.029091144 0.1990237 -0.18791173 -0.16794212 0.06988573 0.0055861883 -0.24030139 0.16696273
-0.06388175 -0.12983683 -0.047107276 -0.11347824 -0.29945236 0.13087276 0.1165902 0.32301322
0.032880463 -0.017727068 0.1358104 0.28171673 -0.17352945 0.20962714 0.016665017 -0.30350164
0.09091687 -0.22441079 -0.06937012 -0.15887752 -0.28073552 0.38757098 -0.38285092 0.19638339
-0.33375955 0.018768912 -0.053730104 0.29036856 -0.14186208 0.14397286 -0.021919204 0.22496568
-0.04004758 0.058437392 -0.0949006 -0.30782366 0.3148669 -0.21022637 0.045103192 0.057716295
0.3545705 -0.120337136 -0.23286417 -0.079015136 0.1757934 0.13528763 0.22830747 -0.13494205
0.13630684 -0.34376088 0.1751399 0.17062782 0.1909958 -0.10098597 -0.1560056 0.10326302
-0.26254547 -0.21207134 -0.42164254 0.063944675 0.20520689 0.13910916 -0.062055852 0.14793175
-0.29047215 -0.04253772 0.036797993 -0.2438698 0.31175643 -0.21717776 0.16339275 -0.2007021
0.0036021655 -0.20676455 0.159064 -0.18042473 0.22421879 -0.28321704 0.14085516 -0.3349508
0.15587047 -0.16522937 0.046449326 -0.049864277 0.18807104 0.22544904 -0.3799715 0.057990868
-0.25934052 0.33119917 -0.021950934 -0.04831606 -0.19400878 0.16930403 -0.2917053 0.18632117
0.12636304 0.13903832 0.21585616 -0.3760775 0.25562742 -0.059235416 0.0061317417 0.069742806
0.2686899 0.22593515 0.09395514 0.1813683 -0.33575633 -0.00085511163 -0.38212484 0.053097572
-0.28396434 -0.13840663 0.2889166 0.347601 -0.25224274 -0.08789629 -0.022624316 0.15867081
-0.0749183 -0.053147588 -0.3037134 0.18747991 0.33232456 -0.13320935 0.09494917 0.18597373
0.22722243 -0.111489594 0.12331483 0.20176804 0.22008258 0.39152393 -0.0014115821 0.23196541
0.25269482 -0.28008196 0.10340268 -0.07180313 0.21892788 -0.1675134 -0.035029247 0.15314458
-0.35244837 -0.3064325 -0.14745434 0.2321763 0.20216005 -0.14537306 0.009891439 -0.1732159
-0.17903769 0.37629128 0.08708891 -0.051925976 0.039104618 0.12020836 -0.0013558157 -0.100277886
-0.27881458 0.15312758 0.17839289 0.07749482 -0.1304722 0.22547223 0.3738766 0.33185494
0.1080699 0.29856125 0.041013416 0.090583876 0.33028385 0.3459438 -0.22274543 0.24729557
0.09692942 -0.05451921 0.35441998 -0.17159905 0.18772808 0.464849 -0.3141558 -0.18659839
-0.29483467 0.02558241 -0.4180451 -0.060599606 0.0820587 0.3025031 0.088899724 0.28109688
0.06341599 -0.32031283 -0.14089933 -0.07339036 0.4273844 0.119608626 0.09329605 -0.11556129
-0.09743662 -0.36324432 0.35161138 0.029686283 -0.2552885 0.16328228 -0.06253291 -0.13139823
0.076348 0.11916519 -0.23501548 -0.19368799 -0.07369727 -0.20559509 -0.40699464 0.3974712
-0.07060826 -0.25635344 -0.034122385 -0.33558553 0.29372418 -0.13495032 -0.10054911 -0.34756827
0.28592277 0.043284506 -0.14752005 -0.007500367 -0.25405553 -0.024840426 0.16821994 -0.29404283
-0.055765804 -0.17385755 -0.23263651 0.23541074 -0.04622874 0.2468648 0.020502625 -0.10859724
-0.16937625 0.3916223 -0.35737416 0.1159195 0.1409427 0.00618224 0.28187227 -0.17034172
00000000: 8d50 ee3c decc 4b3e ef6b 40be 05f9 2bbe
00000010: 4020 8f3d 580c b73b 9111 76be 47f8 2a3e
00000020: 6fd4 82bd f2f3 04be 8ff3 40bd 4867 e8bd
00000030: d251 99be 8203 063e d8c6 ee3d fd61 a53e
00000040: aaad 063d 5b38 91bc e211 0b3e 2d3d 903e
00000050: b4b1 31be 7fa8 563e 1385 883c 9164 9bbe
00000060: a032 ba3d f1cb 65be ec11 8ebd cab0 22be
00000070: 91bc 8fbe b46f c63e 0905 c4be ba18 493e
00000080: 88e2 aabe 43c1 993c 1914 5cbd 30ab 943e
00000090: 4b44 11be 9f6d 133e e78f b3bc 675d 663e
000000a0: ee08 24bd 0c5c 6f3d 3f5b c2bd 109b 9dbe
000000b0: 3c36 a13e 9545 57be 20be 383d ec67 6c3d
000000c0: 448a b53e 5173 f6bd f273 6ebe b0d2 a1bd
000000d0: 2f03 343e d788 0a3e 6fc9 693e 402e 0abe
000000e0: 0594 0b3e 6d01 b0be e057 333e 0fb9 2e3e
000000f0: 6794 433e bbd1 cebd efbf 1fbe 907b d33d
00000100: 5c6c 86be 3b29 59be 88e1 d7be 6df5 823d
00000110: c121 523e a272 0e3e 472e 7ebd 6c7b 173e
00000120: c4b8 94be 083c 2ebd 7eb9 163d 01b9 79be
00000130: 8a9e 9f3e d963 5ebe 6e50 273e da84 4dbe
00000140: 4f12 6c3b 16ba 53be ace1 223e 43c1 38be
00000150: 9c99 653e d301 91be 563c 103e ac7e abbe
00000160: 829c 1f3e e331 29be a641 3e3d 7c3e 4cbd
00000170: b295 403e 1ddc 663e a08b c2be d587 6d3d
00000180: 48c8 84be f092 a93e 72d2 b3bc 10e7 45bd
00000190: 3daa 46be 095e 2d3e 665a 95be faca 3e3e
000001a0: 5065 013e 1060 0e3e 6609 5d3e 3b8d c0be
000001b0: 99e1 823e d6a0 72bd c7ec c83b 51d5 8e3d
000001c0: b991 893e 8b5b 673e 8d6b c03d 9db8 393e
000001d0: 41e8 abbe 9229 60ba dea5 c3be d77c 593d
000001e0: c663 91be 78ba 0dbe e0ec 933e c2f8 b13e
000001f0: f625 81be f802 b4bd a156 b9bc 9a7a 223e
00000200: c46e 99bd 49b1 59bd 5380 9bbe bcfa 3f3e
00000210: 7226 aa3e 0868 08be b674 c23d e66f 3e3e
00000220: ffac 683e a854 e4bd 7c8c fc3d 489c 4e3e
00000230: 545d 613e d375 c83e d604 b9ba 5788 6d3e
00000240: 3761 813e e766 8fbe c9c4 d33d 850d 93bd
00000250: a12e 603e a288 2bbe d47a 0fbd efd1 1c3e
00000260: 1d74 b4be b8e4 9cbe 45fe 16be a0bf 6d3e
00000270: 0b03 4f3e addc 14be b40f 223c 825f 31be
00000280: a855 37be 40a9 c03e ac5b b23d 55b0 54bd
00000290: 2a2c 203d cd2f f63d a0b5 b1ba 7e5e cdbd
000002a0: c9c0 8ebe 7acd 1c3e a0ac 363e 9bb5 9e3d
000002b0: 819a 05be 31e2 663e c16c bf3e e4e8 a93e
000002c0: c053 dd3d 05dd 983e affd 273d 0a84 b93d
000002d0: f71a a93e 8c1f b13e 6117 64be 0d3b 7d3e
000002e0: ef82 c63d 894f 5fbd 8976 b53e a9b7 2fbe
000002f0: ca3b 403e b000 ee3e 07d9 a0be a613 3fbe
00000300: 92f4 96be 3492 d13c 020a d6be 4b37 78bd
00000310: 640e a83d b0e1 9a3e 0f11 b63d eeeb 8f3e
00000320: 3ee0 813d 0b00 a4be ea47 10be af4d 96bd
00000330: 21d2 da3e 5ef5 f43d 0012 bf3d 66ab ecbd
00000340: da8c c7bd 29fb b9be 6806 b43e a630 f33c
00000350: 2db5 82be 7833 273e 4111 80bd 428d 06be
00000360: 575c 9c3d e10c f43d e6a7 70be 2556 46be
00000370: 98ee 96bd 8587 52be 9a61 d0be 5881 cb3e
00000380: 109b 90bd c240 83be eac3 0bbd ded1 abbe
00000390: 0463 963e 6b30 0abe b1ec cdbd 78f4 b1be
000003a0: 7864 923e 184b 313d 7f0f 17be a3c5 f5bb
000003b0: 9113 82be 267e cbbc d941 2c3e c88c 96be
000003c0: af6a 64bd b707 32be 4438 6ebe 830f 713e
000003d0: 595a 3dbd 20ca 7c3e 1ff5 a73c 3b68 debd
000003e0: f870 2dbe b882 c83e bff9 b6be 3467 ed3d
000003f0: 4853 103e 6394 ca3b 9051 903e 0f6e 2ebe

bias f4 [2]
0.057858948 0.067126185
00000000: 81fd 6c3d 7479 893d

weight f4 [2, 16]
0.5394068 0.1504594 0.50443333 0.42965803 0.16363844 0.29718897 0.2759472 -0.005070521
0.46087807 0.63953656 0.27449855 -0.032154903 0.6302929 -0.51559734 0.50558037 0.36774123
0.4675453 -0.027355516 -0.31792304 0.47996503 -0.24171148 0.26335934 0.43015525 -0.61476165
0.013973987 -0.08409085 0.49523327 -0.36819002 0.4753519 0.2836546 0.41275227 0.62902635
00000000: 9016 0a3f 0712 1a3e 8b22 013f 23fc db3e
00000010: d690 273e 2729 983e f448 8d3e 9d26 a6bb
00000020: 36f8 eb3e abb8 233f 138b 8c3e dcb4 03bd
00000030: e05a 213f 30fe 03bf b76d 013f 9448 bc3e
00000040: 1962 ef3e ad18 e0bc cfc6 a2be fabd f53e
00000050: 3783 77be 09d7 863e 4f3d dc3e 0561 1dbf
00000060: 26f3 643c d337 acbd 378f fd3e 6783 bcbe
00000070: 5361 f33e 2d3b 913e 4454 d33e df07 213f

weight f4 [1, 2]
1.1007711 0.2402341
00000000: 11e6 8c3f eeff 753e

pout f4 [50, 5]
0.06671017 0.00823808 0.00048388934 1.6028023e-05 3.390908e-07 0.13742054 0.009399649 0.000424158
1.446966e-05 3.976041e-07 0.0842116 0.00352138 9.842199e-05 2.0715988e-06 3.4920706e-08 0.16264522
0.0132256495 0.0007170304 2.9155452e-05 9.483996e-07 0.10132616 0.0051219636 0.00016945087 4.2374536e-06
8.560966e-08 0.10132616 0.005099699 0.00017141407 4.3404325e-06 8.8044175e-08 0.0501299 0.0016303954
2.8989089e-05 3.4010958e-07 2.9687215e-09 0.16264525 0.01314644 0.00070488575 2.855367e-05 9.295923e-07
0.16264525 0.01322649 0.00071707554 2.9157234e-05 9.484569e-07 0.08421161 0.0037902815 0.00010306975
2.0280036e-06 3.191609e-08 0.10132616 0.0051334943 0.00017338578 4.3921286e-06 8.900751e-08 0.10132616
0.005098198 0.00017119899 4.333515e-06 8.791162e-08 0.13742052 0.014438804 0.00080223655 2.829755e-05
7.1572657e-07 0.11820313 0.009870367 0.0004438547 1.2927142e-05 2.7509705e-07 0.101326175 0.0051334966
0.00017338575 4.3921264e-06 8.9007465e-08 0.11820313 0.0076754214 0.00029677624 8.196558e-06 1.7946329e-07
0.11820313 0.0069727344 0.00027465977 8.117404e-06 1.919178e-07 0.101326175 0.006224992 0.00021620779
5.115016e-06 9.248431e-08 0.0842116 0.0035457942 9.953233e-05 2.095443e-06 3.5292125e-08 0.0842116
0.003532318 9.905303e-05 2.085804e-06 3.5139394e-08 0.13742052 0.0094396835 0.0004324011 1.4855307e-05
4.0828584e-07 0.16264525 0.013226739 0.00071708875 2.9157773e-05 9.484747e-07 0.0842116 0.0035336448
9.9110424e-05 2.0869836e-06 3.515752e-08 0.19718987 0.019327227 0.0012650053 6.23453e-05 2.4609578e-06
0.0501299 0.0012513462 2.0889345e-05 2.6184733e-07 2.6259097e-09 0.16264525 0.023808835 0.0017889369
8.253316e-05 2.643937e-06 0.19718987 0.01933764 0.0012671686 6.2470135e-05 2.4654582e-06 0.0501299
0.0012634065 2.033235e-05 2.4578685e-07 2.4137592e-09 0.101326145 0.005128944 0.00017322309 4.388194e-06
8.89296e-08 0.16264525 0.013226726 0.0007170879 2.9157723e-05 9.484733e-07 0.16264525 0.01662681
0.0009503078 3.6553974e-05 1.0631195e-06 0.19718987 0.019438526 0.0012776933 6.298731e-05 2.4840933e-06
0.13742052 0.009440726 0.0004324494 1.4856918e-05 4.0832933e-07 0.0501299 0.0012513008 2.028557e-05
2.4860546e-07 2.4706432e-09 0.05012991 0.0012462495 2.0323716e-05 2.5104498e-07 2.5079807e-09 0.0842116
0.015877444 0.0014144169 7.041636e-05 2.2178288e-06 0.10132616 0.005133481 0.00017338528 4.392114e-06
8.900718e-08 0.10132616 0.0052519054 0.00017169045 4.1819358e-06 8.2521304e-08 0.0842116 0.0035457953
9.953238e-05 2.0954453e-06 3.529216e-08 0.10132616 0.005133339 0.0001733805 4.3919968e-06 8.9004864e-08
0.16264525 0.013226738 0.0007170887 2.915776e-05 9.4847405e-07 0.06671017 0.035623528 0.008710237
0.0011470075 9.2038405e-05 0.118203156 0.008369106 0.00033728595 9.316624e-06 1.9766826e-07 0.06671017
0.0022119344 4.906648e-05 8.184292e-07 1.0925496e-08 0.19718987 0.019878356 0.0012683982 6.0376333e-05
2.3272748e-06 0.0501299 0.0012543256 2.0956018e-05 2.626518e-07 2.6334748e-09 0.0842116 0.006469418
0.00025315417 6.043032e-06 9.9610595e-08 0.16264525 0.013173006 0.0007131485 2.9004197e-05 9.438498e-07
0.0501299 0.0016070793 2.830261e-05 3.305448e-07 2.8849965e-09 0.13742054 0.009417142 0.00043113175
1.4814286e-05 4.072272e-07
00000000: 579f 883d 03f9 063c 87b2 fd39 eb73 8637
00000010: 490c b634 f8b7 0c3e fc00 1a3c 8661 de39
00000020: b7c2 7237 4b76 d534 2277 ac3d f4c6 663b
00000030: e767 ce38 cc05 0b36 b9fb 1533 788c 263e
00000040: 65b0 583c 18f7 3b3a db92 f437 8695 7e35
00000050: 1784 cf3d 25d6 a73b 9fae 3139 732f 8e36
00000060: 69d8 b733 1784 cf3d 601b a73b 9dbd 3339
00000070: 08a4 9136 cc12 bd33 0355 4d3d feb2 d53a
00000080: 982d f337 4e98 b634 4d02 4c31 7a8c 263e
00000090: 2a64 573c 15c8 383a 8a86 ef37 1989 7935
000000a0: 7a8c 263e ebb3 583c 20fa 3b3a af96 f437
000000b0: 7699 7e35 2377 ac3d 5f66 783b 2727 d838
000000c0: d618 0836 1d14 0933 1784 cf3d df36 a83b
000000d0: e4ce 3539 1960 9336 6524 bf33 1784 cf3d
000000e0: c90e a73b e183 3339 9c68 9136 edc9 bc33
000000f0: f7b7 0c3e bc90 6c3c 2f4d 523a 8760 ed37
00000100: 5b20 4035 7c14 f23d 52b7 213c 2bb5 e839
00000110: a7e1 5837 0db1 9334 1984 cf3d e436 a83b
00000120: e2ce 3539 1460 9336 5f24 bf33 7c14 f23d
00000130: 1a82 fb3b a298 9b39 f383 0937 7eb2 4034
00000140: 7c14 f23d 897b e43b 3600 9039 fc2f 0837
00000150: f711 4e34 1984 cf3d 05fb cb3b d6b5 6239
00000160: a7a1 ab36 ca9b c633 2277 ac3d 8e60 683b
00000170: 03bc d038 709f 0c36 1a94 1733 2277 ac3d
00000180: 767e 673b b1ba cf38 d7f9 0b36 2cec 1633
00000190: f7b7 0c3e e7a8 1a3c e5b3 e239 0f3b 7937
000001a0: 6132 db34 7a8c 263e f7b4 583c 03fb 3b3a
000001b0: d797 f437 af9a 7e35 2277 ac3d b994 673b
000001c0: 81d9 cf38 1b0e 0c36 1a00 1733 24ec 493e
000001d0: 2254 9e3c 89ce a53a 61bf 8238 ef26 2536
000001e0: 0355 4d3d 3604 a43a 873b af37 0694 8c34
000001f0: 7e73 3431 7a8c 263e bf0a c33c c37a ea3a
00000200: a715 ad38 7e6e 3136 24ec 493e f869 9e3c
00000210: 1f17 a63a 6602 8338 4074 2536 0355 4d3d
00000220: e398 a53a 648f aa37 b0f4 8334 4ddf 2531
00000230: 1584 cf3d b310 a83b 38a3 3539 4d3e 9336
00000240: 91f9 be33 7a8c 263e e9b4 583c f4fa 3b3a
00000250: bc97 f437 979a 7e35 7a8c 263e f334 883c
00000260: 141e 793a 8851 1938 82b0 8e35 24ec 493e
00000270: 8b3d 9f3c 4678 a73a 0e18 8438 66b4 2636
00000280: f7b7 0c3e 46ad 1a3c 60ba e239 fa41 7937
00000290: 5b38 db34 0355 4d3d b002 a43a ee2a aa37
000002a0: 1378 8534 04c8 2931 0555 4d3d 3259 a33a
000002b0: d97c aa37 5cc7 8634 dd58 2c31 2277 ac3d
000002c0: 6a11 823c f563 b93a 7fac 9338 02d6 1436
000002d0: 1784 cf3d c336 a83b c2ce 3539 f95f 9336
000002e0: 3724 bf33 1784 cf3d 2d18 ac3b ce07 3439
000002f0: 8e52 8c36 9136 b133 2277 ac3d 9360 683b
00000300: 0abc d038 7a9f 0c36 2494 1733 1784 cf3d
00000310: 9235 a83b 79cd 3539 f75e 9336 f122 bf33
00000320: 7a8c 263e f6b4 583c 02fb 3b3a d097 f437
00000330: a49a 7e35 579f 883d fae9 113d 62b5 0e3c
00000340: 2f57 963a be04 c138 7f14 f23d 931e 093c
00000350: c1d5 b039 984e 1c37 a33e 5434 579f 883d
00000360: 1af6 103b bbcc 4d38 07b2 5b35 d7b2 3b32
00000370: 24ec 493e efd7 a23c 6240 a63a 983c 7d38
00000380: 472e 1c36 0355 4d3d 2f68 a43a b5ca af37
00000390: 9702 8d34 94f8 3431 2277 ac3d 69fd d33b
000003a0: c7b9 8439 40c5 ca36 81e9 d533 7a8c 263e
000003b0: 97d3 573c 96f2 3a3a 0a4e f337 dd5c 7d35
000003c0: 0355 4d3d a2a4 d23a 646b ed37 bb75 b134
000003d0: 6541 4631 f8b7 0c3e 5b4a 1a3c 8609 e239
000003e0: e08a 7837 e1a0 da34

throughput f4 [50, 1]
1.8596891 1.7432852 1.8385165 1.6997868 1.807302 1.807335 1.901521 1.6999196
1.6997855 1.8380544 1.8072765 1.8073378 1.735071 1.772216 1.8072765 1.7759092
1.777053 1.8054247 1.8384734 1.8384969 1.7432113 1.6997851 1.8384948 1.6422418
1.9022212 1.6830361 1.6422248 1.9022005 1.8072842 1.6997851 1.6945417 1.6420738
1.7432095 1.9022225 1.9022316 1.8155801 1.8072767 1.8070863 1.8384734 1.8072768
1.6997851 1.7980869 1.7747502 1.8709564 1.6414973 1.9022158 1.8332808 1.6998686
1.9015645 1.7432473
00000000: 4b0a ee3f f823 df3f 8254 eb3f 9d92 d93f
00000010: ac55 e73f c156 e73f 0a65 f33f f796 d93f
00000020: 9292 d93f 5e45 eb3f d654 e73f d856 e73f
00000030: ce16 de3f f9d7 e23f d654 e73f fe50 e33f
00000040: 7976 e33f 2818 e73f 1953 eb3f de53 eb3f
00000050: 8c21 df3f 8f92 d93f cc53 eb3f fb34 d23f
00000060: fc7b f33f ba6d d73f 6c34 d23f 4e7b f33f
00000070: 1755 e73f 8f92 d93f bee6 d83f 792f d23f
00000080: 7d21 df3f 077c f33f 537c f33f ee64 e83f
00000090: d854 e73f 9b4e e73f 1953 eb3f d954 e73f
000000a0: 8f92 d93f b627 e63f 042b e33f 807b ef3f
000000b0: 951c d23f cf7b f33f f2a8 ea3f 4b95 d93f
000000c0: 7766 f33f ba22 df3f

delay f4 [50, 1]
0.053772427 0.057362963 0.05439168 0.05883091 0.0553311 0.055330083 0.05258948 0.058826312
0.058830954 0.054405354 0.05533188 0.055330005 0.057634532 0.05642653 0.05533188 0.05630919
0.056272943 0.055388633 0.054392952 0.05439226 0.057365395 0.058830965 0.054392323 0.060892377
0.052570123 0.059416432 0.060893003 0.052570693 0.05533164 0.058830965 0.059013 0.060898606
0.057365455 0.052570086 0.052569836 0.055078812 0.055331867 0.055337697 0.054392952 0.055331867
0.058830965 0.055614665 0.056345955 0.053448595 0.060919993 0.05257027 0.054547016 0.058828082
0.052588277 0.05736421
00000000: 7a40 5c3d 6df5 6a3d cfc9 5e3d aef8 703d
00000010: dda2 623d cca1 623d 1168 573d dcf3 703d
00000020: baf8 703d 26d8 5e3d aea3 623d b7a1 623d
00000030: 3012 6c3d 811f 673d aea3 623d 77a4 663d
00000040: 757e 663d 31df 623d 25cb 5e3d 6bca 5e3d
00000050: faf7 6a3d bdf8 703d 7cca 5e3d 496a 793d
00000060: c553 573d a55e 733d f16a 793d 5e54 573d
00000070: 6ea3 623d bdf8 703d 9eb7 713d d170 793d
00000080: 0af8 6a3d bb53 573d 7853 573d 529a 613d
00000090: aba3 623d c8a9 623d 25cb 5e3d aba3 623d
000000a0: bdf8 703d 34cc 633d 04cb 663d eaec 5a3d
000000b0: 3e87 793d ec53 573d b16c 5f3d b7f5 703d
000000c0: ce66 573d bcf6 6a3d

ef1 f4 [50]
-6.569684 -6.500549 -7.5569167 -6.1230087 -7.167477 -7.155299 -8.627431 -6.131707
-6.1229825 -7.59599 -7.1505733 -7.1559534 -6.2452526 -6.660514 -7.1505733 -6.8460245
-6.8168845 -7.1339316 -7.552322 -7.5542054 -6.4890356 -6.1229744 -7.553982 -5.7088957
-8.68072 -5.6777487 -5.708102 -8.717306 -7.150954 -6.122975 -6.0734177 -5.704832
-6.4889894 -8.7071905 -8.700676 -5.7540717 -7.1505747 -7.183434 -7.5523214 -7.150586
-6.1229744 -4.1360307 -6.804063 -8.061559 -5.7331524 -8.679471 -7.1016946 -6.125097
-8.639855 -6.4901633
00000000: da3a d2c0 7f04 d0c0 43d2 f1c0 b0ef c3c0
00000010: f95b e5c0 36f8 e4c0 f509 0ac1 f236 c4c0
00000020: 79ef c3c0 5a12 f3c0 7fd1 e4c0 92fd e4c0
00000030: 1cd9 c7c0 ee22 d5c0 7fd1 e4c0 a212 dbc0
00000040: eb23 dac0 2b49 e4c0 9fac f1c0 0dbc f1c0
00000050: 2ea6 cfc0 68ef c3c0 38ba f1c0 46af b6c0
00000060: 3be4 0ac1 1eb0 b5c0 c6a8 b6c0 167a 0bc1
00000070: 9dd4 e4c0 69ef c3c0 7059 c2c0 fc8d b6c0
00000080: cda5 cfc0 a750 0bc1 f835 0bc1 5b21 b8c0
00000090: 82d1 e4c0 b1de e5c0 9eac f1c0 9ad1 e4c0
000000a0: 68ef c3c0 5d5a 84c0 e2ba d9c0 25fc 00c1
000000b0: fc75 b7c0 1ddf 0ac1 1541 e3c0 cb00 c4c0
000000c0: d93c 0ac1 6baf cfc0

ef2 f4 [50, 1]
-108.870636 0.08726883 -61.178234 5.854352 -30.131283 -30.25777 -187.51201 5.9818945
5.8539667 -60.774654 -30.331112 -30.248962 0.91531754 -10.372032 -30.331116 -10.7259655
-11.232296 -29.650623 -61.245514 -61.216763 -0.070474625 5.8538504 -61.2202 8.598034
-188.24017 7.082221 8.58568 -187.96255 -30.325272 5.853856 6.6230745 8.531019
-0.07118988 -188.0225 -188.06297 -59.3553 -30.331097 -29.995457 -61.245514 -30.330933
5.8538504 -105.93086 -10.578529 -110.36925 8.86228 -188.25725 -60.176807 5.8894434
-187.52634 -0.051469803
00000000: c4bd d9c2 00ba b23d 83b6 74c2 da56 bb40
00000010: de0c f1c1 ea0f f2c1 1383 3bc3 ae6b bf40
00000020: b253 bb40 3f19 73c2 1ea6 f2c1 e0fd f1c1
00000030: 4052 6a3f d8f3 25c1 20a6 f2c1 8e9d 2bc1
00000040: 7cb7 33c1 7a34 edc1 68fb 74c2 f7dd 74c2
00000050: 0055 90bd be52 bb40 7ce1 74c2 8c91 0941
00000060: 7c3d 3cc3 8ea1 e240 f25e 0941 6af6 3bc3
00000070: 289a f2c1 ca52 bb40 3af0 d340 0e7f 0841
00000080: 00cc 91bd c305 3cc3 1f10 3cc3 d46b 6dc2
00000090: 16a6 f2c1 b2f6 efc1 68fb 74c2 c0a5 f2c1
000000a0: be52 bb40 9adc d3c2 a841 29c1 0ebd dcc2
000000b0: e6cb 0d41 db41 3cc3 0db5 70c2 5276 bc40
000000c0: be86 3bc3 00d2 52bd
