train/models/HARQ-IR-NumN=4-NumK=3_model_pd_m.pt (torch, 139225 bytes, 63 tensors)

bias f4 [4]
00000000: 0000 0000 0000 0000 0000 0000 0000 0000
0.0 0.0 0.0 0.0

weight f4 [4, 1]
00000000: db87 08bf aab1 243f f036 773f f8bb 4dbf
-0.533323 0.64333594 0.965682 -0.8036494

bias f4 [8]
00000000: 0000 0000 0000 0000 0000 0000 0000 0000
00000010: 0000 0000 0000 0000 0000 0000 0000 0000
0.0 0.0 0.0 0.0 0.0 0.0 0.0 0.0

weight f4 [8, 4]
00000000: e25d 983e 399e 213f aa47 d13e fb45 9ebe
00000010: fefd d03e 708e 013e 1edb b73e 16aa dcbe
00000020: 4c31 33bf a1e0 8bbe 91d8 0abf 8d88 143f
00000030: 948e 503e 18f6 953e 60ff 643e 4089 49bc
00000040: cfaa 0d3f e09d 00bf c05c 363d 1e1b f7be
00000050: 4c45 5f3e 025c 79be 7cde 5d3e f8da 16be
00000060: cf22 163f bd94 d6be 4ceb d7be a3ee d7be
00000070: 09d1 223f b04c 713e 9d2f 2e3f 1664 15bf
0.29759127 0.63132054 0.40874988 -0.30912766 0.4081878 0.12651992 0.3590936 -0.43098515
-0.69997096 -0.27319816 -0.54236704 0.5802086 0.20366889 0.29289317 0.22363043 -0.012300789
0.5533876 -0.502409 0.044522047 -0.48262876 0.21803778 -0.24351504 0.21666902 -0.14731967
0.58646864 -0.41910353 -0.42171705 -0.42174253 0.6360021 0.2356441 0.680414 -0.58355844

weight f4 [1, 8]
00000000: 64ce dd3e e7f9 a8be e4b8 fd3e c067 46be
00000010: 4424 ef3e 7f67 22bf 8af7 d2be a8e7 7e3e
0.43321526 -0.3300316 0.49555123 -0.19375515 0.46707356 -0.6343917 -0.41204482 0.24893057

bias f4 [16]
00000000: de7e 6fbd a007 5bbd 7cd4 84bd 3282 0ebd
00000010: 1732 5e3d 3f22 86bd 6f82 69ba 3c46 9bbd
00000020: 47e7 fabc e438 8cbd 1204 0b3d 0dd8 a5bd
00000030: 121d fc3c 2f6c 4b3d 455b c7bd 3678 273d
-0.0584706 -0.05347407 -0.06485841 -0.034792133 0.05424699 -0.06549501 -0.0008907681 -0.075817555
-0.03062786 -0.068467885 0.03393943 -0.08097849 0.03077558 0.04966372 -0.09734205 0.040886126

weight f4 [16, 1]
00000000: de8e a1be 820b e9bd 57c3 94be 3236 c03e
00000010: 2bdd cabe c3a0 a6be 6d54 2abe 3dd0 d5be
00000020: 5e1a 503d c2fa 22bf 5d90 0d3f c5db 11bf
00000030: bf14 043f 5a7b 2e3e d7fa 94be f308 c83e
-0.31554312 -0.11379148 -0.29055282 0.37541348 -0.39621863 -0.32544526 -0.16633768 -0.41760436
0.050806396 -0.63663876 0.55298406 -0.56975967 0.51594156 0.17039242 -0.29097626 0.39069328

bias f4 [32]
00000000: c6f0 87bd f641 683d 3f58 d4bd f421 31bc
00000010: 381f 863d 4006 543d 7847 2d3d e9f0 3abd
00000020: 7713 f9bd 396c c8bd 4ca9 383d 68ab 6abd
00000030: 3f6b a8bd b308 39bd 9f8c 583d 973e 47bd
00000040: 8fa8 37bd 29d9 91bd 63bf f03c d480 06bd
00000050: d6dc 273d 155d a9bd 3c37 b5bd 577a b9bd
00000060: 25c2 873d d6dd 6a3d 91c4 6b3d 6790 88bd
00000070: a6e3 233e caed a9bd abc2 c7bd 27e0 7e3d
-0.06637721 0.05670353 -0.10368394 -0.010811318 0.06548923 0.051763773 0.042304486 -0.045639906
-0.12161916 -0.09786267 0.04508333 -0.057292372 -0.082235806 -0.04517431 0.05286848 -0.048643675
-0.044838484 -0.07121498 0.029388135 -0.032837704 0.04098209 -0.08269707 -0.08848426 -0.090565376
0.06628827 0.057340465 0.057560507 -0.066681676 0.1600481 -0.08297308 -0.09753927 0.062225487

weight f4 [32, 16]
00000000: 20e2 9c3e 358f dbbd 9401 71bd 2210 273e
00000010: 775b 97bd 3956 3f3e ef64 81bd 467f 5dbe
00000020: e401 0c3e a1a9 a63d 6471 193e 244c c13e
00000030: 61cb 6f3e f422 a83e bfe2 1e3d 01bf 9fbe
00000040: bddd 8abe adf7 73be f51b abbe 231e 28be
00000050: 9623 b3be 2eff b2be c0b2 6abe be45 bfbe
00000060: 2e39 51be 3846 db3d fedb 9d3e 2e70 07be
00000070: 3e82 b8bd 4125 4d3e 7d6b 49be 045e 1dbe
00000080: 3253 9b3e 048c 60be 571b 043e 5268 713e
00000090: 007f 133e 9d91 3a3e fb92 febd 5b1d a73d
000000a0: cbdd 58bd 8735 323e 3b00 703d 96de c93e
000000b0: 76a6 b3be 4f32 aabd 1d98 b4bd 73d5 b7be
000000c0: a3e0 7bbc fded 98be 29ed 843e 897b dc3c
000000d0: 8864 35be fa54 4a3e ce79 a4be 18ee fdbd
000000e0: f386 a9bd 4a55 93be 2e68 74be d450 38bd
000000f0: dc63 823e 03d3 a83e 23f7 723e c451 66be
00000100: 4845 81be e54a 963e 0b4b d63d 2c0c 8e3c
00000110: 0350 cc3c 0a78 9cbe 68be 07be ca28 a23e
00000120: 31c0 a1bd c444 38bd c203 92be 0588 65be
00000130: e070 0f3a 74db 59be 919d 82bd 4cff 1b3e
00000140: 51ae b5be 7ebe d53d 15bd 77be 841a 33be
00000150: 48fb fe3d 4b33 8b3e 0e34 cebd 6b6e 20be
00000160: c2a9 a2be a643 4abe 0731 a0be ba0f c3bd
00000170: c9cc 8d3d 67a4 abbe e62d 9a3e 0d9a 5f3e
00000180: 9604 bcbe 445f 3fbe 2bb1 c13d 1abb 6cbd
00000190: c7e0 77bd 0935 39be f33f 883e 762c 61be
000001a0: 5bc2 9d3e e7cc 97ba d22c b03d fd26 813e
000001b0: d7f6 32bd 2483 40be a1f0 9ebd 977a 9a3e
000001c0: 5936 84be 68fd 9d3d 0739 b0be fb73 453e
000001d0: 4327 0c3e 1808 9e3c 41a6 193e 5415 e03b
000001e0: f638 4e3e a72f 8abe 162e 35bd 7df4 293e
000001f0: 5ba2 b83e 4e2c 443e 596c 82be 0134 8f3e
00000200: 7918 9b3c d407 c73c e9c8 64be 717c 12be
00000210: 0820 b13e dd2a 173e e160 e6bd bfe5 543e
00000220: 9342 4bbe e5a5 d83e 19d4 cabe b46f 3ebc
00000230: c3e8 ddbe 6e7e 79be 0f41 593e ec3b 803e
00000240: ca43 0c3e 7aac da3e cc83 163e 7961 0b3e
00000250: dfc6 b73e b350 bf3e 7f1e ffbd acb3 ce3e
00000260: f46a 193e b491 afbd 5ca6 74be a45f 5ebe
00000270: e6f1 853c 5cf1 bdbe 3563 6b3e 5453 273d
00000280: 4e57 b1be 3cb0 603d f575 8bbd 6817 4a3e
00000290: 0483 283e 811e c8be ecca 923e d4a3 833e
000002a0: 0869 323e 97aa b9be a1f5 b6bd c65a 11be
000002b0: 77ed 58bd f6f3 783e 518b b43d 1c7c a23e
000002c0: 85ef bebd 5db7 213e eed1 283e b54c a7be
000002d0: 1cb2 9bbe df7d 13be 9526 8e3e 60e1 95be
000002e0: 631b adbe 4a1d 753e 5020 213e e2e0 a93e
000002f0: 07dc 99be 1738 97be 1276 623e 2d31 8c3e
00000300: c700 8f3e c3e2 023e 7d0a 3d3e dd56 8d3e
00000310: 60aa 26be 2405 bdbd d317 9f3e afaa 31be
00000320: d7b9 7ebe 0d5d a73e 386c 4a3d b555 3b3e
00000330: 4770 5abe e086 a2bd 76da c93e 43cd 8cbe
00000340: 99fb a93d 1507 873e 546c 26be 8471 843e
00000350: 0ef6 cfbd d254 94bb baa3 70bc cb25 1cbe
00000360: d80e d7be 9bee 8b3e f370 a33b 382a 83be
00000370: 4440 a2be 641e 803e 3a1f 613e 8ba3 543d
00000380: 9f7e 60be 645d 1fbe 51a8 76bd 8f46 8fbd
00000390: 5a1e 81be bdbb ad3c 5799 0b3d 1512 61bd
000003a0: 55cc 343d 32d0 1dbe f20a b23d 2356 f63d
000003b0: fffd 44be fe05 b8be 5c75 373e 7452 a23d
000003c0: 7c15 24be 9d3b b63e 8736 10be 1863 693e
000003d0: 2ae5 4c3e dfa7 8dbe 0702 793e ec97 9bbe
000003e0: 8c25 54be 8ce5 10bd 9367 7fbe 119e bc3e
000003f0: 65c9 a6bd 55a4 063e 3d12 98be b709 453e
0.3064127 -0.10720674 -0.058839396 0.16314748 -0.073904924 0.18685235 -0.0631808 -0.21630582
0.13672596 0.08137823 0.14984661 0.37753403 0.23417427 0.32839167 0.03879046 -0.31200412
-0.27122298 -0.2382495 -0.33419767 -0.16417746 -0.34988087 -0.34960312 -0.2291975 -0.37357897
-0.20431969 0.107067525 0.30831903 -0.13226387 -0.09009217 0.20033742 -0.1966991 -0.15367895
0.3033691 -0.21928412 0.12901054 0.23574951 0.14403915 0.1821961 -0.12430378 0.08159896
-0.052945893 0.17403232 0.05859397 0.39427632 -0.35087937 -0.08310377 -0.08818076 -0.35905036
-0.015373382 -0.2986907 0.2596219 0.026914375 -0.17714131 0.19758978 -0.3212418 -0.123989284
-0.08277693 -0.28776008 -0.23867866 -0.04499896 0.25466812 0.3297349 0.23727088 -0.22492129
-0.2524817 0.29354015 0.10463532 0.017339788 0.024940496 -0.30560333 -0.13256228 0.31671745
-0.07897986 -0.044987455 -0.28518492 -0.22415169 0.0005471837 -0.21275121 -0.0637771 0.15234107
-0.35484555 0.10436724 -0.24193223 -0.17490584 0.12450272 0.2718757 -0.100685224 -0.15667121
-0.3177014 -0.19752368 -0.31287405 -0.09524484 0.06923825 -0.33523867 0.30113143 0.2183611
-0.3672225 -0.18688685 0.0945762 -0.05779562 -0.0605171 -0.18086638 0.2661129 -0.21989617
0.30812344 -0.0011581451 0.08602299 0.25225058 -0.043692436 -0.18800026 -0.0776074 0.30171654
-0.25822714 0.07714349 -0.34418508 0.19282524 0.13686852 0.019290969 0.15004827 0.00683848
0.20138916 -0.2698948 -0.044233404 0.16597171 0.36061367 0.19157526 -0.25473288 0.27969363
0.018932568 0.024295725 -0.22342266 -0.14305283 0.3459475 0.14762445 -0.11248947 0.20790766
-0.19849615 0.42314067 -0.39614943 -0.011623312 -0.43341646 -0.24364635 0.21216224 0.25045717
0.13697734 0.42709714 0.14698714 0.13611402 0.35893914 0.37366256 -0.124569885 0.40371454
0.14982206 -0.085727125 -0.23891586 -0.21716172 0.016350698 -0.37098205 0.22987063 0.040850952
-0.3463692 0.05485557 -0.06809608 0.19735491 0.16456228 -0.39085773 0.28670442 0.25710928
0.17422879 -0.36262962 -0.08933569 -0.14194784 -0.05296084 0.24311814 0.08815635 0.31735313
-0.093230285 0.15792604 0.16486332 -0.3267571 -0.30409324 -0.14403485 0.2776381 -0.2927351
-0.33809957 0.23936954 0.15734982 0.33179384 -0.3005068 -0.2953498 0.22115353 0.27381268
0.2793028 0.12781815 0.18461032 0.27605334 -0.1627593 -0.09229496 0.31072864 -0.17350267
-0.2487558 0.3268818 0.04941961 0.18294413 -0.21331893 -0.079358816 0.39424485 -0.27500352
0.082999416 0.2637259 -0.16252261 0.25867856 -0.10154353 -0.004526713 -0.014687473 -0.15248792
-0.42003512 0.2733048 0.00498783 -0.25618148 -0.31689656 0.25023186 0.21984568 0.05191378
-0.21923302 -0.1556297 -0.060219113 -0.0699588 -0.2521847 0.021207685 0.034081783 -0.054948885
0.04414018 -0.15411451 0.08693494 0.12028148 -0.19237517 -0.35942072 0.17915863 0.07925883
-0.1602382 0.35592356 -0.140833 0.22791708 0.20009294 -0.27667138 0.2431718 -0.30389345
-0.20717448 -0.035375163 -0.24941854 0.36839345 -0.08143882 0.13148625 -0.29701415 0.19241987

bias f4 [16]
00000000: dfbe a5bd ee8d b13d 61eb b2bd 7950 bd3d
00000010: 6c8e b13d 6e3e a1bd db2f c43d 77fa dbbd
00000020: 4a83 b13d b069 d7bd 5aed b23d bbcb bc3d
00000030: 55e0 1b3e cd80 d83d 4e6c b63d 18cf b9bd
-0.080930464 0.08669649 -0.08736301 0.092438646 0.08669743 -0.07873236 0.0957944 -0.10741132
0.086676195 -0.10518205 0.087366775 0.09218546 0.15222295 0.10571442 0.08907376 -0.09072703

weight f4 [16, 32]
00000000: 2b3e 0cbe c735 8fbe 9181 313e 2d5a a2bd
00000010: 307c 04be cb17 523e 2a9f 88bd dce4 e0bd
00000020: b86c c4bd 7e2a 693d 2ee9 c1be 0c60 2e3e
00000030: 0afb d93d a4d7 3a3e cecc 27bd 719d cc3b
00000040: cc0f 1f3d 38a3 b13e e7b5 6abe c361 493e
00000050: 4eb0 d03c f8a7 11be 57e7 4a3e 40a2 08be
00000060: af3c 5cbd 2ecf 87be c3a8 9cbe c603 ca3e
00000070: 6c38 9bbe 1d33 8b3e 9e8c 70be c571 efbd
00000080: 36c7 8abc 03db 803e 43a7 1ebe 1ff4 f43d
00000090: 3394 ac3d c367 673e 057b 8c3c 5952 fd3d
000000a0: 39fa 7abe d8ee 89be 71f0 9f3e 2422 8abe
000000b0: 1eee a8bd 081d 0cbd 9edb bd3e e3a5 6ebd
000000c0: 56b2 90be 1113 1ebd 9e71 3f3e c476 1a3e
000000d0: 677d 913e e280 babd 5503 0d3e 75d1 b6be
000000e0: 901e 0c3e d362 303e a148 613e 4b24 60be
000000f0: e078 dabd 545a 983d 45b5 88be 5014 91be
00000100: b370 9bbe 0096 a13c 88c5 7c3e e454 973d
00000110: 7540 d9bb 9c7e d93d e7fd 5ebe bcc9 3c3d
00000120: a87a 65bd c3a6 1abe 2ba4 9d3e 37c3 85be
00000130: 6859 983d 0e5e a3be 7d9a 1abd dbd9 32be
00000140: d310 053e 05fe 7dbe c56c 633e 9a50 98be
00000150: 716b 623e eaa5 7cbe da9d 5f3e 0693 febd
00000160: 2cfb 6fba cbe9 97bd 84d8 733e 1870 073e
00000170: 5795 99be edd2 323d 618f 69be 79a1 883e
00000180: f48a 383c 7e82 bdbd 4a5d 54be 2da8 103e
00000190: e3fd 32be 79a4 413e e533 3f3e 3c79 523e
000001a0: 81c5 763d 4564 aabe 9e9a 7f3e 6aa6 f7bd
000001b0: cd6e 01be 0860 febc ba57 913e d3c8 943e
000001c0: 7a74 1b3d cb3a 643e 6232 a7be 947e 303c
000001d0: 7bcf a5be 0065 d13d f8e4 8fbe f1e6 19be
000001e0: ad28 7f3e b834 b13e 8e57 64be 9948 58be
000001f0: 1529 043d 9b1e 043e 0fad 94bd 05c0 eabd
00000200: f66e 8abe d2e5 1a3e d28a a33e 0deb 1cbe
00000210: 3c13 493e 2044 433e e588 8f3e 7d79 48bd
00000220: d0ee a6bc 1db7 713e a224 623e ff8f ac3e
00000230: e826 fdbd 41fd 173e 533b 8b3e cd23 63be
00000240: e79b 683d fb5e e5bc ff71 6d3e e29c 17be
00000250: 780a 873c a479 453e ed98 b4be 0851 a5be
00000260: 9266 39be d645 723e 1086 6a3e 19e5 83be
00000270: 41b8 613d 4041 4bbe 2031 38be 5b0b 9b3e
00000280: 2e99 133e bc19 1fbe 6c68 053e 9f64 f53c
00000290: cc4f e33d 6855 92bd 0244 88be 348d 3b3e
000002a0: 1584 ec3d 309c 703e 5cfd 4bbe d87c 7d3e
000002b0: 3b72 af3e d5bb 3e3e f455 343d 042c a63e
000002c0: 04ac 4ebd 23c9 053e 6e12 913e 8377 a93e
000002d0: 2ac9 4dbe c9b6 cb3e 8b94 4a3e d3e4 f43c
000002e0: 9c03 b83e 7268 85be 0aa1 333e 5b11 e33e
000002f0: dfcf 6ebe db4b 05be c9c7 8ebe d8eb ffbd
00000300: 1caf b5be 9969 e6bd 75fb 953d d4d4 8d3e
00000310: 2c1e 633e 80c8 553e 3996 173e 4daf 63be
00000320: c881 a3be 68de 85bc ecb8 ad3e 8b92 543a
00000330: 7d4f 75bd 7d93 6dbe c079 17be 1996 7ebe
00000340: eedc 8c3e 7303 62bc 4c4a 9bbe 8e8f 2a3d
00000350: 1aa0 b63c 3914 8ebd 4efc b93d 08ae 223e
00000360: 57be acbe 1a8d 82be 9615 a5bc e9b2 b3be
00000370: a334 a6be 9caf 963e 591b 4abd e77a 2fbe
00000380: 7640 27be 5f53 c2be 334e d03e 771e fdbd
00000390: 40a5 1fbe 9c0b 3abe 8dd7 cd3d b1c8 0bbe
000003a0: a59e 903d 4abf 733d c7e2 93be 595d 493e
000003b0: 5469 d73e 4c46 7fbe 38c4 9bbd 83c0 95be
000003c0: 9f69 81be e513 e63e 376a b6bd 4bf2 a53e
000003d0: 273d 1ebe d9de 5fbd a1e3 d3bd 1ee1 da3e
000003e0: 28e9 3ebe 12b9 2a3d 43fd 45bc 9769 8d3e
000003f0: c37b 5b3e 6948 4a3d 8bf0 ae3e 5596 c9be
-0.1369559 -0.27970716 0.17334582 -0.07927356 -0.12937999 0.20516889 -0.06670983 -0.109811515
-0.09591049 0.05692529 -0.37873214 0.17028826 0.10643585 0.18246323 -0.0409668 0.0062443544
0.038833424 0.3469484 -0.22920953 0.196662 0.025474694 -0.14224231 0.19814812 -0.13343143
-0.05376881 -0.26525253 -0.30597505 0.39456004 -0.30316484 0.27187434 -0.23491141 -0.11691622
-0.016940694 0.25167093 -0.15493493 0.11960625 0.08426704 0.22598176 0.017148504 0.12369222
-0.24509515 -0.26940036 0.3123813 -0.26979172 -0.08248542 -0.034207374 0.37081617 -0.05826367
-0.2826106 -0.038592402 0.18695685 0.15084368 0.28415987 -0.09106614 0.13770802 -0.35706678
0.13683534 0.17225198 0.22000362 -0.21888845 -0.10667586 0.07439104 -0.26700798 -0.2833581
-0.3035942 0.019724846 0.24684727 0.073892385 -0.0066299983 0.10619852 -0.21776544 0.046090826
-0.056025177 -0.15102677 0.30789313 -0.261255 0.07438928 -0.31907696 -0.037744988 -0.17465918
0.12994699 -0.24803932 0.22209461 -0.29748994 0.22111298 -0.24672666 0.2183756 -0.12430386
-0.0009154554 -0.07417639 0.23813063 0.13226354 -0.2999675 0.043658186 -0.22808601 0.26685694
0.011263598 -0.09253405 -0.20738712 0.14126654 -0.17479663 0.18910398 0.1867214 0.2055406
0.06024695 -0.33279625 0.24961326 -0.12092288 -0.12639923 -0.03105165 0.28387243 0.29059467
0.037952878 0.22288053 -0.32655627 0.010772366 -0.32384858 0.10224342 -0.28104377 -0.15029503
0.2491786 0.34610534 -0.22299024 -0.21121444 0.03226574 0.129023 -0.07259571 -0.11462406
-0.2703778 0.15126732 0.3194185 -0.1532404 0.19636244 0.19068956 0.2803413 -0.048943985
-0.020377547 0.23605008 0.22084287 0.3370361 -0.123609364 0.14842702 0.27193698 -0.22181626
0.056789305 -0.027999392 0.23188017 -0.1480594 0.016484484 0.19284683 -0.35272923 -0.32288384
-0.18105534 0.23659453 0.22902703 -0.25760725 0.05510736 -0.1984911 -0.1798749 0.302821
0.14413902 -0.1553716 0.13028115 0.029955206 0.110992044 -0.07145196 -0.26614386 0.18315583
0.1154863 0.23497081 -0.19920868 0.24754655 0.34266838 0.1862634 0.044027284 0.32455456
-0.050457016 0.13065009 0.28334373 0.33098993 -0.20096269 0.39787892 0.19783227 0.029894268
0.35940254 -0.26056248 0.175419 0.4434918 -0.23321484 -0.13017218 -0.278868 -0.124961555
-0.3548516 -0.1125061 0.07323352 0.27701437 0.22179478 0.20877266 0.14803399 -0.2223484
-0.31934953 -0.016341403 0.33930147 0.0008108995 -0.05989026 -0.23200794 -0.14792538 -0.24861945
0.27512306 -0.013794768 -0.30330122 0.04164081 0.02229314 -0.06937451 0.090813264 0.158867
-0.33738968 -0.25498277 -0.020151895 -0.35097435 -0.32462034 0.29430854 -0.049342487 -0.17136727
-0.16333184 -0.37954232 0.4068466 -0.12359326 -0.15590382 -0.18168491 0.10050879 -0.13650776
0.07061509 0.0595086 -0.28883955 0.19664516 0.42072546 -0.2492916 -0.07605785 -0.29248437
-0.25275895 0.44937053 -0.089069776 0.32411417 -0.15453015 -0.054655883 -0.10346151 0.42749876
-0.1864363 0.041680403 -0.012084308 0.2761962 0.2143393 0.049385462 0.34167895 -0.39372507

bias f4 [2]
00000000: 84f0 23be 3836 1a3e
-0.16009718 0.15059745

weight f4 [2, 16]
00000000: 70da ea3e a92c bb3e 2026 323e 4c98 0e3e
00000010: ee13 3b3e 0320 d03d e14c ef3e 7b23 1f3f
00000020: b14f 4e3e 046f 793d 30dd f83e 7f41 21bf
00000030: 0056 ae3e 96da 613e 7e05 b43e 76c6 3c3d
00000040: 0ea1 f3be df15 d83e 63db 84be 49ac 4f3e
00000050: 20ec aa3e d8ad 12bf 88df 553d 85d9 92be
00000060: 6862 d53e 007b e7be 5012 c03e feb5 de3e
00000070: 2f61 b73e 25bf 1f3f e2dc bb3d ba94 1bbf
0.4586978 0.3655751 0.17397356 0.13925284 0.18269321 0.10162356 0.4673834 0.62163514
0.20147587 0.06089689 0.48606253 -0.62990564 0.34049988 0.2205604 0.3516044 0.046087705
-0.47583812 0.42204186 -0.2594863 0.20280565 0.33383274 -0.57296515 0.05221513 -0.2868158
0.4167664 -0.4521103 0.3751397 0.43498224 0.35816333 0.6240104 0.091729894 -0.60773814

weight f4 [1, 2]
00000000: f5df 503d ca86 b2bf
0.050994832 -1.3947384

pout f4 [16, 3]
00000000: d461 8b3f 91c6 af3e a7da 823d 2e5e 8b3f
00000010: b5ae a23f ff2d 303f 5043 8b3f 0165 ab3e
00000020: bcaf 7d3d c65a 8b3f e629 4f3f 6c4f 933e
00000030: dc4c 8b3f 69ae 243f 7000 3f3e 895e 8b3f
00000040: f4aa bc3e 7b53 903d 6945 8b3f 776c ab3e
00000050: 05bf 7d3d 1c28 8b3f 0a22 ab3e 261b 7d3d
00000060: 4734 8b3f f93f ab3e 915d 7d3d fc45 8b3f
00000070: 8274 ab3e 90cd 7d3d 7158 8b3f 79a5 ad3e
00000080: d8e1 803d c55f 8b3f b672 cb3e 3d40 a23d
00000090: 1a4c 8b3f 06ed ab3e b7a8 7e3d 1148 8b3f
000000a0: b573 ac3e ae91 7f3d 6440 8b3f 3abf ab3e
000000b0: c94a 7e3d 3e4c 8b3f eac6 ab3e bc65 7e3d
1.088923 0.34331182 0.06389361 1.0888116 1.2709566 0.68820184 1.0879917 0.33475497
0.06193517 1.0887077 0.80923307 0.28771532 1.0882831 0.6432863 0.1865251 1.0888225
0.36849177 0.07047173 1.0880557 0.3348119 0.06194975 1.0871615 0.33424407 0.06179347
1.0875329 0.33447245 0.06185681 1.0880733 0.33487326 0.061963618 1.0886365 0.33915308
0.06293076 1.0888602 0.39735955 0.07922409 1.0882599 0.33579272 0.062172618 1.0881368
0.33682027 0.06239479 1.0879025 0.33544332 0.06208304 1.0882642 0.33550197 0.06210874

throughput f4 [16, 1]
00000000: 560e 453f bf0f 3e3e da3d 463f 5cb0 fb3e
00000010: e479 183f 9bac 413f 873a 463f a261 463f
00000020: a151 463f 2138 463f af9e 453f c09e 3d3f
00000030: ac15 463f c0f6 453f 4e29 463f 1e1f 463f
0.76975 0.18560694 0.7743813 0.4915799 0.5956099 0.75654 0.77433056 0.77492726
0.77468306 0.77429396 0.77195257 0.7407036 0.7737682 0.77329636 0.77406776 0.7739123

delay f4 [16, 1]
00000000: bc07 053e 07ed 093f 0f3c 043e d64e 503e
00000010: b3ec 2b3e 625a 073e 473e 043e 3524 043e
00000020: df2e 043e e13f 043e 90a6 043e 373f 0a3e
00000030: e256 043e 8d6b 043e c549 043e 9250 043e
0.12991232 0.538773 0.12913536 0.20342574 0.16789512 0.13218072 0.12914382 0.12904437
0.12908505 0.12914993 0.12954164 0.13500677 0.12923768 0.12931652 0.12918766 0.1292136

ef1 f4 [16]
00000000: 2836 47be 8c74 563f 600e 55be 32fd ea3e
00000010: 149e 8a3e f8a1 1bbe 98f3 54be 2813 56be
00000020: 809e 55be 18da 54be d8f6 4dbe f023 cfbd
00000030: c05a 53be a0c4 51be e8fe 53be c8cf 53be
-0.19454253 0.83771586 -0.20806265 0.45896298 0.2707373 -0.15198505 -0.20796049 -0.20905745
-0.20861244 -0.20786321 -0.20113695 -0.101142764 -0.20640087 -0.20485163 -0.20702708 -0.20684731

ef2 f4 [16, 1]
00000000: f5bf 40c3 3ddb 3cc3 86d8 40c3 ee98 3ec3
00000010: 3f40 3fc3 9e8c 40c3 74d8 40c3 2bd8 40c3
00000020: 54d8 40c3 30d8 40c3 a8ca 40c3 ca5e 40c3
00000030: ced4 40c3 d2d0 40c3 2dd5 40c3 f9d5 40c3
-192.74983 -188.8564 -192.8458 -190.59738 -191.25096 -192.54929 -192.84552 -192.8444
-192.84503 -192.84448 -192.79163 -192.37027 -192.83127 -192.8157 -192.83272 -192.83583

bias f4 [16]
00000000: 0000 0000 43ab 853d 0000 0000 0000 0000
00000010: 0000 0000 1d00 993d 0000 0000 0000 0000
00000020: 0000 0000 0000 0000 e301 f63d 0000 0000
00000030: 10bf 923d 0000 0000 854e 2cbc ed8a 1a3e
0.0 0.06526806 0.0 0.0 0.0 0.07470725 0.0 0.0
0.0 0.0 0.120120786 0.0 0.071653485 0.0 -0.010516767 0.15092058

weight f4 [16, 1]
00000000: 1100 8ebe d67e 5a3e d024 8cbe 60af 8ebd
00000010: c815 77be 5508 ef3e f91a f0be 203a 8cbe
00000020: 20c8 2bbe 1ce4 b6be 18fc 413e 7c36 16bf
00000030: 932c 1b3f 5b31 01bf 8f3f e73e 11b1 823e
-0.27734426 0.21337447 -0.27371836 -0.06967044 -0.24129403 0.46686044 -0.46895579 -0.27388096
-0.1677556 -0.3572091 0.18943822 -0.58676887 0.6061489 -0.50465935 0.4516568 0.25525716

bias f4 [32]
00000000: ee91 4cbd bcac c23d 8fc1 36bd 0103 2bbc
00000010: 0000 0000 0000 0000 2187 b5bc 2f14 903d
00000020: 0000 0000 55f6 493a 5402 5abd 0000 0000
00000030: a718 773d 42ff e23b 0000 0000 0000 0000
00000040: eeeb 703d 0000 0000 4bcd e5bc 7a99 903d
00000050: f9e7 a33d dad9 713d 0000 0000 0000 0000
00000060: 0000 0000 0000 0000 ee43 7e3d 3185 7b3d
00000070: 0000 0000 0000 0000 0000 0000 2e04 a23d
-0.049943857 0.09505603 -0.044618186 -0.010437728 0.0 0.0 -0.022159161 0.070351
0.0 0.0007704248 -0.053224877 0.0 0.060326245 0.0069274018 0.0 0.0
0.05881875 0.0 -0.028051993 0.07060523 0.0800323 0.05904565 0.0 0.0
0.0 0.0 0.0620765 0.061406318 0.0 0.0 0.0 0.079109535

weight f4 [32, 16]
00000000: 06ae 513e c59d 6b3e 9123 923e a80f fabd
00000010: d8f1 a1bd 97f9 033e cc93 c5bd 9a87 293e
00000020: 0030 9ebd b78d 75be 33c0 a83d 3807 5e3d
00000030: 5e22 ef3d 17d7 b33e 5c58 4f3e 2a20 8f3e
00000040: c004 9b3c a151 42be e0fa 7dbe 90e3 60be
00000050: e385 9fbe b99b 92bd fca3 a6be de02 a7be
00000060: 7e56 58be 7a74 b2be efa3 52bd 6a0c 0a3e
00000070: c5fa cb3e d662 d7bd 1bef b7bb 8322 ac3e
00000080: 8d9e 32be b914 4cbe 0e10 5f3e f2b8 9dbe
00000090: a012 313d ddca 8f3e c856 783d 88e8 c43d
000000a0: 1ed9 52be 40d6 9fbb 2bea 4fbc a0b6 b13d
000000b0: a322 d93d f14a 9d3e c9f6 99be a769 b7bc
000000c0: 3de3 34be 317b 93be 00ee e7bc 0357 9fbe
000000d0: 9eaa 7c3e 50d7 083d a81f 43be 9e31 3d3e
000000e0: 5e52 abbe 4909 0cbe 9831 aabd 3cd2 99be
000000f0: efbd 6dbe a85d 6cbd 37db 853e b8af a83e
00000100: 025a 663e 962e 58be 76da 6cbe 6ff9 9d3e
00000110: 340f 003e 80e5 193c 58fb 433d 127c 91be
00000120: 46c2 f1bd a340 ae3e b094 b2bd 704a 91bc
00000130: 554e 96be ea86 4abe c090 ecbb 3ce2 60be
00000140: c895 33bd c055 133e aa11 b1be 480f d73d
00000150: 0762 6fbe 80b1 30be 7afd 0a3e a1ee 8f3e
00000160: 88e5 c5bd 52a4 14be 26af a3be 22b0 3abe
00000170: d981 9ebe 50b8 a5bd 7cc0 933d b697 a9be
00000180: e90c 9e3e c251 533e 4835 b1be efeb 2cbe
00000190: 5c29 ec3d 5b9b b2bd 98d0 1dbd 5477 23be
000001a0: f565 913e 0461 4abe 1518 8b3e 60e0 ba3c
000001b0: 403f 683d 0d38 8d3e 0e8e 93bd f2b9 61be
000001c0: 5837 6abd cee6 b73e 6650 86be f459 a43d
000001d0: 7de7 b1be e24d 813e f8c2 053e e08f 753c
000001e0: 6e62 1b3e 007c d039 5093 9a3e 724c 8fbe
000001f0: dccb 653c 0a9b 203e 8421 d43e 636c 8c3e
00000200: f4a1 83be ad38 8b3e cc77 a1bd d899 9abd
00000210: bd87 a4be d8f5 63bd 310a 803e 08f0 493d
00000220: f0de 52be 38e1 de3d dc2b e8bd 0345 a53e
00000230: d71d 9dbe e4b7 e4bd 98c9 aebe ee94 0ebe
00000240: 8043 e43d 6609 bc3e 5836 733d bf76 b13e
00000250: d4aa 8d3d 4adf 673e c91d 913e 7b51 973e
00000260: 42a4 4abe 676d a63e 9b8f 8c3e 1c48 29be
00000270: 5217 17be 4bd4 97be e1d7 da3d f20c 74be
00000280: 1eef 183e 2ef8 443e 1e45 9dbe cc4f c53d
00000290: f08e ebbc 3525 713e eabb 4f3e a0f5 b3be
000002a0: 3b03 a63e 77cf 973e 3b3f 873e d371 a5be
000002b0: 2b42 5ebd 14d8 d1bd d44f c4bc 7076 9e3e
000002c0: 6aa0 033e 5566 8f3e 8597 07be 48ae f33d
000002d0: c4cf 003e 0cb7 96be a497 afbe a0db 3bbe
000002e0: 2ed5 773e 226c aabe bb90 9dbe 72d0 4a3e
000002f0: 9254 433e 75de 943e 94a8 88be ee7c 84be
00000300: 92b8 393e 2316 bb3e 2e9f 583e 40db 623d
00000310: 38a3 ee3d f867 c73e c396 69be ad5e 24be
00000320: ee3b 7d3e a0b8 77be 969d e5bd 7b24 843e
00000330: ae78 283e 7ced e93d 0c36 ccbd 46fd 8d3d
00000340: c1ac a53e 5e45 33be 002c 363b 762f 2c3e
00000350: 87ef 79be 96cb bf3e dbe0 34be 88e0 adbd
00000360: f0e9 c3bd fcec 6bbe bfa0 87be d622 4c3e
00000370: ef7f fd3d f88a a9be 1a75 4ebe f160 d43e
00000380: 4662 0a3e 1e44 113e 679b 58be 62b7 1ebe
00000390: e09a 5abd 506b 84bd 1f16 78be c09c ee3c
000003a0: e0ed 0f3d e85d 37bd a8c2 483d 877e 0fbe
000003b0: 4871 bc3d 168a 083e 2cb3 3ebe b77e b3be
000003c0: e680 3d3e 14b8 ac3d e620 38be dd72 ae3e
000003d0: 33bb 23be 7ea5 743e 2aac 373e a1c4 97be
000003e0: 627e 693e 4071 a6be 2293 48be d06d 71bd
000003f0: e907 74be efd6 b03e 343c 91bd 4ccc 0f3e
0.20476541 0.23009403 0.2854276 -0.122100174 -0.07907456 0.1288818 -0.09647331 0.16555634
-0.07723999 -0.23979841 0.08239784 0.054206103 0.11676477 0.35125038 0.2024855 0.27954227
0.018923163 -0.18976451 -0.24802732 -0.21961808 -0.31156835 -0.07158608 -0.32546985 -0.32619375
-0.21126744 -0.3485449 -0.05142587 0.13481298 0.3983976 -0.10516898 -0.0056132204 0.3362008
-0.17443295 -0.1992978 0.21783468 -0.30805165 0.043230653 0.2808446 0.060629636 0.09614664
-0.20590636 -0.0048778355 -0.012690107 0.08677411 0.106023096 0.30721238 -0.30071095 -0.022389246
-0.1766481 -0.28804925 -0.02831173 -0.31121072 0.2467446 0.033408463 -0.19055045 0.18475959
-0.3346128 -0.13675417 -0.083102405 -0.3004321 -0.23216985 -0.057706505 0.2614381 0.32946563
0.22495273 -0.21111521 -0.23130211 0.30854365 0.125058 0.009393096 0.047847122 -0.2841497
-0.11804633 0.3403369 -0.08719766 -0.01773569 -0.29356638 -0.19778028 -0.007219404 -0.21961302
-0.043844014 0.1438818 -0.3458379 0.105009615 -0.23377238 -0.17255211 0.13573256 0.28111747
-0.0966292 -0.14515808 -0.31969565 -0.18231252 -0.3095844 -0.080917954 0.07214448 -0.3312356
0.30869225 0.20636657 -0.34610963 -0.16886877 0.11531326 -0.08721038 -0.03852901 -0.15963489
0.283981 -0.19763571 0.2716681 0.022812068 0.056700945 0.27581826 -0.07204829 -0.22043589
-0.057181686 0.35918278 -0.26233214 0.0802497 -0.34746924 0.25254732 0.13062656 0.014987916
0.15174267 0.0003976524 0.30190516 -0.2798801 0.014025655 0.15684143 0.4143182 0.27426443
-0.25709498 0.27191678 -0.078841776 -0.075488746 -0.3213481 -0.055654377 0.25007775 0.049301177
-0.20592856 0.10882801 -0.113364905 0.32279214 -0.30686828 -0.11167887 -0.3413818 -0.13924
0.11145687 0.3672592 0.059377998 0.3466091 0.069173485 0.22643772 0.28343037 0.29554352
-0.19789222 0.32505342 0.27453312 -0.16531414 -0.1475499 -0.29654154 0.10685707 -0.23833063
0.14934966 0.19235298 -0.30716795 0.09634361 -0.028754681 0.2354935 0.20286527 -0.35148335
0.3242434 0.2965047 0.2641543 -0.32313403 -0.05426232 -0.10246292 -0.023963846 0.30949736
0.12854162 0.2800776 -0.13241394 0.11898476 0.12579256 -0.2943653 -0.3429538 -0.18345499
0.24202415 -0.33285624 -0.30774483 0.19806078 0.1907523 0.2907597 -0.26691115 -0.25876564
0.18136814 0.36540326 0.21154472 0.055384874 0.11652225 0.3894651 -0.22811417 -0.16051741
0.24729893 -0.24191523 -0.11211698 0.25809082 0.16452286 0.1142225 -0.09971246 0.06933074
0.32358363 -0.1750693 0.0027797222 0.1681498 -0.24407779 0.3746001 -0.176639 -0.084900916
-0.095661044 -0.23039621 -0.26489827 0.19935164 0.12377917 -0.33113837 -0.20161858 0.4148021
0.13514051 0.14186141 -0.21153031 -0.15499642 -0.053370357 -0.06465781 -0.24227189 0.029127479
0.035138965 -0.04476729 0.049013764 -0.1401311 0.09201294 0.13333926 -0.18623036 -0.35057613
0.18506202 0.084335476 -0.179813 0.3407201 -0.1598938 0.23891255 0.17936769 -0.29642203
0.22802117 -0.32508278 -0.19587377 -0.058942616 -0.23831142 0.3453898 -0.07091561 0.14042777

bias f4 [16]
00000000: 6caa 7c3d 6109 833d 3942 833d df75 7d3d
00000010: acda 7f3d edec 813d 0000 0000 0000 0000
00000020: 3c27 783d 828d f2bc 0000 0000 3a47 6dbd
00000030: 0000 0000 0000 0000 e5be 7e3d ee84 7f3d
0.061685964 0.06398273 0.06409115 0.06187999 0.0624644 0.06344018 0.0 0.0
0.06058429 -0.029608492 0.0 -0.057929255 0.0 0.0 0.06219377 0.06238263

weight f4 [16, 32]
00000000: 33ae b43d f521 9d3e 60e3 bbbd 39d4 50be
00000010: e0d3 aa3d 3878 2bbd 34c4 1abe 6e79 4e3e
00000020: 8022 523b 434f c0bb 2d00 34bc 2087 3ebd
00000030: df20 7bbe 7112 063e 00db ad3b c2b2 5b3e
00000040: 0371 983d 0091 e73c deb0 0a3e 6c1e a83e
00000050: 852a eabd 6276 8d3e dc14 b13d a685 71be
00000060: 3c1d fc3d 7020 59be 80d0 36bd 121e e0bd
00000070: d04c 76be cf90 8e3e 82cc a1be c592 6b3e
00000080: 8e4a 8bbe d515 0e3e f446 173d 2042 843e
00000090: fb04 03be cc68 d03d 2bb3 823d 4388 873e
000000a0: b030 ac3c e18a 393e 2813 39bd ac95 7bbe
000000b0: 8085 bf3e 7d4e 50be 9088 76bd 980d 2fbd
000000c0: d42b cd3e a07b 9cbd 8103 69be e016 d7bc
000000d0: cd53 743e 70b0 563e 81c1 953e 1c3b 94bd
000000e0: 6689 2a3e b058 aabe 87fb 543e 3be2 663e
000000f0: e28b 693e b79b 4fbe 2050 c1bd e0b9 113e
00000100: 2317 52be 7a4f d4bd 16e3 a4be 29f8 de3c
00000110: 56d2 603e 88fc b93d 1b7c 003d 5e65 373e
00000120: b081 63be ba68 af3d 43de 8f3d db42 33be
00000130: a5d6 b93e b19c 60be 8039 543d 6010 9fbe
00000140: 5775 2d3d 51e0 20be b1f2 213e ce87 0bbe
00000150: 8b3b 903e b737 60be 0e74 593e 5efa 87be
00000160: 12e7 413e 3c71 18be 4fc8 8c3d 34cc 32bb
00000170: 56f9 6a3e d44c ed3d d983 9fbe 1734 b53d
00000180: 2018 4dbe b117 e13e 19d7 963d b81b acbd
00000190: 78b3 38be c89f fa3d 7c93 4fbe 2c5c 623e
000001a0: 3a8e 453e fa88 863e 1a40 813e 6c75 9ebe
000001b0: 08b0 9e3e fa83 71bd 2e10 d6bd 9096 1bbd
000001c0: 04e2 9e3e cb30 8b3e 2347 c03d 0dbf 693e
000001d0: 9f98 8dbe 42ce 873d 1425 a0be 7c70 f63d
000001e0: 95f7 80be 4308 01be 8acd a03e 0d61 cb3e
000001f0: 665c 59be 77ef 48be 2859 333d 6818 453e
00000200: af77 5dbc 9d54 843d 49b9 5dbe 989a 213e
00000210: 175b b13e 5f41 2fbe 1403 343e 90ff 673e
00000220: b780 913e 65ee c23b 3948 2e3e a5fe 843e
00000230: 522a 8f3e ac04 cd3e b87f cfbd fc40 0f3e
00000240: 0331 993e f4c1 75be ea28 e13d 47a4 9bbc
00000250: 5cbc 8f3e 9d00 bebd a024 cb3c 929c 583e
00000260: bbd5 a5be 8bd8 98be 96a9 e8bd 53c2 923e
00000270: cac1 723e f642 77be 8412 8a3d 448b 08be
00000280: 9a77 f2bd da65 f93e 8af8 3e3e e6bb b7bd
00000290: b02b 553d 844b 8c3d 6725 bc3d fec0 84bd
000002a0: 0833 55be bd9e 903e 3c3e 5e3e fa87 173e
000002b0: d962 9abd f060 663e 5bbd 833e ae2e 5c3e
000002c0: cf3f 1a3e 111a b23e eba6 253d 286f 0d3e
000002d0: c387 c83e 3645 d33e 29dc 18be 1510 a33e
000002e0: 309d 053e 601a 22bd b13a c23e 5e11 f7bd
000002f0: ee3b 6b3e 4b61 b33e e8b2 79be fd00 1cbe
00000300: e65f b3be 844e 82bd 0467 a4be 6882 f2bd
00000310: 90d3 db3d c6ea 7f3e 16ab 493e f2f5 483e
00000320: 5e32 163e 668c 60be 7aba 8fbe 2020 703c
00000330: 91e4 ab3e 3014 a33c 701c f9bc acba 75be
00000340: 3c83 33be 8e8a 8bbe bbef 903e 88f2 6bbd
00000350: ffe9 9fbe b059 1b3d 102e d23c e0ea 32bd
00000360: c698 013e 66b2 423e 803b aabe 6bad 8abe
00000370: 7023 8bbc 71d4 a7be 416e a4be e9d2 9f3e
00000380: b04a dcbc 0afd 32be e85e f8bd 6c53 8dbe
00000390: e342 8d3e 1002 9dbd 488d 4bbe 9249 89be
000003a0: a69b 533e 302e 48bd a023 18bd f8b7 bcbd
000003b0: acc3 2ebe 6cce 803d 5b45 8b3e 98d4 51be
000003c0: 20c5 8a3c e8aa 89be 46c2 29be b1e4 9e3e
000003d0: 80f1 723b 1f61 ae3e 08b9 7dbd bb53 45be
000003e0: 5950 58be a970 a03e 9633 8bbe eefe 3d3e
000003f0: 28fe b33d 34ae d53d d646 4c3e 6c6f bdbd
0.08822288 0.3068997 -0.09174228 -0.20393457 0.08341193 -0.041862696 -0.15113908 0.20163509
0.003206402 -0.0058688237 -0.01098637 -0.046515584 -0.24524258 0.13092972 0.005305648 0.2145491
0.0744343 0.028267384 0.13544032 0.3283571 -0.11433891 0.2762938 0.08646557 -0.23586139
0.123102635 -0.2120378 -0.044632435 -0.109432355 -0.24052739 0.27844855 -0.3160134 0.23005207
-0.27205318 0.13875516 0.0369329 0.258317 -0.12794869 0.101762384 0.0638183 0.26471147
0.02101931 0.18119384 -0.045184284 -0.24568814 0.3740654 -0.20342441 -0.06018883 -0.042737573
0.400725 -0.07640767 -0.22755243 -0.026256025 0.23860092 0.20965743 0.29249194 -0.07237837
0.16653976 -0.33270788 0.20799075 0.22547238 0.22807267 -0.20274244 -0.09439111 0.14231062
-0.20516638 -0.103667215 -0.32204503 0.027217941 0.21955237 0.0908137 0.031368356 0.17909762
-0.2221744 0.08564897 0.07024815 -0.17505972 0.36296573 -0.21934773 0.05181265 -0.3106718
0.042348232 -0.1571057 0.15815236 -0.13626024 0.28170428 -0.21896254 0.21235678 -0.26558203
0.18935803 -0.14886945 0.06874143 -0.002728236 0.22946677 0.115869194 -0.3115528 0.08847826
-0.20028734 0.43963388 0.07365245 -0.084037244 -0.18037212 0.12237507 -0.20271105 0.22105473
0.19292536 0.2627638 0.25244218 -0.3094896 0.30993676 -0.058963753 -0.10452305 -0.037985384
0.3103181 0.27185664 0.09388568 0.22826786 -0.27655503 0.066311374 -0.31278288 0.120331734
-0.2518889 -0.12600808 0.31406814 0.3972248 -0.21226653 -0.19622599 0.043786198 0.19247591
-0.013517304 0.06461451 -0.21652712 0.15781629 0.3463981 -0.17114781 0.17579299 0.22656083
0.28418514 0.005948829 0.17019738 0.25975528 0.27961975 0.40042627 -0.10131782 0.13989633
0.29920205 -0.23999768 0.10994132 -0.018999232 0.28073394 -0.09277461 0.024797738 0.21153477
-0.32389626 -0.2985271 -0.11360471 0.28663883 0.23706737 -0.24146637 0.06741813 -0.13334376
-0.118392184 0.4871052 0.18649498 -0.08971386 0.052043617 0.06850341 0.091868214 -0.06482123
-0.20820248 0.28246108 0.21703428 0.14797965 -0.07538385 0.22497916 0.25730404 0.21502182
0.15063404 0.34785512 0.04044239 0.13811934 0.39166078 0.4126374 -0.14927734 0.31848207
0.13048244 -0.039575934 0.37935403 -0.120638594 0.2297208 0.35035166 -0.24384654 -0.15234752
-0.35034102 -0.06362632 -0.32109845 -0.11841279 0.10733712 0.24991903 0.1969417 0.1962507
0.14667651 -0.21928558 -0.28071958 0.014656097 0.3357282 0.019907087 -0.030409068 -0.23996991
-0.1753053 -0.27254146 0.283079 -0.057604343 -0.31233212 0.03792733 0.02565673 -0.043681026
0.12655935 0.19013366 -0.3324852 -0.27085432 -0.016984671 -0.32779267 -0.32115367 0.312156
-0.026891083 -0.17479339 -0.12127477 -0.27602708 0.27590093 -0.07666409 -0.19878113 -0.26813942
0.20664844 -0.048872173 -0.03714335 -0.09214777 -0.1706683 0.06289372 0.27201352 -0.20491254
0.0169397 -0.26888204 -0.16578016 0.31033853 0.0037070215 0.34058473 -0.061944038 -0.19270222
-0.211244 0.31335953 -0.27187794 0.18554279 0.08788711 0.10433617 0.19948897 -0.09249768

bias f4 [2]
00000000: 4241 913d 1060 9c3d
0.07092525 0.0763551

weight f4 [2, 16]
00000000: 9163 0e3f 5348 553e 871a 043f 85c2 e73e
00000010: 36cd 623e 01cf 913e e4c5 3e3e b04b 753d
00000020: e455 0d3f cdf6 3b3f 7c76 523e 099b 1f3a
00000030: a284 043f fc12 e6be daf3 0a3f 1f4c bf3e
00000040: bfb5 fe3e 467e 173d 6db0 95be e4f1 023f
00000050: d5d1 36be ecc4 843e fe78 a73e db1f 0abf
00000060: 6ef7 eb3d a11e 04bb 58ce d13e c8bb aabe
00000070: 3e7b b33e 5054 b83e b653 ed3e b0e8 233f
0.55620676 0.20828371 0.5160298 0.45265594 0.22148594 0.28478244 0.18630177 0.059886634
0.55209184 0.73423463 0.2055301 0.00060884707 0.5176488 -0.4493636 0.5427834 0.37362763
0.49748036 0.036985658 -0.29236165 0.51150346 -0.17853482 0.2593149 0.32709497 -0.5395486
0.11521803 -0.0020159858 0.4097774 -0.3334639 0.35054964 0.36001825 0.4635293 0.6402693

weight f4 [1, 2]
00000000: 068c 8b3f 8fbb 853e
1.0902107 0.26119658

pout f4 [16, 3]
00000000: 5e75 993d 181d d03a a9b7 a937 da68 963d
00000010: edca ef3b bd30 a139 9434 943d 0cfe c13a
00000020: 0ec2 9237 51d7 953d 38ca d03a d2a3 9e37
00000030: e05f 983d 4312 413b 18d3 5d38 5ca4 9c3d
00000040: 5cd7 d83a d880 b437 1534 9a3d 4e24 d23a
00000050: ff33 ac37 080f 993d 9cdd cd3a 0d2b a737
00000060: bee1 943d 920e 6b3b 9c72 a338 b2ed 943d
00000070: b61d 683b 8e8a 9f38 7d80 963d a0be c53a
00000080: 226a 9c37 485f 983d 3451 cb3a 1ed9 a337
00000090: cf67 983d 5fec 883c 0242 cb3a e896 963d
000000a0: f4c1 c83a f316 9a37 5c64 963d 2501 4e3b
000000b0: d6c2 7c38 7859 983d d057 cc3a b350 a537
0.07493089 0.0015877811 2.0231893e-05 0.073442176 0.007317892 0.00030744626 0.07236591 0.0014800443
1.749492e-05 0.07316459 0.0015929407 1.8911353e-05 0.07440162 0.0029460348 5.2887102e-05 0.076485366
0.0016543674 2.151767e-05 0.07529465 0.0016032548 2.052821e-05 0.0747357 0.0015706304 1.9927998e-05
0.072696194 0.003586684 7.793793e-05 0.07271899 0.00354181 7.607519e-05 0.07348726 0.0015086718
1.8646071e-05 0.074400485 0.0015511871 1.9532217e-05 0.07441675 0.016714273 0.0015507343 0.07353002
0.0015316592 1.8368917e-05 0.07343361 0.0031433788 6.0262937e-05 0.0743894 0.0015590135 1.9707111e-05

throughput f4 [16, 1]
00000000: 7dcc ed3f 29cc ec3f 2b64 ee3f 5230 ee3f
00000010: a99b ed3f e070 ed3f 09b7 ed3f 84d8 ed3f
00000020: 4fd6 ed3f acd7 ed3f d022 ee3f 9bec ed3f
00000030: 4f41 ea3f 1b1f ee3f c1c6 ed3f c9ec ed3f
1.857803 1.8499805 1.8624319 1.8608496 1.8563129 1.8550072 1.8571483 1.85817
1.8581027 1.8581443 1.8604374 1.8587831 1.8301181 1.8603243 1.857628 1.8587886

delay f4 [16, 1]
00000000: b879 5c3d 6168 5d3d 72ed 5b3d 501d 5c3d
00000010: 08a7 5c3d c9ce 5c3d 9e8d 5c3d 926e 5c3d
00000020: 9e70 5c3d 5b6f 5c3d cc29 5c3d f65b 5c3d
00000030: 8acf 5f3d 3a2d 5c3d 0a7f 5c3d cb5b 5c3d
0.053827018 0.05405462 0.053693242 0.053738892 0.05387023 0.053908143 0.053845994 0.053816386
0.053818338 0.053817134 0.053750798 0.05379864 0.054641284 0.05375407 0.05383209 0.053798478

ef1 f4 [16]
00000000: e669 6cc0 64c8 20c0 2274 70c0 2e4a 6ec0
00000010: a4b4 51c0 7cb3 6ac0 7002 6cc0 96d5 6cc0
00000020: 96ed 46c0 b699 47c0 b2ae 6ec0 5464 6dc0
00000030: 789c e7bf 4219 6fc0 a813 4ec0 e624 6dc0
-3.6939635 -2.5122309 -3.7570882 -3.7232776 -3.2766504 -3.6672049 -3.6876488 -3.7005363
-3.108251 -3.1187568 -3.7294126 -3.7092485 -1.8094625 -3.7359166 -3.2199497 -3.705377

ef2 f4 [16, 1]
00000000: fa6c 1cc3 4e1d 1ac3 2eb5 1ac3 55fc 1ac3
00000010: 671f 1bc3 f73c 1dc3 6e9e 1cc3 e748 1cc3
00000020: 530e 1ac3 4613 1ac3 9386 1bc3 9212 1cc3
00000030: f8f7 19c3 b259 1bc3 6f8b 1ac3 a01c 1cc3
-156.42569 -154.11447 -154.70773 -154.98567 -155.12267 -157.23814 -156.61887 -156.28477
-154.05595 -154.07529 -155.52568 -156.07254 -153.96863 -155.35037 -154.54466 -156.11182

bias f4 [16]
00000000: 3456 6a3d 7d58 d93c 717f 9bbd 20f2 aa3d
00000010: 0055 01bd 27a9 7e3d 8ed7 23bd 66b4 51bd
00000020: 3404 5f3d 1cb3 fabc 70c3 97bd 1030 9d39
00000030: 1828 883d 7944 a7bc 9880 94bd c12d b43d
0.057211116 0.026531452 -0.07592667 0.08346963 -0.031575203 0.062173035 -0.04000049 -0.051197432
0.054447368 -0.030602984 -0.074103236 0.00029981183 0.06648272 -0.020418392 -0.0725109 0.08797789

weight f4 [16, 1]
00000000: e64a 5fbe e191 343e caa5 b3be 9ce7 4d3c
00000010: f064 8cbe 71e1 e83e bbe6 05bf 6c1d a6be
00000020: d19b eabd ba8b c7be 7bf7 86bc 5d3f 17bf
00000030: cbed 193f 4a16 14bf b104 c73e 05c0 413e
-0.21805915 0.17633773 -0.35087425 0.012567427 -0.2742076 0.45484498 -0.5230519 -0.32444322
-0.11455501 -0.3897379 -0.01647543 -0.5908106 0.6012847 -0.5784651 0.38870767 0.18920906

bias f4 [32]
00000000: 6666 10bd 0f5a ef3d 8b05 e7bc 1734 f9bc
00000010: f262 023e 12a5 b6bc 7614 aebc 312e 8d3d
00000020: 0ba3 16bd 0551 fabc 38e7 723d 3e68 2bbd
00000030: ca8b 023d 287b e83d d77d efbc fef9 b83d
00000040: 23e2 ed3c f9c5 f9bc 6254 0cbd 9f57 993d
00000050: 9887 b0bc 475d 503d 5037 4ebd ca04 debc
00000060: 8695 9a3c a4a9 c4bc 5019 3f3d 25d0 103d
00000070: ce5d d03d e24a 243d 06d2 ccbc 680e 843d
-0.035253905 0.11687099 -0.028200885 -0.030420346 0.12733057 -0.022295509 -0.02124999 0.06893576
-0.036776584 -0.030556211 0.05930254 -0.04184746 0.031871594 0.11351615 -0.02923481 0.09032057
0.029038494 -0.030489909 -0.03426016 0.074874155 -0.021549031 0.050870206 -0.05034572 -0.027101893
0.018870126 -0.024006672 0.046655 0.035354752 0.10174142 0.040110476 -0.02500249 0.0644806

weight f4 [32, 16]
00000000: d710 733e 4318 783e cbdf a23e 1a2a cbbd
00000010: cf13 3ebd 3764 0d3e 6aa6 82bd eafe 4a3e
00000020: e2b7 38bd 3b17 54be 266c 083e 0ff1 b13d
00000030: 609b 003e 7792 c43e d6c1 593e b49a 983e
00000040: 859e c3bd 2990 42be 22a9 b9be e251 a1be
00000050: ed2f dabe c83a 80bd a14e e1be fcad e1be
00000060: 6969 a6be 081f edbe 8e7f 26be f5b7 a53c
00000070: 2b85 d13e d806 61be 5ad8 e33b 9e0b 9e3e
00000080: 168b 18be b044 44be c42e 793e 94fd 93be
00000090: 3ebe 8c3d c457 933e b267 b03d 5724 f93d
000000a0: 6d12 39be bef8 a83c 2aa2 0a3c f0f2 e53d
000000b0: 6a76 e73d ec59 aa3e 6ba3 95be 60d8 89bc
000000c0: 4650 18be 2f2f 9dbe a3c4 b2b9 0c21 95be
000000d0: 6fa5 8c3e 5b36 5d3c a87c 26be 12d5 593e
000000e0: 833a 9dbe 01cd debd e235 a0bd ab80 8bbe
000000f0: cc08 81be dea2 f3bc 129d 793e bbbc 9e3e
00000100: 6632 ca3d 42fb a9bd 2816 b7be 8a7b 423e
00000110: d50e a0ba 7530 0c3e e4a0 a0bd 6024 d2be
00000120: 89dc 79be 0632 5b3e 3f3b 09bb 9678 13be
00000130: f17b 2abe 13eb a5be dbfc ed3d 6a3c b2bd
00000140: b099 b8bc 5289 f93d e91c a6be 6b77 ec3d
00000150: 4879 59be e26b 47be 77e5 203e 32e3 9a3e
00000160: b20e 9bbd b878 fdbd b75f a5be 24c8 24be
00000170: 07bd a9be b2d0 73bd 2e28 5b3d 23f8 b7be
00000180: fc9c a73e 03e9 503e e49d a7be 795e 20be
00000190: 0e40 093e 887f b9bd 412e a2bc 0d49 10be
000001a0: 33cb 9a3e ee32 37be a9f7 933e ab29 2a3d
000001b0: 1d6e 5a3d 33cf 963e f331 97bd 99e7 63be
000001c0: 6f2b fdbd 1df7 b43e 686a a8be 87b3 f43c
000001d0: e5fe d3be 9046 813e 0126 833d 9a63 53bd
000001e0: 434e b03d f08e 87bd 6d3a 5d3e 7464 b1be
000001f0: 15f7 723c 2dd6 b83d 9c7b d33e a844 823e
00000200: 1237 62be f0a1 703e 7e77 2ebd fe49 3ebd
00000210: fff9 91be b464 bebd 6398 923e a633 af3d
00000220: 1f2a 2ebe e48c 143e 7a25 0abe 39d3 b73e
00000230: 7317 b0be 127f 9abd 1ba3 c0be 4990 38be
00000240: 45a7 0e3e 7277 a03e 68ca b23d d188 bc3e
00000250: 33d1 c63d 0f51 353e 0469 9f3e cf9c a53e
00000260: ce83 2ebe 84b8 b43e d2e1 503e 9eb1 0cbe
00000270: 6954 48be 1289 89be 49e7 833d b255 a2be
00000280: 56c8 b13d 05ef 363e d861 bdbe 93ba 483d
00000290: 8955 bbbd f235 6a3e 8a8a 0f3e 2711 d4be
000002a0: cb54 863e 3a6d 6f3e 6e36 223e 6c8a c5be
000002b0: e692 73bd 631d 29be 512b f7bc 621a 8c3e
000002c0: 956d 2d3e 947b 743e 1468 bbbd b0da 193e
000002d0: a0af 2a3e 9f01 acbe 37a7 9abe c9f8 11be
000002e0: ad97 903e c07b 95be e9c3 a7be 69b1 743e
000002f0: 9e14 193e e2ce a93e 7730 9cbe fc33 9cbe
00000300: 2bc0 1b3e 231e ac3e 9b8b 3a3e 5ef7 0c3d
00000310: e884 b23d c3ab ba3e 2bd4 83be 1571 42be
00000320: 7dc9 5f3e fae4 8abe 142f 41be 3c37 6a3e
00000330: efb1 0f3e 5bca ad3d 503b ffbd 8699 ee3c
00000340: 9174 543e 4cdf bdbd bd68 e8bd 8766 8f3d
00000350: a37d b8be 8f24 ed3e 9cf3 95be cdfb 4dbe
00000360: fa3e 58be d479 b1be 6895 93be af38 aa3d
00000370: cf87 5a3e 280e e5be ba35 e7bd 64b9 f23e
00000380: ab62 263e 90fb ea3d 4c8a 3cbe e2e2 0abe
00000390: 58c9 d4bc 243e bcbd 6206 5cbe 8890 673d
000003a0: b973 7e3d a53f 8ebc 73a5 1e3d 74dd e6bd
000003b0: b623 853d d499 243e d6b9 57be 2e78 c3be
000003c0: fd92 c53d 87b0 313e 7081 89be aef5 893e
000003d0: 3899 7ebe fc2a a83e 1c9b b93d cb34 c5be
000003e0: ba88 0f3e 5de0 d3be 8b76 25be 173a 17be
000003f0: 79b5 18be be67 833e 8847 553c 99bc 713e
0.23736893 0.24228005 0.31811365 -0.099201396 -0.04640561 0.1380776 -0.06379397 0.19823804
-0.04509724 -0.20711987 0.13322505 0.086885564 0.12559271 0.38392994 0.21265349 0.2980553
-0.095517196 -0.19000305 -0.3626185 -0.31507784 -0.4261469 -0.06261212 -0.44005302 -0.44078052
-0.32502297 -0.46312737 -0.16259596 0.02022932 0.40921912 -0.21975267 0.0069532814 0.30868238
-0.14896807 -0.19166827 0.24334246 -0.28904402 0.06872223 0.28777897 0.08613528 0.121651344
-0.18073435 0.020626422 0.0084615145 0.11227977 0.113018826 0.3327173 -0.2922624 -0.016826808
-0.14874372 -0.3070006 -0.0003409731 -0.29126775 0.27469966 0.013501729 -0.1625849 0.21272686
-0.30708703 -0.10878945 -0.07822777 -0.27246603 -0.25202024 -0.029740747 0.24376324 0.31003365
0.09872894 -0.08299877 -0.3575909 0.18992439 -0.0012211452 0.1369036 -0.078431875 -0.41043377
-0.24400534 0.21405801 -0.0020939854 -0.14401469 -0.16648842 -0.3240591 0.11620494 -0.08702929
-0.022534221 0.12184395 -0.32443932 0.11546215 -0.21237671 -0.19474748 0.15712534 0.3025146
-0.07571162 -0.12376541 -0.32299587 -0.16091973 -0.3315203 -0.0595252 0.053505115 -0.359315
0.32736957 0.20401387 -0.32737648 -0.15661038 0.13403341 -0.09057528 -0.019797446 -0.14090367
0.30233154 -0.17890522 0.28899887 0.041543644 0.05332767 0.29454955 -0.07382574 -0.22256316
-0.123618 0.35344782 -0.32893682 0.029870762 -0.41405407 0.25249147 0.06403733 -0.05160866
0.08608677 -0.0661906 0.21604319 -0.34646952 0.014829417 0.09025226 0.41305244 0.25443006
-0.2209132 0.23499274 -0.042594425 -0.046457283 -0.28511044 -0.09296551 0.28631887 0.08554773
-0.17008255 0.1450687 -0.13490859 0.35903338 -0.3439289 -0.07543768 -0.3762444 -0.1802379
0.13930996 0.3134113 0.08730012 0.36823133 0.0970787 0.17706703 0.31134808 0.32346198
-0.17042467 0.35297024 0.20398644 -0.1373963 -0.1956345 -0.2686239 0.064405985 -0.31706005
0.08680789 0.17864616 -0.3698871 0.049006056 -0.09147174 0.22872141 0.14017692 -0.41419336
0.26236567 0.2338151 0.15841076 -0.3858217 -0.059466265 -0.16515116 -0.030172022 0.27363878
0.16936333 0.23875266 -0.09150711 0.15024829 0.16668558 -0.33594987 -0.302057 -0.1425506
0.2824072 -0.29195976 -0.32766655 0.23895802 0.14949271 0.33165652 -0.30505726 -0.3050841
0.15210025 0.33616742 0.18217318 0.034415595 0.08716756 0.3645917 -0.2574781 -0.1898845
0.21854205 -0.2712782 -0.18865615 0.22872633 0.1403272 0.08485862 -0.12462485 0.02912594
0.20747592 -0.09271106 -0.11348102 0.070019774 -0.36033353 0.46316954 -0.29287422 -0.20115586
-0.21117774 -0.3466326 -0.28824925 0.08311593 0.2134087 -0.44737363 -0.112895444 0.47407067
0.16248576 0.11473763 -0.18412131 -0.13563111 -0.025974914 -0.0919154 -0.2148681 0.05653432
0.06212208 -0.017364332 0.038732003 -0.112727076 0.06500952 0.16074306 -0.21066985 -0.38177627
0.096471764 0.17352496 -0.26856565 0.2694525 -0.24863136 0.32845294 0.09062788 -0.3851684
0.14017001 -0.41382113 -0.16158502 -0.14768253 -0.14912976 0.25665087 0.013017543 0.236071

bias f4 [16]
00000000: 9a58 fb3c 28c3 e93c 3b67 5f3c 0ff6 fd3c
00000010: ed3e cc3c 8968 023d 78f4 293e db8d 863b
00000020: f874 e43c 1ccc 243e 8625 493e 9b45 0bbd
00000030: 593d 063e c75e 9abc e0bf fe3c 8fc0 053d
0.030681897 0.02853544 0.013635452 0.031001119 0.02493235 0.031837974 0.16597164 0.004106266
0.027887806 0.16093487 0.1964322 -0.034001928 0.1310934 -0.018844021 0.031097353 0.03265434
