train/models/HARQ-IR-NumK=3-PDB=15_model_pd_satisfy.pt (torch, 31822 bytes, 14 tensors)

bias f4 [16]
0	0x3b834b30	0.004006766
1	0x3d1499a7	0.036279347
2	0xbd9df596	-0.077128574
3	0x3d3e5ba4	0.046474114
4	0xbd969b44	-0.07353833
5	0x3d51ae6f	0.051191743
6	0xbd871de9	-0.06597502
7	0xbd6bc26f	-0.057558473
8	0x3d49fa85	0.04931118
9	0xbd5654a6	-0.05232682
10	0xbd36f672	-0.044668622
11	0xbd26be7a	-0.040708996
12	0x3d4e0e99	0.05030689
13	0xbd932413	-0.07184615
14	0xbc27516d	-0.0102122845
15	0x3dc8c035	0.098022856

weight f4 [16, 1]
0	0xbe8b77ca	-0.2723983
1	0x3e3f4705	0.18679436
2	0xbeb108d8	-0.3457706
3	0xbcecf161	-0.028923692
4	0xbea01ea7	-0.31273386
5	0x3ee25765	0.44207302
6	0xbf07f7a9	-0.53112274
7	0xbea743df	-0.3266897
8	0xbdfdf646	-0.124004886
9	0xbed191d6	-0.40931576
10	0x3c91d5ba	0.017802108
11	0xbf2170e5	-0.6306289
12	0x3f148501	0.5801545
13	0xbf12b292	-0.57303727
14	0x3ee74d6b	0.45176253
15	0x3e425e12	0.18981197

bias f4 [32]
0	0xbd3940dc	-0.04522787
1	0x3d7d9a29	0.061914597
2	0xbd5c1a6a	-0.053736128
3	0xbd31b259	-0.043382976
4	0x3dc60569	0.09669001
5	0x3e09d979	0.13461865
6	0xbd601149	-0.054703984
7	0x3d64ed36	0.055890284
8	0xbd770e55	-0.060316402
9	0xbd5ab5ec	-0.05339615
10	0x3def19bd	0.11674831
11	0xbd637f02	-0.055541046
12	0x3d3d0a54	0.046152428
13	0x3d9770fe	0.073945984
14	0x3e12caa8	0.1433512
15	0x3d77b460	0.060474753
16	0x3d0667d3	0.03281386
17	0xbd3f8e35	-0.04676648
18	0xbd38e05b	-0.045135837
19	0x3c44eb5f	0.0120190075
20	0xbd9bb695	-0.07603184
21	0x3d3bf93e	0.045891993
22	0xbd712645	-0.058874387
23	0xbd6ce1db	-0.05783258
24	0x3da1cd4a	0.07900484
25	0xbcff46c7	-0.031161679
26	0x3d4a1101	0.049332622
27	0x3d17b7c2	0.03704048
28	0x3df2cb30	0.11855161
29	0x3d3a5e0a	0.04549984
30	0xbd54c0ce	-0.051941685
31	0x3d0fb029	0.03508011

weight f4 [32, 16]
0	0x3e752a4b	0.23941915
1	0x3e7a7cdc	0.24461693
2	0x3ea44496	0.32083577
3	0xbdc59f6e	-0.096495494
4	0xbd333907	-0.043755557
5	0x3e0f2a6d	0.13981028
6	0xbd7881ea	-0.06067077
7	0x3e4db2d4	0.20087749
8	0xbd38795d	-0.045037616
9	0xbe5122a9	-0.20423378
10	0x3dfbd291	0.12296022
11	0x3db875b4	0.09006825
12	0x3e026587	0.12734042
13	0x3ec630cc	0.38709104
14	0x3e594989	0.21219458
15	0x3e967019	0.293824
16	0xbd020bc7	-0.031749513
17	0xbe842ed8	-0.2581699
18	0xbe99695f	-0.29963204
19	0xbe8429cf	-0.25813147
20	0xbeb9eb34	-0.36312258
21	0xbe0583af	-0.13038515
22	0xbec13ca6	-0.37741584
23	0xbec162c0	-0.37770653
24	0xbe84824b	-0.25880656
25	0xbeccf10d	-0.40027657
26	0xbe3d3489	-0.18477072
27	0x3da9985c	0.08281013
28	0x3eaec332	0.34133297
29	0xbe20ec5e	-0.15715167
30	0xbd6e1514	-0.05812557
31	0x3e811cb3	0.25217208
32	0xbe068055	-0.13134892
33	0xbe5280c4	-0.20556933
34	0x3e860621	0.2617655
35	0xbe8cfeed	-0.27538243
36	0x3db2646c	0.0871056
37	0x3e8bd341	0.2730961
38	0x3dd6d9c3	0.104907535
39	0x3e0f57ec	0.13998383
40	0xbe298924	-0.16556221
41	0x3d207a7e	0.039179318
42	0xbc00ef97	-0.007869623
43	0x3e0640c5	0.13110645
44	0x3dc9b4cd	0.09848938
45	0x3eb3fbaa	0.35152942
46	0xbe9d6085	-0.307377
47	0xbd2b389e	-0.04180204
48	0xbe137705	-0.14400871
49	0xbe9d4d52	-0.30723053
50	0x3ba44fde	0.0050144037
51	0xbe92ae0c	-0.28648412
52	0x3e8f5469	0.27994087
53	0x3c504f6e	0.01271425
54	0xbe208959	-0.15677394
55	0x3e5f3b51	0.21799971
56	0xbe9bbe74	-0.30418742
57	0xbdd37055	-0.1032416
58	0xbdb74bd1	-0.08950008
59	0xbe887e91	-0.26659063
60	0xbe816fef	-0.2528071
61	0xbcc3affe	-0.02388763
62	0x3e76e912	0.24112347
63	0x3e9c002f	0.3046889
64	0x3e0c6b53	0.13712816
65	0xbe0230d6	-0.12713942
66	0xbea3fe83	-0.32030115
67	0x3e70a780	0.23501396
68	0x3d1345b8	0.03595516
69	0x3dc29251	0.09500564
70	0xbd28d7ae	-0.041221313
71	0xbebefeab	-0.3730367
72	0xbe4f4d38	-0.202443
73	0x3e80b561	0.2513838
74	0xbcadb7ee	-0.021205869
75	0xbddac7f5	-0.1068267
76	0xbe557f28	-0.20849288
77	0xbe92e08e	-0.28686947
78	0x3d9b07b3	0.07569828
79	0xbde93482	-0.11386968
80	0xbe2af054	-0.1669324
81	0x3e869b70	0.26290464
82	0xbef0a995	-0.4700438
83	0xbb0732aa	-0.0020629563
84	0xbeb74439	-0.35794237
85	0xbd582cdc	-0.052777156
86	0x3c385c7a	0.011252517
87	0x3e20c62f	0.15700601
88	0xbe5cfa36	-0.21579823
89	0xbe89f5bf	-0.26945302
90	0xbe625c98	-0.22105634
91	0xbe9d1aa3	-0.30684385
92	0xbe42d651	-0.19027068
93	0xbe525cd8	-0.2054323
94	0x3e416bb8	0.18888748
95	0xbe3f99cd	-0.18711014
96	0x3eb51a59	0.35371664
97	0x3e39491f	0.180943
98	0xbe99b217	-0.30018684
99	0xbe09e723	-0.13467078
100	0x3e251962	0.16122964
101	0xbdea66e8	-0.11445409
102	0x3bfa4bd7	0.0076384353
103	0xbde91580	-0.11381054
104	0x3ea70814	0.3262335
105	0xbe1b49e6	-0.15164909
106	0x3e8773df	0.2645559
107	0x3d8d5af7	0.06902116
108	0x3cf2e6e4	0.029651113
109	0x3ea4df4d	0.32201615
110	0xbdc91924	-0.09819248
111	0xbe839aea	-0.25704128
112	0xbdd1dd1a	-0.1024725
113	0x3ea7a886	0.3274576
114	0xbe9df76d	-0.30852833
115	0x3d3dbe0c	0.04632382
116	0xbec98a2d	-0.39363232
117	0x3e687a17	0.22702824
118	0x3dac4744	0.0841203
119	0xbcfee355	-0.03111426
120	0x3de006ce	0.10938798
121	0xbd3c075d	-0.04590546
122	0x3e6518e8	0.22372782
123	0xbea722bb	-0.32643685
124	0xbc2e42a7	-0.010636008
125	0x3de1e512	0.1103002
126	0x3ec896d9	0.39177588
127	0x3e7260a9	0.23669685
128	0xbe4f16e4	-0.20223576
129	0x3e61f340	0.22065449
130	0xbcbcf962	-0.023068134
131	0xbce31c3d	-0.027723426
132	0xbe87e7be	-0.26543993
133	0xbddec561	-0.10877491
134	0x3e9c9542	0.30582625
135	0x3dd6e9df	0.10493826
136	0xbe1c79e9	-0.1528088
137	0x3e28691c	0.16446346
138	0xbe21367f	-0.15743445
139	0x3ec1d06e	0.37854332
140	0xbeb811cf	-0.35951087
141	0xbd65039d	-0.05591165
142	0xbec97596	-0.39347523
143	0xbe493bf4	-0.19651777
144	0x3e1b53e7	0.15168725
145	0x3e9ca137	0.30591747
146	0x3dcd98d0	0.10038912
147	0x3ec0c377	0.37649128
148	0x3de14d64	0.11001089
149	0x3e2d48e3	0.16922335
150	0x3ea667ab	0.32500967
151	0x3eac45a9	0.33646896
152	0xbe245e81	-0.16051675
153	0x3ebb8e8c	0.36632192
154	0x3e42399a	0.18967286
155	0xbdfd3db0	-0.123652816
156	0xbe504a5d	-0.20340867
157	0xbe8283c3	-0.2549115
158	0x3d62d55b	0.055379253
159	0xbeab458f	-0.33451506
160	0x3d0e460f	0.03473478
161	0x3e6a41c8	0.22876656
162	0xbed8be32	-0.42332608
163	0x3b809142	0.003923566
164	0xbe14dae0	-0.14536619
165	0x3e8ef446	0.2792074
166	0x3db306eb	0.08741554
167	0xbeef5d2f	-0.4675078
168	0x3e5b45fd	0.21413417
169	0x3e392dd8	0.18083894
170	0x3e6210f4	0.2207678
171	0xbee084e1	-0.4385138
172	0xbc1b87b9	-0.009492808
173	0xbe5f1e42	-0.21788886
174	0x3cb375f7	0.021906836
175	0x3eb2f8e1	0.34955505
176	0x3e35ba54	0.1774686
177	0x3e70bf63	0.23510508
178	0xbda92ef5	-0.082609095
179	0x3e24700b	0.16058366
180	0x3e33e4de	0.17567775
181	0xbeae940d	-0.3409733
182	0xbe960df1	-0.2930751
183	0xbe08fd0b	-0.13377778
184	0x3e940463	0.28909597
185	0xbe90f5d4	-0.28312552
186	0xbeb0e955	-0.34553018
187	0x3e7de7ad	0.24795409
188	0x3e140ca2	0.14457944
189	0x3eae6aff	0.34066007
190	0xbe9ffc43	-0.31247148
191	0xbe9ee944	-0.31037343
192	0x3e13bdbe	0.1442785
193	0x3eae43dc	0.34036148
194	0x3e31ad49	0.1735126
195	0x3cedf5ab	0.029047808
196	0x3da0a720	0.078443766
197	0x3ebd532f	0.36977527
198	0xbe885b3a	-0.266321
199	0xbe4b3539	-0.19844522
200	0x3e5a0e1a	0.21294442
201	0xbe8f57ca	-0.27996665
202	0xbe323f3f	-0.17406939
203	0x3e612047	0.21984969
204	0x3e14d3be	0.14533898
205	0x3d9b9f2e	0.075987205
206	0xbdf0ac7d	-0.117516495
207	0x3d2cb591	0.042165343
208	0x3e85b83c	0.26117122
209	0xbe1e4dd0	-0.1545937
210	0xbd782c3d	-0.060589064
211	0x3df290db	0.11844035
212	0xbe9d61c2	-0.30738646
213	0x3ecdbd3e	0.40183443
214	0xbe762293	-0.24036627
215	0xbe17bb23	-0.1481748
216	0xbe1e8775	-0.1548136
217	0xbe967a1a	-0.2939003
218	0xbe9b8b60	-0.30379772
219	0x3e0ad152	0.13556412
220	0x3e1ba795	0.15200646
221	0xbeca30dc	-0.39490402
222	0xbe2f6c73	-0.17131214
223	0x3ed9d759	0.4254711
224	0xbc05373f	-0.0081308475
225	0x3e9459a6	0.28974646
226	0xbeb68d88	-0.35654855
227	0xbe8addef	-0.27122447
228	0xbe4bd735	-0.19906314
229	0x3daae8cf	0.08345186
230	0xbec5c470	-0.38626432
231	0xbded003f	-0.115723126
232	0xbdd2ddee	-0.10296236
233	0xbe41a319	-0.18909873
234	0x3e192523	0.14955573
235	0xbe916b18	-0.2840202
236	0x3e74bfaf	0.23901246
237	0xbc2dec39	-0.010615402
238	0xbd33f56a	-0.043935217
239	0xbe2db8aa	-0.16964975
240	0x3e082d8e	0.13298628
241	0x3e072ecb	0.13201444
242	0xbe6ea6a9	-0.23305763
243	0x3e9a2e76	0.30113572
244	0xbe5a64b7	-0.21327482
245	0x3e93d717	0.28875038
246	0x3e011d96	0.12608942
247	0xbeb2f718	-0.34954143
248	0x3e374af0	0.1789968
249	0xbec1a9d3	-0.37824878
250	0xbe26a4bb	-0.16273777
251	0xbde5dc08	-0.11223608
252	0xbe418bff	-0.1890106
253	0x3e958cd1	0.29208997
254	0xbcbf2986	-0.02333523
255	0x3e5243c7	0.20533668

bias f4 [16]
0	0x3d4e7465	0.05040397
1	0x3d4ea4f7	0.05045029
2	0x3d5e01d8	0.054200977
3	0x3d4e9730	0.050437152
4	0x3d49c3a6	0.04925885
5	0x3d58f951	0.05297214
6	0x3db2d51e	0.08732055
7	0xbda036f8	-0.078229845
8	0x3d45b51f	0.048268434
9	0x3db896b3	0.090131186
10	0x3de76bf1	0.11299885
11	0xbd4837b7	-0.04888126
12	0x3d89a659	0.067211814
13	0xbd7467f5	-0.059669454
14	0x3d4ece72	0.05048985
15	0x3d5074b5	0.05089255

weight f4 [16, 32]
0	0x3d875d3b	0.06609579
1	0x3e2c34a0	0.1681695
2	0xbe57495b	-0.21024077
3	0xbe44abe2	-0.19206193
4	0x3d70942e	0.058735065
5	0x3b982d01	0.0046440368
6	0xbe71309c	-0.235537
7	0x3e3563c7	0.17713843
8	0xbd0cafb9	-0.03434727
9	0xbe7a2c08	-0.24430859
10	0xbd940e85	-0.07229332
11	0xbda9442d	-0.082649566
12	0xbe891290	-0.26771975
13	0x3df57add	0.11986325
14	0x3e0bfedd	0.13671441
15	0x3e6eb836	0.23312458
16	0x3d4aad34	0.049481586
17	0xbbfa8824	-0.0076456238
18	0x3df57270	0.11984718
19	0x3e98a850	0.29815912
20	0xbe17aff4	-0.14813215
21	0x3e8961b6	0.2683236
22	0x3d49085e	0.049080245
23	0xbe8b7911	-0.27240804
24	0x3dc0780c	0.09397897
25	0xbe761822	-0.24032643
26	0xbd950aab	-0.072774254
27	0xbe10918f	-0.14118026
28	0xbe8a7739	-0.27044085
29	0x3e9783e6	0.29592818
30	0xbeb47aa6	-0.35249823
31	0x3e50b0a0	0.20379877
32	0xbe97d3ba	-0.29653722
33	0xbbc15da9	-0.0059010577
34	0xbda82a6b	-0.082112156
35	0x3e8a4ce4	0.27011788
36	0xbe1c5f87	-0.15270816
37	0x3e17a365	0.14808424
38	0xbcb98553	-0.022646582
39	0x3e72e7eb	0.23721282
40	0xbc898b8a	-0.01679017
41	0xbd7fb568	-0.06242886
42	0xbde59f67	-0.11212044
43	0xbe907b30	-0.28218985
44	0x3eb2884e	0.34869617
45	0xbe5e8809	-0.21731581
46	0x3d94d782	0.07267667
47	0xbcbee251	-0.023301275
48	0x3ebee673	0.37285194
49	0xbde769ae	-0.11299454
50	0xbe7b453a	-0.24538127
51	0xbd75e714	-0.060034826
52	0x3e4e5c29	0.20152344
53	0x3e4b8cc3	0.19877915
54	0x3e8260d6	0.25464505
55	0xbddfc983	-0.10927107
56	0x3e0c9c3f	0.13731478
57	0xbeb91f07	-0.36156484
58	0x3e345232	0.1760948
59	0x3e42dc87	0.19029437
60	0x3e4ab42d	0.19795294
61	0xbe3d18ed	-0.1846654
62	0xbe065502	-0.13118365
63	0x3de777cd	0.11302147
64	0xbe67a8fb	-0.22623055
65	0xbe75e044	-0.24011332
66	0xbee65864	-0.44989312
67	0x3d294f6c	0.04133551
68	0x3e444c34	0.19169694
69	0x3e10f913	0.14157514
70	0xbd78f83a	-0.060783602
71	0x3e1fd79d	0.15609594
72	0xbe86fc75	-0.26364484
73	0xbe243d9b	-0.16039126
74	0x3c9f45fd	0.019442553
75	0xbe5c736b	-0.21528403
76	0x3eaf6bc9	0.3426192
77	0xbe6a71e8	-0.22895014
78	0x3e434de0	0.19072676
79	0xbe952adc	-0.29134262
80	0x3c99a825	0.018756935
81	0xbe4a61d1	-0.19763876
82	0x3e12dfc1	0.14343168
83	0xbe2920ba	-0.1651639
84	0x3e7e7a66	0.24851379
85	0xbe63cc83	-0.22245984
86	0x3e2ec7c0	0.17068386
87	0xbe9cc55f	-0.30619332
88	0x3e20ac9f	0.1569085
89	0xbe39f288	-0.18158925
90	0x3d2f20e5	0.04275598
91	0xbd070082	-0.03295947
92	0x3e489dc4	0.19591433
93	0x3e08e6ab	0.13369243
94	0xbeb43d05	-0.35202804
95	0x3d825a21	0.06364847
96	0xbe63e0fd	-0.22253795
97	0x3e9a1086	0.3009073
98	0xbd386871	-0.045021478
99	0xbd93c5d1	-0.07215465
100	0xbe51fd61	-0.20506813
101	0x3e2cfe24	0.16893822
102	0xbe9324df	-0.28739068
103	0x3e4922f6	0.19642243
104	0x3e1f0bb1	0.15531804
105	0x3cc3819b	0.023865512
106	0x3e442ac0	0.19156933
107	0xbeb0fe57	-0.34569046
108	0x3e931fec	0.28735292
109	0xbd8f96e2	-0.070112005
110	0x3cde6649	0.027148383
111	0xbc9dcf21	-0.019263806
112	0x3e920931	0.28522637
113	0x3e717fbb	0.23583882
114	0x3da019be	0.0781741
115	0x3e4aaac1	0.197917
116	0xbe9efd3e	-0.31052583
117	0x3d6ee215	0.058321077
118	0xbeb35372	-0.350246
119	0x3dab75c4	0.083720714
120	0xbe8fe4c4	-0.28104222
121	0xbe1e19fa	-0.15439597
122	0x3e92530f	0.28578994
123	0x3ebb0bd8	0.36532474
124	0xbe7806e5	-0.2422138
125	0xbe36ee57	-0.17864357
126	0x3bed4725	0.007241147
127	0x3e2a1113	0.16608076
128	0xbd16d243	-0.036821615
129	0xbd98d2eb	-0.074621044
130	0xbea9b82e	-0.3314833
131	0x3e2d3014	0.16912872
132	0x3ea50e9a	0.32237703
133	0xbe0239a0	-0.12717295
134	0x3dbb9bec	0.09160599
135	0x3e4d860d	0.20070668
136	0x3e7d69d6	0.24747404
137	0xbe6e1d64	-0.23253399
138	0x3de17b13	0.11009803
139	0x3e65c4a2	0.2243829
140	0x3e82eb69	0.2557023
141	0x3ec6aa41	0.38801768
142	0x3ce0dcf8	0.027449116
143	0x3e21f91e	0.15817687
144	0x3e8bb86b	0.27289137
145	0xbe8cf198	-0.2752807
146	0x3dbecc6e	0.093163356
147	0xbd50226c	-0.050814077
148	0x3e7b7d5f	0.24559544
149	0xbdd29179	-0.10281653
150	0xbc4280cb	-0.011871527
151	0x3e33fc50	0.17576718
152	0xbeb45dd9	-0.3522785
153	0xbea6f0f5	-0.3260571
154	0xbe12d36e	-0.14338467
155	0x3e81c300	0.25344086
156	0x3e54daa0	0.20786524
157	0xbe65b355	-0.22431691
158	0x3d01f74a	0.031729974
159	0xbe24d88b	-0.1609823
160	0xbe0f9f3f	-0.14025591
161	0x3eb0d4b8	0.34537292
162	0x3d729823	0.05922712
163	0xbd9d1ae3	-0.07671144
164	0x3cd15e11	0.02555755
165	0x3df4bff9	0.119506784
166	0xbaaf1e7e	-0.0013360528
167	0xbdb639a6	-0.08897714
168	0xbe7e7e15	-0.24852784
169	0x3cfd5fbc	0.030929439
170	0x3e208b7c	0.15678209
171	0x3dded592	0.10880579
172	0xbdc5e9a2	-0.096637025
173	0x3e5c973a	0.21542063
174	0x3ecd0441	0.40042308
175	0x3e734567	0.23756944
176	0x3e00f99d	0.1259522
177	0x3e9dace1	0.3079596
178	0x3cccad51	0.024984987
179	0x3ddcf91b	0.107897006
180	0x3eb6c6d8	0.3569858
181	0x3ed18c1f	0.40927216
182	0xbe4288c6	-0.18997487
183	0x3e8ed13d	0.2789401
184	0x3dcbaa8b	0.09944638
185	0xbd92d2cf	-0.07169115
186	0x3eb43553	0.35196933
187	0xbe1c1443	-0.15242104
188	0x3e49ff6f	0.19726346
189	0x3ebdddc2	0.3708325
190	0xbe910114	-0.28321135
191	0xbe36b07b	-0.1784076
192	0xbe97ce80	-0.29649734
193	0x3c1171bf	0.008877217
194	0xbef391ef	-0.47572276
195	0xbd8d7913	-0.06907859
196	0x3d4e8e5e	0.05042874
197	0x3eb319dd	0.3498067
198	0x3daa3939	0.083116956
199	0x3e84d07c	0.2594031
200	0x3d973ac7	0.07384258
201	0xbee34db4	-0.4439522
202	0xbe110381	-0.14161493
203	0xbd678f9b	-0.056533437
204	0x3ecf5224	0.40492356
205	0x3dc4e68e	0.09614287
206	0x3e04759e	0.12935492
207	0xbe706ab8	-0.2347821
208	0xbdea493a	-0.11439748
209	0xbeaffd1c	-0.34372795
210	0x3eadb585	0.3392755
211	0x3c00a502	0.007851841
212	0xbe85d8d4	-0.2614199
213	0x3e10678b	0.14101999
214	0xbd4079e2	-0.046991237
215	0xbdec4376	-0.11536305
216	0x3d8390cd	0.06424103
217	0x3e00b9ae	0.12570831
218	0xbe832aae	-0.256185
219	0xbe5587b8	-0.20852554
220	0xbda5534d	-0.08072529
221	0xbea5e947	-0.3240454
222	0xbec91724	-0.39275467
223	0x3ebf4d6e	0.37363762
224	0xbdb62b1e	-0.08894943
225	0xbe7f3eba	-0.24926272
226	0xbda8668b	-0.082226835
227	0xbeab2676	-0.3342778
228	0x3eac6fb5	0.33678976
229	0xbdb6d492	-0.08927263
230	0xbda0893c	-0.078386754
231	0xbeac3602	-0.33634955
232	0x3e8efd5e	0.2792768
233	0x3e18a807	0.14907847
234	0xbe47ca2b	-0.19510715
235	0xbc96b3c7	-0.018396271
236	0xbe7626c0	-0.2403822
237	0xbc90c18b	-0.017670413
238	0x3e453658	0.19259012
239	0xbe2f4d6c	-0.17119378
240	0xbd452aa3	-0.048136365
241	0xbe449b31	-0.19199826
242	0xbe6a2a9e	-0.2286782
243	0x3e7eed1a	0.24895135
244	0xbd4e490c	-0.05036263
245	0x3e865f9c	0.2624482
246	0x3c760143	0.015014949
247	0xbdf3c875	-0.119034685
248	0xbe15c680	-0.14626503
249	0x3ec052ba	0.37563115
250	0xbeb03b65	-0.34420314
251	0x3df824c3	0.12116387
252	0x3e1cc943	0.1531115
253	0x3e0c51f8	0.13703144
254	0x3e8b8324	0.2724849
255	0xbe212856	-0.15738043

bias f4 [2]
0	0x3d87072e	0.06593166
1	0x3d8fff6a	0.07031138

weight f4 [2, 16]
0	0x3f0186da	0.5059639
1	0x3e317b21	0.17332126
2	0x3f0cfd0a	0.55073607
3	0x3ed3d870	0.41376066
4	0x3e43d80c	0.19125384
5	0x3e9b8ab2	0.30379254
6	0x3e78829f	0.24268578
7	0x3c50927b	0.012730236
8	0x3efbff42	0.49218184
9	0x3f20c8d4	0.6280644
10	0x3e8bb3ac	0.27285516
11	0xbc8b566f	-0.017008988
12	0x3f227337	0.63457054
13	0xbefe67af	-0.4968848
14	0x3ef674bf	0.48135945
15	0x3eb275a3	0.34855375
16	0x3edc1fc0	0.42992973
17	0xbc14ab83	-0.009074095
18	0xbe877c59	-0.26462057
19	0x3eeabcc9	0.45847157
20	0xbe5f6805	-0.21817024
21	0x3e8ad85e	0.271182
22	0x3eca8856	0.3955714
23	0xbf175b91	-0.59124094
24	0x3d52f1fe	0.051500313
25	0xbdbd5a3f	-0.09245729
26	0x3efc2669	0.49248055
27	0xbeb5ae79	-0.35484675
28	0x3ef7a5c5	0.4836866
29	0x3e9db752	0.30803925
30	0x3ec5801f	0.3857431
31	0x3f1abf1b	0.60447854

weight f4 [1, 2]
0	0x3f8a50db	1.0805925
1	0x3e59c2fa	0.21265784

pout f4 [50, 3]
0	0x3dd7ac4b	0.10530909
1	0x3bd6b8a3	0.006552772
2	0x3940ef02	0.00018399584
3	0x3dd7ac4b	0.10530909
4	0x3b83e2b2	0.004024827
5	0x38a0af3b	7.662034e-05
6	0x3dd7ac4b	0.10530909
7	0x3b4d878e	0.0031361314
8	0x386b8fd1	5.6162306e-05
9	0x3dd7ac4b	0.10530909
10	0x3b6e8622	0.0036395867
11	0x3888e059	6.526773e-05
12	0x3dd7ac4e	0.105309114
13	0x3b4d8914	0.0031362223
14	0x386b919b	5.616397e-05
15	0x3dd7ac4b	0.10530909
16	0x3b4c5b8d	0.0031182498
17	0x38699ca6	5.569742e-05
18	0x3dd7ac4b	0.10530909
19	0x3b4fc1c3	0.0031701184
20	0x38667d3a	5.49529e-05
21	0x3dd7ac4e	0.105309114
22	0x3b4d2ffa	0.0031309114
23	0x386b2005	5.6058187e-05
24	0x3dd7ac4b	0.10530909
25	0x3b7aa3ab	0.0038244526
26	0x3893db66	7.0503724e-05
27	0x3dd7ac4b	0.10530909
28	0x3d7e7a38	0.062128276
29	0x3c7857f9	0.015157693
30	0x3dd7ac4b	0.10530909
31	0x3b4cf6cf	0.003127504
32	0x386aca7d	5.597853e-05
33	0x3dd7ac4b	0.10530909
34	0x3b4d0c81	0.003128797
35	0x386aec2d	5.6009903e-05
36	0x3dd7ac4b	0.10530909
37	0x3b4c7860	0.0031199679
38	0x3869df30	5.575939e-05
39	0x3dd7ac4e	0.105309114
40	0x3b4d538b	0.0031330313
41	0x386b5023	5.6103e-05
42	0x3dd7ac4b	0.10530909
43	0x3b4c394f	0.0031162088
44	0x3865e22d	5.4808497e-05
45	0x3dd7ac4b	0.10530909
46	0x3b4d8926	0.0031362264
47	0x386b91ac	5.6164034e-05
48	0x3dd7ac4b	0.10530909
49	0x3b4d76a8	0.0031351242
50	0x386b7c0a	5.6143886e-05
51	0x3dd7ac4e	0.105309114
52	0x3b4c1ba7	0.0031144412
53	0x3868ea00	5.553104e-05
54	0x3dd7ac4b	0.10530909
55	0x3b4d88a1	0.0031361955
56	0x386b9115	5.6163484e-05
57	0x3dd7ac4e	0.105309114
58	0x3b4d21e9	0.003130073
59	0x38656f50	5.4701522e-05
60	0x3dd7ac4e	0.105309114
61	0x3b51d673	0.003201869
62	0x38682e83	5.5356428e-05
63	0x3dd7ac4b	0.10530909
64	0x3b4c84a4	0.003120699
65	0x3869f9a4	5.5784025e-05
66	0x3dd7ac4e	0.105309114
67	0x3b4ce749	0.0031265786
68	0x386ab159	5.5955115e-05
69	0x3dd7ac4b	0.10530909
70	0x3b5f7be2	0.003410094
71	0x3879667c	5.9461672e-05
72	0x3dd7ac4e	0.105309114
73	0x3b4d7a9a	0.0031353594
74	0x386b80c7	5.61483e-05
75	0x3dd7ac4b	0.10530909
76	0x3b610c8d	0.0034339756
77	0x387bbe75	6.002044e-05
78	0x3dd7ac4b	0.10530909
79	0x3ba05c71	0.0048938324
80	0x38e182b8	0.00010753184
81	0x3dd7ac4b	0.10530909
82	0x3b9c4b8c	0.004769748
83	0x38d76847	0.00010271422
84	0x3dd7ac4e	0.105309114
85	0x3b55cea8	0.0032624397
86	0x386c621d	5.635816e-05
87	0x3dd7ac4b	0.10530909
88	0x3b4c0cad	0.0031135485
89	0x38662af6	5.4876284e-05
90	0x3dd7ac4b	0.10530909
91	0x3b4d8276	0.0031358278
92	0x386b89fa	5.6156867e-05
93	0x3dd7ac4b	0.10530909
94	0x3b662b44	0.0035121003
95	0x3881e02a	6.192953e-05
96	0x3dd7ac4b	0.10530909
97	0x3b77012c	0.0037689907
98	0x38907865	6.88888e-05
99	0x3dd7ac4b	0.10530909
100	0x3b4d59d6	0.0031334064
101	0x386b5845	5.6110573e-05
102	0x3dd7ac4b	0.10530909
103	0x3b4e3e98	0.0031470414
104	0x3865a73f	5.4753615e-05
105	0x3dd7ac4b	0.10530909
106	0x3c911976	0.017712336
107	0x3aa5188a	0.0012595814
108	0x3dd7ac4b	0.10530909
109	0x3d4ed9e2	0.050500758
110	0x3c246753	0.0100344
111	0x3dd7ac4b	0.10530909
112	0x3b84e58f	0.004055686
113	0x38a2bccb	7.7599274e-05
114	0x3dd7ac4e	0.105309114
115	0x3b4c34e0	0.0031159446
116	0x3869372e	5.560292e-05
117	0x3dd7ac4e	0.105309114
118	0x3b4d4a0a	0.0031324648
119	0x386b43a9	5.609138e-05
120	0x3dd7ac4e	0.105309114
121	0x3ba63a23	0.0050728484
122	0x38f08fcd	0.00011470877
123	0x3dd7ac4e	0.105309114
124	0x3b4ccb39	0.003124906
125	0x38657e4e	5.4715485e-05
126	0x3dd7ac4b	0.10530909
127	0x3b4d8926	0.0031362264
128	0x386b91af	5.6164045e-05
129	0x3dd7ac4b	0.10530909
130	0x3b4c862e	0.0031207907
131	0x38659d62	5.474443e-05
132	0x3dd7ac4e	0.105309114
133	0x3b4c7009	0.0031194708
134	0x3869cc93	5.5742054e-05
135	0x3dd7ac4b	0.10530909
136	0x3b4c44ae	0.0031168866
137	0x386962b8	5.5643468e-05
138	0x3dd7ac4b	0.10530909
139	0x3b728cb9	0.0037010147
140	0x388c6cce	6.695987e-05
141	0x3dd7ac4b	0.10530909
142	0x3b4be1f0	0.003111001
143	0x3866ba06	5.500952e-05
144	0x3dd7ac4b	0.10530909
145	0x3cee7712	0.029109512
146	0x3b5c34b4	0.003360075
147	0x3dd7ac4b	0.10530909
148	0x3b4d87d2	0.0031361473
149	0x386b9027	5.616262e-05

throughput f4 [50, 1]
0	0x3fe633bb	1.7984537
1	0x3fe6c05f	1.8027457
2	0x3fe6f0f1	1.804228
3	0x3fe6d58e	1.8033922
4	0x3fe6f0ef	1.8042277
5	0x3fe6f1ec	1.8042579
6	0x3fe6ef31	1.8041745
7	0x3fe6f138	1.8042364
8	0x3fe6cb67	1.8030823
9	0x3fd7f5bb	1.6871866
10	0x3fe6f169	1.8042423
11	0x3fe6f156	1.80424
12	0x3fe6f1d3	1.8042549
13	0x3fe6f11a	1.8042328
14	0x3fe6f214	1.8042626
15	0x3fe6f0ef	1.8042277
16	0x3fe6f0fe	1.8042295
17	0x3fe6f220	1.8042641
18	0x3fe6f0ef	1.8042277
19	0x3fe6f158	1.8042402
20	0x3fe6ed7a	1.8041222
21	0x3fe6f1c8	1.8042536
22	0x3fe6f176	1.8042438
23	0x3fe6e221	1.8037759
24	0x3fe6f0fa	1.804229
25	0x3fe6e0d3	1.8037361
26	0x3fe6904e	1.8012788
27	0x3fe69730	1.8014889
28	0x3fe6ea30	1.8040218
29	0x3fe6f237	1.8042668
30	0x3fe6f0f4	1.8042283
31	0x3fe6dc8d	1.8036057
32	0x3fe6ce73	1.8031753
33	0x3fe6f115	1.8042322
34	0x3fe6f070	1.8042126
35	0x3fe3ab5b	1.7786669
36	0x3fdb4467	1.713025
37	0x3fe6beaa	1.8026936
38	0x3fe6f20c	1.8042617
39	0x3fe6f122	1.8042338
40	0x3fe6865d	1.8009754
41	0x3fe6f19f	1.8042487
42	0x3fe6f0ef	1.8042277
43	0x3fe6f1d7	1.8042554
44	0x3fe6f1d9	1.8042556
45	0x3fe6f1fe	1.80426
46	0x3fe6d230	1.8032894
47	0x3fe6f258	1.8042707
48	0x3fe0e872	1.7570937
49	0x3fe6f0ef	1.8042277

delay f4 [50, 1]
0	0x3d63c04f	0.05560332
1	0x3d63357f	0.05547094
2	0x3d6305b6	0.05542537
3	0x3d6320a6	0.055451058
4	0x3d6305b8	0.055425376
5	0x3d6304bf	0.055424448
6	0x3d63076f	0.05542701
7	0x3d630570	0.055425107
8	0x3d632aa3	0.055460583
9	0x3d72c562	0.05927027
10	0x3d630541	0.055424932
11	0x3d630553	0.055425
12	0x3d6304d8	0.05542454
13	0x3d63058e	0.05542522
14	0x3d630499	0.055424307
15	0x3d6305b8	0.055425376
16	0x3d6305aa	0.055425324
17	0x3d63048d	0.05542426
18	0x3d6305b8	0.055425376
19	0x3d630551	0.055424992
20	0x3d63091e	0.055428617
21	0x3d6304e3	0.055424582
22	0x3d630534	0.055424884
23	0x3d631448	0.055439264
24	0x3d6305ae	0.05542534
25	0x3d63158e	0.055440478
26	0x3d6364dd	0.055516113
27	0x3d635e14	0.05550964
28	0x3d630c5b	0.055431705
29	0x3d630475	0.055424172
30	0x3d6305b3	0.055425357
31	0x3d6319c4	0.055444494
32	0x3d6327a3	0.055457722
33	0x3d630593	0.055425238
34	0x3d630634	0.055425838
35	0x3d6648ea	0.05622188
36	0x3d6f1bf3	0.058376264
37	0x3d63372d	0.05547254
38	0x3d6304a0	0.055424333
39	0x3d630586	0.05542519
40	0x3d636eab	0.055525463
41	0x3d63050b	0.05542473
42	0x3d6305b8	0.055425376
43	0x3d6304d4	0.055424526
44	0x3d6304d2	0.05542452
45	0x3d6304ae	0.055424385
46	0x3d6323f5	0.055454213
47	0x3d630456	0.055424057
48	0x3d691cbb	0.056912165
49	0x3d6305b8	0.055425376

ef1 f4 [50]
0	0xc02f0d63	-2.735192
1	0xc04766ea	-3.1156564
2	0xc0500918	-3.250555
3	0xc04bdbfa	-3.1853013
4	0xc05008e2	-3.2505422
5	0xc050443e	-3.2541652
6	0xc050a400	-3.2600098
7	0xc050164e	-3.2513614
8	0xc049b6e6	-3.1517882
9	0xbf51c208	-0.81936693
10	0xc050206c	-3.2519789
11	0xc0501c6e	-3.2517352
12	0xc0503c54	-3.2536821
13	0xc050109e	-3.2510142
14	0xc050b6b8	-3.2611523
15	0xc05008e2	-3.2505422
16	0xc0500b6e	-3.2506976
17	0xc0505988	-3.2554646
18	0xc05008f2	-3.250546
19	0xc050c49e	-3.2620006
20	0xc0506ff0	-3.2568321
21	0xc0503930	-3.2534904
22	0xc0502364	-3.25216
23	0xc04e72e6	-3.2257628
24	0xc0500ade	-3.2506633
25	0xc04e3058	-3.2217007
26	0xc03dfb4d	-2.9684632
27	0xc03f4173	-2.9883697
28	0xc04ff054	-3.2490435
29	0xc050adec	-3.2606153
30	0xc05009c8	-3.250597
31	0xc04d518c	-3.2081022
32	0xc04a5bc8	-3.161852
33	0xc0500fa6	-3.250955
34	0xc050bdd8	-3.2615871
35	0xbff32bca	-1.8997738
36	0xbf7f9e42	-0.9985086
37	0xc0470c92	-3.1101422
38	0xc0505052	-3.2549024
39	0xc0501216	-3.2511039
40	0xc03c2f93	-2.9404037
41	0xc050c2ce	-3.26189
42	0xc05008e0	-3.2505417
43	0xc050bf0a	-3.26166
44	0xc0503e8a	-3.253817
45	0xc0504b22	-3.2545857
46	0xc04b25da	-3.1741853
47	0xc0509cac	-3.2595625
48	0xbfbca09a	-1.4736512
49	0xc050090e	-3.2505527

ef2 f4 [50, 1]
0	0x3f83caa0	1.0296211
1	0x3f2b9a80	0.67032623
2	0xbd3b2400	-0.04568863
3	0x3f0d3740	0.5516243
4	0xbd3bd600	-0.045858383
5	0x3b66e000	0.003522873
6	0x3e7cc400	0.24684143
7	0xbd0dd200	-0.0346241
8	0x3f1d5180	0.61452484
9	0x4076d7d0	3.8569221
10	0xbcd6a400	-0.026201248
11	0xbcf1c800	-0.029514313
12	0xbb496000	-0.0030727386
13	0xbd215600	-0.039388657
14	0x3e004b80	0.12528801
15	0xbd3bde00	-0.045866013
16	0xbd332e00	-0.04374504
17	0x3cb0f000	0.021598816
18	0xbd3ba200	-0.045808792
19	0x3e304e80	0.17217445
20	0x3e931c00	0.287323
21	0xbbba4000	-0.005683899
22	0xbcc26c00	-0.023733139
23	0x3ee4c980	0.44684982
24	0xbd351200	-0.04420662
25	0x3eeb7280	0.45985794
26	0x3f567ac0	0.8378105
27	0x3f518c40	0.8185463
28	0x3eb16480	0.34646988
29	0x3de25800	0.11051941
30	0xbd38cc00	-0.045116425
31	0x3eff3180	0.49842453
32	0x3f18d780	0.59703827
33	0xbd24a400	-0.040195465
34	0x3e562d80	0.20915794
35	0x3fdb8700	1.7150574
36	0x40539450	3.3059273
37	0x3f2d9600	0.67807007
38	0x3c60a000	0.013710022
39	0xbd1c4400	-0.038150787
40	0x3f5d2440	0.8638344
41	0x3e218100	0.15771866
42	0xbd3bde00	-0.045866013
43	0x3e13a180	0.14417076
44	0xbaa1c000	-0.0012340546
45	0x3c18b000	0.009319305
46	0x3f12f640	0.57407
47	0x3db32f00	0.08749199
48	0x40120590	2.2815895
49	0xbd3b4800	-0.04572296
