train/models/HARQ-CC-NumK=3-PDB=15_model_pd_satisfy.pt (torch, 31822 bytes, 14 tensors)

bias f4 [16]
0.2176138 -0.07082986 -0.18253385 0.047327153 -0.18357414 -0.011288454 -0.19993187 -0.14290723
0.06864875 -0.15945481 -0.043077342 -0.22008754 -0.070065774 -0.22189948 -0.0003861725 -0.07703553
00000000: 27d6 5e3e 3f0f 91bd 27ea 3abe 1eda 413d
00000010: dcfa 3bbe 35f3 38bc f1ba 4cbe 4656 12be
00000020: b797 8c3d 1f48 23be de71 30bd a15e 61be
00000030: a57e 8fbd 9e39 63be 3277 cab9 cec4 9dbd

weight f4 [16, 1]
-0.11070385 0.11935208 -0.42345846 -0.06438851 -0.39320016 0.42309883 -0.6443017 -0.38642356
-0.13955705 -0.4879356 0.06370047 -0.7875269 0.5029808 -0.70406115 0.5017635 0.07165587
00000000: b3b8 e2bd dd6e f43d 8ccf d8be 20de 83bd
00000010: 8851 c9be 69a0 d83e f5f0 24bf 4fd9 c5be
00000020: 0be8 0ebe b2d2 f9be 6475 823d 5d9b 49bf
00000030: 5ac3 003f 5a3d 34bf 9373 003f 50c0 923d

bias f4 [32]
-0.083273485 0.08337802 -0.09805765 -0.07613801 0.1855445 0.18337059 -0.08561359 0.07513004
-0.2041536 -0.10137512 0.10182757 -0.18144606 0.06877562 0.10124133 0.12317113 0.11883248
-0.0293759 -0.15706351 -0.089033455 -0.11680018 -0.14556785 0.047756385 -0.1724603 -0.19895415
0.23572604 0.08388806 0.06240756 -0.06269288 0.23011921 0.0960306 -0.18421035 -0.11210145
00000000: 4a8b aabd 18c2 aa3d 73d2 c8bd 3fee 9bbd
00000010: 61ff 3d3e 80c5 3b3e 2e56 afbd c7dd 993d
00000020: a40d 51be c29d cfbd f98a d03d ffcc 39be
00000030: 3bda 8c3d 9d57 cf3d 2541 fc3d 715e f33d
00000040: baa5 f0bc 42d5 20be 2c57 b6bd ef34 efbd
00000050: bd0f 15be 339c 433d 6f99 30be a3ba 4bbe
00000060: 2b62 713e 81cd ab3d 129f 7f3d 2065 80bd
00000070: 5fa4 6b3e b1ab c43d a3a1 3cbe 7295 e5bd

weight f4 [32, 16]
0.20304708 0.3011094 0.29842392 -0.13522303 -0.06703528 0.19824405 -0.08061045 0.17794369
-0.07835131 -0.2257059 0.16999547 0.07040588 0.18522154 0.36734432 0.2693454 0.36204427
0.01814376 -0.32783118 -0.2628419 -0.20892665 -0.32544914 -0.20231338 -0.3431065 -0.34041476
-0.21239015 -0.36443335 -0.2405378 0.1168451 0.27012682 -0.123033926 -0.12800646 0.16451477
-0.17483029 -0.13715093 0.23452878 -0.32153946 0.05882312 0.3428415 0.080655925 0.11212798
-0.20556743 0.013067354 0.0476002 0.10719168 0.16783607 0.32751143 -0.23921774 0.040535122
-0.18486577 -0.24567375 -0.02279639 -0.33205238 0.25129914 0.07648299 -0.18213752 0.18966073
-0.3430858 -0.13014632 -0.03426515 -0.29168248 -0.18980917 -0.049061075 0.30388764 0.37641227
0.14084978 -0.15730858 -0.33610258 0.2347197 0.021136887 0.06624063 -0.060021248 -0.38816747
-0.20528501 0.23445097 -0.027200276 -0.12597094 -0.23765387 -0.30591208 0.04966159 -0.16609977
-0.11878211 0.18705845 -0.44099984 0.043193217 -0.32775703 -0.12907639 0.037008308 0.18675579
-0.17348622 -0.24163122 -0.27343172 -0.2814562 -0.26644534 -0.17993523 0.1155715 -0.2883234
0.3184603 0.23334897 -0.32256818 -0.16878372 0.13807584 -0.059824217 -0.012583186 -0.1366408
0.29480287 -0.1731823 0.30502638 0.049039938 0.083566464 0.30195853 -0.04539953 -0.1885269
-0.057447676 0.26441213 -0.27487054 0.090813644 -0.35912928 0.16150397 0.11545269 0.0029865175
0.15156773 -0.01314145 0.17340672 -0.29536343 -0.075401865 0.14145513 0.32811213 0.15744102
-0.09268401 0.11940331 0.111277714 0.10673184 -0.12989634 -0.23564717 0.43901718 0.23897031
-0.025749942 0.29810733 -0.30350268 0.51166075 -0.47860363 0.077244006 -0.5227693 -0.29147094
0.108599454 0.3746523 0.07466953 0.3299473 0.083299935 0.23880628 0.3022376 0.31008378
-0.19991744 0.34167233 0.24634656 -0.14609328 -0.13411579 -0.27744877 0.12355191 -0.25243637
0.12765144 0.11226885 -0.3458342 0.08299263 -0.06680187 0.16264828 0.16207033 -0.38949794
0.29966465 0.25718144 0.14182323 -0.36416936 -0.12546562 -0.14344317 -0.08964519 0.1984116
0.26582664 0.15418136 0.027300462 0.26948065 0.2862018 -0.44032693 -0.18357688 -0.024135463
0.39218464 -0.17348503 -0.46349934 0.35745803 0.051087536 0.4501656 -0.4137842 -0.3866138
0.18598844 0.28170103 0.20366022 0.06996234 0.10948418 0.30810884 -0.23848101 -0.16788185
0.25153878 -0.25076675 -0.22089781 0.24743184 0.0845199 0.10365807 -0.17744699 -0.030543609
0.30434 -0.21689893 -0.031340163 0.15898888 -0.27730092 0.33825883 -0.21349773 -0.11843054
-0.116090156 -0.26555815 -0.3496537 0.1621687 0.08879744 -0.36822134 -0.23268986 0.3447221
0.114735715 0.13610132 -0.25464216 -0.16558829 -0.095882945 -0.069376215 -0.2879824 -0.013114621
0.010348348 -0.088672206 0.044444483 -0.18613578 0.08677389 0.087397724 -0.19110093 -0.35674444
0.16078629 0.08280071 -0.22330034 0.3262061 -0.20250897 0.23802714 0.13310602 -0.33921406
0.20069684 -0.36963028 -0.19499277 -0.10553652 -0.23948836 0.29889998 -0.07184504 0.1384214
00000000: 93eb 4f3e 032b 9a3e 05cb 983e e877 0abe
00000010: cb49 89bd 7d00 4b3e 1717 a5bd df36 363e
00000020: a776 a0bd 731f 67be 4b13 2e3e f530 903d
00000030: b7aa 3d3e 8e14 bc3e a4e7 893e de5d b93e
00000040: 39a2 943c 7dd9 a7be 3793 86be def0 55be
00000050: 45a1 a6be 3d2b 4fbe a8ab afbe d84a aebe
00000060: ce7c 59be 0297 babe 8b4f 76be 7c4c ef3d
00000070: 104e 8a3e 36f9 fbbd 2014 03be 8f76 283e
00000080: b606 33be 4b71 0cbe 5028 703e d2a0 a4be
00000090: 83f0 703d ec88 af3e ef2e a53d 5ba3 e53d
000000a0: 4580 52be 7518 563c 6df8 423d 5087 db3d
000000b0: 38dd 2b3e 94af a73e 7ff5 74be 2808 263d
000000c0: 744d 3dbe e691 7bbe 7fbf babc c502 aabe
000000d0: 48aa 803e 1da3 9c3d 4282 3abe 6c36 423e
000000e0: f1a8 afbe 1445 05be 9d59 0cbd 6857 95be
000000f0: 565d 42be 44f4 48bd 2997 9b3e 1cb9 c03e
00000100: ed3a 103e 8015 21be a315 acbe 5c5a 703e
00000110: 4427 ad3c 2ba9 873d d7d8 75bd e3bd c6be
00000120: 3c36 52be ea13 703e 1dd3 debc 87fe 00be
00000130: 895b 73be 82a0 9cbe f469 4b3d 0f16 2abe
00000140: 0944 f3bd 408c 3f3e bbca e1be 5feb 303d
00000150: c5cf a7be 9a2c 04be 0696 173d e93c 3f3e
00000160: 5fa6 31be 2d6e 77be 3eff 8bbe 071b 90be
00000170: 866b 88be f140 38be c0b0 ec3d 209f 93be
00000180: 3a0d a33e 08f3 6e3e a827 a5be a4d5 2cbe
00000190: c163 0d3e 3d0a 75bd b529 4ebc 91eb 0bbe
000001a0: 67f0 963e b356 31be 6b2c 9c3e 1ade 483d
000001b0: e524 ab3d 4f9a 9a3e dcf4 39bd 320d 41be
000001c0: 414e 6bbd 0761 873e d5bb 8cbe 81fc b93d
000001d0: cbdf b7be 4c61 253e 7672 ec3d 73b9 433b
000001e0: 9234 1b3e 3c4f 57bc 8891 313e e039 97be
000001f0: 4b6c 9abd 9dd9 103e 50fe a73e 3838 213e
00000200: 1dd1 bdbd b989 f43d 92e5 e33d 3996 da3d
00000210: 8c03 05be 7e4d 71be dcc6 e03e a2b4 743e
00000220: 8bf1 d2bc 86a1 983e b464 9bbe 33fc 023f
00000230: 890b f5be 1b32 9e3d 35d4 05bf ae3b 95be
00000240: 6469 de3d 6dd2 bf3e 57ec 983d daee a83e
00000250: 2899 aa3d a289 743e e3be 9a3e 4dc3 9e3e
00000260: 28b7 4cbe adef ae3e 4642 7c3e 7a99 15be
00000270: a655 09be c40d 8ebe c908 fd3d 573f 81be
00000280: 0fb7 023e 36ed e53d 2e11 b1be 0af8 a93d
00000290: 6bcf 88bd 458d 263e c4f5 253e 466c c7be
000002a0: a56d 993e 49ad 833e 1c3a 113e 6874 babe
000002b0: 0f7a 00be c4e2 12be e697 b7bd 692c 4b3e
000002c0: 6e1a 883e b8e1 1d3e 38a5 df3c 5ef9 893e
000002d0: 0b89 923e 8872 e1be 94fb 3bbe bcb7 c5bc
000002e0: 6dcc c83e 0fa6 31be c94f edbe bd04 b73e
000002f0: 2a41 513d 1b7c e63e 86db d3be 3ef2 c5be
00000300: c173 3e3e 1e3b 903e 4e8c 503e 6a48 8f3d
00000310: 3e39 e03d 71c0 9d3e 5e34 74be 38e9 2bbe
00000320: b1c9 803e 8064 80be 0933 62be c65e 7d3e
00000330: c518 ad3d af4a d43d aab4 35be 9736 fabc
00000340: 74d2 9b3e c11a 5ebe 8b5e 00bd fbcd 223e
00000350: 63fa 8dbe 4330 ad3e 269f 5abe b68b f2bd
00000360: adc0 edbd 3df7 87be cf05 b3be 8d0f 263e
00000370: 6fdb b53d 8287 bcbe 4046 6ebe 6a7f b03e
00000380: 8ffa ea3d 255e 0b3e 7560 82be fa8f 29be
00000390: 475e c4bd 1e15 8ebd 6e72 93be b5de 56bc
000003a0: 1e8c 293c c699 b5bd 6b0b 363d 619a 3ebe
000003b0: 82b6 b13d 94fd b23d f6af 43be 35a7 b6be
000003c0: 29a5 243e 6b93 a93d d8a8 64be 7c04 a73e
000003d0: 835e 4fbe 63bd 733e f24c 083e 77ad adbe
000003e0: 7983 4d3e 2e40 bdbe 2fac 47be 8823 d8bd
000003f0: 703c 75be 6b09 993e 7e23 93bd 57be 0d3e

bias f4 [16]
0.14310165 0.13099718 0.16695562 0.14554127 0.041140795 0.16078708 0.23564607 -0.2790237
0.15865955 0.20878606 0.24311756 -0.1683614 0.18642361 -0.20611478 0.16007333 0.13493598
00000000: 3d89 123e 2024 063e 6af6 2a3e c508 153e
00000010: 4083 283d 5ea5 243e 344d 713e 32dc 8ebe
00000020: a677 223e 03cc 553e cff3 783e ee66 2cbe
00000030: d5e5 3e3e c10f 53be 43ea 233e a82c 0a3e

weight f4 [16, 32]
-0.008637292 0.12478774 -0.4019816 -0.23752134 0.17646345 0.2331049 -0.16393927 0.11029944
-0.04803051 -0.2876713 -0.17035212 -0.09002731 -0.34973848 0.05685012 0.23795004 0.3237648
-0.019244103 0.005875387 0.070654005 0.22030686 -0.21985748 0.18428764 0.049967736 -0.28129944
0.2583038 -0.17136472 -0.13662367 -0.21281588 -0.13598026 0.44206375 -0.3631195 0.13725524
-0.37310976 -0.053337436 -0.2699119 0.22038215 -0.05222358 0.34322235 0.053102635 0.16800691
-0.022951243 -0.100372165 -0.21770738 -0.28219333 0.26558685 -0.2843946 0.13852319 0.056717254
0.30316016 -0.092413634 -0.29758635 -0.13919204 0.12843858 0.12038564 0.26274 -0.11074733
0.27806157 -0.30205217 0.11142164 0.11997614 0.3133305 -0.054610472 -0.13437517 0.046925765
-0.2989064 -0.27903005 -0.6359559 0.0033267194 0.3519571 0.4299928 0.010253933 0.09138676
-0.28899705 -0.20422055 -0.07544323 -0.23365787 0.2594507 -0.2885915 0.35436735 -0.18943344
-0.049785208 -0.19328254 0.09875392 -0.24217886 0.17863287 -0.32864645 0.16133636 -0.32622665
0.3793245 -0.09053983 -0.023028448 -0.10874129 0.37706915 0.29972738 -0.37396303 -0.0054169884
-0.2886749 0.2633552 -0.22339578 -0.10842083 -0.09397579 0.38687265 -0.2116267 0.1371647
0.13644187 -0.004900018 0.10051127 -0.3584486 0.21271545 -0.12591411 0.114455335 0.060722854
0.2234923 0.24330348 0.036714718 0.12799865 -0.3734845 -0.034022953 -0.35508278 0.06950147
-0.12512097 -0.07574601 0.22610512 0.2999365 -0.11600862 -0.04458408 -0.008669226 0.10611285
-0.1616495 -0.16795821 -0.5780966 0.049317684 0.3628244 -0.064443834 0.16957764 0.086498894
0.30992368 -0.34639657 -0.059576374 0.29428348 0.13809034 0.26837993 -0.019796755 0.20889017
0.17124614 -0.18016589 -0.010148156 -0.16948138 0.1251683 -0.100386426 0.06789089 0.24373809
-0.29530537 -0.37341413 -0.2242811 0.16794537 0.25696066 -0.15150757 0.097675614 -0.24958225
-0.21555594 0.30372414 -0.12375822 -0.11876135 0.1782582 0.38599315 0.06893313 -0.15632334
-0.26999587 6.362215e-05 0.055565562 0.09397739 -0.18153593 0.1525806 0.53677326 0.34277502
0.05520072 0.3153395 -0.022755418 0.027548634 0.28501704 0.30975905 -0.19596384 0.2625444
0.30537197 0.014144795 0.2850409 -0.22963156 0.3717413 0.5410335 -0.30145925 -0.24906392
-0.34639862 -0.0070017073 -0.6291111 -0.076085865 0.25423265 0.6847721 0.13343759 0.21631563
0.018121473 -0.45874122 -0.2133672 -0.10533617 0.33745444 0.059408646 0.34668592 -0.15029964
-0.16454417 -0.36989686 0.31949693 -0.05102725 -0.311227 -0.024889903 -0.086760424 -0.16577753
0.3469366 0.24165057 -0.3104708 -0.273546 0.1464731 -0.16429678 -0.4450664 0.31810144
-0.27330408 -0.40444043 -0.4848489 -0.5872334 0.3737762 -0.15086207 0.0040627634 -0.5021675
0.4723467 -0.25725698 -0.38879752 0.18837492 -0.36439872 -0.18634714 0.24796824 -0.05106482
-0.18669161 0.050505064 -0.40958866 0.08668781 -0.20715176 0.43441468 0.23173109 0.08303424
-0.12990041 0.33572048 -0.4262253 0.027859414 0.19394831 0.23541145 0.4713681 -0.2597847
00000000: 6e83 0dbc b790 ff3d 88d0 cdbe cb38 73be
00000010: d6b2 343e 0db3 6e3e b2df 27be ace4 e13d
00000020: a4bb 44bd a749 93be c970 2ebe 3d60 b8bd
00000030: ec10 b3be acdb 683d 2da9 733e 80c4 a53e
00000040: cfa5 9dbc 5286 c03b 0cb3 903d 1f98 613e
00000050: 5222 61be e6b5 3c3e f8aa 4c3d 7b06 90be
00000060: 6540 843e 3c7a 2fbe 13e7 0bbe 68ec 59be
00000070: 693e 0bbe 2e56 e23e cdea b9be a38c 0c3e
00000080: 3e08 bfbe 5b78 5abd e431 8abe dcab 613e
00000090: 65e8 55bd d7ba af3e 2682 593d 010a 2c3e
000000a0: 3f04 bcbc ec8f cdbd afee 5ebe a57b 90be
000000b0: 00fb 873e 2b9c 91be 06d9 0d3e 5a50 683d
000000c0: cf37 9b3e 5c43 bdbd 3d5d 98be 5c88 0ebe
000000d0: 6785 033e bf8c f63d db85 863e 7fcf e2bd
000000e0: 165e 8e3e 95a6 9abe 0731 e43d 0db6 f53d
000000f0: db6c a03e 3baf 5fbd a599 09be 3b35 403d
00000100: 420a 99be 07dd 8ebe 02ce 22bf 1705 5a3b
00000110: b933 b43e 0428 dc3e 1d00 283c fb28 bb3d
00000120: 6cf7 93be 311f 51be fb81 9abd 0244 6fbe
00000130: b9d6 843e 44c2 93be a36f b53e d7fa 41be
00000140: 93eb 4bbd dceb 45be 7f3f ca3d bcfd 77be
00000150: 89eb 363e 5944 a8be 5c35 253e 2e07 a7be
00000160: d236 c23e f26c b9bd 28a6 bcbc c1b3 debd
00000170: 350f c13e de75 993e 1578 bfbe fe80 b1bb
00000180: 32cd 93be 7ed6 863e ddc1 64be bd0b debd
00000190: 6176 c0bd 2c14 c63e abb4 58be e774 0c3e
000001a0: 6bb7 0b3e 5590 a0bb dad8 cd3d 9386 b7be
000001b0: 14d2 593e a1ef 00be 8f67 ea3d 87b8 783d
000001c0: 2adb 643e 8c24 793e 2c62 163d 1412 033e
000001d0: 5c39 bfbe a75b 0bbd 69cd b5be c956 8e3d
000001e0: b61f 00be b920 9bbd 1a88 673e 4791 993e
000001f0: ed95 edbd cc9d 36bd 5f09 0ebc b251 d93d
00000200: 7287 25be 3dfd 2bbe 24fe 13bf 5701 4a3d
00000210: 1fc4 b93e 21fb 83bd c3a5 2d3e 5526 b13d
00000220: 51ae 9e3e e45a b1be 5b06 74bd 53ac 963e
00000230: 8e67 0d3e 1869 893e ce2c a2bc 4ee7 553e
00000240: 265b 2f3e 687d 38be 7444 26bc 878c 2dbe
00000250: 1e2c 003e 6697 cdbd 610a 8b3d 7a96 793e
00000260: 4432 97be 2330 bfbe f2a9 65be dff9 2b3e
00000270: 5990 833e cd24 1bbe 270a c83d 7d92 7fbe
00000280: b2ba 5cbe bb81 9b3e f374 fdbd 2739 f3bd
00000290: 5189 363e e5a0 c53e d02c 8d3d 3a13 20be
000002a0: e63c 8abe e26c 8538 b798 633d 3877 c03d
000002b0: 8ee4 39be 173e 1c3e f969 093f 3580 af3e
000002c0: 261a 623d 2e74 a13e 9269 babc acad e13c
000002d0: c1ed 913e bd98 9e3e bfaa 48be 386c 863e
000002e0: b759 9c3e 92bf 673c e1f0 913e 8924 6bbe
000002f0: e054 be3e 2c81 0a3f de58 9abe 9d0a 7fbe
00000300: 295b b1be 946e e5bb 6d0d 21bf e8d2 9bbd
00000310: c82a 823e 394d 2f3f dda3 083e d881 5d3e
00000320: 7c73 943c 21e0 eabe ee7c 5abe 7dba d7bd
00000330: d4c6 ac3e 7b56 733d d180 b13e 26e8 19be
00000340: 447e 28be 1f63 bdbe 1a95 a33e f301 51bd
00000350: 2559 9fbe e9e5 cbbc 73af b1bd 96c1 29be
00000360: ada1 b13e 3f73 773e 07f6 9ebe 390e 8cbe
00000370: 0bfd 153e 6a3d 28be bedf e3be 31de a23e
00000380: 83ee 8bbe d112 cfbe 1d3e f8be ee54 16bf
00000390: 985f bf3e 967b 1abe ee20 853b 0d8e 00bf
000003a0: 6dd7 f13e 30b7 83be 7810 c7be 5be5 403e
000003b0: 7892 babe c9d1 3ebe 63eb 7d3e 5829 51bd
000003c0: 162c 3fbe 66de 4e3d 9bb5 d1be 6189 b13d
000003d0: 971f 54be 9a6b de3e ea4a 6d3e db0d aa3d
000003e0: 9d04 05be 8ee3 ab3e 343a dabe 6d39 e43c
000003f0: 639a 463e b30f 713e 2957 f13e 8002 85be

bias f4 [2]
0.24451162 0.3161259
00000000: 4161 7a3e 41db a13e

weight f4 [2, 16]
0.5465771 0.17158785 0.9219017 0.39022732 0.10972973 0.44103453 0.7293703 -0.048035774
0.6793525 0.9235206 0.6283678 -0.14223266 1.053296 -0.5581343 0.628302 0.34244072
0.49790996 -0.01815414 0.14320251 0.42795962 -0.31447095 0.44718835 0.9418569 -0.72049683
0.2844001 0.25381604 0.9048799 -0.4315056 0.94497794 0.17824194 0.58708256 0.6317424
00000000: 7aec 0b3f bab4 2f3e c001 6c3f e0cb c73e
00000010: fbb9 e03d 47cf e13e 03b8 3a3f 29c1 44bd
00000020: 0cea 2d3f d96b 6c3f b6dc 203f 70a5 11be
00000030: 67d2 863f e4e1 0ebf 66d8 203f 6454 af3e
00000040: 0eee fe3e feb7 94bc aea3 123e 861d db3e
00000050: 5602 a1be dff5 e43e 891d 713f 7b72 38bf
00000060: e49c 913e 2df4 813e 36a6 673f 4dee dcbe
00000070: 13ea 713f 0e85 363e 0b4b 163f dfb9 213f

weight f4 [1, 2]
1.2098999 0.40354759
00000000: 00de 9a3f ca9d ce3e

pout f4 [50, 3]
0.8118325 0.3295351 0.08917546 0.8118326 0.60595125 0.34569928 0.8118325 0.33301586
0.09022493 0.8118325 0.3320394 0.08991661 0.8118325 0.3401653 0.092724785 0.8118325
0.34849972 0.0960906 0.8118325 0.329535 0.089175746 0.8118326 0.39062488 0.119334824
0.8118326 0.3295359 0.08917584 0.8118325 0.3296097 0.08919606 0.8118325 0.36553094
0.10428397 0.8118326 0.40757948 0.13144282 0.8118325 0.34411877 0.094265275 0.8118325
0.3295421 0.08917767 0.8118323 0.32954907 0.08917943 0.8118326 1.4066797 1.7232552
0.8118326 0.3295354 0.08917571 0.8118325 0.33010384 0.08933581 0.8118325 0.371586
0.10759731 0.8118325 1.6844859 2.4457994 0.8118325 1.029395 0.9459081 0.8118325
0.3497055 0.09661419 0.8118326 0.9288313 0.77830946 0.8118325 0.4658 0.18415824
0.8118325 0.42550698 0.14590123 0.8118325 0.45885593 0.17705482 0.8118325 0.3681408
0.105686724 0.8118325 0.34636876 0.095187396 0.8118325 0.32953537 0.089175835 0.8118326
0.32959208 0.08919125 0.8118323 0.32980117 0.08924957 0.8118325 0.5275106 0.2534614
0.8118325 0.6581888 0.40683222 0.8118325 0.93970186 0.7956272 0.8118326 0.3492814
0.09642914 0.8118325 0.39182863 0.120143496 0.8118325 0.32956725 0.089184225 0.8118325
0.32955265 0.08918035 0.8118325 0.3295354 0.0891756 0.8118325 2.3012638 4.5049567
0.8118326 0.41212478 0.1349493 0.8118325 0.39256084 0.12063914 0.8118325 0.36592183
0.1044915 0.8118325 0.35527274 0.09914541 0.8118326 0.75737983 0.5303388 0.8118325
0.33910975 0.0923317 0.8118325 0.6731125 0.4246544 0.8118325 0.4295866 0.14942363
0.8118325 0.3295388 0.08917664 0.8118326 0.33018517 0.089359276
00000000: 41d4 4f3f d3b8 a83e a0a1 b63d 43d4 4f3f
00000010: 9f1f 1b3f 7fff b03e 41d4 4f3f 0e81 aa3e
00000020: d9c7 b83d 41d4 4f3f 1101 aa3e 3326 b83d
00000030: 41d4 4f3f 252a ae3e 7ee6 bd3d 41d4 4f3f
00000040: 8e6e b23e 26cb c43d 41d4 4f3f d0b8 a83e
00000050: c6a1 b63d 43d4 4f3f fcff c73e d165 f43d
00000060: 43d4 4f3f eeb8 a83e d3a1 b63d 41d4 4f3f
00000070: 9ac2 a83e 6dac b63d 41d4 4f3f df26 bb3e
00000080: d692 d53d 43d4 4f3f 42ae d03e f298 063e
00000090: 41d4 4f3f 5630 b03e 270e c13d 41d4 4f3f
000000a0: beb9 a83e c8a2 b63d 3ed4 4f3f a8ba a83e
000000b0: b4a3 b63d 43d4 4f3f 150e b43f a093 dc3f
000000c0: 43d4 4f3f ddb8 a83e c1a1 b63d 41d4 4f3f
000000d0: 5f03 a93e b1f5 b63d 41d4 4f3f 8540 be3e
000000e0: fa5b dc3d 41d4 4f3f 3c9d d73f fa87 1c40
000000f0: 41d4 4f3f 37c3 833f 0927 723f 41d4 4f3f
00000100: 990c b33e a9dd c53d 43d4 4f3f e3c7 6d3f
00000110: 4a3f 473f 41d4 4f3f 567d ee3e fa93 3c3e
00000120: 41d4 4f3f 0ddc d93e 2267 153e 41d4 4f3f
00000130: 2aef ea3e dc4d 353e 41d4 4f3f f37c bc3e
00000140: 4872 d83d 41d4 4f3f 3f57 b13e 9cf1 c23d
00000150: 41d4 4f3f dcb8 a83e d2a1 b63d 43d4 4f3f
00000160: 4bc0 a83e e7a9 b63d 3ed4 4f3f b3db a83e
00000170: 7bc8 b63d 41d4 4f3f ef0a 073f b1c5 813e
00000180: 41d4 4f3f 107f 283f 504c d03e 41d4 4f3f
00000190: 4d90 703f 39ae 4b3f 43d4 4f3f 03d5 b23e
000001a0: a47c c53d 41d4 4f3f c39d c83e cb0d f63d
000001b0: 41d4 4f3f 0abd a83e 38a6 b63d 41d4 4f3f
000001c0: 20bb a83e 30a4 b63d 41d4 4f3f ddb8 a83e
000001d0: b2a1 b63d 41d4 4f3f e847 1340 9b28 9040
000001e0: 43d4 4f3f 0502 d33e 2630 0a3e 41d4 4f3f
000001f0: bcfd c83e a711 f73d 41d4 4f3f 1b5a bb3e
00000200: a4ff d53d 41d4 4f3f 4fe6 b53e c00c cb3d
00000210: 43d4 4f3f a5e3 413f 49c4 073f 41d4 4f3f
00000220: cb9f ad3e 6718 bd3d 41d4 4f3f 1a51 2c3f
00000230: 4d6c d93e 41d4 4f3f c6f2 db3e 8202 193e
00000240: 41d4 4f3f 4fb9 a83e 3ea2 b63d 43d4 4f3f
00000250: 080e a93e ff01 b73d

throughput f4 [50, 1]
0.8506943 0.54124004 0.8483351 0.84900916 0.8431934 0.8368244 0.850694 0.7997114
0.8506936 0.8506453 0.8227529 0.78269124 0.8402182 0.8506894 0.8506851 -0.44943446
0.8506939 0.8503187 0.8174362 -0.82704103 0.03807641 0.8358731 0.1617787 0.7163946
0.763495 0.72484195 0.820481 0.8384877 0.85069376 0.8506568 0.8505194 0.6382464
0.48029366 0.1485519 0.83620846 0.7985407 0.85067326 0.85068274 0.850694 -1.7042911
0.7779381 0.7978257 0.82241464 0.8313898 0.3656071 0.8439727 0.4630651 0.7589624
0.8506917 0.8502644
00000000: 1ac7 593f b58e 0a3f 7d2c 593f aa58 593f
00000010: 86db 573f 203a 563f 15c7 593f e3b9 4c3f
00000020: 0ec7 593f e4c3 593f ef9f 523f 745e 483f
00000030: 8a18 573f c8c6 593f 80c6 593f 461c e6be
00000040: 13c7 593f 7cae 593f 8043 513f f6b8 53bf
00000050: 02f6 1b3d c8fb 553f 51a9 253e a365 373f
00000060: 6974 433f 3e8f 393f 0b0b 523f 21a7 563f
00000070: 11c7 593f a5c4 593f a4bb 593f 1e64 233f
00000080: 0de9 f53e fd1d 183e c211 563f 2a6d 4c3f
00000090: b9c5 593f 58c6 593f 15c7 593f 3626 dabf
000000a0: f426 473f 4e3e 4c3f c489 523f f6d5 543f
000000b0: db30 bb3e 980e 583f de16 ed3e 5c4b 423f
000000c0: eec6 593f edaa 593f

delay f4 [50, 1]
0.117551036 0.1847609 0.117877945 0.117784366 0.11859675 0.11949938 0.11755108 0.1250451
0.11755113 0.11755781 0.12154318 0.1277643 0.11901671 0.117551714 0.1175523 -0.22250186
0.11755109 0.117602974 0.1223337 -0.120912984 2.6262982 0.11963539 0.61812836 0.13958786
0.13097662 0.13796112 0.12187973 0.11926233 0.11755112 0.11755622 0.11757521 0.1566793
0.20820595 0.67316544 0.11958741 0.12522843 0.11755395 0.117552646 0.11755108 -0.058675423
0.12854493 0.12534066 0.12159316 0.120280534 0.27351764 0.11848724 0.21595235 0.13175884
0.1175514 0.11761047
00000000: 99be f03d f631 3d3e fe69 f13d ee38 f13d
00000010: dae2 f23d 17bc f43d 9fbe f03d d30b 003e
00000020: a6be f03d 26c2 f03d a1eb f83d a5d4 023e
00000030: 08bf f33d f4be f03d 43bf f03d 87d7 63be
00000040: a0be f03d d4d9 f03d 178a fa3d 3aa1 f7bd
00000050: 4515 2840 6603 f53d a93d 1e3f 1ff0 0e3e
00000060: bc1e 063e ae45 0d3e 149c f93d cf3f f43d
00000070: a4be f03d 51c1 f03d 46cb f03d 8a70 203e
00000080: f133 553e 9254 2c3f 3eea f43d e23b 003e
00000090: 20c0 f03d 71bf f03d 9fbe f03d a455 70bd
000000a0: 48a1 033e 4d59 003e d605 f93d a455 f63d
000000b0: 810a 8c3e 70a9 f23d 9d22 5d3e caeb 063e
000000c0: cabe f03d c2dd f03d

ef1 f4 [50]
-0.04975462 0.53869843 -0.044673443 -0.046160102 -0.03280413 -0.017319083 -0.04975331 0.076767206
-0.049752712 -0.049654245 0.018217564 0.1187368 -0.025648236 -0.04974401 -0.049735427 1.2363496
-0.049753547 -0.048974395 0.031801403 1.3884208 0.975849 -0.014959097 0.8911523 0.26519114
0.16405892 0.24810773 0.024020374 -0.021420598 -0.04975283 -0.04967785 -0.049393892 0.40391177
0.6094153 0.9007096 -0.015791774 0.07970029 -0.049711943 -0.049730778 -0.049754024 1.6536906
0.13017058 0.08148819 0.019080937 -0.003727436 0.7245534 -0.034649253 0.6280356 0.17441928
-0.049748898 -0.04886043
00000000: 80cb 4bbd 24e8 093f 80fb 36bd 6012 3dbd
00000010: a05d 06bd c0e0 8dbc 20ca 4bbd 2038 9d3d
00000020: 80c9 4bbd 4062 4bbd 003d 953c 482c f33d
00000030: 401c d2bc 60c0 4bbd 60b7 4bbd b440 9e3f
00000040: 60ca 4bbd 6099 48bd 3042 023d c6b7 b13f
00000050: 3dd1 793f 0017 75bc 8f22 643f 22c7 873e
00000060: 10ff 273e f40f 7e3e 60c6 c43c 407a afbc
00000070: a0c9 4bbd 007b 4bbd 4051 4abd 86cd ce3e
00000080: a402 1c3f e894 663f c05d 81bc e839 a33d
00000090: c09e 4bbd 80b2 4bbd e0ca 4bbd 22ac d33f
000000a0: 704b 053e 48e3 a63d a04f 9c3c 0048 74bb
000000b0: 557c 393f 60ec 0dbd f1c6 203f f89a 323e
000000c0: 80c5 4bbd e021 48bd

ef2 f4 [50, 1]
-23.709675 -24.234825 -23.725454 -23.720984 -23.758793 -23.798443 -23.709679 -23.998156
-23.70968 -23.710007 -23.88031 -24.0726 -23.77753 -23.70971 -23.70974 -21.923822
-23.709679 -23.712217 -23.90927 -21.148415 -23.003502 -23.804222 -23.299873 -24.268322
-24.144196 -24.251188 -23.892815 -23.78825 -23.709679 -23.70993 -23.710861 -24.336132
-24.103039 -23.267616 -23.802189 -24.003616 -23.709818 -23.709755 -23.709677 -19.453453
-24.091526 -24.006924 -23.882183 -23.83097 -23.813911 -23.753822 -24.061455 -24.15926
-23.709694 -23.712582
00000000: 6aad bdc1 ece0 c1c1 bbcd bdc1 93c4 bdc1
00000010: 0212 bec1 3663 bec1 6cad bdc1 39fc bfc1
00000020: 6dad bdc1 18ae bdc1 e00a bfc1 af94 c0c1
00000030: 6238 bec1 7cad bdc1 8cad bdc1 fd63 afc1
00000040: 6cad bdc1 9fb2 bdc1 2f46 bfc1 f42f a9c1
00000050: 2c07 b8c1 0c6f bec1 2466 bac1 8625 c2c1
00000060: 5027 c1c1 6f02 c2c1 7c24 bfc1 564e bec1
00000070: 6cad bdc1 f0ad bdc1 d8af bdc1 66b0 c2c1
00000080: 06d3 c0c1 1424 bac1 e26a bec1 6807 c0c1
00000090: b5ad bdc1 94ad bdc1 6bad bdc1 aca0 9bc1
000000a0: 72bb c0c1 2e0e c0c1 b60e bfc1 d4a5 bec1
000000b0: e482 bec1 d407 bec1 dc7d c0c1 2a46 c1c1
000000c0: 74ad bdc1 5eb3 bdc1
