train/model/HARQ-NumK=3-PDB=15_model_pd_satisfy.pt (torch, 38071 bytes, 14 tensors)

bias f4 [16]
0	0x3e01e31b	0.1268429
1	0x3ce3c37b	0.027803173
2	0xbd42d289	-0.047564063
3	0x3d83e660	0.06440425
4	0xbd026746	-0.03183677
5	0x3d28c861	0.04120672
6	0xbcc3b27d	-0.02388882
7	0xbcfe621e	-0.031052645
8	0x3d4c7786	0.049918674
9	0x3d26c3f7	0.04071423
10	0xbd57b06b	-0.05265848
11	0x3e059ca3	0.13048033
12	0x3d2792c8	0.040911466
13	0xbce5f085	-0.02806879
14	0xbb4472d1	-0.0029975662
15	0x3d70d810	0.058799803

weight f4 [16, 1]
0	0xbe2a1101	-0.16608049
1	0x3e44f56d	0.19234248
2	0xbea60020	-0.3242197
3	0xbbb5718d	-0.005537218
4	0xbe8ed147	-0.2789404
5	0x3ee3968c	0.44450796
6	0xbefd99db	-0.49531445
7	0xbe9de277	-0.3083684
8	0xbdfa5919	-0.12224025
9	0xbea9c147	-0.3315527
10	0x3ba919ee	0.0051605618
11	0xbef59fc7	-0.47973463
12	0x3f16a017	0.5883803
13	0xbf09127c	-0.5354383
14	0x3ef3865b	0.47563443
15	0x3e3d38b8	0.18478668

bias f4 [32]
0	0xbd340ced	-0.04395764
1	0x3d63b7bc	0.055595145
2	0xbd2dd238	-0.04243681
3	0xbd3b4613	-0.045721125
4	0x3de91d7a	0.11382575
5	0x3e6a344a	0.22871509
6	0xbd19ce62	-0.037550338
7	0x3d4522c2	0.04812885
8	0x39287600	0.00016065687
9	0xbd46acb1	-0.048504535
10	0x3cd5a8c6	0.026081454
11	0xbcbba3dd	-0.022905285
12	0x3d147b39	0.036250327
13	0x3d828f69	0.063750096
14	0xbb3a99f2	-0.0028473106
15	0x3d320834	0.043464854
16	0x3cd21d12	0.025648627
17	0xbcde570d	-0.027141118
18	0xbd362ea4	-0.044478074
19	0x3d42fad3	0.047602486
20	0xbda3a355	-0.079901375
21	0x3d0e34aa	0.034718193
22	0xbd1af187	-0.037827995
23	0xbd0a3b42	-0.03374792
24	0x3e18f3ce	0.14936754
25	0xbc8ee68b	-0.017443916
26	0x3d1b51aa	0.037919678
27	0x3cde6cbb	0.027151456
28	0x3e04d9ff	0.12973784
29	0x3d146b56	0.036235176
30	0xbcaff03b	-0.021476856
31	0x3c53a487	0.012917644

weight f4 [32, 16]
0	0x3e7978fa	0.24362555
1	0x3e715702	0.23568347
2	0x3ea69f25	0.32543293
3	0xbdbf535f	-0.09342074
4	0xbd1fd509	-0.039021526
5	0x3e06dab3	0.13169365
6	0xbd67471b	-0.056464296
7	0x3e526b7f	0.20548819
8	0xbd20da06	-0.039270423
9	0xbe4cbd8c	-0.19994181
10	0x3df879a9	0.1213258
11	0x3dc0fcd8	0.09423226
12	0x3df4a521	0.11945558
13	0x3ec854a7	0.39127085
14	0x3e5044b0	0.20338702
15	0x3e93e177	0.28882954
16	0xbd1cc294	-0.0382715
17	0xbe78ab04	-0.24283987
18	0xbe9c6b4d	-0.30550614
19	0xbe865c1b	-0.26242146
20	0xbebd14e2	-0.36929995
21	0xbdef6633	-0.11689415
22	0xbec3edfc	-0.38267505
23	0xbec46fdc	-0.38366592
24	0xbe891f3d	-0.26781645
25	0xbecfccc3	-0.40585908
26	0xbe3b5f34	-0.18298036
27	0x3d9ef108	0.07760817
28	0x3eb59375	0.35464063
29	0xbe264175	-0.16235907
30	0xbd337cfc	-0.043820366
31	0x3e86036f	0.26174495
32	0xbe0e8a12	-0.13919857
33	0xbe4c78e0	-0.19967985
34	0x3e81e413	0.2536932
35	0xbe8ef875	-0.27923933
36	0x3da1aede	0.078946814
37	0x3e8f225a	0.27955896
38	0x3dc6214c	0.096743196
39	0x3e071dee	0.13195011
40	0xbe2fcdb5	-0.17168315
41	0x3cfde830	0.030994505
42	0xbb6e4626	-0.003635773
43	0x3dfbc47b	0.12293335
44	0x3dd6df85	0.10491852
45	0x3eafcb97	0.34335014
46	0xbe9ac23f	-0.30226323
47	0xbcd32f08	-0.025779262
48	0xbe0d5312	-0.1380122
49	0xbea23b23	-0.31685743
50	0x3c3e8343	0.011627975
51	0xbe9026f0	-0.28154707
52	0x3e92be6c	0.28660905
53	0x3b6f5712	0.0036520404
54	0xbe1a2124	-0.15051705
55	0x3e65ff91	0.22460772
56	0xbe981398	-0.2970245
57	0xbdc69785	-0.09696869
58	0xbdbe0548	-0.09278351
59	0xbe855000	-0.26037598
60	0xbe85f37d	-0.2616233
61	0xbc909d09	-0.017653005
62	0x3e6d0914	0.23147994
63	0x3e98dcbc	0.29855907
64	0x3dd8a4cb	0.10578307
65	0xbdaf3acc	-0.085561365
66	0xbeb3dbe8	-0.35128713
67	0x3e544de2	0.20732835
68	0x3b976119	0.0046197292
69	0x3e09432a	0.13404527
70	0xbd92530d	-0.07144747
71	0xbecee0d5	-0.40405908
72	0xbe726690	-0.23671937
73	0x3e623433	0.22090225
74	0x3b2f5721	0.0026754814
75	0xbe0c41cb	-0.13696973
76	0xbe2dd92a	-0.16977373
77	0xbea25382	-0.31704336
78	0x3deda8ec	0.11604485
79	0xbda889fe	-0.08229445
80	0xbe6dcd00	-0.23222733
81	0x3e934dbd	0.28770247
82	0xbf09eb27	-0.5387444
83	0xbd00ebf6	-0.03147503
84	0xbed93b3d	-0.42428008
85	0xbd0369f0	-0.03208345
86	0xbd7a18d6	-0.06105884
87	0x3db5a4fd	0.0886936
88	0xbe8c6bc7	-0.27425978
89	0xbeadb1c9	-0.33924702
90	0xbe5cd5bf	-0.21565913
91	0xbec255bc	-0.37956035
92	0xbe2d71e1	-0.16937973
93	0xbe8e570f	-0.27800795
94	0x3e579dc1	0.21056272
95	0xbe33e16e	-0.17566463
96	0x3eaf19cd	0.34199372
97	0x3e44f683	0.19234662
98	0xbea017c8	-0.31268144
99	0xbe0a9f07	-0.13537227
100	0x3e183336	0.14863285
101	0xbdd426cf	-0.10358965
102	0xbba294c4	-0.004961582
103	0xbe014af7	-0.12626253
104	0x3ea22cbc	0.31674755
105	0xbe28341f	-0.16426133
106	0x3e87502e	0.2642836
107	0x3d670f45	0.056411047
108	0x3d25d779	0.040488694
109	0x3e9e69db	0.30940136
110	0xbdb7505c	-0.08950874
111	0xbe6b67ee	-0.22988865
112	0xbddb8b65	-0.10719947
113	0x3eae87ba	0.34087926
114	0xbea02f2c	-0.3128599
115	0x3d31cd90	0.04340893
116	0xbecbec57	-0.3982875
117	0x3e749a4b	0.23886983
118	0x3da4c013	0.08044448
119	0xbd117b01	-0.035517696
120	0x3dd16211	0.10223783
121	0xbd4c656b	-0.049901407
122	0x3e65eec1	0.22454359
123	0xbea8fc96	-0.33005208
124	0x3a75cb4e	0.0009376303
125	0x3dda7958	0.10667676
126	0x3ecf0ea2	0.4044085
127	0x3e7b855b	0.2456259
128	0xbe80814d	-0.2509865
129	0x3e8dacbc	0.27670848
130	0xbd9eccbb	-0.07753893
131	0xbd216bab	-0.03940932
132	0xbea4225c	-0.32057464
133	0xbd625f02	-0.055266388
134	0x3e80fb77	0.25191852
135	0x3d500aa3	0.050791394
136	0xbe4bce94	-0.19903022
137	0x3de2cdb1	0.11074389
138	0xbe1984f4	-0.14992124
139	0x3ea64268	0.3247254
140	0xbe9d3667	-0.30705568
141	0xbde0f25a	-0.10983725
142	0xbeb0158b	-0.34391436
143	0xbddf6a12	-0.10908903
144	0x3e1a2e1d	0.15056653
145	0x3e9ce55b	0.30643734
146	0x3dca69c5	0.09883455
147	0x3ec36a6b	0.38167128
148	0x3dddec03	0.10836031
149	0x3e2d9e40	0.16954899
150	0x3ea58b0e	0.32332653
151	0x3eab7ce5	0.33493724
152	0xbe23d572	-0.15999392
153	0x3ebaaccd	0.36459962
154	0x3e3db12b	0.18524615
155	0xbe005b70	-0.1253488
156	0xbe4ff70e	-0.20309088
157	0xbe836253	-0.25660953
158	0x3d5e27df	0.054237243
159	0xbea4d2c3	-0.32192048
160	0x3daab7b5	0.083358206
161	0x3e4f6140	0.20251942
162	0xbebd7722	-0.37004954
163	0x3d48b7d7	0.04900345
164	0xbdbe72f4	-0.09299269
165	0x3e7edcbd	0.24888892
166	0x3e119419	0.14216651
167	0xbed4477b	-0.41460785
168	0x3e83206d	0.25610676
169	0x3e6ff122	0.23431829
170	0x3e3410d8	0.1758455
171	0xbec46db7	-0.38364956
172	0xbd22bde9	-0.039731894
173	0xbe26e6cf	-0.16298984
174	0xbbc66d9c	-0.006055547
175	0x3e9f11e2	0.3106833
176	0x3e1cfdd0	0.15331197
177	0x3e852048	0.2600119
178	0xbddf7799	-0.10911483
179	0x3e1e0545	0.15431698
180	0x3e188327	0.1489378
181	0xbea23e06	-0.31687945
182	0xbea39c8c	-0.31955373
183	0xbe23f93e	-0.16013047
184	0x3e88b942	0.2670384
185	0xbe9e74e2	-0.3094855
186	0xbeaeb5b8	-0.34123015
187	0x3e62cd58	0.22148645
188	0x3e2c5fa1	0.16833355
189	0x3ea0d981	0.31415942
190	0xbe94cda1	-0.29063132
191	0xbe8a0709	-0.26958492
192	0x3e138fa9	0.14410271
193	0x3eb20dd0	0.34776163
194	0x3e31b1df	0.17353009
195	0x3ce5d773	0.028056836
196	0x3da04084	0.078248054
197	0x3ec06379	0.37575892
198	0xbe881622	-0.26579386
199	0xbe4b40a4	-0.19848877
200	0x3e577716	0.21041521
201	0xbe8f3083	-0.279667
202	0xbe31cb19	-0.17362632
203	0x3e61b75f	0.22042607
204	0x3e1ab936	0.15109715
205	0x3d9cc9db	0.076556884
206	0xbde243c7	-0.11048084
207	0x3d36f959	0.04467139
208	0x3e85264b	0.26005778
209	0xbe14e97f	-0.14542197
210	0xbd7959ca	-0.060876645
211	0x3df70cdd	0.12063
212	0xbe9da8ae	-0.30792755
213	0x3ed15a5c	0.4088925
214	0xbe75f4c2	-0.24019149
215	0xbe181fcc	-0.1485588
216	0xbe220f42	-0.15826133
217	0xbe96870d	-0.2939991
218	0xbe9e3a6c	-0.30903947
219	0x3e0b0908	0.13577664
220	0x3e22c7b3	0.15896492
221	0xbeca1444	-0.39468586
222	0xbe276297	-0.16346203
223	0x3edb5aa9	0.42842606
224	0x3e1243ca	0.14283672
225	0x3e0aa65c	0.13540024
226	0xbe527ffa	-0.20556632
227	0xbe10872d	-0.14114065
228	0xbd4235fd	-0.04741477
229	0xbd942d7d	-0.07235239
230	0xbe71f52a	-0.23628679
231	0x3d101e96	0.03518542
232	0x3d30d343	0.043170225
233	0xbd1e27ee	-0.0386123
234	0x3d171769	0.03688756
235	0xbe0956b6	-0.13411984
236	0x3dacba18	0.08433932
237	0x3e0ea758	0.13931024
238	0xbe47141d	-0.19441266
239	0xbeb50ea4	-0.35362732
240	0x3e012b7f	0.12614249
241	0x3e1e526c	0.15461129
242	0xbe73c2ca	-0.23804775
243	0x3e97be3f	0.29637334
244	0xbe60186e	-0.21884319
245	0x3e9daae7	0.3079445
246	0x3dfa3132	0.122164145
247	0xbeb59dd2	-0.3547197
248	0x3e2cad86	0.16863069
249	0xbec40a78	-0.38289237
250	0xbe247249	-0.16059221
251	0xbdedb995	-0.116076626
252	0xbe2e378f	-0.17013381
253	0x3e9396c1	0.28825954
254	0xbb656d63	-0.0035007827
255	0x3e67df0b	0.22643678

bias f4 [16]
0	0x3d0f448c	0.03497748
1	0x3d0aacd5	0.03385623
2	0x3d12f583	0.03587867
3	0x3d0ebb40	0.034846544
4	0x3d0a3def	0.03375047
5	0x3d07b316	0.033129774
6	0x3db8913d	0.09012077
7	0x3e8b3050	0.27185297
8	0x3d0c240b	0.03421406
9	0x3dc8f8bf	0.098130696
10	0x3e0ff68f	0.14058898
11	0xbd232b47	-0.039836194
12	0x3d47a53a	0.048741557
13	0xbd3825e1	-0.044958
14	0x3d0faa5c	0.035074577
15	0x3d0e08c3	0.034676325

weight f4 [16, 32]
0	0x3d98e2e6	0.074651524
1	0x3e311136	0.17291722
2	0xbe219535	-0.15779574
3	0xbe45134f	-0.19245647
4	0x3d8e2adc	0.069417685
5	0xbc1df420	-0.0096407235
6	0xbe54079b	-0.20706026
7	0x3e3d75b1	0.18501927
8	0xbcfa110d	-0.030525709
9	0xbde414da	-0.111367896
10	0xbd4973b0	-0.049182594
11	0xbda6144b	-0.08109339
12	0xbe853ab7	-0.26021358
13	0x3e03727d	0.12836643
14	0xbcee21ba	-0.029068816
15	0x3e816423	0.2527171
16	0x3d68c26e	0.056826048
17	0xbc0fcc8e	-0.008776797
18	0x3dfff4f4	0.12497893
19	0x3ea204fa	0.31644422
20	0xbe11a498	-0.14222944
21	0x3e871e59	0.2639034
22	0x3d4ea417	0.050449457
23	0xbe8a3625	-0.26994434
24	0x3df71eae	0.120663986
25	0xbe7db531	-0.2477615
26	0xbd8d2d99	-0.06893463
27	0xbe08c1e3	-0.13355212
28	0xbe884e9e	-0.2662248
29	0x3e9c82b9	0.30568483
30	0xbeb340ab	-0.35010275
31	0x3e58942d	0.21150275
32	0xbe93629c	-0.2878617
33	0xbaa8c54e	-0.0012876184
34	0xbcf6874d	-0.030093813
35	0x3e89fad1	0.2694917
36	0xbe1117cb	-0.14169233
37	0x3e09d3dd	0.13459726
38	0x3bfdb708	0.0077427663
39	0x3e7b0453	0.24513368
40	0xbc4a703c	-0.01235586
41	0x3d94bad5	0.07262198
42	0xbdb517cd	-0.0884243
43	0xbe8f60c0	-0.28003502
44	0x3eb66900	0.35626984
45	0xbe55d417	-0.20881687
46	0xbdc21b76	-0.09477894
47	0xbb2be735	-0.002623034
48	0x3ec2af94	0.3802458
49	0xbde8528a	-0.11343868
50	0xbe760fd1	-0.24029471
51	0xbd287874	-0.041130498
52	0x3e54777a	0.20748702
53	0x3e46e082	0.1942158
54	0x3e836f3e	0.2567081
55	0xbdd96272	-0.1061448
56	0x3e285f90	0.16442704
57	0xbebcbe33	-0.3686386
58	0x3e383ad7	0.17991196
59	0x3e4ab720	0.19796419
60	0x3e4f35c6	0.20235357
61	0xbe329ece	-0.17443392
62	0xbe0341c6	-0.1281806
63	0x3df7619f	0.120791666
64	0xbe63378a	-0.22189155
65	0xbe765171	-0.24054505
66	0xbec7edae	-0.39048523
67	0x3d1c9821	0.03823102
68	0x3e52679a	0.20547333
69	0x3dfaf939	0.12254567
70	0xbcce0418	-0.025148436
71	0x3e22efb8	0.15911758
72	0xbe83229c	-0.25612342
73	0xbcb8db61	-0.022565546
74	0x3cff0fc2	0.031135444
75	0xbe56c514	-0.20973617
76	0x3eb05d6c	0.34446275
77	0xbe67e860	-0.22647238
78	0x3c916ef4	0.017753102
79	0xbe8c557f	-0.27408978
80	0x3caf931b	0.02143245
81	0xbe46b63d	-0.19405456
82	0x3e1440ac	0.14477795
83	0xbe1bd7a2	-0.15218976
84	0x3e80643a	0.25076467
85	0xbe712ae6	-0.2355152
86	0x3e3478c5	0.17624195
87	0xbe9984b6	-0.29984063
88	0x3e3f366c	0.18673104
89	0xbe3cb3e1	-0.18427993
90	0x3d26c9dd	0.040719856
91	0xbcf72f92	-0.03017405
92	0x3e50dd46	0.20396909
93	0x3e11d087	0.14239703
94	0xbeb10cf8	-0.34580207
95	0x3d887180	0.066622734
96	0xbe5b2853	-0.21402101
97	0x3e9c733b	0.30556664
98	0x3bf693fd	0.007524966
99	0xbd94ab95	-0.07259289
100	0xbe47015e	-0.19434115
101	0x3e1e55ad	0.1546237
102	0xbe8468db	-0.25861248
103	0x3e512504	0.20424277
104	0x3e231321	0.15925266
105	0x3e20e6fd	0.15713115
106	0x3e5bc78d	0.21462841
107	0xbeb0233a	-0.34401876
108	0x3e96ede3	0.29478368
109	0xbd7cb257	-0.061693516
110	0xbe0e387c	-0.13888735
111	0x39af156a	0.00033394556
112	0x3e95c460	0.29251385
113	0x3e707ae5	0.2348438
114	0x3daa8222	0.08325602
115	0x3e5d5eac	0.21618146
116	0xbe9bfc9c	-0.30466163
117	0x3d5c2441	0.053745512
118	0xbeb28f18	-0.34874797
119	0x3db0c181	0.08630658
120	0xbe823517	-0.2543113
121	0xbe259a83	-0.16172223
122	0x3e943ed2	0.28954178
123	0x3ebeeb18	0.37288737
124	0xbe73aa94	-0.23795539
125	0xbe2cf781	-0.1689129
126	0x3c1fc7ae	0.009752197
127	0x3e31e568	0.17372668
128	0xbceb186a	-0.028698165
129	0xbd9034bb	-0.070413075
130	0xbe9007e3	-0.28131017
131	0x3e2cc833	0.16873245
132	0x3eaa4ebc	0.33263195
133	0xbe0f9986	-0.14023408
134	0x3df7d695	0.12101475
135	0x3e550f6a	0.20806661
136	0x3e80d3cb	0.25161585
137	0xbdc9ed60	-0.09859729
138	0x3e08694d	0.13321419
139	0x3e67ce0a	0.22637191
140	0x3e867be1	0.26266387
141	0x3ecab181	0.3958855
142	0xbe09b313	-0.13447218
143	0x3e34d233	0.1765831
144	0x3e8f3ced	0.2797617
145	0xbe8d38ea	-0.27582484
146	0x3dc89bb0	0.0979532
147	0xbd06dc1d	-0.03292476
148	0x3e809e6f	0.25120875
149	0xbddc5149	-0.107576914
150	0xbc236e0f	-0.0099749705
151	0x3e36f08d	0.178652
152	0xbea7528f	-0.32680175
153	0xbeaa87a6	-0.33306617
154	0xbe0f6456	-0.14003119
155	0x3e85694b	0.26056895
156	0x3e5923f9	0.21205129
157	0xbe5c9379	-0.21540631
158	0x3d0d5d3c	0.034512743
159	0xbe1d7732	-0.153775
160	0xbe081669	-0.13289799
161	0x3eb1f8e4	0.347602
162	0x3df49f24	0.11944416
163	0xbda0cab5	-0.07851163
164	0x3d1ce566	0.03830471
165	0x3dd12a37	0.1021313
166	0x3d106e4b	0.035261434
167	0xbda9c502	-0.082895294
168	0xbe776f7f	-0.24163626
169	0x3e31f3e5	0.17378195
170	0x3e340410	0.17579675
171	0x3de849b6	0.11342184
172	0xbdbb18d3	-0.09135594
173	0x3e62b044	0.22137552
174	0x3e635553	0.22200517
175	0x3e83a08c	0.25708425
176	0x3e06c390	0.13160539
177	0x3e9ee8cb	0.31036982
178	0x3ceac3d5	0.028657833
179	0x3e004e9a	0.12529984
180	0x3eb9368d	0.3617443
181	0x3eccb8f9	0.39984873
182	0xbe3dbcd2	-0.1852906
183	0x3e91b5c1	0.2845898
184	0x3e03c3de	0.12867686
185	0xbd9c1486	-0.07621102
186	0x3eb4c88e	0.3530926
187	0xbe1617df	-0.14657544
188	0x3e507a5b	0.20359175
189	0x3ec24f03	0.37950906
190	0xbe8e37fc	-0.27777088
191	0xbe307d73	-0.17235355
192	0xbe916a0c	-0.2840122
193	0x3cc1cfae	0.0236586
194	0xbee62aba	-0.44954473
195	0xbd910823	-0.0708163
196	0x3d89802a	0.067138985
197	0x3ea38298	0.31935573
198	0x3dd521f2	0.10406865
199	0x3e8c4cf1	0.27402452
200	0x3d81e14f	0.06341802
201	0xbeae525e	-0.34047216
202	0xbe0595c0	-0.13045406
203	0xbd8b7de9	-0.06811125
204	0x3ed6218a	0.41822463
205	0x3de74f75	0.11294452
206	0xbdd69b6b	-0.104788624
207	0xbe13a4d3	-0.14418344
208	0xbdce37b8	-0.10069221
209	0xbeb52c77	-0.35385486
210	0x3eb3bd40	0.35105324
211	0x3d06ecd7	0.03294071
212	0xbe7f85eb	-0.2495343
213	0x3e0ec8a1	0.13943721
214	0xbd6f1704	-0.05837156
215	0xbe015c61	-0.12632896
216	0x3dfc45b9	0.12317986
217	0x3de7beab	0.11315664
218	0xbe7aa694	-0.24477607
219	0xbe46bea3	-0.1940866
220	0xbdb4b1c2	-0.08822967
221	0xbe7cbc1c	-0.24681133
222	0xbecee9e4	-0.4041282
223	0x3ec73b4c	0.38912427
224	0xbe03dcac	-0.12877148
225	0xbe2237b4	-0.15841562
226	0xbf0e82ca	-0.5566832
227	0xbe9d763f	-0.30754277
228	0x3eebc14a	0.46045905
229	0x3e1d93d4	0.15388423
230	0xbee6533b	-0.44985375
231	0xbea4eb03	-0.3221055
232	0x3d5447dd	0.051826347
233	0xbec33643	-0.38127336
234	0x3e02f4fd	0.12788768
235	0xbe690e73	-0.22759418
236	0xbe80a711	-0.25127462
237	0x3d42eef0	0.04759115
238	0x3e3bc718	0.18337667
239	0xbd220c90	-0.03956276
240	0xbd5289b9	-0.051400874
241	0xbec8a2ed	-0.39186803
242	0xbe46c1f1	-0.1940992
243	0x3e7c4ea8	0.2463938
244	0xbd9bbe29	-0.076046295
245	0x3e85aa51	0.26106504
246	0xbe5ebc35	-0.21751483
247	0xbeb2a59e	-0.3489198
248	0x3cd4b6a8	0.025966004
249	0x3e8b9e4d	0.2726921
250	0xbea179b4	-0.31538165
251	0x3df6ee21	0.12057138
252	0x3e95a22e	0.29225296
253	0x3ec9bf20	0.3940363
254	0x3d5cff68	0.053954512
255	0xbe1c2ced	-0.15251513

bias f4 [2]
0	0x3d1a30c2	0.037644155
1	0x3d004fc4	0.03132607

weight f4 [2, 16]
0	0x3f021974	0.5082009
1	0x3e384b37	0.17997442
2	0x3ee1c01b	0.44091877
3	0x3ed68974	0.41901743
4	0x3e495df6	0.1966475
5	0x3e86fbc6	0.26363963
6	0x3e669c16	0.2252048
7	0x3bdf2e0c	0.006810909
8	0x3f0a8971	0.5411597
9	0x3f186024	0.595217
10	0x3e6deba5	0.23234423
11	0xbc787c0e	-0.015166296
12	0x3f1537c2	0.58288205
13	0xbef800dc	-0.48438156
14	0x3eed98be	0.46405596
15	0x3eb2cc0f	0.3492131
16	0x3edc5b88	0.43038583
17	0xbb323ee3	-0.0027198128
18	0xbec848e1	-0.39118102
19	0x3eed4cc0	0.46347618
20	0xbe598867	-0.2124344
21	0x3e66412c	0.22485799
22	0x3ebefc35	0.37301794
23	0xbf18f469	-0.5974794
24	0x3dc9937a	0.09842582
25	0xbe06a047	-0.13147078
26	0x3ee36309	0.44411495
27	0xbeb49309	-0.3526843
28	0x3ed96874	0.42462504
29	0x3ea76743	0.3269597
30	0x3eba8b4b	0.36434397
31	0x3f1a8c72	0.6037055

weight f4 [1, 2]
0	0x3f88ff76	1.070296
1	0x3e526f80	0.20550346

pout f4 [50, 3]
0	0x3de29979	0.11064429
1	0x3c47821f	0.012177019
2	0x3ab041b4	0.0013447315
3	0x3de29979	0.11064429
4	0x3c48764f	0.012235238
5	0x3ab16fc6	0.0013537339
6	0x3de2997b	0.1106443
7	0x3c489358	0.012242161
8	0x3ab18a50	0.0013545249
9	0x3de29979	0.11064429
10	0x3c470441	0.01214701
11	0x3aaccdd4	0.00131839
12	0x3de29979	0.11064429
13	0x3da962d3	0.08270802
14	0x3d30c34a	0.043154992
15	0x3de29979	0.11064429
16	0x3c5c7db4	0.013457704
17	0x3abe3e0c	0.0014514341
18	0x3de29979	0.11064429
19	0x3c6c781e	0.014432935
20	0x3ad2cfb0	0.0016083624
21	0x3de29979	0.11064429
22	0x3c78ab53	0.015177566
23	0x3ae44e3c	0.0017418335
24	0x3de29979	0.11064429
25	0x3c489332	0.012242125
26	0x3ab18a2b	0.0013545206
27	0x3de2997b	0.1106443
28	0x3c478688	0.012178071
29	0x3ab048c4	0.001344942
30	0x3de29979	0.11064429
31	0x3c489350	0.012242153
32	0x3ab18a4b	0.0013545243
33	0x3de29979	0.11064429
34	0x3c47e005	0.0121994065
35	0x3ab0c878	0.0013487479
36	0x3de2997b	0.1106443
37	0x3c46d1d9	0.0121349925
38	0x3aaead64	0.0013326821
39	0x3de29979	0.11064429
40	0x3c48917d	0.012241718
41	0x3ab188aa	0.0013544757
42	0x3de29979	0.11064429
43	0x3c79e9b9	0.015253478
44	0x3ae62989	0.0017559986
45	0x3de2997b	0.1106443
46	0x3c489358	0.012242161
47	0x3ab18a4e	0.0013545246
48	0x3de29979	0.11064429
49	0x3c4cf8fc	0.012510534
50	0x3aae9ca9	0.0013321835
51	0x3de29979	0.11064429
52	0x3c488f7f	0.012241243
53	0x3ab186ee	0.001354424
54	0x3de29979	0.11064429
55	0x3cb48218	0.02203469
56	0x3b5bd9b1	0.0033546502
57	0x3de29979	0.11064429
58	0x3c47f134	0.012203503
59	0x3ab0de51	0.001349399
60	0x3de29979	0.11064429
61	0x3c46cd76	0.012133947
62	0x3aad36b9	0.0013215161
63	0x3de29979	0.11064429
64	0x3c581ff8	0.013191216
65	0x3ab93dca	0.0014132794
66	0x3de29979	0.11064429
67	0x3c46b9ae	0.01212923
68	0x3aad93a2	0.001324285
69	0x3de2997b	0.1106443
70	0x3c60b53e	0.0137150865
71	0x3ac35c62	0.0014904852
72	0x3de29979	0.11064429
73	0x3c489351	0.012242154
74	0x3ab18a49	0.001354524
75	0x3de29977	0.11064427
76	0x3c4888e2	0.012239667
77	0x3ab180f7	0.0013542463
78	0x3de2997b	0.1106443
79	0x3c4890da	0.012241567
80	0x3ab1881f	0.0013544596
81	0x3de29979	0.11064429
82	0x3c47bc65	0.012190913
83	0x3aac5efb	0.0013150865
84	0x3de29979	0.11064429
85	0x3c49cca6	0.012316858
86	0x3aacba6f	0.001317812
87	0x3de29979	0.11064429
88	0x3c46f3b8	0.012143068
89	0x3aaf1d5d	0.0013360191
90	0x3de29979	0.11064429
91	0x3c47803e	0.012176571
92	0x3ab03eba	0.0013446428
93	0x3de29979	0.11064429
94	0x3cca19bb	0.024670472
95	0x3b879722	0.0041378895
96	0x3de29979	0.11064429
97	0x3c4dad14	0.012553472
98	0x3aaf2389	0.0013362031
99	0x3de29979	0.11064429
100	0x3c7a1c1d	0.015265492
101	0x3ae6750e	0.0017582492
102	0x3de29979	0.11064429
103	0x3c46b88c	0.01212896
104	0x3aae186b	0.0013282424
105	0x3de29979	0.11064429
106	0x3cad0d00	0.021124363
107	0x3b4b765d	0.0031045892
108	0x3de29979	0.11064429
109	0x3c46bdd2	0.012130218
110	0x3aae46fa	0.0013296299
111	0x3de2997b	0.1106443
112	0x3c47fda8	0.012206472
113	0x3aac55c7	0.0013148122
114	0x3de29979	0.11064429
115	0x3c4b2a40	0.01240021
116	0x3aad6b1b	0.0013230772
117	0x3de29979	0.11064429
118	0x3c482e84	0.012218121
119	0x3ab12627	0.0013515399
120	0x3de29979	0.11064429
121	0x3c4892d1	0.012242035
122	0x3ab189da	0.0013545111
123	0x3de29979	0.11064429
124	0x3d23b807	0.039970424
125	0x3c2a4416	0.0103922095
126	0x3de29979	0.11064429
127	0x3c477f28	0.0121763125
128	0x3ab03cf4	0.00134459
129	0x3de29979	0.11064429
130	0x3c486bb4	0.01223271
131	0x3ab1658e	0.0013534294
132	0x3de29979	0.11064429
133	0x3c489350	0.012242153
134	0x3ab18a4c	0.0013545244
135	0x3de2997b	0.1106443
136	0x3c4891be	0.012241779
137	0x3ab188e9	0.0013544831
138	0x3de2997b	0.1106443
139	0x3c4f4c59	0.01265248
140	0x3ab074da	0.0013462559
141	0x3de29977	0.11064427
142	0x3c486076	0.012230029
143	0x3ab15a7e	0.0013530997
144	0x3de2997b	0.1106443
145	0x3c47896f	0.012178763
146	0x3aac6dcf	0.0013155284
147	0x3de2997b	0.1106443
148	0x3c4c57bd	0.01247209
149	0x3aae2ad5	0.0013287911

throughput f4 [50, 1]
0	0x3fe3b0c4	1.778832
1	0x3fe3ad39	1.7787238
2	0x3fe3acd1	1.7787114
3	0x3fe3b3dd	1.7789265
4	0x3fcd4398	1.6036253
5	0x3fe36824	1.7766156
6	0x3fe32c89	1.7747966
7	0x3fe2fe4e	1.7733858
8	0x3fe3acd1	1.7787114
9	0x3fe3b0b3	1.7788299
10	0x3fe3acd1	1.7787114
11	0x3fe3af5f	1.7787894
12	0x3fe3b3a8	1.7789202
13	0x3fe3acd7	1.7787122
14	0x3fe2f98f	1.7732409
15	0x3fe3acd1	1.7787114
16	0x3fe3a031	1.7783262
17	0x3fe3acde	1.778713
18	0x3fe14131	1.759802
19	0x3fe3af1f	1.7787818
20	0x3fe3b45d	1.7789418
21	0x3fe3782a	1.7771046
22	0x3fe3b471	1.7789441
23	0x3fe3588a	1.7761395
24	0x3fe3acd1	1.7787114
25	0x3fe3acf7	1.778716
26	0x3fe3acda	1.7787125
27	0x3fe3b1c8	1.778863
28	0x3fe3ab15	1.7786585
29	0x3fe3b30a	1.7789013
30	0x3fe3b0cd	1.778833
31	0x3fe08e1b	1.7543367
32	0x3fe39dba	1.7782509
33	0x3fe2f8ce	1.7732179
34	0x3fe3b43a	1.7789376
35	0x3fe17e0d	1.7616593
36	0x3fe3b415	1.7789332
37	0x3fe3b0fc	1.7788386
38	0x3fe3a672	1.778517
39	0x3fe3ae3c	1.7787547
40	0x3fe3acd3	1.7787117
41	0x3fdc2d78	1.7201376
42	0x3fe3b0d1	1.7788335
43	0x3fe3ad5f	1.7787284
44	0x3fe3acd1	1.7787114
45	0x3fe3acd7	1.7787122
46	0x3fe39803	1.7780765
47	0x3fe3ad88	1.7787333
48	0x3fe3b261	1.7788812
49	0x3fe3a263	1.7783931

delay f4 [50, 1]
0	0x3d664371	0.05621666
1	0x3d664707	0.05622008
2	0x3d664771	0.056220476
3	0x3d66404f	0.056213673
4	0x3d7f6bd9	0.06235871
5	0x3d668cfb	0.056286793
6	0x3d66c979	0.056344483
7	0x3d66f87a	0.05638931
8	0x3d664771	0.056220476
9	0x3d664383	0.056216728
10	0x3d664771	0.056220476
11	0x3d6644db	0.05621801
12	0x3d664086	0.056213878
13	0x3d66476a	0.05622045
14	0x3d66fd4f	0.056393918
15	0x3d664771	0.056220476
16	0x3d665437	0.056232657
17	0x3d664763	0.056220423
18	0x3d68c0e3	0.056824576
19	0x3d66451c	0.05621825
20	0x3d663fce	0.056213193
21	0x3d667cbe	0.056271307
22	0x3d663fba	0.056213118
23	0x3d669cce	0.056301884
24	0x3d664771	0.056220476
25	0x3d66474a	0.05622033
26	0x3d664768	0.056220442
27	0x3d66426b	0.056215685
28	0x3d664932	0.05622215
29	0x3d664126	0.056214474
30	0x3d664369	0.05621663
31	0x3d697a83	0.057001602
32	0x3d6656b5	0.056235034
33	0x3d66fe13	0.056394648
34	0x3d663ff2	0.056213327
35	0x3d688212	0.05676467
36	0x3d664018	0.05621347
37	0x3d66433b	0.05621646
38	0x3d664de3	0.056226622
39	0x3d664601	0.056219105
40	0x3d66476f	0.056220468
41	0x3d6e1ed8	0.058134884
42	0x3d664365	0.056216616
43	0x3d6646e1	0.05621994
44	0x3d664771	0.056220476
45	0x3d66476a	0.05622045
46	0x3d665c7e	0.05624055
47	0x3d6646b7	0.056219783
48	0x3d6641d1	0.05621511
49	0x3d6651fe	0.056230538

ef1 f4 [50]
0	0xbf5f11bc	-0.87136436
1	0xbf5e53d4	-0.8684666
2	0xbf5e4334	-0.86821294
3	0xbf6144cc	-0.879956
4	0x3f229164	0.635031
5	0xbf569474	-0.8382027
6	0xbf4b2a6c	-0.79361606
7	0xbf424d64	-0.7589934
8	0xbf5e434c	-0.86821437
9	0xbf5f0d48	-0.8712964
10	0xbf5e4338	-0.8682132
11	0xbf5ebcdc	-0.87006927
12	0xbf6011ec	-0.87527347
13	0xbf5e443c	-0.8682287
14	0xbf4166dc	-0.75547576
15	0xbf5e4338	-0.8682132
16	0xbf601c94	-0.87543607
17	0xbf5e4554	-0.86824536
18	0xbef2de60	-0.47435284
19	0xbf5eaf20	-0.8698597
20	0xbf610164	-0.87892747
21	0xbf598aa8	-0.849772
22	0xbf60c5d4	-0.8780186
23	0xbf53a0cc	-0.8266723
24	0xbf5e4338	-0.8682132
25	0xbf5e4910	-0.86830235
26	0xbf5e4494	-0.8682339
27	0xbf618c34	-0.8810456
28	0xbf615148	-0.8801465
29	0xbf5fcabc	-0.87418723
30	0xbf5f139c	-0.87139297
31	0xbec43590	-0.38322115
32	0xbf5fc6d4	-0.8741276
33	0xbf414268	-0.7549195
34	0xbf6070e4	-0.8767226
35	0xbf020c04	-0.50799584
36	0xbf605330	-0.87626934
37	0xbf619224	-0.8811362
38	0xbf60dfcc	-0.87841487
39	0xbf5e8200	-0.86917114
40	0xbf5e4380	-0.86821747
41	0x3c88df00	0.016707897
42	0xbf5f14bc	-0.87141013
43	0xbf5e5a3c	-0.86856437
44	0xbf5e4338	-0.8682132
45	0xbf5e4418	-0.8682265
46	0xbf5ef180	-0.8708725
47	0xbf5e612c	-0.8686702
48	0xbf6182a4	-0.88089967
49	0xbf606524	-0.8765433

ef2 f4 [50, 1]
0	0xbf917650	-1.1364231
1	0xbf963c00	-1.173706
2	0xbf96a580	-1.1769257
3	0xbf7e6040	-0.99365616
4	0x404ac0e0	3.1680222
5	0xbf1265e0	-0.571867
6	0xbeda8900	-0.42682648
7	0xbead0380	-0.33791733
8	0xbf96a500	-1.1769104
9	0xbf919330	-1.1373043
10	0xbf96a580	-1.1769257
11	0xbf939a50	-1.1531467
12	0xbf8a99f0	-1.0828228
13	0xbf969f20	-1.1767311
14	0xbea8bb00	-0.3295517
15	0xbf96a580	-1.1769257
16	0xbf4aa7c0	-0.79162216
17	0xbf969840	-1.1765213
18	0x3e523b00	0.20530319
19	0xbf93f280	-1.155838
20	0xbf827480	-1.0191803
21	0xbf1f0980	-0.6212387
22	0xbf84cec0	-1.0375595
23	0xbf077220	-0.52908516
24	0xbf96a580	-1.1769257
25	0xbf9680d0	-1.175806
26	0xbf969d00	-1.1766663
27	0xbf723d80	-0.9462509
28	0xbf5e6e20	-0.8688679
29	0xbf8c9b50	-1.0984898
30	0xbf916a10	-1.1360493
31	0x3ebb3540	0.36564064
32	0xbf470a00	-0.77749634
33	0xbea80e80	-0.32823563
34	0xbf87b700	-1.0602722
35	0x3e15f800	0.14645386
36	0xbf88a660	-1.0675774
37	0xbf6f1580	-0.9339218
38	0xbf550b00	-0.8321991
39	0xbf951420	-1.1646767
40	0xbf96a3c0	-1.1768723
41	0x3f9586a0	1.1681709
42	0xbf9162e0	-1.1358299
43	0xbf961330	-1.1724606
44	0xbf96a580	-1.1769257
45	0xbf96a010	-1.1767597
46	0xbf3f5ce0	-0.7475109
47	0xbf95e6c0	-1.1711044
48	0xbf74fc20	-0.9569721
49	0xbf4e1340	-0.80498123
