train/model/HARQ-IR-NumK=3-PDB=15_model_pd_satisfy.pt (torch, 31438 bytes, 14 tensors)

bias f4 [16]
00000000: f7c1 1f3d 6bc0 16bd 0194 eebd 9ef0 563d
00000010: fe73 b3bd db64 d93b d9d5 a5bd 30b3 9fbd
00000020: 13b5 8b3d eacf 25bd a44a 81bd 89b0 c7bb
00000030: e531 37bd 1f7c b9bd 439e c4bb f4c6 833e
0.03900334 -0.036804598 -0.11649323 0.052475564 -0.08762358 0.0066343374 -0.08097429 -0.07797849
0.068216465 -0.040481485 -0.06313065 -0.0060940427 -0.044725318 -0.09056877 -0.0060003116 0.25737727

weight f4 [16, 1]
00000000: 0309 6bbe 681a ff3d 01ac c4be 2996 18bd
00000010: 3437 a5be 8ca4 d03e 345e 0bbf e754 afbe
00000020: 5ef1 f4bd 711a cbbe b5fd b73c 219b 19bf
00000030: 364f fa3e 9ba3 17bf a29d f43e 746a d73e
-0.22952656 0.124562085 -0.3841248 -0.03725258 -0.3226868 0.4075054 -0.5444062 -0.34244463
-0.119601 -0.3966861 0.022459844 -0.6000233 0.48888558 -0.5923402 0.47776514 0.42073405

bias f4 [32]
00000000: 33ef 7fbd 99b8 b13d cd0d 9abd 9055 80bd
00000010: 7ba9 1c3e 9b57 443e f2e8 93bd d236 8f3d
00000020: 84fd 91bd 3fc6 efbd 85fb 9d3d cf67 85bd
00000030: 7599 313d 23c7 ee3d fc9d bd3d cda1 9f3d
00000040: a15f c43c 40ec 53bd 40e1 61bd 0943 5dbd
00000050: 91f3 04be 49f6 fc3c 3745 b5bd 787c 8ebd
00000060: 203b 3f3e 9ea2 9ebb 2586 483d e656 933c
00000070: cece 353e a88e 6c3d ddf0 45bd b67b 41b7
-0.062483978 0.08677787 -0.075221635 -0.0626632 0.15299027 0.19174044 -0.07222165 0.06992878
-0.071284324 -0.11707734 0.07713989 -0.065139405 0.04335924 0.11659076 0.09258649 0.07794533
0.02397138 -0.051738977 -0.055146456 -0.054019008 -0.12983538 0.030879157 -0.08851092 -0.06957334
0.18674898 -0.004841163 0.048956055 0.017985772 0.17754671 0.057753235 -0.04832541 -1.15325e-05

weight f4 [32, 16]
00000000: 7fc1 703e 837d 863e b086 a23e 9530 d9bd
00000010: bb0f 45bd 281f 213e 6f0a 81bd 82c6 493e
00000020: 6d7c 57bd 9361 54be f20f 0d3e 20f7 b33d
00000030: af42 143e 820d c53e 6569 6a3e b4d1 973e
00000040: f6ee f9bc 6f2d 8fbe 1c7d 99be b551 7fbe
00000050: 3254 b9be 0914 1abe c508 c2be 5f22 c1be
00000060: aa9f 81be 9323 cdbe 8558 4ebe 3c06 a63d
00000070: c170 a43e 9fae 22be 3685 9dbd ed24 823e
00000080: f655 0bbe f294 3bbe 7058 843e f48f 92be
00000090: 6f2e a93d 6217 973e 45ac d23d a05a 0b3e
000000a0: 8164 32be fdb7 133d ba2e 103c f454 043e
000000b0: 7342 f63d d402 b33e a3ad 92be 70e8 e2bc
000000c0: df2b 19be 9de0 92be 0e5e 353a 27e6 98be
000000d0: e894 8c3e 387b 073d 1ec7 23be a94a 5a3e
000000e0: 6988 a0be b6d3 dbbd 78e2 93bd fa08 8abe
000000f0: 483e 6ebe 1293 dcbc be8e 853e 8bc1 a13e
00000100: 6081 c03d f13a d7bd 1d41 bbbe 8ef1 4a3e
00000110: 1981 0cbc e9a7 f93d aa79 b1bd 22d2 d5be
00000120: 8c4c 77be 26b6 533e 49e7 d33b b0ec 1bbe
00000130: fd11 3cbe c62f aabe bbad d83d bde3 86bd
00000140: 5108 42be 82d4 623e 1bf0 febe 5e5b c83b
00000150: 062c c4be e2a8 bbbd 6a7c 9cbc 25f9 053e
00000160: a1c0 66be dd3b 98be 7bf0 82be 79cb acbe
00000170: 859f 6abe 68c5 71be 3a5b 1b3e 32b8 58be
00000180: 12ec b13e 110e 503e b604 9cbe a746 13be
00000190: 5e47 1f3e 8f08 bdbd 430c 843b d6c7 f3bd
000001a0: 5143 a23e e305 20be 507a 8d3e cc38 863d
000001b0: 072b 543d 6a17 a33e 21dd 9fbd 74b9 66be
000001c0: e57f ccbd f665 9f3e 76fb 9cbe 069d 573d
000001d0: 281d c8be c8a2 593e cc7a ae3d 44c1 ebbc
000001e0: 8009 eb3d 6798 34bd dff9 583e 1ea5 a6be
000001f0: 93a4 d0bc 35e4 e33d 6de3 c13e 8c1a 7a3e
00000200: 9dff 42be 3bfe 563e 59b3 2abc a781 37bc
00000210: 728f 81be fc10 f6bd b4b4 a23e effb ef3d
00000220: 0e3a 10be ea8b 343e 90b8 35be 51e6 c73e
00000230: 473c bdbe eb0e 34bd dbce d0be ad02 3abe
00000240: 57e1 1a3e 597f b53e fe72 d83d 55ae b23e
00000250: 7c48 e53d 64ad 603e f808 ab3e f809 ae3e
00000260: f608 32be ff8f be3e aca2 6d3e a0bb e9bd
00000270: e640 1ebe e554 7bbe 3e9f d73d e5f7 90be
00000280: b708 9b3d 965a 353e bd77 c3be 711f 0d3d
00000290: 938a d3bd 7d75 6e3e 3ccb 033e 88fb d9be
000002a0: 5926 823e 85d6 633e 74e1 423e 4464 cbbe
000002b0: fbfd 68bd 4be1 34be 238a a4bc 4b0c aa3e
000002c0: fe5f 3e3e c016 6b3e 9dcd 95bd 9c71 2f3e
000002d0: 8e49 3d3e 6513 b2be a583 91be 1873 ffbd
000002e0: 7d10 983e 8f7f 8cbe be32 b7be ac76 833e
000002f0: c075 0e3e e4f5 b23e 0bcf a4be 3d67 9cbe
00000300: 3a9c 1d3e bbe5 a53e 9e8c 3b3e 9970 1a3d
00000310: 4157 b53d 7caa b53e 3f9a 83be f527 41be
00000320: 2c09 653e 056c 8abe 355c 3dbe 8194 6a3e
00000330: cced 043e 6b8d ae3d b1cf 05be ef26 3e3d
00000340: 6c85 7d3e 988d 2fbe 8f07 9dbd 2e3d f33d
00000350: 9cb9 a4be 52fc c53e c52e 84be b732 27be
00000360: a5b6 25be d5c7 9ebe da3c a2be 97b8 f03d
00000370: 2f12 0c3e 2a6a d3be 7ab7 3dbe 15d3 dd3e
00000380: 201c 733d 83d9 4f3e 230f 94be f234 5cbe
00000390: 1f9e 05be 6030 c33a a4dc a3be 9251 44bd
000003a0: ef25 10bd 95b8 f9bd 2a97 c23d de27 5fbe
000003b0: 3780 203e c149 633d c6c4 f7bd 5a9f 69be
000003c0: 8871 ea3d 713f 133e f37b 80be cf54 913e
000003d0: 6062 6cbe cfe8 9b3e 8c78 dd3d cd10 bcbe
000003e0: a986 253e e1c3 cabe b5d4 1cbe 5d54 05be
000003f0: e6fb 32be 5e59 8c3e 5b04 c5bb 402d 8e3e
0.23511313 0.26267633 0.31743383 -0.106049694 -0.048110705 0.15734541 -0.06300818 0.19704631
-0.052608896 -0.20740347 0.13775614 0.0878737 0.14478563 0.38486868 0.22891767 0.29652178
-0.030509453 -0.2796435 -0.29978263 -0.24933513 -0.36197048 -0.15046705 -0.37897316 -0.37721536
-0.25317127 -0.40066203 -0.20150955 0.08106658 0.32117274 -0.15886925 -0.076914236 0.25418797
-0.1360701 -0.18318537 0.25848722 -0.28625453 0.0826081 0.29510027 0.10286764 0.1360879
-0.17421152 0.036064137 0.008800203 0.12923032 0.12024393 0.34963095 -0.286481 -0.027698725
-0.14958142 -0.2868699 0.00069186173 -0.29863092 0.27457356 0.033076495 -0.15993926 0.21317543
-0.31354073 -0.1073374 -0.0722093 -0.26959974 -0.23265946 -0.026925597 0.26085466 0.31592974
0.09399676 -0.10509289 -0.36573115 0.19818708 -0.008575701 0.121902294 -0.08665784 -0.4176188
-0.24150294 0.20674953 0.0064667803 -0.15227008 -0.18366237 -0.33239573 0.105800115 -0.065864064
-0.18948485 0.22151378 -0.4979256 0.0061144074 -0.38314837 -0.09163071 -0.019102294 0.13083322
-0.2253442 -0.29733172 -0.25574097 -0.33748987 -0.22912414 -0.23610461 0.15171519 -0.21164015
0.3475042 0.20317866 -0.30472344 -0.1438242 0.15554568 -0.09230148 0.004029782 -0.1190335
0.31691983 -0.15627246 0.2763238 0.06553802 0.051798847 0.318538 -0.07805849 -0.22531682
-0.099853314 0.31132478 -0.306606 0.052639984 -0.39084744 0.21253502 0.085195154 -0.02877868
0.11476421 -0.044090655 0.21189068 -0.3254785 -0.0254691 0.111275114 0.37868825 0.2442419
-0.19042821 0.20995419 -0.010418736 -0.011200345 -0.25304753 -0.12014958 0.3177849 0.117179744
-0.14084646 0.17631498 -0.17746186 0.39042905 -0.3696005 -0.04395954 -0.40782818 -0.18165083
0.15125023 0.3544872 0.10568808 0.3489863 0.11195466 0.21941143 0.3340528 0.3399198
-0.17386231 0.37219235 0.23206586 -0.1141274 -0.15454444 -0.24544103 0.1052842 -0.2831413
0.075700216 0.17710337 -0.3817729 0.034453813 -0.10329165 0.23287006 0.12870497 -0.42574716
0.25419882 0.22249801 0.19031316 -0.39724934 -0.05688284 -0.17664067 -0.0200854 0.33212504
0.18591306 0.22957897 -0.07314608 0.17133182 0.1848509 -0.34780422 -0.2842075 -0.12473124
0.2970008 -0.2744107 -0.357809 0.25676477 0.13912106 0.34953225 -0.3218921 -0.30547515
0.15391627 0.32401833 0.1831536 0.037705038 0.08854533 0.35481632 -0.25703618 -0.18862899
0.2236678 -0.27035537 -0.18492205 0.22908212 0.12981337 0.08523067 -0.13067509 0.04642385
0.24757928 -0.17143857 -0.07667457 0.118769035 -0.3217286 0.38669068 -0.25816932 -0.1632794
-0.16182955 -0.31011835 -0.3168705 0.11753958 0.13678811 -0.41291934 -0.18527022 0.43325105
0.059352994 0.20297818 -0.28917798 -0.21504572 -0.130486 0.0014891736 -0.32004273 -0.047929354
-0.035192426 -0.12193409 0.095014885 -0.21792552 0.1567391 0.05549026 -0.120980784 -0.22814694
0.114474356 0.1437967 -0.25094566 0.28385016 -0.23084402 0.30451056 0.10814008 -0.36731568
0.1616465 -0.3960257 -0.15315516 -0.13020463 -0.17478904 0.27411932 -0.006012482 0.27768898

bias f4 [16]
00000000: 5639 813d 3fba 6f3d 7623 8c3d 453b 803d
00000010: 34f5 5a3d 5410 7e3d c399 073e c951 cbbd
00000020: 9caf 4e3d a7d2 0d3e 6925 193e cf77 93bd
00000030: 3b44 d63d 2bf7 7bbd c1f4 803d 6ca9 813d
0.06309764 0.058527227 0.06842701 0.06261305 0.0534565 0.06202729 0.13242249 -0.09927709
0.050460443 0.13849889 0.14955677 -0.07200586 0.10462233 -0.061515015 0.06296683 0.06331143

weight f4 [16, 32]
00000000: b9f5 5c3d e803 263e b6ee 48be a06d 40be
00000010: e659 da3d 792d 14bc 4d91 59be aa1d 293e
00000020: 2d02 15bd 059f 42be 97b1 fabd 97d3 a8bd
00000030: 4233 92be 2189 e13d 77db 6d3d 95bc 973e
00000040: 8651 1a3d 3dcc 493b 1f3f eb3d e4ed 903e
00000050: d3e7 22be 0f5c 313e d932 493d 3979 8bbe
00000060: dbb9 2f3e 4ba8 5bbe f933 a5bd 11be 2abe
00000070: 83dc 57be 3f2e b33e 57c9 b4be b58f 3f3e
00000080: 8724 9ebe 6689 62bc 9d85 6ebd 855e 8c3e
00000090: e4d2 ddbd 8c84 053e 4d9a 823b 9dd6 653e
000000a0: bf96 82bc 15ae fbba 35e8 26be 230e 8fbe
000000b0: 8ac2 a83e b365 69be 47fd 51bc cddd f93c
000000c0: 7364 b83e 7647 cebd a594 80be 6872 9bbd
000000d0: 487f 423e 188e d53d b4ab 833e 876d dabd
000000e0: 8447 553e 97c5 abbe a8d1 293e d8d3 273e
000000f0: 1db6 813e ae68 0ebe d443 04be 5d05 c33d
00000100: 08bc 73be ce5b 7bbe 7afb dfbe c819 3f3d
00000110: 3fc9 783e ba66 013e 0938 34bd 5ad8 133e
00000120: b1ce 88be ee62 d7bd b283 c9bc 8fed 5dbe
00000130: 5324 a63e 1fa6 73be fa66 dd3d b48a 65be
00000140: ae39 ee3b 4299 40be f9bb 0e3e ba32 39be
00000150: 16ce 733e c6ec a5be 5eec 2c3e d397 9dbe
00000160: adc8 763e a162 1ebe 3139 0f3d 05b3 6fbd
00000170: a728 853e f57c 443e af54 b5be a486 413d
00000180: 64ac 70be faa8 963e 309b f0bc 6a04 8cbd
00000190: 418b 21be 046b 1e3e 54e7 86be 3b67 3c3e
000001a0: ad71 1d3e faaa a13d b9e9 0f3e 4ca6 b0be
000001b0: deb4 893e 5ed0 a4bd 0e4e 57bd 437a 2b3d
000001c0: dec2 8b3e aeea 7c3e 4c1e 953d 24be 3a3e
000001d0: 36c4 a4be cb31 16bd 4710 b3be b366 ac3d
000001e0: 7695 51be bc4d 03be 4ddf 8d3e 9cd1 ad3e
000001f0: 60c4 3bbe d74e 01be b0e1 e83b c88b 183e
00000200: 4727 50bd 9186 afbd 1117 99be 20f1 2e3e
00000210: 00eb b83e e4a4 16be 4555 f63d 8e4d 3e3e
00000220: 14a9 803e 3a0d 2dbe 88a5 6f3d c85e 6b3e
00000230: 2cb4 6f3e 0af0 bf3e d76c 7abd e7c3 4a3e
00000240: ba0f 843e b1c7 85be ea7f ae3d 1f8a 8cbd
00000250: f0cb 6d3e c7e6 43be d284 debb 587a 393e
00000260: 97b0 95be d61d 99be c6bd 21be 10cf 673e
00000270: d0db 823e 7d8b 42be 9fde 153d 1cd1 38be
00000280: 379b 1abe 320b ae3e c3b9 9d3d d596 8ebd
00000290: 3fcf 9e3d b9c9 ce3d 070d d93c c3da ccbd
000002a0: 15da 7ebe c174 c03d 4268 d83d 98ab e23d
000002b0: 21a7 e8bd f11f 543e 7dd5 9f3e 3107 9f3e
000002c0: 52ef eb3d 8af8 a33e f945 ae3c 10ed bf3d
000002d0: 7fb3 b13e e7cf 9b3e 89cd 40be 7da5 8f3e
000002e0: 0e7d 3e3e 833f 3cbd eb2e b13e 4dc0 37be
000002f0: 0501 873e 35a2 dc3e a799 90be d1f0 47be
00000300: ba20 9abe e73f 063d fbb0 09bf af78 22bd
00000310: 8784 0e3e 0ef6 a43e a827 113d 1ed8 863e
00000320: 6b64 0c3d 536d c9be 5322 e2bd 6ae8 c5bd
00000330: 29b2 c93e adc7 f33d 13cc 953d 3f76 bcbd
00000340: 0ab1 e8bd 91fc bebe 4e2a b63e fb24 91bb
00000350: 458e 88be 945a 99bc afc5 b8bd c7ac 1ebe
00000360: 86f3 603e bdcd 253e 09e2 79be 80e8 6abe
00000370: 4f44 9e3c d239 36be 700b ddbe d760 bc3e
00000380: 98dd f8bd 8bd7 88be e8b5 11be a67a c3be
00000390: 05d9 a83e 397c 97bd 5bf8 01bd 4cc0 b9be
000003a0: 7852 9c3e ca99 2bbe 3774 4bbe 8331 513c
000003b0: bdd5 81be 582d 33bd f5aa 893e 01c1 f8bd
000003c0: 4402 92bd 54a6 1abe 90b6 85be 809d 673e
000003d0: ce06 9ebd 8b4f c33e cc1c 513d eec2 b6bd
000003e0: ddeb 17be 2dfa ca3e e40b b3be 43f8 d63d
000003f0: 4de3 1a3e 70d6 353e 97fb 993e 8eed 33be
0.053945277 0.16212428 -0.19622311 -0.18791819 0.10661678 -0.009044045 -0.21246834 0.16515222
-0.036379028 -0.19005974 -0.12240904 -0.082434826 -0.28554732 0.110124834 0.058070626 0.29636064
0.037675403 0.0030791902 0.11486649 0.28306496 -0.15908746 0.17320274 0.049120758 -0.27240923
0.17160742 -0.21450917 -0.080665536 -0.16674067 -0.21080212 0.3499622 -0.3530986 0.18707164
-0.30887243 -0.013826704 -0.058232892 0.27415863 -0.1083124 0.13038844 0.0039856792 0.2244515
-0.015941022 -0.0019201661 -0.16299517 -0.27940473 0.32960922 -0.22792701 -0.012816734 0.03050127
0.36014137 -0.10072224 -0.25113407 -0.07590181 0.18993866 0.10427493 0.25716937 -0.10665422
0.20828062 -0.33549187 0.16583884 0.16389406 0.25334254 -0.1390712 -0.129165 0.09522507
-0.23802197 -0.2454674 -0.4374655 0.046655446 0.2429552 0.12636843 -0.04399875 0.14438
-0.26720193 -0.10516916 -0.02459893 -0.21672653 0.32449588 -0.23793839 0.10810657 -0.22416192
0.0072700595 -0.18808463 0.13938893 -0.18085757 0.23809084 -0.32407206 0.16887042 -0.30779895
0.24099989 -0.15467311 0.03496665 -0.058520336 0.26007578 0.19188292 -0.3541617 0.047247544
-0.23503262 0.29425794 -0.029370874 -0.068367794 -0.15775777 0.1547051 -0.26348364 0.18398754
0.15375395 0.07893939 0.14054002 -0.34501874 0.26895803 -0.080475554 -0.052564673 0.041864645
0.2729711 0.24698898 0.07281169 0.18236595 -0.32180947 -0.03666858 -0.34973356 0.08418026
-0.20467171 -0.12822622 0.27709427 0.33948982 -0.1833663 -0.12627731 0.007106982 0.14897072
-0.050818708 -0.085705884 -0.2990041 0.1708417 0.3611679 -0.14711338 0.120279826 0.18584272
0.25128996 -0.16899577 0.058507472 0.22985375 0.23408574 0.37487823 -0.061138954 0.19801293
0.25793248 -0.26128915 0.085204914 -0.06862282 0.23222327 -0.19131003 -0.0067907358 0.18113077
-0.2923629 -0.29905576 -0.15795049 0.22637582 0.2555833 -0.18998523 0.03658926 -0.18048519
-0.15098272 0.33992916 0.07701447 -0.06962363 0.07754373 0.10097069 0.02649547 -0.10002663
-0.24887879 0.09397269 0.105667606 0.11067885 -0.11360002 0.2071531 0.31217566 0.31060174
0.11520256 0.32025558 0.0212736 0.09371388 0.34707257 0.30432054 -0.18828405 0.28055945
0.18602392 -0.045959007 0.34606108 -0.1794445 0.26367965 0.43092504 -0.28242227 -0.19525458
-0.30103093 0.032775786 -0.53785676 -0.039665874 0.13917743 0.32218975 0.03543821 0.2633676
0.034275454 -0.3934122 -0.11041703 -0.0966347 0.39393738 0.119033195 0.07314315 -0.09202241
-0.113618925 -0.37302068 0.3557915 -0.0044294572 -0.26671043 -0.018719949 -0.0902208 -0.15495597
0.21967897 0.16191764 -0.24402632 -0.22940254 0.019319681 -0.17795494 -0.4317279 0.36792633
-0.12151641 -0.26726946 -0.14229548 -0.3817951 0.32978073 -0.073967405 -0.03173099 -0.36279523
0.3053167 -0.16757885 -0.19868551 0.012768152 -0.25358382 -0.043744415 0.26888242 -0.121461876
-0.071293384 -0.15102512 -0.26115847 0.22618675 -0.07716142 0.38146624 0.051052853 -0.08923899
-0.14836068 0.39643994 -0.3497001 0.10496571 0.15125771 0.17757583 0.3007476 -0.17571089

bias f4 [2]
00000000: 70c3 a83d 9b4e b63d
0.08240402 0.089017116

weight f4 [2, 16]
00000000: 430a 023f 82c7 223e a1b4 093f 9d7b ca3e
00000010: e7f9 313e db94 983e f8db 843e 4b8a 12bb
00000020: 9171 133f 0eb3 233f adde 923e 1bd2 04bd
00000030: dddd 253f a980 02bf 2550 f63e 53f2 ad3e
00000040: 9086 e13e 9d42 98bc 7e4c 8fbe cebd e33e
00000050: c61e 6dbe 233e 8f3e efd7 d93e 31f6 1bbf
00000060: c48a 463e 1f00 57bd 2aeb 073f 7083 bdbe
00000070: 3fbc 043f 899a 953e 9f76 d23e a2f0 193f
0.5079691 0.15896419 0.5379124 0.39547434 0.17380486 0.29801068 0.25949073 -0.002236026
0.57595164 0.6394509 0.28685513 -0.032426935 0.6479166 -0.5097757 0.4810802 0.3397394
0.44047976 -0.018586451 -0.27988046 0.44480747 -0.2315627 0.27977094 0.42547557 -0.60922533
0.19388872 -0.05249035 0.53093207 -0.3701434 0.5184974 0.29219463 0.41106126 0.601328

weight f4 [1, 2]
00000000: da94 8b3f 5ad0 923e
1.0904801 0.28674585

pout f4 [50, 3]
00000000: 7e34 dc3d 6952 553b 463a 7938 7e34 dc3d
00000010: 7229 563b 2d9c 7a38 8034 dc3d b443 563b
00000020: bfbb 7a38 7e34 dc3d 353f 553b 976f 7538
00000030: 7e34 dc3d bff4 b53c d579 fd3a 7e34 dc3d
00000040: 9fd2 6c3b bf23 8838 7e34 dc3d e90b 7e3b
00000050: 0403 9738 7e34 dc3d 7896 853b a49b a338
00000060: 7e34 dc3d 8f43 563b 8dbb 7a38 8034 dc3d
00000070: 2756 553b 7742 7938 7e34 dc3d a943 563b
00000080: b5bb 7a38 7e34 dc3d a0a3 553b 60d7 7938
00000090: 8034 dc3d 59c9 543b 286b 7738 7e34 dc3d
000000a0: 0542 563b c6b9 7a38 7e34 dc3d b741 863b
000000b0: 8af1 a438 8034 dc3d b443 563b b8bb 7a38
000000c0: 7e34 dc3d 6afa 5b3b c22f 7938 7e34 dc3d
000000d0: 3540 563b b1b7 7a38 7e34 dc3d e2f3 c13b
000000e0: 36aa 1d39 7e34 dc3d b9b2 553b f1f0 7938
000000f0: 7e34 dc3d 63f4 543b 27d5 7538 7e34 dc3d
00000100: a61a 683b 307f 8438 7e34 dc3d 98d2 543b
00000110: c035 7638 8034 dc3d a75f 713b 32da 8b38
00000120: 7e34 dc3d ab43 563b aebb 7a38 7c34 dc3d
00000130: 3a3a 563b 99b0 7a38 8034 dc3d 7041 563b
00000140: 21b9 7a38 7e34 dc3d e51e 563b a724 7538
00000150: 7e34 dc3d 1778 583b 731d 7638 7e34 dc3d
00000160: d2df 543b dde9 7738 7e34 dc3d ce50 553b
00000170: d036 7938 7e34 dc3d ad25 d93b 9f7a 4239
00000180: 7e34 dc3d debf 5c3b 4200 7a38 7e34 dc3d
00000190: d15c 863b d827 a538 7e34 dc3d 8dc0 543b
000001a0: 5ec5 7638 7e34 dc3d 09f1 b93b 02e9 1139
000001b0: 7e34 dc3d 74c0 543b c3f8 7638 8034 dc3d
000001c0: 066b 563b ce2b 7538 7e34 dc3d b1fc 593b
000001d0: 744a 7738 7e34 dc3d 13e9 553b 4a45 7a38
000001e0: 7e34 dc3d 3843 563b 30bb 7a38 7e34 dc3d
000001f0: 2ee3 2f3c aa31 f439 7e34 dc3d e14f 553b
00000200: bd34 7938 7e34 dc3d e31f 563b 1190 7a38
00000210: 7e34 dc3d ab43 563b b8bb 7a38 8034 dc3d
00000220: 3f42 563b 0bba 7a38 8034 dc3d d685 5e3b
00000230: f501 7c38 7c34 dc3d c615 563b 0183 7a38
00000240: 8034 dc3d b1e2 553b b127 7538 8034 dc3d
00000250: 3d49 5b3b a57d 7838
0.107521996 0.003255034 5.9420498e-05 0.107521996 0.0032678512 5.9750095e-05 0.10752201 0.0032694163
5.9779497e-05 0.107521996 0.0032538895 5.8516478e-05 0.107521996 0.02221143 0.0019338677 0.107521996
0.0036136282 6.4916436e-05 0.107521996 0.0038764423 7.200803e-05 0.107521996 0.004076775 7.801436e-05
0.107521996 0.0032694077 5.9779315e-05 0.10752201 0.0032552572 5.9428126e-05 0.107521996 0.0032694137
5.977946e-05 0.107521996 0.0032598749 5.956681e-05 0.10752201 0.0032468645 5.8989186e-05 0.107521996
0.003269316 5.977766e-05 0.107521996 0.0040971893 7.8651196e-05 0.10752201 0.0032694163 5.977947e-05
0.107521996 0.0033566006 5.9410704e-05 0.107521996 0.003269208 5.977572e-05 0.107521996 0.0059189657
0.00015036095 0.107521996 0.0032607748 5.959062e-05 0.107521996 0.0032494299 5.8611065e-05 0.107521996
0.0035416274 6.317941e-05 0.107521996 0.0032474156 5.870103e-05 0.10752201 0.0036830695 6.6686785e-05
0.107521996 0.0032694142 5.9779435e-05 0.10752198 0.0032688514 5.9769114e-05 0.10752201 0.0032692812
5.977706e-05 0.107521996 0.0032672223 5.8446687e-05 0.107521996 0.0033030563 5.8678397e-05 0.107521996
0.003248204 5.910719e-05 0.107521996 0.0032549384 5.9417274e-05 0.107521996 0.0066268058 0.00018546962
0.107521996 0.0033683698 5.9604885e-05 0.107521996 0.00410042 7.8752346e-05 0.107521996 0.0032463402
5.8834783e-05 0.107521996 0.0056744856 0.0001391508 0.107521996 0.0032463344 5.8882648e-05 0.10752201
0.00327176 5.8453348e-05 0.107521996 0.0033262188 5.895873e-05 0.107521996 0.0032640144 5.9669175e-05
0.107521996 0.0032693874 5.9778977e-05 0.107521996 0.010735316 0.0004657631 0.107521996 0.0032548832
5.9415343e-05 0.107521996 0.0032672815 5.9738817e-05 0.107521996 0.0032694142 5.977947e-05 0.10752201
0.0032693294 5.977791e-05 0.10752201 0.0033954284 6.0083305e-05 0.10752198 0.0032666787 5.972665e-05
0.10752201 0.003263634 5.8449517e-05 0.10752201 0.0033460401 5.9244823e-05

throughput f4 [50, 1]
00000000: a274 e63f ef73 e63f d973 e63f be74 e63f
00000010: f629 e23f 4661 e63f e852 e63f ed47 e63f
00000020: d973 e63f 9f74 e63f d973 e63f 5e74 e63f
00000030: 1775 e63f da73 e63f cd46 e63f d973 e63f
00000040: 3d6f e63f dc73 e63f 21e2 e53f 5274 e63f
00000050: fb74 e63f 3265 e63f 1575 e63f 7a5d e63f
00000060: d973 e63f e173 e63f da73 e63f 0b74 e63f
00000070: 2172 e63f 0375 e63f a474 e63f acba e53f
00000080: 9a6e e63f a046 e63f 2275 e63f b7ef e53f
00000090: 2175 e63f cc73 e63f e270 e63f 2574 e63f
000000a0: d973 e63f 2ed2 e43f a474 e63f f773 e63f
000000b0: d973 e63f da73 e63f 236d e63f ff73 e63f
000000c0: 3c74 e63f cf6f e63f
1.8004344 1.800413 1.8004104 1.8004377 1.7669055 1.7998435 1.7994051 1.79907
1.8004104 1.800434 1.8004104 1.8004262 1.8004483 1.8004105 1.7990357 1.8004104
1.8002697 1.8004107 1.7959634 1.8004248 1.800445 1.7999632 1.8004481 1.7997277
1.8004104 1.8004113 1.8004105 1.8004164 1.8003579 1.8004459 1.8004346 1.7947593
1.8002503 1.7990303 1.8004496 1.796378 1.8004495 1.8004088 1.8003199 1.8004194
1.8004104 1.7876642 1.8004346 1.800414 1.8004104 1.8004105 1.8002056 1.8004149
1.8004222 1.8002871

delay f4 [50, 1]
00000000: 2b80 633d dd80 633d f180 633d 0f80 633d
00000010: 55d1 673d 4a93 633d 7ba1 633d 55ac 633d
00000020: f180 633d 2f80 633d f180 633d 6e80 633d
00000030: b87f 633d f080 633d 73ad 633d f180 633d
00000040: 7e85 633d ef80 633d 2811 643d 7a80 633d
00000050: d37f 633d 6a8f 633d ba7f 633d 0a97 633d
00000060: f180 633d ea80 633d f080 633d c080 633d
00000070: a482 633d cc7f 633d 2a80 633d 5438 643d
00000080: 2086 633d 9fad 633d ad7f 633d ad03 643d
00000090: ae7f 633d fe80 633d df83 633d a680 633d
000000a0: f180 633d 3620 653d 2a80 633d d480 633d
000000b0: f180 633d f080 633d 9187 633d cc80 633d
000000c0: 8f80 633d ee84 633d
0.055542152 0.055542815 0.05554289 0.055542048 0.05659612 0.055560388 0.05557392 0.05558427
0.05554289 0.055542167 0.05554289 0.055542402 0.055541724 0.055542886 0.055585336 0.05554289
0.05554723 0.055542883 0.055680424 0.055542447 0.055541825 0.055556692 0.05554173 0.055563964
0.05554289 0.055542864 0.055542886 0.055542707 0.05554451 0.0555418 0.05554215 0.05571778
0.055547833 0.0555855 0.055541683 0.055667568 0.055541687 0.05554294 0.055545684 0.05554261
0.05554289 0.055938922 0.05554215 0.055542782 0.05554289 0.055542886 0.055549208 0.055542752
0.055542525 0.055546694

ef1 f4 [50]
00000000: d477 0ec0 7850 0ec0 f84c 0ec0 eae4 0ec0
00000010: bcac 36bf 6202 0cc0 ac20 09c0 9ce6 06c0
00000020: fe4c 0ec0 ea76 0ec0 f84c 0ec0 5466 0ec0
00000030: aaab 0ec0 304d 0ec0 c4ac 06c0 f84c 0ec0
00000040: 0079 0ec0 6a4d 0ec0 a453 e9bf 7c63 0ec0
00000050: 6cd9 0ec0 5ec3 0cc0 82ce 0ec0 ee42 0bc0
00000060: fa4c 0ec0 344e 0ec0 424d 0ec0 68ed 0ec0
00000070: 40d1 0ec0 729d 0ec0 3678 0ec0 3ca9 ddbf
00000080: c861 0ec0 9ea3 06c0 50be 0ec0 42a2 edbf
00000090: 88b8 0ec0 98ec 0ec0 56af 0ec0 1c5a 0ec0
000000a0: 084d 0ec0 9279 aabf 7278 0ec0 d051 0ec0
000000b0: f84c 0ec0 284d 0ec0 e628 0ec0 4253 0ec0
000000c0: 10ed 0ec0 e68c 0ec0
-2.2260637 -2.2236614 -2.2234478 -2.2327218 -0.7135732 -2.1876454 -2.1426191 -2.1078253
-2.2234492 -2.226008 -2.2234478 -2.2249956 -2.2292275 -2.2234612 -2.1042948 -2.2234478
-2.2261353 -2.223475 -1.822865 -2.224822 -2.2320204 -2.1994243 -2.2313542 -2.17596
-2.2234483 -2.2235231 -2.2234654 -2.2332401 -2.2315216 -2.2283597 -2.226087 -1.7317271
-2.224718 -2.1037364 -2.2303658 -1.8565142 -2.230013 -2.2331905 -2.2294517 -2.2242498
-2.2234516 -1.331835 -2.2261014 -2.2237434 -2.2234478 -2.2234592 -2.2212462 -2.2238317
-2.2332191 -2.2273498

ef2 f4 [50, 1]
00000000: a098 17bf 2090 20bf 805a 21bf c0b2 edbe
00000010: a03d a83f 002a fbbd 0010 96bc 00f6 2a3d
00000020: 8059 21bf 20ce 17bf 605a 21bf 0096 1bbf
00000030: c00f 0bbf 204e 21bf 0076 413d 805a 21bf
00000040: 809b 96be e040 21bf 8048 b03e 803b 1cbf
00000050: 4021 f9be 00ad 23be c0b6 00bf 0088 babd
00000060: 605a 21bf e013 21bf 004a 21bf c0bb d8be
00000070: 4037 b7be c0b0 0ebf 0082 17bf 80ff d43e
00000080: 80bc 90be 00fe 443d c0e1 05bf 00f4 a13e
00000090: 008e 07bf 0056 d3be 40a1 a7be 805d 1ebf
000000a0: 0057 21bf 0076 363f 8074 17bf 2042 20bf
000000b0: 605a 21bf e04f 21bf 0060 84be 80ed 1fbf
000000c0: 0072 ddbe 802f 9cbe
-0.5921726 -0.6271992 -0.6302872 -0.46425438 1.3143806 -0.1226387 -0.018318176 0.04173851
-0.6302719 -0.59298897 -0.63028526 -0.60775757 -0.5432091 -0.63009834 0.047231674 -0.6302872
-0.29415512 -0.62989616 0.34430313 -0.6102829 -0.4865818 -0.15983963 -0.50278854 -0.09107971
-0.63028526 -0.6292095 -0.6300354 -0.42330742 -0.3578434 -0.5573845 -0.5918274 0.4160118
-0.28268814 0.048093796 -0.5229759 0.3163147 -0.5295105 -0.4127655 -0.3274021 -0.6186142
-0.63023376 0.71273804 -0.5916214 -0.626009 -0.63028526 -0.63012505 -0.25854492 -0.6247177
-0.43251038 -0.3050499
